legacy/results/basic/basic_36.pth (torch, 961549 bytes, 26 tensors)

block1.0.weight f4 [64, 1, 3, 3]
-0.31144702 0.2129062 -0.13903847 -0.0638513 -0.15136853 -0.0075349347 0.057340644 -0.3034068
0.27311224 0.17369147 -0.14309576 0.089266144 0.21811053 -0.17604719 -0.024148464 0.26468116
-0.23033914 0.29384682 0.15166382 0.108117916 0.21048497 0.25958428 -0.28507465 0.0759612
0.3306485 0.18574478 -0.10714127 -0.24800365 0.01203494 0.26445207 -0.28586182 -0.13574189
0.32006654 -0.14506029 -0.10125801 -0.08161081 0.12924963 -0.03788887 0.3068061 0.13208365
-0.27556413 -0.28828835 -0.17417939 -0.19165549 0.32098016 -0.32469457 0.01332996 -0.03688527
0.22593403 -0.015558251 -0.2355035 0.073716104 0.19970313 0.026021387 -0.12792979 -0.24135715
-0.20102926 -0.036837444 -0.27856266 -0.24818912 0.1555837 -0.28959033 -0.28582382 0.09792233
0.2638247 0.030887688 0.11437561 0.2646272 -0.04153022 0.14942196 -0.047135346 -0.10209012
-0.1431148 -0.04346866 -0.15472841 0.17425112 -0.114012495 -0.19179496 -0.27337906 -0.12966983
0.19074024 0.09982603 -0.20307767 -0.29064614 0.20807678 0.29071575 0.11225669 0.15309106
0.1933927 0.082940504 -0.3042893 0.1467672 -0.19506618 0.22523306 0.02418782 -0.23771295
-0.28502524 0.25024915 -0.27776444 -0.052021567 0.21027271 0.28350887 -0.17170401 -0.06093052
-0.18910956 -0.02356721 -0.064196296 0.13068524 -0.19001628 0.06731124 -0.100298 0.14329873
-0.09100942 0.32463047 -0.26106143 0.24505116 -0.18327083 -0.037563723 0.2709632 -0.021076676
0.11626516 -0.16477212 0.046564635 0.14326195 0.24780218 -0.16619502 -0.031554695 -0.2892352
0.31103078 -0.09150462 0.14972922 0.007817238 0.3300162 0.033013135 0.07642829 0.06829101
-0.030495528 -0.108707055 0.16089912 -0.10882907 0.12532862 -0.1267836 0.06168736 0.17444074
0.12856081 -0.25042066 0.06589503 0.05414575 -0.15867573 0.18864056 -0.20544334 -0.22098039
-0.094546005 0.16832936 -0.15632406 0.2981275 0.16940193 0.23417497 -0.13578798 0.120693296
-0.006736064 0.11883396 -0.3139585 0.07693461 -0.17509224 -0.04270242 -0.07675741 -0.15940674
0.02501595 0.035804186 -0.25028956 0.02101551 0.11389507 -0.21069409 0.12562613 0.026348062
0.054348547 -0.2522507 0.28817883 0.25625187 -0.1728384 -0.0063995738 0.26459846 -0.02103352
-0.2561153 0.19075336 -0.14047822 0.049047466 -0.2661357 0.029842716 0.3210654 -0.004023406
-0.04996542 -0.20352916 0.14693303 -0.15309332 0.2448076 0.1617301 -0.32547975 0.07722592
0.11542204 0.07623182 0.2829207 0.14869305 -0.15341698 0.07241863 0.077366635 0.32910404
0.030205619 0.032259706 -0.11039446 -0.010084878 -0.023333339 -0.1369835 0.022390349 -0.08084281
0.018088792 0.1295036 0.023686148 0.22074068 -0.08948674 -0.24280594 -0.18105066 0.21554615
-0.31430584 -0.0836322 0.023552565 0.0006787732 -0.14865468 -0.17724706 0.08210013 -0.0034833765
0.006555823 -0.17688555 -0.0073505905 -0.12184281 -0.08893168 -0.21123601 0.1722546 -0.06331662
0.068526715 0.22077215 -0.06303337 0.26048014 -0.059480123 0.13906184 -0.23037127 0.12359375
0.091076955 -0.17328666 0.20147084 0.14544383 0.19031963 0.14438602 -0.28339413 0.096117176
00000000: fc75 9fbe 1504 5a3e 1a60 0ebe 78c4 82bd
00000010: 5a00 1bbe 9de7 f6bb 06de 6a3d 2358 9bbe
00000020: 5ed5 8b3e 2ddc 313e b287 12be 2bd1 b63d
00000030: 5e58 5f3e b745 34be 00d3 c5bc 4a84 873e
00000040: 06de 6bbe 1773 963e c34d 1b3e ed6c dd3d
00000050: 5f89 573e 3be8 843e 4ef5 91be 8c91 9b3d
00000060: c34a a93e e133 3e3e e26c dbbd abf4 7dbe
00000070: 322e 453c 4366 873e 7b5c 92be ecff 0abe
00000080: c3df a33e af8a 14be 5c60 cfbd 9123 a7bd
00000090: 045a 043e 5c31 1bbd b015 9d3e f040 073e
000000a0: be16 8dbe 889a 93be 155c 32be 5641 44be
000000b0: 8357 a43e 5e3e a6be e865 5a3c 0215 17bd
000000c0: 405b 673e 09e8 7ebc d427 71be 78f8 963d
000000d0: fa7e 4c3e ce2a d53c 0700 03be 5426 77be
000000e0: 9dda 4dbe dce2 16bd c49f 8ebe 4a25 7ebe
000000f0: 5551 1f3e 2f45 94be 8057 92be 818b c83d
00000100: 0814 873e 2d08 fd3c c33d ea3d 377d 873e
00000110: 981b 2abd 1202 193e fe10 41bd a014 d1bd
00000120: b08c 12be 320c 32bd 2071 1ebe e36e 323e
00000130: 627f e9bd e665 44be 57f8 8bbe 2bc8 04be
00000140: 6951 433e 9771 cc3d 98f3 4fbe 92cf 94be
00000150: 1412 553e b2d8 943e d6e6 e53d e7c3 1c3e
00000160: bc08 463e b6dc a93d cfcb 9bbe 244a 163e
00000170: 6ebf 47be 7fa3 663e 8925 c63c 066b 73be
00000180: d4ee 91be a820 803e 2437 8ebe 9114 55bd
00000190: bb51 573e 1328 913e 2dd3 2fbe 4892 79bd
000001a0: f0a5 41be 0610 c1bc 5979 83bd 5ad2 053e
000001b0: a193 42be 7ada 893d 0a69 cdbd e7bc 123e
000001c0: 2663 babd f735 a63e d8a9 85be b1ee 7a3e
000001d0: 59ab 3bbe 6bdc 19bd b0bb 8a3e fea8 acbc
000001e0: 6e1c ee3d 06ba 28be 8fba 3e3d 43b3 123e
000001f0: dbbf 7d3e 072f 2abe 7f3f 01bd a316 94be
00000200: 6d3f 9f3e c666 bbbd 9e52 193e df13 003c
00000210: e2f7 a83e c838 073d 6f86 9c3d 28dc 8b3d
00000220: c2d1 f9bc cea1 debd bdc2 243e c7e1 debd
00000230: 2556 003e 8fd3 01be e3ab 7c3d 98a0 323e
00000240: 72a5 033e 2337 80be f9f3 863d efc7 5d3d
00000250: e47b 22be fe2a 413e bd5f 52be af48 62be
00000260: 56a1 c1bd 885e 2c3e 6a13 20be 2ba4 983e
00000270: b377 2d3e 90cb 6f3e 010c 0bbe 0c2e f73d
00000280: 33ba dcbb 385f f33d 2bbf a0be e58f 9d3d
00000290: 614b 33be bce8 2ebd fd32 9dbd 853b 23be
000002a0: 40ee cc3c 69a7 123d f425 80be b828 ac3c
000002b0: d241 e93d 31c0 57be 23a4 003e e4d7 d73c
000002c0: 959c 5e3d 0127 81be 2d8c 933e 7233 833e
000002d0: 8dfc 30be 84b3 d1bb 7379 873e 7d4e acbc
000002e0: 8b21 83be d954 433e 86d9 0fbe ffe5 483d
000002f0: f042 88be b678 f43c af62 a43e c7d6 83bb
00000300: 8aa8 4cbd f369 50be 9d75 163e 7fc4 1cbe
00000310: d8ae 7a3e 939c 253e 48a5 a6be a028 9e3d
00000320: 6462 ec3d 6e1f 9c3d fbda 903e fe42 183e
00000330: 5719 1dbe 3850 943d 6672 9e3d 5380 a83e
00000340: c671 f73c c122 043d 7e16 e2bd 0b3b 25bc
00000350: 8f25 bfbc 6745 0cbe f76b b73c ea90 a5bd
00000360: f22e 943c 979c 043e 7409 c23c d809 623e
00000370: d344 b7bd 1fa2 78be 5865 39be 21b8 5c3e
00000380: b2ec a0be 5c47 abbd 4ff1 c03c b3ef 313a
00000390: ef38 18be 4180 35be 1d24 a83d 5c49 64bb
000003a0: 3bd2 d63b 7c21 35be 39dd f0bb b988 f9bd
000003b0: d021 b6bd 414e 58be 8363 303e 25ac 81bd
000003c0: bc57 8c3d 1812 623e a417 81bd a75d 853e
000003d0: 6ea1 73bd 3a66 0e3e 72e6 6bbe b81e fd3d
000003e0: 8e86 ba3d 0f72 31be 5f4e 4e3e 3aef 143e
000003f0: 26e3 423e eed9 133e 0919 91be 15d9 c43d

block1.0.bias f4 [64]
0.12513193 0.1887272 0.25170523 0.07338415 -0.2708183 0.1706079 -0.3289084 -0.0575728
0.033562478 0.26963824 -0.17926341 0.12959619 0.31642246 0.32799765 -0.09709828 -0.087567136
-0.23842235 -0.25985438 -0.20681979 -0.17635122 -0.11286146 0.10083105 0.040502552 0.016340006
0.28852567 0.23831081 0.2619119 0.29110637 0.11049345 -0.17496487 0.028238285 0.26884457
-0.12549205 0.015380759 0.15705843 0.10051507 -0.0934096 -0.18396457 0.31303307 0.22814533
-0.13896543 0.019782068 0.13576382 -0.039924152 0.08378747 -0.020738468 -0.21196198 0.21040086
0.11435173 0.087492965 -0.32762665 -0.3048286 0.0005736411 -0.20633669 0.13302743 -0.30198497
-0.027341105 -0.19300415 -0.24367638 0.32125357 0.21317905 -0.28431904 -0.2176408 -0.104179434
00000000: 9622 003e b441 413e 82df 803e 6e4a 963d
00000010: b2a8 8abe d6b3 2e3e af66 a8be 75d1 6bbd
00000020: cf78 093d 060e 8a3e d490 37be ddb4 043e
00000030: 2002 a23e 4fef a73e 77db c6bd 6656 b3bd
00000040: fd24 74be a20b 85be 91c8 53be 6a95 34be
00000050: e923 e7bd 8280 ce3d 01e6 253d 7adb 853c
00000060: a3b9 933e c007 743e 5119 863e e50b 953e
00000070: 644a e23d fe29 33be fa53 e73c ffa5 893e
00000080: fd80 00be 94ff 7b3c edd3 203e d8da cd3d
00000090: 884d bfbd 3561 3cbe df45 a03e ee9e 693e
000000a0: f44c 0ebe 010e a23c ac05 0b3e 8287 23bd
000000b0: c498 ab3d b8e3 a9bc 900c 59be 5373 573e
000000c0: 3d31 ea3d 832f b33d aebe a7be 7f12 9cbe
000000d0: 6760 163a ed49 53be 5838 083e c69d 9abe
000000e0: 74fa dfbc e1a2 45be 4d86 79be 597b a43e
000000f0: 9c4b 5a3e 4492 91be 3bdd 5ebe 075c d5bd

block1.1.weight f4 [64]
1.0013297 1.0000578 0.9991625 0.9987358 0.9965595 1.0015329 0.99962115 0.99977815
0.9993949 1.0007981 1.0004253 0.9983517 1.0002668 1.000801 0.99952924 1.0000118
0.9995996 0.9998229 1.0010843 1.0003163 0.9987215 0.9992916 1.0002012 0.99957794
1.0010877 0.9996128 1.0010806 1.0002009 1.0011808 0.99854314 0.9994942 1.0047284
0.99999523 0.9985184 1.0008721 0.9988068 0.9991436 0.99854803 1.0027714 0.99986273
1.000943 1.0011172 1.0004753 1.0014235 1.0031822 0.99863976 1.0021191 0.9999839
0.99996424 1.0003097 1.0002395 1.0008953 0.9991839 0.9994762 1.0018233 0.99920523
1.0010982 0.9987661 0.9975917 0.9988233 1.0003475 0.9979004 1.0012369 0.99890274
00000000: 922b 803f e501 803f 1dc9 7f3f 26ad 7f3f
00000010: 861e 7f3f 3b32 803f 2ce7 7f3f 76f1 7f3f
00000020: 58d8 7f3f 271a 803f f00d 803f fa93 7f3f
00000030: be08 803f 3f1a 803f 26e1 7f3f 6300 803f
00000040: c2e5 7f3f 65f4 7f3f 8823 803f 5d0a 803f
00000050: 36ac 7f3f 93d1 7f3f 9806 803f 57e4 7f3f
00000060: a423 803f a0e6 7f3f 6923 803f 9506 803f
00000070: b126 803f 86a0 7f3f dade 7f3f f19a 803f
00000080: b0ff 7f3f e79e 7f3f 941c 803f cdb1 7f3f
00000090: e0c7 7f3f d8a0 7f3f d05a 803f 01f7 7f3f
000000a0: e61e 803f 9c24 803f 930f 803f a52e 803f
000000b0: 4668 803f dba6 7f3f 7045 803f f2fe 7f3f
000000c0: a8fd 7f3f 260a 803f d907 803f 561d 803f
000000d0: 84ca 7f3f acdd 7f3f bf3b 803f eacb 7f3f
000000e0: fc23 803f 23af 7f3f 2b62 7f3f e2b2 7f3f
000000f0: 630b 803f 6776 7f3f 8828 803f 17b8 7f3f

block1.1.bias f4 [64]
0.0032184399 0.00018158833 -0.0009820778 -0.0020477197 -0.0024517344 0.00037938918 -0.0005291001 0.000117782656
0.0010507891 -0.003602689 0.0048297634 -0.00045689524 0.0021828 -0.0016444128 -0.000401854 0.0013578229
-0.0012256142 -0.002828279 0.0016291701 0.0006840569 -0.0033167028 -0.0018189369 -0.0018627123 0.0009855223
-0.0031177136 0.003919054 0.0025217622 -0.0037902754 -0.0072193993 -0.003546615 6.852512e-05 -0.0010456857
-0.00022353702 -0.0013739635 -0.0038932858 0.0029935802 0.0008367905 0.0016280256 -0.0013635802 0.0016289487
0.0010478527 -0.0012617965 0.0044614747 0.00079006946 0.00073782844 -0.00022011968 -0.0010442334 0.0041650827
0.00423831 0.00011853698 -0.0005006939 0.004798142 0.0037898934 0.0033360822 -0.0011360768 -0.004518645
0.0019048961 1.5853973e-06 0.0012725149 0.0014769353 0.0015956359 0.00072750734 -0.0041333726 -0.0015032094
00000000: 76ec 523b bf68 3e39 10b9 80ba 0933 06bb
00000010: 47ad 20bb c1e8 c639 4fb3 0aba 1502 f738
00000020: a2ba 893a 171b 6cbb fe42 9e3b 718b efb9
00000030: 4f0d 0f3b 5689 d7ba eeaf d2b9 faf8 b13a
00000040: caa4 a0ba a65a 39bb e189 d53a 4852 333a
00000050: 0a5d 59bb 6569 eeba 4126 f4ba a42c 813a
00000060: 8e52 4cbb 686b 803b 2644 253b 4566 78bb
00000070: b690 ecbb 536e 68bb 25b5 8f38 640f 89ba
00000080: 4365 6ab9 9116 b4ba 7f26 7fbb f12f 443b
00000090: 0f5c 5b3a 7963 d53a 29ba b2ba 7382 d53a
000000a0: 1a58 893a dd62 a5ba 9031 923b aa1c 4f3a
000000b0: d46a 413a edcf 66b9 a9de 88ba 3f7b 883b
000000c0: 85e1 8a3b 0e97 f838 0041 03ba bb39 9d3b
000000d0: dc5f 783b 2ca2 5a3b 69e8 94ba 2411 94bb
000000e0: b5ad f93a d6c9 d435 84ca a63a ba95 c13a
000000f0: a824 d13a 31b6 3e3a 3e71 87bb 5607 c5ba

block1.1.running_mean f4 [64]
-0.07613541 0.40452608 0.68316305 -0.11338965 -0.30890384 0.13718705 -1.0512475 0.2818639
-0.28461382 0.5717789 -0.48193055 0.15773085 0.29621673 0.5302841 0.13327631 0.013006941
-0.46799827 0.11663392 -0.6154495 0.0209016 -0.2801171 0.3299853 0.21417035 0.039809212
0.18606497 0.016340656 0.21872196 0.52213365 0.21797064 -0.18100077 0.25151753 -0.1078773
0.23588802 0.15301247 0.19810592 0.06294197 -0.32336435 0.0035552795 0.23161636 0.8430455
0.012770022 -0.031648256 0.1216922 -0.08932449 0.13280597 -0.20790139 -0.17096063 -0.019826662
0.17746247 0.12273796 -0.49635532 -0.27065977 -0.11421585 0.31143612 0.22333315 0.02068396
0.106682695 0.3251816 -0.26417905 -0.13568763 0.3663606 0.004732405 -0.5630443 -0.440133
00000000: e2ec 9bbd 0b1e cf3e c6e3 2e3f d538 e8bd
00000010: a528 9ebe c37a 0c3e 478f 86bf 7750 903e
00000020: e7b8 91be 1a60 123f 9abf f6be 3284 213e
00000030: b8a9 973e b3c0 073f 9679 083e 111b 553c
00000040: 789d efbe c4dd ee3d 198e 1dbf d539 ab3c
00000050: 826b 8fbe d5f3 a83e 794f 5b3e fc0e 233d
00000060: d187 3e3e d7dc 853c a6f8 5f3e 8daa 053f
00000070: b233 5f3e 4458 39be e8c6 803e c6ee dcbd
00000080: a18c 713e 4daf 1c3e 47dc 4a3e b8e7 803d
00000090: 0390 a5be b1ff 683b d72c 6d3e d4d1 573f
000000a0: 5b39 513c 9aa1 01bd c339 f93d c2ef b6bd
000000b0: 4afe 073e 1ae4 54be 4e10 2fbe 866b a2bc
000000c0: b9b8 353e 0a5e fb3d 4922 febe eb93 8abe
000000d0: 00ea e9bd 8e74 9f3e 72b1 643e 6871 a93c
000000e0: 757c da3d 347e a63e 7a42 87be b3f1 0abe
000000f0: 9e93 bb3e 4a12 9b3b ac23 10bf 1d59 e1be

block1.1.running_var f4 [64]
0.017468592 0.019892493 0.07836 0.016326083 0.0011723944 0.0013438311 0.21944873 0.049117494
0.042528406 0.03934745 0.038711023 0.0008856269 0.00049027393 0.01731956 0.022583408 0.004325064
0.022599377 0.059492648 0.07028262 0.016597632 0.012314388 0.022336598 0.013456026 0.0008027462
0.0051160944 0.02068134 0.0012650694 0.022775004 0.0052939854 0.000523981 0.021139417 0.05999418
0.055590346 0.008591784 0.0011033246 0.0010735834 0.02239632 0.015465183 0.0030809797 0.15913214
0.0103050135 0.0014157328 0.0006394217 0.0019153754 0.0027506156 0.014912853 0.0022072634 0.022511777
0.0026111472 0.00086304604 0.012267608 0.00085149327 0.008099259 0.11239637 0.0038990574 0.04384833
0.007917856 0.11266426 0.00031076866 0.0879067 0.010248114 0.03705405 0.051461052 0.047864854
00000000: 4b1a 8f3c 95f5 a23c 357b a03d 47be 853c
00000010: 07ab 993a 7d23 b03a 2bb7 603e 6d2f 493d
00000020: 4432 2e3d cb2a 213d 738f 1e3d 6a29 683a
00000030: ba85 003a c0e1 8d3c d700 b93c 44b9 8d3b
00000040: 5422 b93c 90ae 733d 56f0 8f3d c2f7 873c
00000050: 49c2 493c 3efb b63c aa76 5c3c 636f 523a
00000060: e9a4 a73b ea6b a93c afd0 a53a a592 ba3c
00000070: 2b79 ad3b c55b 093a 922c ad3c 75bc 753d
00000080: b4b2 633d 8ec4 0c3c 6e9d 903a 7bb7 8c3a
00000090: 7d78 b73c ae61 7d3c 43ea 493b 89f3 223e
000000a0: 5cd6 283c 1c90 b93a dd9e 273a 550d fb3a
000000b0: ac43 343b 0a55 743c bca7 103b 9e6a b83c
000000c0: c81f 2b3b 0a3e 623a 14fe 483c bf36 5f3a
000000d0: c1b2 043c 1130 e63d 5487 7f3b 4e9a 333d
000000e0: e5b9 013c 85bc e63d aaee a239 6e08 b43d
000000f0: b5e7 273c fdc5 173d d3c8 523d f00d 443d

block2.0.weight f4 [64, 64, 3, 3]
-0.029327976 0.020937607 -0.03469293 -0.031753268 -0.014575508 0.012625896 -0.029232932 0.007335959
0.033490743 0.02652812 -0.023681639 0.0021786976 -0.0043790196 0.034528747 -0.00473498 -0.043242082
0.016581152 -0.013572347 -0.019570345 0.022774426 -0.003952193 -0.028036471 0.01754701 0.025377726
0.0081014745 -0.03133664 0.023271857 -0.019898076 -0.022724887 0.0074695144 0.03370541 -0.027394278
-0.028909545 0.028723747 -0.026593542 -0.029920386 0.012701785 -0.03178499 -0.021723278 -0.01444919
-0.012003911 0.019597169 0.029556599 -0.026396783 0.014057018 -0.0062458357 -0.037113216 0.010593973
0.025448643 -0.010943304 0.009762251 -0.0034178088 0.0083800815 -0.03211148 -0.011927982 0.03500754
0.028412845 0.025480205 0.0070314417 0.009875338 0.04030079 0.03085305 0.018841745 0.0379732
0.024519237 0.026226057 -0.014165219 0.040605545 0.016997844 -0.022318965 0.024745421 0.03454745
-0.0041556126 -0.013859138 -0.042696673 -0.016950298 0.04078843 0.029673683 0.01524827 0.021099636
0.007977645 0.039166708 -0.029406756 -0.013929722 -0.036690556 -0.0147110615 -0.04077151 0.021656903
-0.017783795 0.0044201883 -0.010956419 -0.011986591 -0.022123152 0.027587159 0.026303234 0.03650664
0.018482639 -0.034983598 -0.008584765 0.036336288 0.040021814 -0.033878975 -0.0033300004 0.028267054
-0.036159076 -0.038107686 -0.021337206 0.0018169391 -0.022376088 0.015204479 -0.025084022 -0.022339223
0.029070627 -0.015672928 0.03113053 -0.005992562 -0.022919465 0.027072765 0.038090233 0.02974617
0.022242827 0.017504295 0.018697714 0.012414117 0.032039955 -0.038867954 0.0071841776 -0.0056461063
-0.04073269 0.022607185 -0.037063405 -0.02697668 0.020361831 -0.016886316 -0.017985646 0.0342257
-0.02085596 0.023400184 -0.002410037 0.0331953 -0.030620607 -0.0024119106 0.032267526 -0.029564878
-0.011283413 -0.005782907 0.01738585 -0.03656108 0.024506789 -0.013393332 -0.003152452 0.024340224
-0.039443824 -0.01922001 -0.020294031 -0.0176137 0.010170877 -8.943445e-05 0.00074556284 -0.033409573
-0.005434382 -0.007908458 -0.021093711 0.0057050483 -0.040150736 0.01199626 0.03471284 -0.007943863
-0.038387734 0.025325159 0.004630926 0.0051261117 0.034754597 0.040027834 0.025804672 -0.023939177
0.022925658 -0.0076068914 0.029536054 -0.003420302 0.011841281 0.039222162 -0.017137703 -0.018741833
0.028054548 0.024674576 -0.0246646 0.039799467 0.010582165 -0.018510202 0.007513266 -0.004175962
0.009000946 -0.0144591965 -0.009128558 -0.038106084 -0.011868496 0.003158636 0.036774874 0.004206919
-0.032609254 -0.00030488995 -0.015381811 -0.03772238 0.0019460121 -0.0041637626 0.018499324 0.013133427
0.028143313 -0.028841035 -0.037124377 -0.014174292 -0.017261963 -0.030003833 -0.0010259106 -0.03033408
0.020202937 -0.027535556 0.0062166643 -0.009279448 0.00926033 0.025103524 -0.028226508 -0.032307453
-0.02521494 -0.015101274 -0.010855592 0.03785496 -0.027478179 -0.033391938 -0.038997196 0.03406767
0.017099712 0.041823663 0.009372909 -0.006334702 -0.030843183 0.018379554 0.02969601 -0.017755654
0.0065830885 -0.014502611 -0.015567737 0.016940456 0.036944944 0.030850172 -0.038782947 0.037226617
-0.033263028 0.037421063 0.014740437 -0.041581813 -0.03830454 -0.03153829 0.037986893 -0.013995919
00000000: 3941 f0bc 5885 ab3c 2c1a 0ebd b70f 02bd
00000010: 1dce 6ebc d9dc 4e3c e779 efbc 7c62 f03b
00000020: 972d 093d 8051 d93c ffff c1bc 7bc8 0e3b
00000030: e17d 8fbb 046e 0d3d e427 9bbb 9c1e 31bd
00000040: 32d5 873c 8d5e 5ebc fd51 a0bc 6f91 ba3c
00000050: 6681 81bb beac e5bc bfbe 8f3c f3e4 cf3c
00000060: 0cbc 043c d95a 00bd 9fa4 be3c 4a01 a3bc
00000070: 8b29 babc d4c2 f43b af0e 0a3d f769 e0bc
00000080: b6d3 ecbc 104e eb3c b3da d9bc 991b f5bc
00000090: 261b 503c fa30 02bd 04f5 b1bc 4cbc 6cbc
000000a0: 0dac 44bc 3e8a a03c ae20 f23c 113e d8bc
000000b0: 684f 663c dea9 ccbb 0704 18bd 5892 2d3c
000000c0: ac79 d03c 8b4b 33bc d9f1 1f3c 51fd 5fbb
000000d0: 9c4c 093c 5487 03bd 956d 43bc 1164 0f3d
000000e0: 0ec2 e83c ddbb d03c 0268 e63b 2bcc 213c
000000f0: 7112 253d 89bf fc3c 015a 9a3c c989 1b3d
00000100: 91dc c83c 07d8 d63c 3c15 68bc 0052 263d
00000110: 103f 8b3c 43d6 b6bc e9b6 ca3c a081 0d3d
00000120: ce2b 88bb 7011 63bc b5e2 2ebd 5adb 8abc
00000130: c511 273d 3916 f33c e1d3 793c 25d9 ac3c
00000140: abb4 023c 456d 203d 70e6 f0bc 7d39 64bc
00000150: d648 16bd aa06 71bc 0700 27bd d169 b13c
00000160: 52af 91bc 3ad7 903b 8d82 33bc 6863 44bc
00000170: 9d3b b5bc 77fe e13c e179 d73c fd87 153d
00000180: e768 973c f64a 0fbd 1da7 0cbc 5cd5 143d
00000190: eaed 233d aec4 0abd 233c 5abb 4f90 e73c
000001a0: 8a1b 14bd ce16 1cbd 5dcb aebc 5c26 ee3a
000001b0: 0f4e b7bc 351c 793c 027d cdbc bf00 b7bc
000001c0: 8625 ee3c 8364 80bc 7405 ff3c 415d c4bb
000001d0: 9ac1 bbbc b4c7 dd3c 8104 1c3d 3dae f33c
000001e0: 9736 b63c 2b65 8f3c f32b 993c 9564 4b3c
000001f0: 543c 033d 0134 1fbd 4069 eb3b f902 b9bb
00000200: 52d7 26bd b432 b93c cccf 17bd 33fe dcbc
00000210: dbcd a63c 2c55 8abc a256 93bc 3f30 0c3d
00000220: 1eda aabc beb1 bf3c b6f1 1dbb cbf7 073d
00000230: 11d8 fabc 2511 1ebb f42a 043d 0b32 f2bc
00000240: 10de 38bc 8a7e bdbb c56c 8e3c 12c1 15bd
00000250: 76c2 c83c b56f 5bbc 5e99 4ebb 2665 c73c
00000260: d98f 21bd 4873 9dbc ab3f a6bc 9b4a 90bc
00000270: c0a3 263c c18e bbb8 e071 433a 7ad8 08bd
00000280: e612 b2bb 7a92 01bc b8cc acbc 6af1 ba3b
00000290: 1975 24bd f68b 443c 0d2f 0e3d fa26 02bc
000002a0: 753c 1dbd b576 cf3c 06bf 973b f1f8 a73b
000002b0: d65a 0e3d 3af4 233d 5264 d33c 181c c4bc
000002c0: 97ce bb3c 3b43 f9bb 98f5 f13c 2527 60bb
000002d0: ef01 423c 6ba7 203d 5e64 8cbc 7988 99bc
000002e0: a7d2 e53c 5622 ca3c 6a0d cabc c404 233d
000002f0: d160 2d3c b5a2 97bc d831 f63b 82d6 88bb
00000300: b478 133c 44e6 6cbc f38f 15bc 2015 1cbd
00000310: 1574 42bc 1e01 4f3b 40a1 163d 32da 893b
00000320: 4891 05bd a3d9 9fb9 fe03 7cbc c882 1abd
00000330: 5511 ff3a 2c70 88bb e58b 973c 962d 573c
00000340: ce8c e63c 0944 ecbc bb0f 18bd 4a3b 68bc
00000350: f668 8dbc 99ca f5bc d977 86ba 2d7f f8bc
00000360: a180 a53c 3f92 e1bc 29b5 cb3b d308 18bc
00000370: a4b8 173c e8a5 cd3c 473b e7bc d254 04bd
00000380: 908f cebc 556b 77bc a7db 31bc cd0d 1b3d
00000390: eb19 e1bc fcc5 08bd 86bb 1fbd 8b8a 0b3d
000003a0: b214 8c3c 4a4f 2b3d d490 193c 5593 cfbb
000003b0: d8aa fcbc b890 963c 0c45 f33c 4e74 91bc
000003c0: f3b6 d73b 5c9c 6dbc d20f 7fbc b6c6 8a3c
000003d0: 9553 173d 80b9 fc3c deda 1ebd f07a 183d
000003e0: d03e 08bd d446 193d e081 713c b151 2abd
000003f0: 39e5 1cbd 4b2e 01bd 2598 1b3d 244f 65bc

block2.0.bias f4 [64]
0.0007679617 -0.036640454 0.027133431 -0.027892092 0.0052833497 0.013632595 0.016783206 0.00932173
0.03129447 0.009462351 0.006425843 -0.030609144 0.008799031 0.024450256 -0.01037632 -0.014924435
0.003715503 -0.011311966 -0.010608851 0.025646323 -0.00019541917 -0.037299536 -0.0027644096 0.008560022
-0.026288675 0.03816603 -0.0153874885 0.0022156124 -0.027773676 0.0062306407 -0.016682316 -0.006559935
0.037166722 -0.02044976 -0.00851162 0.025978545 0.014447754 0.01740406 0.01935766 -0.030791454
0.022336656 0.03841198 -0.017247813 -0.0061846883 -0.030019073 -0.020378985 -0.0060648276 0.04018922
0.0140045155 0.010228805 0.021563062 -0.027384588 -0.029149894 -0.037147023 0.007481945 0.027387075
-0.004463878 -0.02935776 0.02158331 -0.013888898 0.033351704 0.0169903 -0.017639123 -0.0046653207
00000000: 0a51 493a 4d14 16bd ee46 de3c f57d e4bc
00000010: f31f ad3b 3f5b 5f3c ef7c 893c 2bba 183c
00000020: a12e 003d fa07 1b3c e18f d23b 07c0 fabc
00000030: d029 103c e74b c83c 7101 2abc 9e85 74bc
00000040: cc7f 733b d355 39bc bfd0 2dbc 3d18 d23c
00000050: 6fe9 4cb9 66c7 18bd 192b 35bb 563f 0c3c
00000060: 595b d7bc fc53 1c3d ce1b 7cbc cf33 113b
00000070: 9f85 e3bc 672a cc3b 5aa9 88bc b9f4 d6bb
00000080: 223c 183d 4186 a7bc 5274 0bbc f5d0 d43c
00000090: 46b6 6c3c f692 8e3c f593 9e3c 5c3e fcbc
000000a0: 5dfb b63c e155 1d3d 494b 8dbc eda8 cabb
000000b0: 8fea f5bc d4f1 a6bc 76bb c6bb 749d 243d
000000c0: 3273 653c b896 273c 05a5 b03c a555 e0bc
000000d0: c2cb eebc 7a27 18bd 1b2b f53b dc5a e03c
000000e0: b945 92bb af7f f0bc 7bcf b03c 438e 63bc
000000f0: cc9b 083d 3e2f 8b3c ec7f 90bc 8cdf 98bb

block2.1.weight f4 [64]
1.0016236 0.9978981 1.0005398 0.9966874 1.0013003 0.9985934 1.0051708 1.0038856
0.9989433 1.0025743 0.9989218 1.0041053 0.9976579 1.0027413 0.99840206 0.9990605
1.0008035 1.0012394 1.0024774 0.999534 1.0006142 1.0015147 0.9962636 0.9993963
1.0009218 1.0013266 1.0011513 0.9969293 1.0012337 0.9992763 0.99691015 1.0013585
1.0048293 0.99839646 1.0008695 1.0048425 0.9962908 0.9995841 1.0012695 0.99861807
0.9970053 1.0006852 0.9977237 1.001752 1.0046546 1.0038646 0.99864054 0.993401
0.9942004 1.0025213 0.99987394 1.0068878 1.0062714 0.9998597 1.0001289 1.0001171
0.9986261 0.99803805 1.0021021 1.0057143 0.9982915 0.9980259 1.0023165 0.9992973
00000000: 3435 803f 4076 7f3f b011 803f e826 7f3f
00000010: 9c2a 803f d1a3 7f3f 70a9 803f 537f 803f
00000020: c0ba 7f3f 5b54 803f 57b9 7f3f 8686 803f
00000030: 8266 7f3f d459 803f 4797 7f3f 6ec2 7f3f
00000040: 541a 803f 9d28 803f 2e51 803f 76e1 7f3f
00000050: 2014 803f a231 803f 220b 7f3f 70d8 7f3f
00000060: 351e 803f 782b 803f ba25 803f c236 7f3f
00000070: 6d28 803f 92d0 7f3f 8135 7f3f 842c 803f
00000080: 3f9e 803f e996 7f3f 7e1c 803f ae9e 803f
00000090: ea0c 7f3f bee4 7f3f 9929 803f 6fa5 7f3f
000000a0: bd3b 7f3f 7416 803f d26a 7f3f 6939 803f
000000b0: 8698 803f a37e 803f e8a6 7f3f 874f 7e3f
000000c0: eb83 7e3f 9e52 803f bdf7 7f3f b3e1 803f
000000d0: 80cd 803f cef6 7f3f 3904 803f d603 803f
000000e0: f6a5 7f3f 6c7f 7f3f e244 803f 3fbb 803f
000000f0: 0890 7f3f a07e 7f3f e84b 803f f3d1 7f3f

block2.1.bias f4 [64]
-0.00091393985 -0.002265547 0.0031153997 0.0024604555 -0.0012367023 -0.0005659502 0.0016356253 0.0017687296
0.001252679 -0.0023400788 -0.0017623047 -0.0027253183 0.0007902165 -0.0007576392 -0.009632648 -0.0031828925
0.0012852044 -0.0008133202 -0.0013376353 0.0010866653 -0.0025414277 -0.006367173 -0.0047467835 -0.0008250699
-0.00036720044 -0.0041573276 -0.0024570834 -0.004115413 0.00018207546 -0.0010756662 0.0009183251 0.0033338587
-0.0018230297 -0.0019604887 -0.0010062668 -0.00042795303 -0.0019572019 -0.0011496788 -0.0045792223 0.0028989902
-0.0013713188 0.0004248707 0.0014521527 0.0015423994 -0.002266916 -0.006660291 -0.0024667114 0.0038153166
-0.0015428436 0.0022681262 -0.0024552555 -0.0028290863 0.002374391 0.0010128351 0.0055452315 -0.0034610503
0.0001587215 -0.00056428026 -0.0016506827 0.0011827429 -0.0041745333 0.0012832773 0.0018355048 -0.0046501206
00000000: 7795 6fba 9279 14bb bc2b 4c3b 983f 213b
00000010: d818 a2ba 465c 14ba 7a62 d63a b8d4 e73a
00000020: ef30 a43a 025c 19bb 22fd e6ba 419b 32bb
00000030: 8826 4f3a 4e9c 46ba 41d2 1dbc 1398 50bb
00000040: 4e74 a83a ff34 55ba 9853 afba 706e 8e3a
00000050: 158e 26bb b8a3 d0bb e88a 9bbb 8149 58ba
00000060: cf84 c0b9 313a 88bb 0507 21bb 96da 86bb
00000070: 82eb 3e39 5efd 8cba c1bb 703a de7c 5a3b
00000080: baf2 eeba 8b7b 00bb b6e4 83ba e25e e0b9
00000090: 6644 00bb d2b0 96ba 4d0d 96bb fcfc 3d3b
000000a0: d3bd b3ba 2ec1 de39 2956 be3a 562a ca3a
000000b0: 8a90 14bb 923e dabb 8da8 21bb 640a 7a3b
000000c0: 3e39 caba d8a4 143b 5ae8 20bb 3168 39bb
000000d0: ac9b 1b3b 1bc1 843a c6b4 b53b cad2 62bb
000000e0: 7a6e 2639 35ec 13ba b85b d8ba 4406 9b3a
000000f0: 86ca 88bb a433 a83a 5295 f03a 0a60 98bb

block2.1.running_mean f4 [64]
-0.21178944 0.0313968 -0.16031858 0.31766063 -0.0064476714 -0.30047336 -0.16531686 -0.055908572
0.35872152 -0.528348 0.20129865 -0.2655471 0.11658131 0.1146071 0.009746129 -0.1378779
-0.029433118 -0.14254534 -0.3041868 -0.085793175 -0.57369864 -0.39239728 0.23128776 0.02013906
-0.4721761 0.41140392 0.08689523 0.12501451 -0.3006567 0.103638865 0.24242383 -0.12860279
-0.05030868 0.0940216 -0.29947355 -0.6888573 -0.07349449 0.21992876 0.09776291 -0.34099457
0.49072543 0.2433522 -0.017272225 -0.24533378 -0.7959481 -0.2660108 0.029971216 0.59251034
-0.03732778 -0.034622043 -0.13017978 -0.24609102 -0.29049033 -0.14707394 -0.11169117 0.07588253
0.2256009 0.011873819 -0.35233572 -0.2752818 -0.45188868 0.3952029 0.15197265 0.5862886
00000000: 55df 58be ee99 003d 8e2a 24be 6aa4 a23e
00000010: fd46 d3bb a5d7 99be d348 29be 6300 65bd
00000020: 59aa b73e d141 07bf 3c21 4e3e caf5 87be
00000030: 2fc2 ee3d 21b7 ea3d 3aae 1f3c dd2f 0dbe
00000040: b91d f1bc 68f7 11be 5fbe 9bbe 55b4 afbd
00000050: eadd 12bf 4ce8 c8be b3d6 6c3e acfa a43c
00000060: 11c1 f1be 89a3 d23e 20f6 b13d ce03 003e
00000070: adef 99be 9d40 d43d f43d 783e 73b0 03be
00000080: 7910 4ebd 668e c03d 9954 99be f458 30bf
00000090: 4784 96bd 0135 613e ec37 c83d d796 aebe
000000a0: 5d40 fb3e 5231 793e 7b7e 8dbc c738 7bbe
000000b0: 41c3 4bbf 9132 88be 3286 f53c c2ae 173f
000000c0: 04e5 18bd d8cf 0dbd d94d 05be 49ff 7bbe
000000d0: 26bb 94be 8d9a 16be 57be e4bd 4d68 9b3d
000000e0: ec03 673e 688a 423c 5965 b4be bcf1 8cbe
000000f0: f45d e7be 0958 ca3e b89e 1b3e 0217 163f

block2.1.running_var f4 [64]
0.05842596 0.105967775 0.19833817 0.07253315 0.11591526 0.13700645 0.12389023 0.049383134
0.07901074 0.11133745 0.059063215 0.07590669 0.10606846 0.09542351 0.087930694 0.10803456
0.087271124 0.074293464 0.14180101 0.098087065 0.14001912 0.06098682 0.10852286 0.033573516
0.09158258 0.07176116 0.26471484 0.069900796 0.045908395 0.236469 0.12449435 0.052716743
0.10191801 0.039741255 0.069561616 0.1331041 0.038668744 0.13717656 0.08625781 0.06648592
0.07894196 0.0773065 0.068644896 0.07428297 0.16692144 0.06867372 0.109648764 0.10033484
0.030453969 0.0353493 0.22485021 0.04174305 0.048072975 0.07917968 0.06484134 0.057472076
0.06124961 0.09058608 0.10201402 0.06477467 0.23724103 0.06775413 0.13069676 0.27918312
00000000: 0f50 6f3d a205 d93d 2919 4b3e 438c 943d
00000010: fb64 ed3d 6b4b 0c3e 29ba fd3d f845 4a3d
00000020: 62d0 a13d e404 e43d 45ec 713d f774 9b3d
00000030: 6c3a d93d 676d c33d 0215 b43d 3941 dd3d
00000040: 34bb b23d 2c27 983d 4934 113e dfe1 c83d
00000050: 2c61 0f3e 51cd 793d 3c41 de3d 6284 093d
00000060: a68f bb3d 84f7 923d b488 873e 2628 8f3d
00000070: 710a 3c3d ee24 723e e5f6 fe3d 83ed 573d
00000080: 64ba d03d bac7 223d 5276 8e3d 714c 083e
00000090: 1e63 1e3d 0378 0c3e efa7 b03d c529 883d
000000a0: 53ac a13d df52 9e3d b295 8c3d ab21 983d
000000b0: 74ed 2a3e cfa4 8c3d 888f e03d 5a7c cd3d
000000c0: 9a7a f93c 6dca 103d 223f 663e c3fa 2a3d
000000d0: 2be8 443d f528 a23d 89cb 843d d767 6b3d
000000e0: dfe0 7a3d 3285 b93d baec d03d 95a8 843d
000000f0: 50ef 723e adc2 8a3d 5fd5 053e 17f1 8e3e

block3.0.weight f4 [64, 64, 3, 3]
0.009765298 0.005942449 0.047542974 -0.017648654 -0.016973214 -0.003353755 0.041519184 -0.028068757
-0.03125484 0.04025827 0.009618078 -0.030310154 -0.008703368 0.035362966 -0.0050559305 0.041636333
-0.0011169601 3.7880627e-06 0.04121855 -0.011987408 0.016393209 -0.011968308 -0.036455765 -0.038854897
0.0012721869 -0.039612234 -0.00970669 0.009157703 0.036235914 -0.0010046816 -0.016611783 -0.0060253926
-0.01708247 0.013799354 -0.031225417 0.031799246 0.028185455 -0.01600489 0.008951724 0.008364415
-0.018234404 0.0024240373 0.0012840905 0.024728397 -0.023403373 -0.0075239595 -0.018879462 -0.034890737
-0.0107918605 -0.03917603 0.03863834 -0.023551006 0.015578182 -0.021869533 -0.02048412 0.00773384
0.035018362 0.018666912 0.02207929 -0.030230576 0.0046397694 -0.036449086 -0.019792074 -0.016991956
0.0124364495 -0.0069130505 -0.0023670332 -0.041720565 0.017403616 0.02594255 -0.043207366 0.015097361
-0.010850127 -0.0021845733 0.029231636 0.005627941 0.025393004 0.0042412197 0.022221403 0.026475
0.0027921551 -0.018061046 -0.030613126 -0.013753722 -0.030133577 -0.03335386 -0.040522847 0.010686411
0.0011497524 -0.03892954 -0.03525597 -0.030565597 -0.0005270181 0.011627778 0.015593056 -0.013149514
-0.01928137 -0.03816233 0.03438455 0.025388885 -0.003005239 -0.0056023565 -0.039414007 0.022896087
-0.006190232 -0.023242157 -0.01919501 0.02107087 0.040992938 0.01169615 -0.007930747 0.024980368
-0.01301934 -0.0023093002 0.0076633054 0.0024631312 0.013383988 -0.03484266 -0.0034175366 -0.041438248
0.022019017 0.037020396 0.008461802 0.027895879 -0.02903106 -0.03265726 -0.02530573 -0.025918696
-0.01595085 -0.031184908 -0.012094531 -0.03431928 -0.02763022 -0.023878606 -0.029170875 0.015048504
0.032624036 0.04084682 -0.03094638 0.035129495 0.026815452 0.034943704 -0.012578926 0.02119257
-0.028786056 -0.016852912 0.030640155 -0.025390707 0.019716583 -0.014451903 -0.03186451 0.029556036
0.02892685 -0.023850428 -0.032602746 0.0131704975 -0.020973273 0.010163543 -0.007820646 -0.011744714
0.013946484 0.0067105284 0.030668657 0.029269163 -0.01878087 0.016250946 -0.044375435 0.015008652
-0.015238807 0.038960367 -0.025364403 0.029360248 -0.033945784 -0.017449021 0.012279847 -0.010190281
-0.028089048 -0.008633293 0.0018907347 -0.010040305 0.03772874 0.028541137 -0.010164381 -0.025788832
0.0057193697 0.035840195 0.023345686 -0.023162046 0.028233962 -0.013511664 0.0065997746 0.036642436
-0.021022534 0.026384983 -0.014180062 0.01139559 0.0061988886 -0.020002756 0.017713059 0.01144136
0.0135288425 0.011727042 -0.0033090126 -0.030941999 -0.026271818 -0.039473906 -0.008484647 -0.0042389836
0.009946334 0.03452766 -0.015328659 -0.042111292 0.02184399 0.03141432 -0.008739457 0.0061173714
0.030610157 0.0054109674 -0.006130588 -0.038955968 -0.021288801 0.012569153 0.01731787 -0.035612542
0.003016958 0.027179101 -0.029612185 -0.034641754 0.00966326 -0.02815772 -0.016161723 0.0426847
0.0011406341 -0.008888468 -0.03930166 0.034964174 -0.0046516526 -0.03599321 0.031087682 0.0053811865
0.0020246746 0.015331963 0.0037379344 -0.015082736 -0.03843856 0.025763419 -0.03566879 -0.01287383
0.010125954 -0.016139826 0.010232569 0.0048618917 -0.04299194 0.013718868 -0.02949441 -0.027829561
00000000: a1fe 1f3c e0b8 c23b 6cbc 423d e993 90bc
00000010: 690b 8bbc acca 5bbb 0510 2a3d 73f0 e5bc
00000020: 1305 00bd dbe5 243d 2595 1d3c 004d f8bc
00000030: 9298 0ebc c2d8 103d 38ac a5bb dc8a 2a3d
00000040: f666 92ba 6c36 7e36 c8d4 283d d566 44bc
00000050: 0d4b 863c b916 44bc a452 15bd 5026 1fbd
00000060: 82bf a63a 7040 22bd cf08 1fbc 310a 163c
00000070: 1c6c 143d 85af 83ba 6f15 88bc a870 c5bb
00000080: 89f0 8bbc b016 623c 72cc ffbc ed3f 023d
00000090: 2fe5 e63c b01c 83bc 40aa 123c e60a 093c
000000a0: 5160 95bc 99dc 1e3b ed4e a83a 3593 ca3c
000000b0: 6eb8 bfbc 8c8b f6bb 1aa9 9abc 97e9 0ebd
000000c0: 58d0 30bc 0b77 20bd 3c43 1e3d 0aee c0bc
000000d0: a23b 7f3c bc27 b3bc 50ce a7bc 276c fd3b
000000e0: 6a6f 0f3d 5aeb 983c a1df b43c 1da6 f7bc
000000f0: 3509 983b a34b 15bd fd22 a2bc b732 8bbc
00000100: 40c2 4b3c df86 e2bb 3a20 1bbb 2fe3 2abd
00000110: 0792 8e3c 7885 d43c 35fa 30bd ec5a 773c
00000120: bbc4 31bc 0f2b 0fbb 2f77 ef3c 976a b83b
00000130: fd04 d03c eef9 8a3b a909 b63c 19e2 d83c
00000140: 97fc 363b c2f4 93bc 61c8 fabc 4b57 61bc
00000150: b1da f6bc 0f9e 08bd 49fb 25bd 0e16 2f3c
00000160: 4ab3 963a 9574 1fbd 9068 10bd b464 fabc
00000170: 9627 0aba 7082 3e3c 047a 7f3c 0f71 57bc
00000180: f7f3 9dbc 1a50 1cbd d0d6 0c3d 5afc cf3c
00000190: 8bf3 44bb f993 b7bb 9570 21bd 9390 bb3c
000001a0: 6ed7 cabb 5666 bebc db3e 9dbc d19c ac3c
000001b0: 36e8 273d 35a1 3f3c f7ef 01bc a1a3 cc3c
000001c0: 124f 55bc a157 17bb 771c fb3b 7c6c 213b
000001d0: 8448 5b3c 2db7 0ebd c0f8 5fbb 27bb 29bd
000001e0: 3a61 b43c b3a2 173d 5fa3 0a3c e685 e43c
000001f0: 8cd2 edbc 9ec3 05bd f64d cfbc 7253 d4bc
00000200: 5bab 82bc 7e77 ffbc 2428 46bc 6092 0cbd
00000210: c558 e2bc 119d c3bc c2f7 eebc 008e 763c
00000220: c8a0 053d ff4e 273d 4383 fdbc f2e3 0f3d
00000230: 14ac db3c 2121 0f3d d717 4ebc 0a9c ad3c
00000240: bcd0 ebbc 1e0f 8abc 1001 fb3c 2c00 d0bc
00000250: ac84 a13c adc7 6cbc 5c84 02bd 801f f23c
00000260: 00f8 ec3c f961 c3bc 758a 05bd 12c9 573c
00000270: 24d0 abbc fd84 263c 2b22 00bc e76c 40bc
00000280: cb7f 643c fee3 db3b d63c fb3c e2c5 ef3c
00000290: 57da 99bc b420 853c 04c3 35bd d9e6 753c
000002a0: 30ac 79bc e894 1f3d 02c9 cfbc e784 f03c
000002b0: bc0a 0bbd 40f1 8ebc 6931 493c 23f5 26bc
000002c0: 011b e6bc a872 0dbc 87d2 f73a 1780 24bc
000002d0: 7489 1a3d 1acf e93c 8188 26bc 1a43 d3bc
000002e0: 8d69 bb3b 2bcd 123d 743f bf3c 55be bdbc
000002f0: e94a e73c 0760 5dbc ec42 d83b 6116 163d
00000300: 7337 acbc 5225 d83c 7e53 68bc 92b4 3a3c
00000310: 0c20 cb3b d2dc a3bc fa1a 913c 8b74 3b3c
00000320: 14a8 5d3c c722 403c 05dc 58bb 137a fdbc
00000330: ff37 d7bc 64af 21bd 3003 0bbc 2ce7 8abb
00000340: f3f5 223c e06c 0d3d 0e25 7bbc e47c 2cbd
00000350: 2bf2 b23c 4dac 003d f02f 0fbc 3b74 c83b
00000360: 27c2 fa3c 7c4e b13b 19e3 c8bb 4b90 1fbd
00000370: da65 aebc d9ee 4d3c 35de 8d3c 75de 11bd
00000380: 28b8 453b b5a6 de3c 4195 f2bc 83e4 0dbd
00000390: a652 1e3c 05ab e6bc 9765 84bc 27d6 2e3d
000003a0: 5481 953a f0a0 11bc c7fa 20bd 9836 0f3d
000003b0: e46c 98bb 9e6d 13bd 98ab fe3c aa54 b03b
000003c0: 67b0 043b ea32 7b3c 22f8 743b 941d 77bc
000003d0: c071 1dbd ce0d d33c 7019 12bd c2ec 52bc
000003e0: 54e7 253c ab37 84bc 81a6 273c 8150 9f3b
000003f0: 5118 30bd 1ac5 603c 439e f1bc d2fa e3bc

block3.0.bias f4 [64]
-0.0057908595 -0.01892426 -0.011507031 -0.011190262 0.012881109 0.024115095 0.029781753 0.022542283
-0.037980463 0.036563955 0.010194553 -0.011146174 0.020821193 -0.039191872 -0.013644921 -0.041266896
0.039370786 0.0010875443 0.039256185 0.014468393 0.00037234792 -0.025006633 -0.030986728 -0.025643792
0.019902568 0.009681831 -0.0014041655 -0.031008586 0.039447844 -0.01883937 -0.0065094316 0.037210595
-0.025187152 0.040759522 -0.02464248 0.029904105 0.0017068763 -0.015115999 0.02282438 0.0351656
-0.006048855 0.031083068 -0.030384008 0.026962535 0.040694784 0.008537343 -0.021011718 -0.012657409
-0.011579093 -0.012551241 0.036390927 0.013818919 -0.021062674 -0.024691649 0.020249821 -0.009227434
-0.006245015 -0.0069702715 0.018569281 -0.016673312 -0.040193535 0.04064908 -0.01934104 -0.0016394281
00000000: 40c1 bdbb 0d07 9bbc fc87 3cbc 5c57 37bc
00000010: 490b 533c 058d c53c ddf8 f33c 98aa b83c
00000020: 6791 1bbd 16c4 153d 0e07 273c 719e 36bc
00000030: 3591 aa3c a887 20bd f28e 5fbc 7a07 29bd
00000040: 4343 213d ee8b 8e3a 18cb 203d d70c 6d3c
00000050: b137 c339 b6da ccbc e1d7 fdbc ee12 d2bc
00000060: b60a a33c 8ba0 1e3c fa0b b8ba b805 febc
00000070: 1094 213d 0655 9abc 124d d5bb 236a 183d
00000080: 4955 cebc 75f3 263d 07df c9bc 74f9 f43c
00000090: 44b9 df3a 18a9 77bc 32fa ba3c ce09 103d
000000a0: 7935 c6bb eba1 fe3c e2e7 f8bc 89e0 dc3c
000000b0: 93af 263d 36e0 0b3c c420 acbc 0561 4fbc
000000c0: 3cb6 3dbc b8a3 4dbc a70e 153d bf68 623c
000000d0: a18b acbc 2446 cabc f4e2 a53c aa2e 17bc
000000e0: fca2 ccbb e066 e4bb 9b1e 983c 7896 88bc
000000f0: faa1 24bd a67f 263d 1a71 9ebc 14e2 d6ba

block3.1.weight f4 [64]
0.9992336 0.9992511 1.0043855 0.9997915 1.006599 0.99968266 1.0056074 1.0040238
1.0032091 0.99483347 1.0008918 1.0072567 0.9982828 0.9999882 1.000123 1.013525
1.0045302 0.9988794 0.99903584 0.9975986 0.9968091 0.99421334 1.0079563 0.9939757
1.0012368 1.0029081 1.0068687 1.0065188 1.0023215 0.9990638 1.0018314 1.0038812
1.0024014 0.99452096 0.9987231 1.0004928 0.99839103 1.0032682 1.0049629 0.9994479
0.9977555 1.0050284 1.0048522 1.0024102 1.006399 1.0077968 0.996156 0.99823564
0.99334407 0.9978541 1.0097382 1.0012499 0.99825406 0.9973536 1.000528 0.9976864
0.99637777 0.9976584 1.0010785 0.99365216 0.9918973 0.99534386 1.0012226 0.99878806
00000000: c6cd 7f3f ecce 7f3f b48f 803f 56f2 7f3f
00000010: 3cd8 803f 34eb 7f3f beb7 803f da83 803f
00000020: 2869 803f 68ad 7e3f 391d 803f caed 803f
00000030: 768f 7f3f 3aff 7f3f 0804 803f 30bb 813f
00000040: 7294 803f 8fb6 7f3f d0c0 7f3f 9f62 7f3f
00000050: e22e 7f3f c484 7e3f b604 813f 3175 7e3f
00000060: 8728 803f 4b5f 803f 13e1 803f 9cd5 803f
00000070: 124c 803f a5c2 7f3f 033c 803f 2e7f 803f
00000080: b04e 803f ed98 7e3f 51ac 7f3f 2610 803f
00000090: 8e96 7f3f 186b 803f a0a2 803f d1db 7f3f
000000a0: e86c 7f3f c5a4 803f ff9e 803f fa4e 803f
000000b0: afd1 803f 7cff 803f 1404 7f3f 5f8c 7f3f
000000c0: cc4b 7e3f 5e73 7f3f 1a3f 813f f528 803f
000000d0: 948d 7f3f 9152 7f3f 4d11 803f 6068 7f3f
000000e0: 9d12 7f3f 8a66 7f3f 5723 803f fd5f 7e3f
000000f0: fbec 7d3f dbce 7e3f 1028 803f 93b0 7f3f

block3.1.bias f4 [64]
-0.00872421 -0.0056530484 -0.0044932757 -0.00040507657 -0.008074376 -0.001812597 -0.001867884 -0.0064001735
-0.005143399 -0.0005553895 -0.0012249394 0.00017380975 -0.007997983 0.00101634 -0.0037881304 0.0021505987
-0.004879358 -0.009539253 -0.003362484 -0.0010800614 -0.0001525311 -0.010376837 0.00221019 -0.0059988773
0.0069678314 -0.004492808 -0.0024306583 -0.0018020624 0.0013544201 -0.0010454888 -0.005908575 0.0005417767
-0.0017179038 -0.005228008 -0.0015172317 -0.0013886727 -0.008252501 -0.0072186976 0.0032573945 -0.003983115
-0.0059244684 -0.0086588515 -0.009099099 -0.0006318061 -0.0036051709 -0.0030094523 -0.008253858 -0.00042714764
-0.0013560377 -0.004946511 -0.0038012976 -0.00033292006 -0.0040036626 -0.0036244292 -0.00054232083 -0.003476059
-0.006382812 -0.0043698023 -0.0035340323 -0.0084122615 -0.011003105 -0.009522178 -0.006973266 -0.00614835
00000000: fdef 0ebc 353d b9bb 543c 93bb 7560 d4b9
00000010: 634a 04bc aa94 edba c9d3 f4ba 8cb8 d1bb
00000020: f589 a8bb 8f97 11ba 258e a0ba b340 3639
00000030: f909 03bc b636 853a 4842 78bb 0ff1 0c3b
00000040: 06e3 9fbb 874a 1cbc 1f5d 5cbb d990 8dba
00000050: c1f0 1fb9 9c03 2abc d6d8 103b 3b92 c4bb
00000060: 6852 e43b 6838 93bb ae4b 1fbb 2e33 ecba
00000070: cc86 b13a c808 89ba b89c c1bb 0506 0e3a
00000080: 492b e1ba b64f abbb d9dd c6ba 2004 b6ba
00000090: 7f35 07bc d38a ecbb 037a 553b ca84 82bb
000000a0: 0b22 c2bb dbdd 0dbc 6314 15bc ca9f 25ba
000000b0: bb44 6cbb 3b3a 45bb 313b 07bc c9f2 dfb9
000000c0: 13bd b1ba 5716 a2bb 311f 79bb c68b aeb9
000000d0: 2831 83bb d587 6dbb 892a 0eba 98ce 63bb
000000e0: e826 d1bb 8f30 8fbb 399b 67bb 95d3 09bc
000000f0: 5e46 34bc e902 1cbc ff7f e4bb 1978 c9bb

block3.1.running_mean f4 [64]
-0.41533804 0.2701839 -0.29257008 0.41865093 -0.30287328 0.13977197 -0.19731177 0.00903331
0.011710237 0.5799355 -0.36228818 -0.21659099 0.11327548 -0.09468488 -0.09569281 -0.06156025
-0.09445785 0.024247408 -0.17449622 -0.08352988 0.09897655 0.17292838 -0.40996122 0.18734547
-0.4158068 -0.0131996935 -0.14186327 -0.3821339 -0.4525693 0.08796556 0.21314177 -0.16790709
-0.27886182 0.42362836 0.11097698 0.18253452 0.018258857 -0.77068913 -0.16083874 0.070215136
-0.0927347 -0.23607242 -0.07165338 -0.21073401 -0.26409054 -0.26474854 0.044184826 -0.07631602
0.7500962 0.38522115 -0.21622862 0.102151304 -0.1145809 -0.1999999 -0.2110776 -0.058621254
0.3584534 -0.09101377 -0.14762521 -0.080080725 0.26405448 0.622755 -0.4572129 -0.053352606
00000000: 30a7 d4be 8b55 8a3e bfcb 95be 6a59 d63e
00000010: 3512 9bbe 6220 0f3e 190c 4abe 7300 143c
00000020: 4bdc 3f3c a776 143f d67d b9be 07ca 5dbe
00000030: fafc e73d 25ea c1bd 98fa c3bd 9a26 7cbd
00000040: 1e73 c1bd 80a2 c63c 23af 32be b711 abbd
00000050: 38b4 ca3d 2314 313e 70e6 d1be 7ed7 3f3e
00000060: a1e4 d4be 8743 58bc 9b44 11be 0ea7 c3be
00000070: 2ab7 e7be 4a27 b43d d641 5a3e d6ef 2bbe
00000080: fac6 8ebe d1e5 d83e e647 e33d 54ea 3a3e
00000090: 9993 953c e24b 45bf e9b2 24be f4cc 8f3d
000000a0: b1eb bdbd f8bc 71be 02bf 92bd a8ca 57be
000000b0: e036 87be 1f8d 87be 26fb 343d 934b 9cbd
000000c0: 4e06 403f b53b c53e 096b 5dbe b434 d13d
000000d0: 64a9 eabd c6cc 4cbe ba24 58be d71c 70bd
000000e0: 3487 b73e 6d65 babd 102b 17be 5d01 a4bd
000000f0: 2632 873e df6c 1f3f cf17 eabe 4388 5abd

block3.1.running_var f4 [64]
0.111810885 0.06861923 0.13540621 0.11175606 0.1189531 0.11414297 0.06225978 0.12519759
0.10886326 0.3096568 0.20780532 0.10252184 0.06743388 0.12315924 0.10095059 0.10679177
0.09588362 0.12414459 0.08789363 0.097719595 0.32110173 0.065873034 0.07255247 0.11603727
0.12639125 0.14161342 0.10730291 0.09090576 0.2517895 0.10535045 0.08876398 0.18623613
0.181686 0.42574987 0.116050564 0.15868692 0.09377615 0.15494777 0.08234152 0.075524226
0.21252036 0.09401249 0.050624102 0.124846384 0.09007212 0.1315318 0.31387505 0.10822723
0.21315424 0.1046991 0.07294044 0.067681216 0.11744017 0.2402946 0.11448819 0.10040631
0.11457086 0.09736161 0.07195688 0.09658419 0.07996656 0.1878746 0.20951739 0.090118304
00000000: 1bfd e43d 3d88 8c3d eda7 0a3e 5ce0 e43d
00000010: af9d f33d cac3 e93d 1c04 7f3d cc33 003e
00000020: b3f3 de3d 568b 9e3e ebca 543e f8f6 d13d
00000030: c61a 8a3d e93a fc3d 2fbf ce3d a5b5 da3d
00000040: a25e c43d 853f fe3d 9301 b43d 3621 c83d
00000050: 7267 a43e 71e8 863d 6496 943d f3a4 ed3d
00000060: b56c 013e 1c03 113e a1c1 db3d cd2c ba3d
00000070: 8eea 803e fac1 d73d e4c9 b53d afb4 3e3e
00000080: e50b 3a3e e3fb d93e ebab ed3d d37e 223e
00000090: b60d c03d a1aa 1e3e aca2 a83d 72ac 9a3d
000000a0: f09e 593e 9f89 c03d 385b 4f3d 76af ff3d
000000b0: bb77 b83d 46b0 063e 3bb4 a03e 3da6 dd3d
000000c0: 1b45 5a3e 7b6c d63d cc61 953d 739c 8a3d
000000d0: 7984 f03d ca0f 763e c978 ea3d d3a1 cd3d
000000e0: 21a4 ea3d 8665 c73d 215e 933d efcd c53d
000000f0: 82c5 a33d 3362 403e ba8b 563e f28f b83d

block4.0.weight f4 [64, 64, 3, 3]
-0.018012276 0.019679118 -0.01523089 0.03670055 0.010337086 0.0068162745 0.034272544 -0.013588802
-0.022941466 0.043504935 -0.015698168 -0.020747079 -0.043924738 0.025678666 -0.025763571 -0.011721599
-0.009558846 -0.016143214 0.0053552724 -0.018410908 0.018042726 0.003246632 0.023515299 -0.036324684
-0.015343287 -0.0077615744 0.03355181 0.034932185 0.019072866 0.01614804 -0.004385757 0.013789855
-0.023483371 -0.02967353 -0.021132642 0.039401893 -0.022295315 0.02681995 0.028355045 0.03628922
0.014292492 -0.007895123 0.001082926 -0.018928593 0.028682025 -0.039039876 -0.009953432 0.011744428
-0.008693666 -0.01580572 -0.0012311828 0.031735506 0.000733892 -0.035665806 0.0039852974 -0.022308663
0.01328963 -0.041679733 -0.013230628 -0.004921177 0.029049434 -0.022351466 0.0019368569 -0.017010905
-0.0054879147 0.036245015 0.02328877 -0.0064080106 -0.010707593 -0.0028574253 -0.0053624194 -0.009359589
-0.019351572 -0.0027317575 0.011240361 -0.0148076825 -0.006238027 0.035445753 0.006785231 -0.006294579
-0.031162955 0.00917005 -0.028625429 0.017298643 -0.030744525 -0.033188447 0.04250598 0.024035119
0.015461408 -0.0031675245 0.032539126 0.025024205 0.020403177 -0.0006972399 -0.03859369 0.012997887
0.033154495 -0.0034163499 -0.014254997 -0.018916808 -0.03735404 -0.035833236 0.039849885 0.02133715
-0.030962724 0.011399679 -0.026506659 0.03498602 0.017565098 -0.0068825353 0.01949161 -0.019255826
-0.020266248 0.014339544 -0.005997058 0.0150971105 0.0049361484 -0.0072274404 0.035764907 0.022880144
0.016260799 -0.036907647 -0.00032651535 -0.016758256 -0.021379912 -0.023041641 0.022476507 0.013538946
0.0028965366 0.009155442 -0.0426827 0.0101853 -0.0027898222 0.037490614 -0.025235828 0.00021539553
-0.021707362 0.0032999546 -0.046485852 0.014162461 0.022564005 -0.022181861 -0.025608612 -0.022990143
0.0106339855 -0.0008101507 -0.025950402 -0.017000755 0.014592944 0.02247538 0.042861596 -0.019612737
0.04001029 -0.02335011 -0.040442884 0.036536857 0.013964303 0.018194083 -0.002009752 0.00881388
0.02104495 -0.0032600637 0.032838725 -0.038965102 -0.02726633 -0.04331835 0.0068610995 -0.034047294
0.022707943 0.03027134 -0.0094309235 0.036745485 -0.016753972 0.014683206 -0.021586206 0.03916829
-0.023585917 -0.030577872 0.03854089 -0.029227309 -0.018044269 0.0019854517 0.011440113 0.025455492
0.031872053 -0.020449273 0.016296467 0.022340378 -0.030819885 -0.04388735 -0.0041881683 -0.04162319
0.031088877 -0.0062341266 -0.0010755486 0.004613311 0.0059189205 0.038830638 0.019447088 0.025612729
-0.03402994 -0.033819944 0.010992598 0.0102378065 -0.020440187 0.0055751964 -0.012957569 0.026915826
-0.040413924 -0.036981836 0.0125853615 0.023071079 -0.019379338 0.021101085 0.026305487 0.018669123
0.03358516 0.003668241 0.011518943 0.03310469 0.008182137 0.013245087 -0.008744635 -0.018372497
0.0014777753 -0.03498488 -0.034744352 -0.014802945 -0.030774737 -0.014255427 0.015194513 -0.021558091
-0.01457617 0.033658322 0.04101204 0.025894891 -0.0045375586 0.010826416 0.008741784 -0.0018152155
0.011150125 -0.026517656 0.028724229 0.03167428 -0.019696021 0.024122037 -0.013694016 -0.0112276515
-0.046161488 -0.035165206 -0.0034048501 -0.0017066502 -0.029319007 0.0193509 0.024368413 0.034173496
00000000: 7b8e 93bc 1a36 a13c fc8a 79bc 5153 163d
00000010: e25c 293c 0e5b df3b 5e61 0c3d 91a3 5ebc
00000020: beef bbbc 3b32 323d 7299 80bc c7f5 a9bc
00000030: 6dea 33bd 115c d23c 200e d3bc f30b 40bc
00000040: b59c 1cbc c63e 84bc 487b af3b 79d2 96bc
00000050: 57ce 933c 72c5 543b 28a3 c03c 31c9 14bd
00000060: 6962 7bbc ce54 febb 9f6d 093d 0d15 0f3d
00000070: b33e 9c3c e548 843c 65b6 8fbb d8ee 613c
00000080: 3360 c0bc e715 f3bc 5d1e adbc e163 213d
00000090: aaa4 b6bc 83b5 db3c d748 e83c 01a4 143d
000000a0: 0e2b 6a3c 8c5a 01bc f8f0 8d3a 2310 9bbc
000000b0: 91f6 ea3c 47e8 1fbd b813 23bc b46b 403c
000000c0: e16f 0ebc ff7a 81bc a45f a1ba 17fd 013d
000000d0: a962 403a 4f16 12bd 1997 823b a8c0 b6bc
000000e0: c0bc 593c 5eb8 2abd 47c5 58bc d341 a1bb
000000f0: 14f9 ed3c 6c1a b7bc 22de fd3a 745a 8bbc
00000100: f7d3 b3bb a775 143d 17c8 be3c 4afa d1bb
00000110: e66e 2fbc a443 3bbb 3cb7 afbb f658 19bc
00000120: 3087 9ebc 4907 33bb 7e29 383c ec9b 72bc
00000130: 5d68 ccbb 912f 113d a556 de3b c142 cebb
00000140: 7449 ffbc fa3d 163c e07f eabc e2b5 8d3c
00000150: f1db fbbc 9cf0 07bd c01a 2e3d 4ce5 c43c
00000160: d851 7d3c 3e96 4fbb bf47 053d 90ff cc3c
00000170: 9024 a73c fac6 36ba 6b14 1ebd 17f5 543c
00000180: 02cd 073d d7e4 5fbb ca8d 69bc 6cf7 9abc
00000190: 8d00 19bd dfc5 12bd a239 233d 3fcb ae3c
000001a0: 8aa5 fdbc b8c5 3a3c 7e24 d9bc 804d 0f3d
000001b0: aee4 8f3c e486 e1bb deac 9f3c 65be 9dbc
000001c0: 6705 a6bc 68f0 6a3c f882 c4bb df59 773c
000001d0: 6abf a13b 2ad4 ecbb 397e 123d 246f bb3c
000001e0: 5e35 853c 792c 17bd 2630 abb9 9c48 89bc
000001f0: ed24 afbc d3c1 bcbc a720 b83c 75d2 5d3c
00000200: d2d3 3d3b b500 163c 0ed4 2ebd 3fe0 263c
00000210: 73d5 36bb c28f 193d 5ebb cebc ccdb 6139
00000220: a3d3 b1bc 0d44 583b f367 3ebd ab09 683c
00000230: 26d8 b83c bcb6 b5bc 27c9 d1bc d355 bcbc
00000240: 2b3a 2e3c 4b60 54ba f095 d4bc 2b45 8bbc
00000250: 3e17 6f3c 4a1e b83c a48f 2f3d e4aa a0bc
00000260: d4e1 233d bb48 bfbc 70a7 25bd aca7 153d
00000270: 88ca 643c c20b 953c 0bb6 03bb 1868 103c
00000280: 7566 ac3c cba6 55bb e681 063d df99 1fbd
00000290: a35d dfbc 956e 31bd 13d3 e03b 2d75 0bbd
000002a0: 0206 ba3c 9afb f73c 2984 1abc 6f82 163d
000002b0: a03f 89bc d491 703c 8ed5 b0bc ee6e 203d
000002c0: 4137 c1bc 727e fabc 0ddd 1d3d 1c6e efbc
000002d0: 93d1 93bc 5a1e 023b 506f 3b3c 0988 d03c
000002e0: 458c 023d 3c85 a7bc 2b80 853c 2b03 b73c
000002f0: fc79 fcbc 39c3 33bd e73c 89bb 147d 2abd
00000300: 1aae fe3c a547 ccbb 6cf9 8cba 422b 973b
00000310: 81f3 c13b e00c 1f3d 804f 9f3c c9d1 d13c
00000320: fa62 0bbd c886 0abd 4c1a 343c 79bc 273c
00000330: 2e72 a7bc 23b0 b63b fc4b 54bc 947e dc3c
00000340: 1289 25bd 447a 17bd d532 4e3c 8fff bc3c
00000350: 6bc1 9ebc 2fdc ac3c 9b7e d73c fdef 983c
00000360: 9890 093d df66 703b f3b9 3c3c c998 073d
00000370: 5f0e 063c ec01 593c a845 0fbc eb81 96bc
00000380: e9b1 c13a 4e4c 0fbd 1850 0ebd 0d88 72bc
00000390: 4d1b fcbc 988f 69bc 68f2 783c 989a b0bc
000003a0: e3d0 6ebc 4fdd 093d 3efc 273d 8621 d43c
000003b0: cdaf 94bb 4861 313c b339 0f3c 86ec edba
000003c0: 04af 363c 8e3b d9bc 134f eb3c e4bc 013d
000003d0: 8d59 a1bc 949b c53c de5c 60bc 2ff4 37bc
000003e0: d413 3dbd 6409 10bd e823 5fbb aeb1 dfba
000003f0: 6a2e f0bc c785 9e3c 44a0 c73c 82f9 0b3d
