legacy/results/old/basic/basic_13.pth (torch, 961549 bytes, 26 tensors)

block1.0.weight f4 [64, 1, 3, 3]
000000 85 19 11 be 91 47 2b be ea ee 73 be 4d 6e bc 3d
       -0.14169891 -0.16726519 -0.23821607 0.09200726
000010 e0 df a8 3e 3e c8 cf bd f4 51 5d bd da f2 84 be
       0.32983303 -0.10145615 -0.054033235 -0.2596653
000020 e3 16 36 3e 4c 13 15 3e 61 e8 84 be 85 49 72 3e
       0.17782168 0.14558142 -0.2595854 0.23660858
000030 2b 51 5e 3e 77 46 48 be cc a4 8f 3e 13 b0 a0 be
       0.2171065 -0.1955813 0.28055418 -0.31384334
000040 ce e0 88 3d e2 61 d8 bd 08 f9 54 3e 53 e8 9f 3e
       0.06683503 -0.10565545 0.20798123 0.31231937
000050 89 39 91 be 01 17 51 3e 48 84 1f be 4f 73 a3 3e
       -0.28364208 0.20418932 -0.15577805 0.3192391
000060 90 9a 94 bd 22 36 a3 be f3 57 84 3d 55 77 30 3e
       -0.07256043 -0.31877238 0.064620875 0.17233022
000070 72 17 9d 3e cb c4 72 be 8d d1 52 3e 66 65 d8 3d
       0.3068195 -0.23707883 0.2058775 0.10566215
000080 65 f8 75 3d 5a bf 54 3e 83 08 3c be 66 37 16 3e
       0.06005134 0.2077612 -0.18362622 0.1466957
000090 85 25 f0 bd 9d cc 7f be 0d 77 e4 bd 2d ba e1 bc
       -0.11725906 -0.24980398 -0.1115552 -0.027554596
0000a0 df 69 b1 3e 7a 2c 99 bc 81 f9 6f be 68 45 85 3e
       0.34651086 -0.018697966 -0.23435022 0.26029515
0000b0 dc ed 6d be b0 17 e6 3d a7 24 e7 bd ac 81 5c 3e
       -0.23235267 0.11234987 -0.11286288 0.21533841
0000c0 6d bb 14 bd ea 46 86 3e 08 51 d4 bd ad 0e 09 3e
       -0.036311556 0.26225978 -0.10367018 0.13384505
0000d0 f2 a8 09 3e 98 97 59 bc a6 3a 7c be 4d c2 a5 3e
       0.13443354 -0.013280772 -0.24631748 0.32374802
0000e0 63 b0 40 3e 78 47 6d be b4 d6 54 be 75 ea ad bd
       0.18817286 -0.23171794 -0.20785028 -0.08491985
0000f0 cc b6 93 be 03 ac 93 3d 30 ce 4c bd 4e a4 a6 be
       -0.288504 0.07210543 -0.050001323 -0.3254723
000100 99 d9 a0 be b8 c2 42 3d c3 1e a9 3e ec 27 aa 3d
       -0.31416014 0.04754898 0.33031282 0.08308396
000110 cc 7a 4d 3e 1b 43 55 be 16 9f 8c 3e da de 9e bd
       0.20066375 -0.2082638 0.27465123 -0.07757349
000120 33 5a 72 bd 8d 9d 90 3e 15 c3 0d be 1c 92 c0 bc
       -0.059168052 0.28245202 -0.13843949 -0.02350717
000130 f1 fd cd 3d 57 38 e6 3d d7 6d b8 bd 87 9a 31 bd
       0.10058201 0.11241215 -0.09005325 -0.04336026
000140 f1 06 75 3e 12 7d 44 be 94 74 a3 be 11 9f 55 be
       0.23928429 -0.19188336 -0.3192488 -0.2086146
000150 67 e7 df 3d 43 fc 37 be 89 29 a6 be d2 44 e8 3d
       0.10932808 -0.17967324 -0.32453564 0.113412514
000160 75 33 7e be 7a 9c 2c 3e 8a 66 dc 3c e1 22 37 3e
       -0.24824317 0.16856566 0.026904363 0.17884399
000170 64 0e b7 bd 1a a3 2e be 23 e8 35 3e bf ce 48 3e
       -0.08938292 -0.17054406 0.17764334 0.19610117
000180 b2 74 f8 bd b7 6d 4e 3e da 54 87 be 3e 8c 16 be
       -0.12131633 0.2015904 -0.26431924 -0.14701936
000190 ac a5 2d 3e 3a 4f 0e 3d 6a f7 25 3e 9c d9 a7 be
       0.1695773 0.034743525 0.16207662 -0.3278321
0001a0 82 3d 9b 3d 63 b5 15 3e d7 4f bd bc 52 c4 99 3e
       0.07580091 0.14619975 -0.02310936 0.30032593
0001b0 59 3b 50 bc 82 3a 06 be f9 39 f6 3d 36 2d 9c be
       -0.012709462 -0.13108256 0.12022776 -0.30503243
0001c0 74 82 5a 3e e4 03 2d bd bb 88 94 bd dd 75 fb bc
       0.21338826 -0.04224004 -0.07252642 -0.03069585
0001d0 b9 c7 86 be b9 be 12 be ab 25 98 be aa c0 69 be
       -0.2632425 -0.14330567 -0.29716238 -0.22827402
0001e0 6e 97 07 bc 09 d8 af bd 48 cb ab bc ea 14 a7 3e
       -0.00827585 -0.08586127 -0.020970955 0.32633144
0001f0 3b a6 9e be f3 e3 80 3b c9 d6 ff 3b 48 61 89 be
       -0.309862 0.0039334237 0.007807587 -0.26832032
000200 85 77 07 3e 48 be 45 3e 08 35 03 be 77 eb b4 bd
       0.13229187 0.19310868 -0.12813199 -0.08833974
000210 01 01 a7 3e 10 69 3c 3e 88 8c 28 3e ab 8c fd bb
       0.32617953 0.18399453 0.16459858 -0.007737716
000220 a7 9a 8c 3e 37 d6 61 3e 91 c4 95 3e 2f fa 3c be
       0.2746174 0.22054373 0.2925153 -0.18454812
000230 f8 65 55 3e 27 70 6c 3d ce ac 0c be 03 44 14 be
       0.20839679 0.057724144 -0.13737795 -0.1447907
000240 3b 3c a6 3e fb b7 e2 3d 7e 34 97 be a4 3d d9 bd
       0.32467827 0.11070248 -0.29532236 -0.1060746
000250 c6 64 99 be 84 c4 01 3e ee d5 09 be 4f f3 68 3d
       -0.29959697 0.12672621 -0.13460514 0.056872662
000260 c1 e3 55 3e f6 c2 60 3d a8 a5 28 be 33 b0 93 be
       0.20887662 0.05487343 -0.16469443 -0.28845367
000270 39 f8 bf bd 9f 56 d9 3d 3c a0 23 3e d9 e3 8d 3e
       -0.093735166 0.10612225 0.15979093 0.27712896
000280 bb 50 6f 3d 68 ba d7 bc bb 78 80 3c 81 55 59 be
       0.0584266 -0.026334003 0.015682569 -0.21224023
000290 8f 7a 82 be 36 81 02 3e 7c 27 5b 3e 07 9b 95 3e
       -0.2548413 0.12744603 0.21401781 0.2921984
0002a0 00 8e 45 3e c1 9f e4 3a b3 bb 39 3e b0 1e a3 3d
       0.1929245 0.001744263 0.18138008 0.079648376
0002b0 bd 5d 0b 3e a8 8d 2f be c0 a5 86 be 0c 37 8c bb
       0.13609977 -0.17143881 -0.26298332 -0.004279023
0002c0 77 a9 1a bd 37 e3 8e 3e ab 3a bf bd f3 f0 5c 3e
       -0.03775927 0.27907726 -0.09337362 0.2157629
0002d0 7c bd 02 bd dc 1f 83 3e 6a 22 d4 3a 24 fd 61 3e
       -0.031918988 0.25610244 0.0016184573 0.22069222
0002e0 6a ff 5b be 39 7e 90 be b0 dc 11 be f1 46 74 3e
       -0.21484151 -0.282213 -0.14244342 0.23855187
0002f0 bd 4a 93 be 08 96 4c 3e a2 13 7b be 4e 66 32 be
       -0.28767958 0.19979107 -0.24519208 -0.17421839
000300 71 8a 89 3e da 0c 20 bc 9b a8 7d 3e 7c cd 5d 3e
       0.26863435 -0.009768689 0.24771349 0.21660417
000310 8d 8a 9b be 12 c1 b8 3d e6 b9 9b 3d 0b ac 44 be
       -0.30379143 0.090212 0.07603817 -0.19206254
000320 9c 10 20 be f4 e3 56 be be 00 60 3e 5a 72 93 be
       -0.15631336 -0.20985395 0.21875283 -0.2879818
000330 5b b4 ad be f6 bc e2 bc e6 ab 10 3e ce 46 62 3e
       -0.33926663 -0.027677994 0.14128074 0.22097322
000340 c8 7c 2e 3a 6a 3f 27 bd 7e ff 29 3d 07 02 5e 3e
       0.0006656167 -0.04083196 0.041503422 0.21680461
000350 58 8e 86 3e a8 7b cc bd 58 8d 27 3e 66 e6 5f 3a
       0.26280475 -0.09984523 0.16362512 0.0008541107
000360 cf 61 23 be 6d e5 69 3d c3 ea 83 be e0 1d c1 3d
       -0.1595528 0.057103563 -0.25765046 0.09429526
000370 43 0c 91 3d cc 0f 84 bd 80 77 9c 3e 95 55 6e bd
       0.07082417 -0.064483255 0.3055992 -0.058187086
000380 fd 00 8e 3e 8d 31 f5 3d 3e 7d 73 3e 8f 61 20 3d
       0.2773513 0.11972342 0.23778245 0.03915554
000390 62 af a9 be 9c d4 98 3e ea 3f 15 be 9f 52 00 3d
       -0.3314162 0.29849708 -0.14575163 0.031328794
0003a0 18 b9 21 3e 8e d4 63 be c1 fb 84 3e 68 c0 1f 3c
       0.15793264 -0.22249052 0.25973323 0.009750463
0003b0 69 cf 70 3e da 7d 00 be 4f 3d 3d 3e 0f 71 57 3e
       0.2351662 -0.12548009 0.18480419 0.21039222
0003c0 be 2e 41 3e 20 23 80 bd a4 78 2c 3e e5 bf c2 3d
       0.18865487 -0.062566996 0.16842896 0.09509257
0003d0 e6 7b 43 be c0 7e 8b 3e ba cf 2c 3e 7b 74 8f 3d
       -0.19090232 0.2724514 0.16876116 0.07004639
0003e0 be e3 85 be 55 92 85 3e c9 a3 af be 20 50 35 3e
       -0.26150316 0.26088205 -0.34304646 0.17706347
0003f0 87 f1 d5 bc 87 3d 6f be 61 ac 6a 3e 47 43 8c be
       -0.026116146 -0.23363315 0.2291732 -0.2739508

block1.0.bias f4 [64]
000000 48 29 88 3e 5a f8 9f be ac f4 05 3e c6 5b 11 3e
       0.26593995 -0.31244165 0.13081616 0.14195165
000010 36 29 86 be 78 7f 9a bc 75 3f 76 3d 95 fb 3b be
       -0.26203316 -0.01885961 0.06011911 -0.1835769
000020 d2 1c 87 3d d9 65 c2 bd 85 1e 1d be ee 03 e9 bd
       0.06597294 -0.09492082 -0.15343674 -0.11377703
000030 f5 bc 6a be be 35 93 be 84 4e 6e 3e 93 42 ce 3d
       -0.22923644 -0.2875194 0.23272139 0.10071292
000040 b7 05 54 3d 95 26 70 3e 18 99 19 be e3 89 7c be
       0.051763263 0.23452218 -0.14999807 -0.24661975
000050 bc bf 3d 3c 9f 09 18 3e 86 3b e0 3d 87 e1 87 3e
       0.011581358 0.1484742 0.10948853 0.2653925
000060 06 80 da bb 5a 12 6f 3e f9 47 86 bd 5f e0 f4 3d
       -0.0066680936 0.23346844 -0.065566964 0.11956858
000070 42 31 e3 3d ab 74 98 3e 70 37 85 bc e8 db 21 3e
       0.110933796 0.2977651 -0.016261786 0.15806544
000080 c2 b2 61 be 6a de 9a 3e b0 99 4e be f0 40 9b bd
       -0.22040847 0.30247813 -0.20175815 -0.07580745
000090 6d 5b 33 3d e0 85 54 3e 04 b4 4c be 30 81 99 3e
       0.043788362 0.20754194 -0.19990546 0.29981375
0000a0 f3 a8 8b be fd 50 0e be c7 dd 89 3e 21 dc 21 be
       -0.27277336 -0.13898082 0.26927015 -0.15806629
0000b0 74 f5 8b 3d aa c4 8e be 3b ff 91 be d2 af 92 be
       0.06833926 -0.27884418 -0.28515038 -0.28649765
0000c0 be 18 11 3e d0 1b 12 3e ec 82 01 bd 61 a0 3a 3d
       0.14169595 0.14268422 -0.031618997 0.045563105
0000d0 12 66 a2 3e 58 61 a5 3b 10 a4 3a be ca 80 7f 3d
       0.31718498 0.0050470047 -0.18226647 0.062378682
0000e0 7b fa 84 be c9 19 58 be c9 25 43 bd 3f 27 f7 bd
       -0.2597235 -0.21103586 -0.047643457 -0.120680325
0000f0 77 44 9e 3e 18 47 bd bd 34 19 32 3e fa f5 59 3d
       0.3091161 -0.09242076 0.17392427 0.053213097

block1.1.weight f4 [64]
000000 86 2d 7c 3f fd ae 80 3f fd d2 7d 3f cf 10 7c 3f
       0.98506963 1.0053402 0.9915007 0.9846315
000010 27 0f 7e 3f 77 57 7d 3f 7f b8 7b 3f 3e 30 84 3f
       0.9924187 0.98961586 0.98328394 1.0327222
000020 02 87 7d 3f a6 46 7d 3f c2 05 80 3f ba 09 7e 3f
       0.9903413 0.98935926 1.0001757 0.9923359
000030 25 e6 7c 3f 17 75 7d 3f 69 59 7d 3f b4 5a 7c 3f
       0.9878867 0.9900679 0.98964554 0.985759
000040 57 5b 85 3f 6b 2f 81 3f 04 5b 7d 3f cd ce 7e 3f
       1.04185 1.0092596 0.98967004 0.995343
000050 48 2e 7d 3f 82 4b 7e 3f 42 5c 7d 3f 17 bb 7d 3f
       0.98898745 0.99333966 0.989689 0.991136
000060 19 e8 7d 3f 18 3c 7f 3f ed 28 7b 3f c1 b9 7d 3f
       0.9918228 0.9970107 0.9810932 0.9911156
000070 02 b2 7d 3f 86 82 7c 3f 59 7e 7d 3f d6 56 7d 3f
       0.99099743 0.9863666 0.99020916 0.98960626
000080 b4 d7 83 3f 25 27 82 3f c9 78 7b 3f 1f 30 7e 3f
       1.0300202 1.0168196 0.9823118 0.99292177
000090 1e 29 81 3f 95 13 7d 3f eb a7 80 3f 04 13 7f 3f
       1.0090673 0.98858005 1.0051244 0.9963839
0000a0 a3 cd 7d 3f 38 a9 7c 3f 78 39 82 3f 19 23 7f 3f
       0.991419 0.9869571 1.0173788 0.9966293
0000b0 ce e7 80 3f 77 7d 80 3f c1 59 7e 3f 4a c9 7c 3f
       1.0070741 1.0038289 0.99355704 0.9874464
0000c0 6b ae 7f 3f 41 9d 81 3f 9f ac 80 3f 70 7f 7e 3f
       0.99875516 1.0126115 1.005268 0.99413204
0000d0 9f d9 7d 3f 41 71 7e 3f f1 77 7d 3f 9d f6 7b 3f
       0.9916019 0.9939156 0.9901114 0.98423177
0000e0 74 08 7f 3f 60 e3 7b 3f c0 8c 81 3f b8 b2 80 3f
       0.99622273 0.9839382 1.0121078 1.0054541
0000f0 92 c7 7d 3f a1 49 7c 3f 12 ec 7c 3f 97 b2 81 3f
       0.99132645 0.9854985 0.98797715 1.0132626

block1.1.bias f4 [64]
000000 ff f2 31 bc a3 e9 1c bc ef 37 61 bb 92 a6 31 bc
       -0.010861157 -0.009577188 -0.0034365614 -0.010842936
000010 59 fe 8d bc d9 ba b6 bb e1 43 a0 bc 89 54 8f 3c
       -0.017333196 -0.005576473 -0.019563617 0.017496364
000020 f9 3c 12 bb 64 cb c8 bc 68 57 83 3b 5d 74 4d b9
       -0.0022314175 -0.024511047 0.0040082224 -0.00019593672
000030 8b 04 50 bc 6a b6 cc ba 08 53 d7 39 44 38 11 bc
       -0.012696396 -0.0015618328 0.0004106986 -0.008863512
000040 90 63 d5 3b 03 80 2b b9 29 01 80 3b b1 da 2e bc
       0.006512113 -0.00016355519 0.0039063883 -0.010672257
000050 68 01 84 bc a2 fb 1a bc f7 47 ea ba d4 69 82 bb
       -0.016113952 -0.009459408 -0.001787423 -0.003979901
000060 98 7a 03 bc 35 c4 68 bc 03 97 bb bc 18 32 2c bc
       -0.008024834 -0.014206936 -0.022899156 -0.01050999
000070 08 7e a2 bc c5 6d 1c bc 08 39 3d bc 3f a1 66 3b
       -0.019835487 -0.0095476555 -0.011549242 0.0035191325
000080 ac 8a 20 3d 9d e2 8b 3c 4c 30 a8 ba 38 f8 a8 bb
       0.039194748 0.017075831 -0.0012831776 -0.005156543
000090 2a 69 d2 bc 1c 90 23 bc 93 40 a7 bc 5c 0a fb bb
       -0.025684912 -0.009983089 -0.020416534 -0.007661147
0000a0 bc 07 a8 bb 1a 1d bb ba b3 73 8b 3c 39 9e 3f bc
       -0.005127875 -0.0014275641 0.017022943 -0.011695438
0000b0 91 a4 0c 3b 9d 59 83 3b 07 b5 cd bb 00 36 88 bc
       0.0021460394 0.0040084855 -0.0062776837 -0.016627312
0000c0 03 66 2a 3b 4e 98 dc 3c 4e c7 2a bc e7 4a 90 bc
       0.0026000745 0.026928093 -0.0104234945 -0.017613841
0000d0 ff e1 30 bb 51 c8 ec 3a b5 04 28 bc c7 ad 18 bc
       -0.0026990173 0.001806507 -0.0102550285 -0.0093187755
0000e0 c7 24 a5 3b 71 b4 8b bc 4b 3b e3 3b 8b 79 11 3c
       0.0050397846 -0.017053815 0.0069345585 0.008879076
0000f0 ae f7 cb 3b 03 77 66 bc fd 22 87 bc 18 84 3d 3c
       0.006224594 -0.014066461 -0.016496176 0.011567138

block1.1.running_mean f4 [64]
000000 7a b0 c8 3d 6b d6 8e be e2 71 85 3e 03 b1 01 3f
       0.09799285 -0.27897963 0.26063448 0.50660723
000010 42 81 e1 be 7c a1 83 3e 0f 95 3e be 3c ac 35 be
       -0.44043928 0.2570914 -0.18611549 -0.17741483
000020 fa a7 79 3e f4 15 19 bf 52 62 b9 bd aa 40 8a 3d
       0.24380484 -0.5979912 -0.09051956 0.06750615
000030 7a 3f f2 be 45 74 24 bf 66 cd f3 3e b0 dd bc 3e
       -0.47314054 -0.64239913 0.47617644 0.36887884
000040 8b f4 41 3d f3 ca 8c 3e 4f a4 e2 3d 9c 35 3a be
       0.047352355 0.27498588 0.110664956 -0.18184513
000050 6a 26 d2 bd 1e 80 91 3e 97 5f 81 be f7 82 1f 3f
       -0.10261233 0.28418058 -0.25268242 0.6230921
000060 ce 3d f1 3d 68 ff a2 3e 53 25 dd 3e 58 36 71 3e
       0.117793664 0.31835485 0.4319254 0.23555887
000070 39 f3 98 bd eb fe fb bd eb 02 86 3e 73 e2 17 3c
       -0.07468266 -0.12304481 0.261741 0.009270298
000080 fe 65 66 be db 23 92 3e 43 f8 a0 3e 94 66 23 3d
       -0.22499844 0.2854298 0.3143941 0.039892748
000090 5d e5 60 bc 17 a0 09 3f d1 86 1f be 36 51 15 3e
       -0.0137265595 0.537599 -0.15578772 0.14581761
0000a0 6e d9 82 bd 1e 0d 82 3e 40 05 98 3e 47 14 85 be
       -0.06389128 0.25400633 0.29691505 -0.25992033
0000b0 25 79 f8 3c 65 78 b5 be 90 f6 f3 be 66 ae 09 bf
       0.030331204 -0.35443416 -0.4764905 -0.53781736
0000c0 22 18 59 3e d9 9f 06 3e 2e e6 d9 3c 18 c0 2b bd
       0.21200612 0.13146915 0.026599016 -0.04193124
0000d0 ce d5 3c 3e 0c 0c 5c be 2b 98 bf bc 2e 42 aa 3e
       0.18440935 -0.2148897 -0.023387989 0.33253616
0000e0 29 cd 24 be dd 29 0a bf 51 1f 02 be ad 95 93 bd
       -0.16093887 -0.5397013 -0.12707259 -0.07206283
0000f0 b3 39 dc 3e ba 62 d1 3e bb d5 0f 3f 7d e0 ac 3d
       0.4301277 0.40895635 0.561855 0.08441255

block1.1.running_var f4 [64]
000000 fd 39 46 3c 3f 3b b3 3a 3c e4 04 3c 80 03 65 3d
       0.012098786 0.0013674273 0.008111056 0.05591154
000010 d6 21 5f 3c ac 85 01 3d 06 b0 d6 3c 19 99 52 3a
       0.013618907 0.03162162 0.026206981 0.00080336776
000020 c5 ae 5a 3c 6e 12 db 3d 58 03 0a 3b b8 bf 65 3c
       0.013347332 0.106968746 0.0021059122 0.01402276
000030 e2 fe cb 3c 96 10 5c 3d 25 90 d3 3c e8 1f 00 3d
       0.024901811 0.053726755 0.02582557 0.03128043
000040 4a e0 8a 39 f3 5a cd 3a 04 0e ee 3c 33 9d 0f 3b
       0.0002648852 0.0015667364 0.029059418 0.0021913766
000050 13 e4 c8 3b d2 21 08 3c b6 22 60 3d 50 39 5b 3d
       0.006130704 0.008308845 0.054720603 0.053521454
000060 83 ae fa 3b a3 59 6b 3b af 10 d3 3d 4d 71 c1 3b
       0.007650198 0.0035911582 0.103059165 0.005903399
000070 2d 3b 71 3c bb ef 96 3d c8 26 08 3d 09 67 1e 3c
       0.014723581 0.07369944 0.03324011 0.00966812
000080 d4 4a 98 3a 33 b8 32 3a 6e ef e2 3d 4a 5e e1 3b
       0.001161898 0.0006817609 0.11080824 0.006877695
000090 14 c5 29 3b cf c0 3b 3d b3 7a e3 3a 9c 63 48 3c
       0.0025904821 0.045838173 0.0017355293 0.01223078
0000a0 94 51 97 3c 94 52 84 3d 5c 44 36 3b 0d 79 b1 3b
       0.018471517 0.06461063 0.0027811741 0.0054160417
0000b0 81 3f 51 3a 64 52 73 3b 27 28 85 3c 7a 29 d8 3c
       0.000798218 0.0037127966 0.016254498 0.026386965
0000c0 86 a9 21 3b fa 73 85 3a d8 8e e4 3a 8c af 5f 3b
       0.0024667694 0.0010181658 0.001743759 0.0034131734
0000d0 50 6e 01 3c 71 f4 ac 3c de d0 3c 3c 7a 5b f9 3c
       0.007899836 0.021112652 0.011524407 0.030439127
0000e0 50 5b c6 3b 96 bc 3b 3d 43 49 9b 3b 8e c5 61 3b
       0.0060533658 0.045834146 0.004738958 0.0034450027
0000f0 f2 e7 e6 3b e9 ba d6 3d bf 30 80 3d 6d e6 9a 3a
       0.007046693 0.10484869 0.062592976 0.001181794

block2.0.weight f4 [64, 64, 3, 3]
000000 25 d7 e1 3c e5 cc 22 bd 5b e9 df 3c 1f dd a2 3c
       0.02756841 -0.039746184 0.027332952 0.01988083
000010 3f f1 7f 3c 86 20 c6 3c 4b 02 07 bc 1b 44 8e bc
       0.015621482 0.02418543 -0.008240293 -0.01736646
000020 eb ca fc ba fb b5 43 bc af f5 4f bd cb af ac 3c
       -0.0019286548 -0.011945243 -0.05077141 0.021079918
000030 02 b8 1b 3a 19 7a 81 bc 2a 0d c4 bc a9 a6 12 bd
       0.00059402 -0.015805291 -0.023932058 -0.03580347
000040 ec be 95 3b 01 d6 b0 bb af 4e 1d bd 37 1b 09 3b
       0.004569879 -0.005396605 -0.038405117 0.0020920762
000050 55 01 c5 bc 7e 44 c4 bc 1f 87 1c 3c f1 d9 52 bb
       -0.024048487 -0.02395844 0.0095537 -0.003217336
000060 b8 27 eb bc 12 a9 e4 bb 73 44 92 bc 8d 53 05 3d
       -0.028705463 -0.0069781626 -0.017854905 0.032550383
000070 79 d2 19 bd 80 82 a7 bc 3b e8 9a bc f2 4a c7 3c
       -0.037554238 -0.02044797 -0.018909564 0.024327729
000080 39 7a bd bb ee cd 20 3b 88 96 04 bd b9 76 09 3d
       -0.0057823923 0.0024536806 -0.03237012 0.03356049
000090 a5 6c 19 bd 2e 9e ab bc cd 59 17 bd da 09 e7 bc
       -0.037457127 -0.02094945 -0.036950875 -0.02820294
0000a0 d2 61 79 3c 1a 67 dc 3b 0c 4d 72 bc 63 36 36 3c
       0.015221076 0.006726158 -0.014788877 0.011121365
0000b0 d3 c9 0f 3c 01 28 d2 3a 15 2e b8 3b bc 00 25 bd
       0.008776146 0.0016033651 0.005620728 -0.040283903
0000c0 35 eb e3 3c e4 e7 11 3d 28 47 10 3d dc 84 03 3d
       0.027822116 0.03562154 0.03522411 0.032109126
0000d0 b2 dc de bc bd 71 0e bb 93 d9 2d 3c 7b 69 1a bd
       -0.027204845 -0.0021735274 0.010610956 -0.03769825
0000e0 af 56 59 3c 5b 07 13 bb a8 1b 2c bc c7 b8 f0 bb
       0.013265296 -0.0022434804 -0.010504641 -0.007346246
0000f0 9e f2 26 bd d4 0c 0c 3d c6 f3 0d bd 07 02 32 3d
       -0.04075872 0.03419192 -0.03465631 0.043458965
000100 73 33 03 bd 63 d0 13 3d b0 b8 42 3c 30 c3 cd 3b
       -0.032031488 0.036087405 0.011884853 0.0062793717
000110 94 5a ff 3b ba 01 c3 3a 73 3a 2e b9 82 d1 5d bb
       0.00779278 0.0014877834 -0.00016615707 -0.00338468
000120 e1 e0 81 bc 89 bd 85 bc 29 bd 01 3d f6 31 1b 3d
       -0.0158543 -0.016325729 0.031674538 0.037889443
000130 59 3f fc 3c 1c 95 bf bb 71 8e ca 3c 50 83 1e 3c
       0.030791925 -0.0058466326 0.024726124 0.009674862
000140 56 bc 2c 3d 4a 72 22 bd 73 37 b9 bc 80 48 4c 3c
       0.0421718 -0.039659776 -0.022609448 0.012468457
000150 dd ca a9 bc 4d 29 18 bd 02 55 bf 3c a0 3f b9 bc
       -0.020726616 -0.037148762 0.023355965 -0.022613347
000160 53 23 95 bb e0 88 d3 ba e2 e3 56 bd 47 fd 6c bc
       -0.00455133 -0.0016138814 -0.05246342 -0.014464683
000170 5c 69 18 3d 24 a1 8a 3b 92 a6 0e 3d 02 79 28 3d
       0.037209854 0.0042306352 0.034826823 0.041131027
000180 e8 5a 40 3c 2d ac a6 3c 1c d0 00 3d e8 c1 5a 3c
       0.011740424 0.020345772 0.03144847 0.013351895
000190 80 3e 13 bc 28 16 50 bb 20 39 76 bb 12 c1 71 bc
       -0.008987069 -0.0031751487 -0.003757067 -0.014755504
0001a0 a7 a6 0c 3b 66 20 20 3d 0b f5 9f bc ac c5 aa 3c
       0.0021461637 0.039093398 -0.019526025 0.02084621
0001b0 bf 36 46 bc bc 7b 22 3d f4 5d 0e bd 96 2e b6 3c
       -0.012098013 0.039668784 -0.03475757 0.02223901
0001c0 62 b5 05 3d 11 8e c1 bc 20 d6 ad bc 18 4d a0 3c
       0.032643683 -0.023627313 -0.021220267 0.019568011
0001d0 86 8e f2 3b 47 c7 88 bc 20 5d 08 bd 10 f5 ab 3a
       0.007402244 -0.016696585 -0.033291936 0.0013119299
0001e0 51 d7 d9 ba a2 ea 28 3b dd ad a7 ba 1c cf bb 3c
       -0.0016619955 0.0025774618 -0.0012792904 0.022925906
0001f0 de 94 08 3b d4 34 c0 bc 04 b7 a5 3c c6 88 15 3d
       0.0020840685 -0.02346269 0.02022887 0.03650739
000200 6e d5 f1 bc ce 9c 8d 3b 56 e0 b2 3c 2c 96 d1 bc
       -0.029520717 0.004321671 0.021835487 -0.025584303
000210 ac ee cc bb ae 8b 94 3c 28 27 0d 3c 3d c0 31 bd
       -0.006254038 0.01813301 0.008615293 -0.043396223
000220 3a 62 19 bb c1 29 33 bc 1d a2 a1 bb de f6 b8 3b
       -0.0023404495 -0.010935248 -0.0049326555 0.0056446632
000230 56 17 01 3d a1 5a 26 bd 1f 87 e3 3c 7c c5 6f bc
       0.031516396 -0.040613774 0.027774392 -0.014634486
000240 f8 e8 7f 3c 9a 1a 58 3a 73 40 ba 3c 32 f3 8c bc
       0.015619509 0.000824371 0.02273581 -0.017205808
000250 61 a5 45 bd 62 35 0b bb 4e 18 25 3d 83 d1 29 3c
       -0.04825342 -0.0021241535 0.040306382 0.010364893
000260 e9 f4 6a 3c 3e 21 f0 3c e2 d5 25 bd 26 ef 66 bb
       0.014340618 0.029312726 -0.040487178 -0.0035237758
000270 1e 05 f0 bc f8 ef ed 3c aa 33 cf 3b 1f 56 df bc
       -0.029299315 0.02904509 0.0063232975 -0.027262745
000280 5a f1 27 3d a3 db c4 bc b6 a9 f4 bc 4e c5 0c 3d
       0.041001655 -0.024030512 -0.02986608 0.034367852
000290 07 3c e1 bc 24 f8 20 3c 9e 3e c0 3b 8a 1c 0b 3d
       -0.027494444 0.009824786 0.0058668396 0.033962764
0002a0 46 7b eb bc ab 7b d8 3c cd d2 ad 3c 9a 8c a4 3c
       -0.028745305 0.026426157 0.021218682 0.020086575
0002b0 61 70 aa bc 85 f7 e9 bc 71 1d 83 bc 7d c0 70 bc
       -0.02080554 -0.02856041 -0.01600525 -0.01469433
0002c0 4f 32 db bc 48 3c 70 bc b3 8e ea bc 35 d5 0f bd
       -0.026757387 -0.01466281 -0.028632497 -0.03511544
0002d0 5c 85 1b 3a f3 07 e3 bc bc ee 0d 3c 87 c4 70 bb
       0.0005932653 -0.027713751 0.008662876 -0.0036738233
0002e0 e1 eb d4 bc c5 5d 88 3c 12 b5 cb bc 8c 0a 31 3c
       -0.025991382 0.016646275 -0.024866614 0.010805737
0002f0 a6 01 f2 bc e0 d7 26 bd b5 cc ee bc 2e 9f 1f 3d
       -0.029541802 -0.04073322 -0.029150346 0.038970165
000300 34 21 95 3c d6 0d df bb 92 35 5f bb 4c ad 96 3c
       0.018204309 -0.0068070693 -0.003405903 0.018393181
000310 c8 65 d5 3c 50 4b 90 bc 07 0c 85 3c 12 d1 01 3c
       0.02604951 -0.017614037 0.016241087 0.007923381
000320 aa 5a b9 3c 8b bc 22 bd dd 69 25 bd da 83 a5 3c
       0.02262624 -0.03973059 -0.040384162 0.020204473
000330 83 ae 09 3d f2 a6 2b bd 5e b2 df bb c2 6a 92 3c
       0.033613693 -0.04190726 -0.006826683 0.017873172
000340 99 2d 03 3d 63 fb f3 bc e0 3f 67 bc 37 02 4a 3c
       0.032025907 -0.029782956 -0.01411435 0.01232963
000350 6d 87 8c 3c 1b a0 0a 3d 77 f4 6b 3c df 21 cc bb
       0.01715442 0.033844095 0.014401547 -0.0062296237
000360 a3 81 bc bc 3a 5e 1f 3c 1c ed 86 bc 69 99 10 bd
       -0.023011034 0.009727055 -0.016470484 -0.035302553
000370 16 59 1b 3d 38 6e e2 3b 36 36 b5 bb e2 c7 f0 3c
       0.037926756 0.0069101118 -0.005530144 0.029392187
000380 c8 46 9f 3c 7e 6d 67 3c 8d 40 8c 3c 46 7e 9c 3b
       0.01944293 0.014125226 0.017120624 0.004775795
000390 2e 8a a5 3c 72 f7 2e bd 87 25 98 bc db 0e d6 bc
       0.02020749 -0.04271645 -0.018572582 -0.02613013
0003a0 6d 79 10 bd 8d d6 1b bd 38 ce d0 bc c5 ec ca bc
       -0.03527205 -0.03804641 -0.025488958 -0.024771104
0003b0 5b 0b 70 3c 75 3a b7 3c a2 11 f0 3c 0c e9 18 bd
       0.014651145 0.022366742 0.029305283 -0.037331626
0003c0 9e 5e 1f 3d 8a 00 89 bc a4 6c 9a bc cf 9d 0f bd
       0.038908593 -0.01672389 -0.018850632 -0.035062607
0003d0 98 24 ac bc ab 77 27 3d 71 a8 1f bb 30 20 20 3d
       -0.021013543 0.04088561 -0.0024361874 0.039093196
0003e0 63 b1 cc 3c a4 e0 32 3d a8 ba 88 3c 56 8e a3 3a
       0.024986928 0.043671265 0.016690567 0.0012478333
0003f0 52 6d 9e bc 12 ca 8d bb 98 9a 68 bc 97 ea d7 bc
       -0.019339237 -0.004327067 -0.014197014 -0.026356978

block2.0.bias f4 [64]
000000 a5 a0 e4 3c 71 54 0a bc f8 b0 09 3c 0b 80 c9 bc
       0.027908633 -0.008442984 0.008404009 -0.024597188
000010 01 e1 ab bc fb 85 21 3c ca 72 fd bc 9d 2d 8a 3c
       -0.020981314 0.009858604 -0.030938525 0.016867453
000020 e0 11 bc 3c a2 78 86 bc d9 df f3 3c e8 8b b6 ba
       0.022957742 -0.016414944 0.029769825 -0.0013927193
000030 48 0e aa 3c 98 f9 ac 3c 3b cf a4 bb 5d 00 9c 3c
       0.020758763 0.02111511 -0.0050295866 0.019043142
000040 c5 6f 23 bd a7 e5 04 bd e9 5f 3a 3c c7 59 28 bc
       -0.039901514 -0.032445576 0.011375406 -0.010275311
000050 ef d2 82 bb 06 55 f1 3c 19 d1 20 3d cf 93 c2 3c
       -0.0039924304 0.029459488 0.03926191 0.023752121
000060 d1 e8 a1 bc dd af 31 bb 1a 07 b1 3c 36 36 59 bc
       -0.019764336 -0.002711288 0.021609832 -0.013257554
000070 68 ab af bc 4b 9c ec bb 70 b2 f4 3c 00 33 9d bc
       -0.021444038 -0.00722078 0.029870242 -0.019189358
000080 88 a2 eb bc c1 01 8f 3c 1d 8f d1 3c aa e4 a8 bb
       -0.028764024 0.017456891 0.025580937 -0.005154212
000090 c3 92 cf 3c 5e 0e f6 bc 3b 36 e7 bb 43 0f 21 bd
       0.025338536 -0.030036148 -0.0070560253 -0.039321195
0000a0 88 36 93 bb 79 c9 f9 bc 96 89 dd 3c 05 1c 0e 3d
       -0.0044925846 -0.030491577 0.027043145 0.03469469
0000b0 e5 9d dc 3c 0c 38 27 3d 8e bc 12 3d fb 26 22 bd
       0.026930759 0.040824935 0.03582435 -0.039587956
0000c0 f5 87 72 bb 8e a8 c6 bc bf e4 d1 3c 14 b8 d3 3a
       -0.0037007306 -0.024250295 0.02562177 0.0016152882
0000d0 a1 e4 b5 bc ed f5 74 3c b6 25 af bc 96 ea 21 bd
       -0.022203745 0.014951211 -0.021380287 -0.03953036
0000e0 ca 83 1a 3d c8 89 20 3c f2 45 41 bd fd 2d 83 3c
       0.03772334 0.009798475 -0.047185846 0.01601314
0000f0 aa 66 e5 3b 2a 8c 4b 3b 63 61 07 3d b9 12 11 3d
       0.007000764 0.0031058886 0.03305186 0.035418246

block2.1.weight f4 [64]
000000 a7 4e 81 3f db 47 7f 3f 45 86 80 3f 40 5d 80 3f
       1.0102128 0.9971902 1.0040976 1.0028458
000010 63 80 7e 3f ad 01 81 3f 68 70 7c 3f ac 54 7c 3f
       0.9941465 1.0078636 0.9860902 0.985667
000020 6e 85 7c 3f 14 22 80 3f c7 3e 80 3f 5a d2 7d 3f
       0.986411 1.00104 1.0019158 0.99149096
000030 db e9 81 3f 04 b9 80 3f ea 7f 7a 3f 6a 09 7f 3f
       1.0149492 1.0056462 0.9785143 0.9962374
000040 68 01 7f 3f 4f b8 7e 3f 00 e1 7f 3f f2 b3 7d 3f
       0.9961152 0.9949998 0.999527 0.991027
000050 37 11 80 3f 7c c9 80 3f f7 c7 80 3f 07 1f 80 3f
       1.0005254 1.0061488 1.0061024 1.0009469
000060 1c 22 7c 3f 01 50 80 3f 29 1e 82 3f 09 df 81 3f
       0.98489547 1.0024415 1.0165454 1.014619
000070 d0 70 7d 3f 76 92 7d 3f 23 44 7f 3f 52 e2 80 3f
       0.99000263 0.99051607 0.99713343 1.0069067
000080 32 b9 7c 3f 8c 7d 7d 3f bf 31 81 3f bc 7d 7e 3f
       0.98720086 0.99019694 1.0093306 0.99410605
000090 76 60 80 3f 65 78 80 3f fa fa 81 3f 5c e4 80 3f
       1.0029438 1.0036741 1.0154717 1.006969
0000a0 4d 67 7d 3f e3 88 7d 3f 38 18 7e 3f 44 2f 7d 3f
       0.9898575 0.99037 0.99255705 0.98900247
0000b0 ac 63 80 3f ad dc 7e 3f a8 c4 7f 3f 93 33 7e 3f
       1.0030417 0.99555475 0.9990945 0.99297446
0000c0 99 c6 81 3f 17 b7 7b 3f 57 ca 81 3f 5f 75 7f 3f
       1.0138732 0.9832625 1.0139874 0.9978847
0000d0 1e e7 7f 3f e6 a4 80 3f 7e c1 80 3f 7d d2 80 3f
       0.9996203 1.0050323 1.0059049 1.0064236
0000e0 8d 01 7e 3f 4c c9 7f 3f ea 0b 83 3f 9d 56 7b 3f
       0.99221116 0.9991653 1.0238011 0.98179036
0000f0 37 09 80 3f 65 5e 7e 3f db 86 7d 3f 0d e2 80 3f
       1.0002812 0.99362785 0.990339 1.0068985

block2.1.bias f4 [64]
000000 a6 07 47 bb e8 96 b2 bc 0c 28 88 bc 0e 9a d6 bc
       -0.003036955 -0.021800473 -0.016620658 -0.026196506
000010 38 db 92 bc db d7 ea bc ee 3f a9 bc 7b 20 8f bc
       -0.017926797 -0.028667381 -0.020660367 -0.017471543
000020 7c 02 bd bc 4e fd b1 bc b5 58 a6 bc 93 80 ac bc
       -0.023072474 -0.02172723 -0.02030597 -0.021057403
000030 79 19 00 3b 42 80 04 bd aa 0e d7 bc e4 d9 80 bc
       0.0019546433 -0.03234888 -0.02625211 -0.015728898
000040 c1 79 6c bc ce d6 9c bc 75 19 b1 bc 8b 2d 46 bc
       -0.014433325 -0.019145396 -0.021618584 -0.012095819
000050 d5 e4 24 bc d3 49 1f bc a5 81 81 bc d3 da 81 bc
       -0.010064323 -0.009722191 -0.01580889 -0.015851414
000060 5b 7d db bc 22 3f 10 bc fb ef 8f bc 46 a0 aa bc
       -0.026793173 -0.008804115 -0.017570486 -0.020828377
000070 7f a5 77 bc 4b 5c ae bc 09 d1 92 bc ab 41 25 bc
       -0.015115141 -0.021284243 -0.017921941 -0.010086457
000080 91 de db bc c1 63 84 bc ea d8 96 bc d1 35 75 bc
       -0.026839526 -0.016160848 -0.01841398 -0.014966444
000090 51 9d e8 3b 18 39 38 bc 26 6a 0c bb a0 25 d1 bc
       0.0070988317 -0.011244081 -0.0021425574 -0.025530636
0000a0 4a 95 0e bc 5e ed 84 bc 9d 1f ca bc 26 29 f9 bc
       -0.0087025855 -0.016226467 -0.024673278 -0.030415129
0000b0 34 e4 53 bc 85 a4 a5 bc 06 27 86 bc 71 73 9b bc
       -0.012932826 -0.02022005 -0.01637603 -0.018975945
0000c0 55 26 33 3a 2a 68 8d bc 1b 29 9e bc d1 c1 8f bc
       0.000683402 -0.017261583 -0.01930671 -0.017548474
0000d0 1b ba a5 bc b9 6f b8 bb 22 0f 8f bb 4d 21 86 bc
       -0.020230344 -0.0056285528 -0.0043658176 -0.0163733
0000e0 a9 cb 61 bc f1 d9 be bc 78 24 ce bb 6e ea cb bc
       -0.0137814665 -0.023297282 -0.0062909685 -0.024892058
0000f0 f0 47 f3 bc 81 6c 9e bc 6f c7 ad bc 39 f2 e4 bc
       -0.029697388 -0.019338848 -0.021213261 -0.027947532

block2.1.running_mean f4 [64]
000000 c7 6c 90 be 41 24 f1 be 8f 46 b5 be 6d 74 ff 3c
       -0.2820799 -0.47097972 -0.35405394 0.031183446
000010 67 f2 16 3c 45 84 00 bf 16 d5 fe be bd 11 6a 3e
       0.009213067 -0.5020183 -0.49771947 0.22858329
000020 9a 4c d8 3e 2f 91 3b be 2b b6 9c be 64 4c 2b bc
       0.42245942 -0.18317102 -0.30607733 -0.010455225
000030 48 94 03 bf 9b 8b 31 be 15 e4 11 3f bb 36 ff bd
       -0.51398134 -0.17338412 0.5698865 -0.12461611
000040 68 aa 0c bf 09 6c f2 3e 50 c1 4b bf 9e cd 46 be
       -0.5494752 0.4734805 -0.79591846 -0.19414374
000050 e3 6b 88 bf 85 76 b5 3d 65 ec 00 bf a3 19 af bd
       -1.0657924 0.088604964 -0.5036071 -0.08549812
000060 91 de 40 be 23 52 39 bf 0e 02 bc 3d 8a 7c f1 be
       -0.18834902 -0.72390956 0.091800794 -0.47165328
000070 df 67 88 bd 6e 8f fd 3e 9b 5a 14 be d1 9a c8 be
       -0.06660437 0.4952349 -0.14487688 -0.39180616
000080 07 b1 ee 3e a1 72 37 3f c6 14 af be 24 76 22 3f
       0.46619436 0.71659285 -0.34195536 0.6346152
000090 fa b3 af bd 50 ac bb be e0 33 f9 bd 38 7e 2a be
       -0.0857925 -0.36654902 -0.121680975 -0.16649711
0000a0 fb 6b da 3e 62 35 ff 3e 1e c4 06 bf 0f c4 c1 be
       0.42660508 0.49845415 -0.52643 -0.37844893
0000b0 73 21 7d 3e 62 cf ac be 1b 88 17 bf b0 a1 88 be
       0.24719791 -0.3375197 -0.59192055 -0.26685858
0000c0 ab f1 00 be a8 c9 46 3e 13 8c ec 3d da a3 27 be
       -0.12592189 0.19412863 0.115501545 -0.16371098
0000d0 2f 6a c6 be b3 7d d6 3d 3f b9 6c be 59 e3 37 3d
       -0.38752887 0.10473194 -0.23117541 0.04489455
0000e0 b9 a7 22 bf 24 40 f5 be 34 74 df bd 0f 3f 14 be
       -0.63537174 -0.47900498 -0.10910836 -0.1447718
0000f0 ee dd 21 3f c8 14 73 3e 1c 9e 6e 3e 42 6c 33 be
       0.6322926 0.23738396 0.23302501 -0.17521766

block2.1.running_var f4 [64]
000000 5b f6 ec 3d c0 c5 8f 3e 15 c8 c5 3e 03 8f 8e 3d
       0.11570426 0.2808056 0.38629213 0.06960871
000010 c9 05 2d 3e 5f c8 17 3e 78 d5 38 3f 03 5b a4 3e
       0.16896738 0.1482253 0.7220073 0.32100686
000020 84 ed 19 3e ab 96 28 3f 43 8f 0b 3e bf 7d 75 3e
       0.15032011 0.658549 0.13628869 0.2397375
000030 d1 6c b7 3e b8 2a a9 3d b3 10 1b 3e 6f c8 9d 3e
       0.35825208 0.08260101 0.15143089 0.3081698
000040 0c a7 d9 3e f7 01 60 3e ee 6f 96 3e 48 3c 91 3e
       0.4251026 0.2187575 0.2938227 0.28366303
000050 b8 ca 67 3f 35 d9 8c 3e fa a3 21 3e 90 c1 49 3e
       0.905437 0.27509466 0.15785208 0.19702744
000060 11 66 34 3f f7 63 7b 3e a4 80 89 3d 34 6e 21 3e
       0.7046824 0.24549852 0.067139894 0.15764695
000070 86 86 ad 3e 42 28 a5 3e 3e d9 59 3e 83 06 13 3e
       0.33891696 0.32257277 0.21274278 0.14357953
000080 d1 79 68 3f b2 a1 9b 3e d3 6d e6 3d 51 3e 4d 3e
       0.9081088 0.303968 0.11251416 0.20043303
000090 47 ab fb 3d c8 03 4c 3e d1 3a 54 3d f0 45 b1 3d
       0.12288528 0.19923317 0.051813904 0.08655918
0000a0 2c db 71 3e 97 d3 aa 3e 0e 5f 0f 3f 3f eb 46 3f
       0.23618764 0.33364555 0.56004417 0.7770271
0000b0 0b 63 02 3e 11 5d aa 3e 76 28 8e 3e 52 92 69 3e
       0.12733094 0.3327413 0.27765244 0.22809723
0000c0 34 d5 b1 3d ac 02 30 3e ab 76 8e 3d b4 0b 73 3e
       0.086832434 0.17188519 0.06956228 0.23734933
0000d0 94 3b 88 3e 06 18 b6 3d d0 4f 04 3e 1d 14 dc 3d
       0.26607955 0.08891301 0.12921071 0.10746024
0000e0 ff 8e d5 3e 1b 30 28 3e b6 ba 8a 3d fb 85 18 3f
       0.4171066 0.16424601 0.067738935 0.5957944
0000f0 ea a5 03 3f 21 95 9a 3f 0f cb 35 3e 55 e8 bb 3d
       0.5142504 1.207676 0.17753242 0.09175173

block3.0.weight f4 [64, 64, 3, 3]
000000 c0 21 06 bd 20 ec ca bc 99 36 b3 bc b5 44 a7 3c
       -0.03274703 -0.024770796 -0.02187662 0.020418504
000010 fe 1a f7 3c f5 25 3c 3d fc 5d a5 bc 64 90 71 3d
       0.030164238 0.045934636 -0.020186417 0.058975592
000020 78 fc 26 bd e6 5d 8c bc 23 b5 d9 bc 59 06 ec 39
       -0.040768117 -0.017134618 -0.02657563 0.00045018157
000030 1a e8 04 bc 2a 3a 71 bc 62 d8 a3 3c d7 f2 26 bd
       -0.008111978 -0.01472334 0.02000064 -0.040758934
000040 18 7e a2 3b ff 13 08 bc f0 ad 6a 3c 3b 5a a4 3b
       0.004958879 -0.008305549 0.0143236965 0.005015639
000050 84 76 32 ba ad da f3 3a 1e b0 13 bd de 15 93 b9
       -0.00068078213 0.0018604599 -0.03605663 -0.00028054317
000060 7e cf d8 3c d9 2d f9 bc 33 3e 4c 3b 77 32 c2 bc
       0.026466127 -0.03041737 0.0031165003 -0.023705704
000070 65 60 94 bb f5 0d 67 bc d1 26 15 3d 7e 51 9c bc
       -0.0045280927 -0.014102449 0.03641397 -0.019081827
000080 67 44 1b bd e2 dc 01 3d fe f5 0c 3d 5b 1b ba 3c
       -0.03790703 0.03170479 0.034414284 0.022718122
000090 a0 38 1e bd 9a 4f 2c bd 78 68 81 bc 0a 11 e5 bc
       -0.03862822 -0.0420681 -0.015796885 -0.027962226
0000a0 77 ba c6 3c 6a 6b a8 3c 5f e7 8b 3c d1 9c 4f 3c
       0.024258835 0.020559032 0.0170781 0.012671665
0000b0 eb 70 2b bd da 70 08 bd 6e 34 86 bc 94 ff 2a bc
       -0.041855734 -0.03331075 -0.016382422 -0.010436911
0000c0 f3 6b e0 3a 6c 84 a2 bb 42 24 79 3c 29 0c 97 3c
       0.0017122015 -0.0049596336 0.015206398 0.018438416
0000d0 aa 96 13 3d 1a fb 47 3c 13 1f f0 bc 50 81 d9 3c
       0.036032356 0.012205863 -0.029311692 0.026550919
0000e0 c8 62 0e bc cf c8 a5 3b 0b 2f c9 bc bb 96 0c bd
       -0.0086905435 0.0050593386 -0.024558565 -0.034323435
0000f0 f1 d1 1e 3d 3d 2f ef ba 23 41 d0 bc 16 9e dd bc
       0.038774434 -0.0018248331 -0.025421685 -0.02705292
000100 16 e6 7e bc 63 15 95 3c 19 54 f1 3c 7c e7 fe bc
       -0.015557786 0.018198675 0.029459046 -0.03111624
000110 54 a3 9a 3b 1c c8 08 3c 4d 00 17 bd 24 a6 b5 bc
       0.0047191773 0.008348491 -0.03686552 -0.022173949
000120 c6 3e 94 bc 44 51 48 bb 4d 8f a8 3c 7b 49 fa 3c
       -0.018096339 -0.0030566016 0.020576144 0.030552616
000130 41 c1 08 bd cd 99 19 3d a9 37 73 bc bc 7e 4c bc
       -0.033387426 0.03750019 -0.014844813 -0.012481388
000140 0d 0a 24 3d a1 93 86 bb 39 0b dd 3c 93 73 9e bc
       0.040048648 -0.004106954 0.02698289 -0.01934222
000150 8d c8 38 bd eb 6f 1c bc 3a 1e 7d 3c bf 3d b4 bc
       -0.045113135 -0.009548168 0.015449101 -0.0220021
000160 ea 8a 0d 3d 17 6b 84 bc a7 c8 e1 3c 80 d0 8d bc
       0.034556307 -0.016164346 0.027561499 -0.017311335
000170 ea 1c 85 3c 6a 70 88 3c bf fb d7 3b 7b 7a 61 bc
       0.016249139 0.016655166 0.00659129 -0.013762112
000180 17 1c 26 3d 28 91 ba 3c bf 7e a0 3c 6a 66 18 bc
       0.040554132 0.022774294 0.019591687 -0.009301761
000190 bc ce 13 bd 03 4a 96 bc 61 a0 e0 39 2b d0 ab bc
       -0.03608583 -0.018345838 0.000428441 -0.020973286
0001a0 25 dc c2 3c cf 11 d7 3c 9a 00 c4 3c 98 27 c2 bc
       0.023786614 0.026253609 0.023926068 -0.02370052
0001b0 d2 46 92 3c 6c a1 ed 3c 44 81 e8 3c 29 86 91 3c
       0.017856035 0.029007636 0.028381951 0.017764168
0001c0 d1 2a 66 bc 75 dc ea bc 98 82 f0 3c f1 cd 7d 3c
       -0.014048294 -0.028669575 0.029359147 0.015490995
0001d0 1e be f3 bc 53 af 5c bb c9 20 cd bc 07 d2 88 bc
       -0.02975374 -0.0033673837 -0.025040047 -0.016701711
0001e0 e1 1e 63 3c bb d5 da bc 7b 2c f1 bc 0e e7 09 bc
       0.013862343 -0.026713243 -0.029440155 -0.008416904
0001f0 6c 47 a6 3c 1b bb d7 bc 9c 09 9a bb 74 c5 e1 bc
       0.020297728 -0.026334336 -0.0047008526 -0.027559973
000200 ef e2 ad 3c 3e c2 d5 bc 8d d9 fb 3c ab c6 15 3c
       0.021226374 -0.026093598 0.030743385 0.009141604
000210 5d 9d 09 3d 9a 7f 6d bc 3c d0 15 3d 5d b3 3e 3c
       0.03359734 -0.014495755 0.03657554 0.011639443
000220 2b f7 78 3b 80 fb 8b 3c 66 ca d3 3a f6 9c ca 3c
       0.003798912 0.017087698 0.0016158342 0.024733048
000230 19 0d 47 3c 72 c8 f1 bb 33 aa 2f bd 0b c6 36 bc
       0.012149119 -0.0073786313 -0.042886924 -0.011155616
000240 f8 63 df bc f4 5c 33 3c e6 b1 80 3c 62 b2 01 3d
       -0.027269349 0.010947455 0.015709829 0.03166426
000250 d7 0c 7e bb 6a b2 64 3b 7b f1 b7 3c 42 17 54 bd
       -0.0038764977 0.0034896382 0.022454014 -0.051779993
000260 8a 38 d4 bc 5e bd 70 3c a0 36 78 3c a2 42 95 3b
       -0.025905866 0.014693586 0.015149742 0.0045550624
000270 50 04 17 3d 6b b3 8a 3c 99 bc b0 3c 2d ca 38 3b
       0.036869347 0.016931256 0.021574305 0.0028196678
000280 5f 6e 10 3d f4 60 f1 3c 37 5d 83 3c ce fe 07 bd
       0.035261508 0.029465176 0.01603566 -0.033201985
000290 3a 79 e0 3c 97 65 28 bc 18 e9 c9 bc 46 f5 41 bd
       0.027401555 -0.010278127 -0.02464728 -0.04735305
0002a0 9b 08 82 3c 82 7c f5 3b e5 ee e8 3b 5e 9a 00 bd
       0.015873244 0.007491649 0.0071085566 -0.031397216
0002b0 0f 5e 94 3c ef ce c5 3b 1a da fb 3c a2 24 dd bc
       0.018111257 0.0060366313 0.030743647 -0.026995007
0002c0 35 dc a2 3c e6 f3 55 3c 92 e0 4d ba 22 e1 2b 3c
       0.019880394 0.013058638 -0.0007853593 0.010490688
0002d0 23 49 4c bd cd 2f a8 3b 98 ae a8 bc c5 a6 4e bc
       -0.049874436 0.0051326514 -0.020591065 -0.012613003
0002e0 ad 88 37 3b 96 7c 5f bc 48 fa 24 bd 91 f8 0f bc
       0.002800505 -0.013640543 -0.04027775 -0.00878729
0002f0 fe 5c e7 3c 35 9b 39 bd 1e 2e 87 3c 84 14 0c 3b
       0.028242584 -0.045314033 0.016501483 0.0021374533
000300 95 fc df bc dc 02 da bc 41 65 fb 3c a8 15 07 bd
       -0.02734212 -0.026612692 0.03068793 -0.032979637
000310 03 35 0c bd c7 15 07 3b a3 4a b2 3c 23 73 a5 3c
       -0.034230243 0.0020612346 0.021764105 0.020196503
000320 3c 33 c2 3c 64 04 dd 3c 48 d1 10 3b cf f6 f4 3b
       0.023706071 0.026979633 0.0022097398 0.007475711
000330 36 06 9b bc 2b 4b 40 bd d7 0e 01 bb dc 1e c2 3c
       -0.01892386 -0.046946686 -0.0019692683 0.023696356
000340 28 9e d4 3a f8 69 e7 3c 02 91 ff bb 92 3f 87 bc
       0.0016221451 0.028248772 -0.0077992687 -0.016509805
000350 56 f5 2f bd e9 5d 48 3d bb 19 3b 3b b4 4c 8a bc
       -0.04295858 0.048917685 0.0028549272 -0.016882278
000360 91 80 09 bc 1c 18 d5 3c 12 1c 0a 3c b8 93 17 3d
       -0.008392469 0.026012473 0.008429544 0.03700611
000370 98 88 c3 3c da a0 b2 ba 44 dd 65 bc 57 5c 8b bb
       0.023868844 -0.001362826 -0.014029805 -0.004252951
000380 98 d1 86 bc 7c 8f 9f 3c 3a b6 9b 3c 8b a6 f5 bb
       -0.016457364 0.019477598 0.01900779 -0.00749666
000390 46 82 6f 3c ca a6 ec 3a 4a 3f 5a 3b 8a 51 47 bc
       0.014618462 0.0018055078 0.0033301883 -0.0121654365
0003a0 0a dd 44 3d ee 25 fc 3b 05 22 20 bd 2e 4e 55 3d
       0.04806236 0.0076949513 -0.039094944 0.05207651
0003b0 5f 38 2b bd 11 e0 ca 3b ed 6c c4 bc 08 d4 c0 3c
       -0.041801807 0.0061912616 -0.023977721 0.023538604
0003c0 c6 31 04 3c 4f 01 a0 bc fa fc aa 3c ba 48 44 bd
       0.008068508 -0.019531874 0.020872582 -0.04792092
0003d0 fc c5 c6 3c 48 9f 5a 3c c5 d4 e7 ba cd 18 18 bb
       0.024264328 0.01334364 -0.0017687312 -0.0023208142
0003e0 6a 8a 12 bd 49 93 a7 3c ad c4 22 bd d3 e0 4d bc
       -0.035776533 0.020455973 -0.039738346 -0.012565809
0003f0 a2 6e fa bb 9a 60 65 bb 92 64 a1 3b dd cb b0 bc
       -0.007642583 -0.0035000206 0.004925319 -0.021581585

block3.0.bias f4 [64]
000000 47 53 f2 3b 1b ff 11 3a 2e a7 e0 bc d5 09 7d bc
       0.0073951813 0.0005569325 -0.027423467 -0.015444239
000010 ba a8 2c 3d 4c 08 f3 3b 28 88 ed bc 6f 08 20 bd
       0.042153098 0.0074167605 -0.028995588 -0.039070543
000020 be ea 10 bd 43 1e fe bc c9 5e b7 bc e7 cb 07 bc
       -0.035380118 -0.03102029 -0.022384064 -0.00828836
000030 79 10 b4 3c 36 19 0f bd 96 ee e0 3c 26 aa 16 bd
       0.021980511 -0.034936152 0.027457517 -0.03678336
000040 4e 52 c9 3c 45 3a f2 bb d1 bf 06 bc 54 62 22 bd
       0.024575379 -0.0073922 -0.0082244435 -0.039644554
000050 4b 03 90 3c 61 1b b2 bc 24 50 27 bd 41 19 04 3d
       0.017579695 -0.02174157 -0.040847912 0.032250647
000060 f2 a5 33 bb 0a 66 ed bc 84 b0 65 3c 81 58 1d bc
       -0.0027412144 -0.02897932 0.014019135 -0.0096036205
000070 aa 3d 24 3c c5 a0 f8 bc cb af d6 3c 6c cc 49 bb
       0.0100244675 -0.030350098 0.026206871 -0.003079201
000080 2f 3d 80 bb d6 01 3a bd 9b 12 ac 3c 18 20 02 bc
       -0.0039135437 -0.045411907 0.021004966 -0.007942222
000090 9f 8a 0b 3d 21 0c 95 bb 14 38 20 bd 45 e9 97 bc
       0.034067746 -0.004548565 -0.03911598 -0.018543849
0000a0 9c 5b 0a 3c c3 9d 20 bd 5e 1b 97 bc 1a 9d 49 bc
       0.008444693 -0.039212953 -0.018445667 -0.012305522
0000b0 0a 33 89 bc 3b ae d9 bc 54 25 0e bd 91 45 e3 3c
       -0.01674797 -0.026572337 -0.034703568 0.027743133
0000c0 c9 40 dc 3a 1c e3 99 bc da 79 42 3c 7a 43 1d bd
       0.0016803975 -0.018785052 0.011869872 -0.03839443
0000d0 55 9c 7b bc 99 d2 c1 bb 5e 5e 0b bd 2a 65 01 bc
       -0.015357097 -0.005914998 -0.034025542 -0.007897655
0000e0 44 5b 07 3d 1f f4 42 3b 74 dd bb bc b0 df 00 bd
       0.033046022 0.0029747558 -0.022932746 -0.031463325
0000f0 d7 46 40 3c a5 7a b9 bb 69 ea c5 3c 73 1b 2e 3b
       0.01173564 -0.0056603723 0.024159627 0.0026566654

block3.1.weight f4 [64]
000000 b0 8b 80 3f 18 ee 7d 3f 8b e3 7e 3f 74 5e 7f 3f
       1.0042629 0.9919143 0.99565953 0.997535
000010 f5 bb 7f 3f 9e 15 80 3f d9 87 7c 3f 4d 2a 80 3f
       0.99896175 1.0006597 0.9864479 1.0012909
000020 d2 b4 80 3f 9d a1 80 3f 59 20 80 3f ff 5e 80 3f
       1.0055182 1.004932 1.0009872 1.002899
000030 63 07 7f 3f ed 07 82 3f 42 ea 7c 3f 0a 53 80 3f
       0.99620646 1.0158669 0.9879495 1.0025342
000040 eb d4 7d 3f ec 1f 7d 3f a3 b6 7f 3f a7 1f 80 3f
       0.9915301 0.98876834 0.99888057 1.000966
000050 d3 c3 7d 3f 92 d2 7e 3f 0c 54 81 3f 9e 42 80 3f
       0.9912693 0.99540055 1.0103774 1.002033
000060 11 49 7c 3f 56 e5 7c 3f ee 0c 81 3f 76 40 81 3f
       0.9854899 0.9878744 1.0082071 1.0097797
000070 71 1f 7d 3f 9e 88 80 3f 09 c8 82 3f 01 7c 80 3f
       0.988761 1.0041692 1.0217296 1.0037843
000080 e0 05 81 3f 30 9e 7f 3f 29 3b 80 3f 3f 63 80 3f
       1.0079918 0.9985075 1.0018054 1.0030288
000090 3a 43 80 3f ad f1 7e 3f a0 1b 80 3f 82 08 80 3f
       1.0020516 0.9958752 1.000843 1.0002596
0000a0 1b c0 7d 3f df 77 7d 3f 99 9f 80 3f 5d 82 7e 3f
       0.99121255 0.99011034 1.0048705 0.9941767
0000b0 20 30 7f 3f 7e 1e 81 3f 00 21 7f 3f ed 5d 81 3f
       0.9968281 1.008743 0.9965973 1.0106789
0000c0 17 7d 80 3f 66 a4 7b 3f da e4 80 3f 77 29 80 3f
       1.0038174 0.9829773 1.006984 1.0012654
0000d0 6a 06 81 3f 3e b9 80 3f 51 da 7f 3f ab 84 82 3f
       1.0080082 1.0056531 0.999425 1.0196737
0000e0 77 3c 82 3f b6 1a 7f 3f 04 8e 7d 3f b7 43 80 3f
       1.0174702 0.9965013 0.99044824 1.0020665
0000f0 9e cb 7f 3f 17 08 81 3f d8 be 7b 3f 2a c8 7e 3f
       0.9992007 1.0080594 0.9833808 0.99524176

block3.1.bias f4 [64]
000000 87 93 9e bc 4d 58 e4 bc 83 94 b6 bc 12 36 b1 bc
       -0.019357456 -0.027874136 -0.022287613 -0.021632228
000010 53 4f 3d bc 64 db cf bc ea 0e 25 bd 61 48 34 bc
       -0.011554557 -0.025373168 -0.040297426 -0.011003585
000020 92 fa db bc 02 b0 99 bc e4 d3 9b bc 1d 2b b1 bc
       -0.02685288 -0.018760685 -0.019021936 -0.021627003
000030 63 25 8a bc f5 5f 92 3b 2c 44 a7 bc 4c a2 01 bd
       -0.01686353 0.0044670054 -0.02041825 -0.03164892
000040 15 e1 b1 bc 1b e8 8f bc 73 43 7f bc 16 28 ef bc
       -0.021713773 -0.017566731 -0.015580046 -0.02919392
000050 b1 b7 d8 bc 18 6c c6 bc 2b 5d b7 bc 28 93 c2 bc
       -0.026454778 -0.024221465 -0.022383293 -0.02375181
000060 d8 cc 0f bd 62 78 03 bc ae 98 19 bd 92 c8 d6 bc
       -0.035107464 -0.008024307 -0.037499122 -0.026218686
000070 c1 bd 8b bc a6 03 7a bc bc eb 92 bc 76 5f dc bb
       -0.017058255 -0.015259659 -0.017934673 -0.006725247
000080 c8 95 47 bc c6 59 33 bc 58 21 9d bc 75 67 0e bc
       -0.012181707 -0.010946697 -0.019180939 -0.008691658
000090 73 64 03 bd 5c 8e 0d bd 8b 53 f4 bc 24 77 74 bc
       -0.032078218 -0.034559593 -0.029824993 -0.014920983
0000a0 7b 75 9c bc a0 9e 27 bc 29 f6 fc bc 67 7d 0c bd
       -0.019098988 -0.01023069 -0.030879097 -0.03429928
0000b0 9f 67 9c bc f5 17 82 bc 58 05 8d bc 3f 4e c8 bc
       -0.01909238 -0.015880564 -0.017214462 -0.024451373
0000c0 1c 79 61 bc 96 d7 de bc d6 47 c8 bc f8 64 f1 bc
       -0.013761785 -0.027202409 -0.024448317 -0.029467091
0000d0 da db 94 bc ed de ed bc 0c 66 e1 bc e8 fb 12 bc
       -0.01817124 -0.029036963 -0.02751448 -0.008971192
0000e0 d3 c2 ae bc 94 42 a8 bc 9e 2a d1 bc 68 04 c3 bc
       -0.021333134 -0.02053956 -0.025533017 -0.023805812
0000f0 e5 f8 dd bc cc 95 ac bc 7e 14 0d bd fb 2f c4 bc
       -0.027096221 -0.021067522 -0.03444337 -0.02394866

block3.1.running_mean f4 [64]
000000 45 c4 e5 bd 94 47 84 be ff cf a7 bd 0a 82 1d bf
       -0.11219076 -0.2583586 -0.08193969 -0.6152655
000010 4f e4 aa bd 9f 8e 45 3e 6f bd a0 3d f1 fb 88 be
       -0.08344328 0.19292687 0.078486316 -0.26754716
000020 bb 5c b4 3b b7 56 8d be 53 89 cc bc 38 9f 78 bd
       0.0055042184 -0.2760522 -0.024967825 -0.060698718
000030 5d bb 9d bd 66 7f 47 bf 27 cf 12 be 76 02 96 3d
       -0.07701752 -0.7792877 -0.14336835 0.07324688
000040 b2 a1 1a be e5 19 b1 3e 21 cb 00 3d 40 43 70 3b
       -0.15100744 0.34590068 0.03144372 0.0036661178
000050 15 0a bf bc d4 f4 8c 3e de 4e c9 be 0c 0a 91 3d
       -0.023320237 0.2753054 -0.39317983 0.070819944
000060 25 78 02 3e 5d af 63 be 98 75 e9 3d 05 d4 87 3e
       0.12741144 -0.22234865 0.11399382 0.26528946
000070 dd 5c 81 3e fe 8d b1 3c 0a 51 26 be 2d 3b 99 bf
       0.25266162 0.021674152 -0.16241851 -1.1971184
000080 72 17 14 bf 39 96 99 3e 6f a1 5a 3e 74 0f c3 be
       -0.57848275 0.29997423 0.21350645 -0.38097727
000090 ef be f0 3c db 31 a2 3e 71 32 aa 3d ee e4 96 be
       0.02938792 0.31678662 0.08310402 -0.29471534
0000a0 71 ef 57 bf 23 73 94 be b1 43 05 3e 15 93 d8 be
       -0.84349734 -0.28994092 0.13014103 -0.42299715
0000b0 66 55 e1 3b de 1e b5 3e b8 2c 97 3d 1d 7a a8 be
       0.0068766354 0.35375112 0.07381576 -0.32905665
0000c0 4f 57 8c 3a 88 fe 2d 3e 02 01 b1 3e b2 35 e3 3d
       0.0010707172 0.16991627 0.3457108 0.11094226
0000d0 69 18 36 bd 96 5d 9b 3d 5d 8b 68 3e 33 a8 52 bf
       -0.044456873 0.075862095 0.22709413 -0.822879
0000e0 8c ca 6f 3d 9f b4 5a 3e b5 bd 53 3e bd 60 07 be
       0.058542773 0.21357964 0.20677836 -0.13220496
0000f0 e5 84 d5 3e 63 40 7b 3e 10 cd 4a 3e 92 18 c2 be
       0.41702953 0.2453628 0.19804788 -0.3790937

block3.1.running_var f4 [64]
000000 e9 82 fa 3d dd 77 8c 3e a1 11 05 3e 9e 6f 6c 3e
       0.122320004 0.27435198 0.12995006 0.23089454
000010 db 35 46 3e b8 03 02 3e 4d 18 6a 3e e1 ea 11 3e
       0.19356482 0.12696731 0.22860833 0.14249755
000020 1a 69 13 3e 0d 56 3a 3e 4c cb 70 3e bb 98 1a 3e
       0.14395562 0.18196888 0.23515052 0.15097325
000030 2a 57 76 3e 46 fe 8f 3e 32 8e 85 3e 02 2e 42 3e
       0.24056688 0.28123683 0.2608505 0.18962863
000040 cc 53 20 3e aa 7a c6 3e 7d 13 4b 3e 4c 71 bf 3d
       0.15656966 0.3876546 0.19831653 0.093477815
000050 36 48 66 3e a0 17 25 3e 3c d1 6a 3e 74 3f 2c 3e
       0.22488484 0.16122293 0.22931379 0.1682108
000060 13 8b 7c 3e 40 97 35 3e cb b6 82 3e 8a 67 04 3e
       0.24662428 0.17733479 0.25530085 0.12930122
000070 e1 81 22 3e d4 0f 9d 3e 35 79 28 3e d6 2b 30 3f
       0.15869857 0.30676138 0.16452487 0.6881689
000080 8b 83 da 3e c9 2a 92 3e 18 81 14 3e e4 9e 74 3e
       0.42678484 0.28548267 0.1450237 0.23888737
000090 54 86 23 3e bc b6 b6 3e 53 30 0a 3e 5a 59 46 3e
       0.15969211 0.3568629 0.13494997 0.19370022
0000a0 a9 93 0d 3f b1 16 75 3e 7d f4 08 3e ee 7b 43 3e
       0.55303437 0.23934437 0.13374515 0.19090244
0000b0 af 76 2e 3e 76 00 42 3e b4 d7 9c 3e d0 b7 a8 3e
       0.17037462 0.18945488 0.30633318 0.32952738
0000c0 5f 16 61 3e 54 19 10 3e f2 d0 20 3e 5c b5 6d 3e
       0.2198119 0.14072162 0.15704706 0.23213714
0000d0 6d 97 f4 3d a2 77 e2 3d bb ed 75 3e 0d 36 e5 3e
       0.11942945 0.110579744 0.24016468 0.447678
0000e0 54 e1 01 3e f7 c9 52 3e 27 f2 39 3e c6 1e 55 3e
       0.12683612 0.20584856 0.1815878 0.2081252
0000f0 67 b6 66 3e 51 44 fc 3d 2d 72 ce 3e 17 b8 27 3e
       0.22530518 0.12317718 0.40321484 0.16378818
