legacy/results/old/basic/basic_5.pth (torch, 961547 bytes, 26 tensors)

block1.0.weight f4 [64, 1, 3, 3]
-0.1502172 -0.17268263 -0.24256568 0.08807298 0.3202698 -0.11091736 -0.061123673 -0.26931208
0.16467206 0.1500791 -0.25168002 0.24007408 0.22131997 -0.19024023 0.2817424 -0.31429112
0.066166386 -0.10692363 0.21362136 0.3226099 -0.27307042 0.20160976 -0.15066673 0.3249564
-0.07372023 -0.31513244 0.06820545 0.171785 0.30378953 -0.2393605 0.20544964 0.1105626
0.060946885 0.21387884 -0.17196938 0.1487084 -0.13438208 -0.2582646 -0.11749037 -0.038139015
0.33495313 -0.028065514 -0.23749477 0.25125137 -0.24012618 0.11425557 -0.10961855 0.21024777
-0.033183634 0.28798422 -0.09339772 0.12716398 0.12984878 -0.0060503655 -0.25191918 0.3183777
0.18298103 -0.24239993 -0.2138584 -0.08965849 -0.279461 0.07814378 -0.050184038 -0.32706025
-0.3151294 0.046251997 0.32613683 0.08182765 0.20150891 -0.20914152 0.27593195 -0.07509483
-0.057413664 0.28540292 -0.13474275 -0.02261039 0.09796822 0.11342019 -0.08583565 -0.039888654
0.24326853 -0.18145353 -0.32270092 -0.21679553 0.121178076 -0.16931857 -0.31704098 0.10981068
-0.25041124 0.17610423 0.035734177 0.18907762 -0.07945875 -0.16394873 0.17947415 0.20078272
-0.120798744 0.20087664 -0.26170978 -0.14605612 0.17148323 0.03713262 0.16374324 -0.32382715
0.07693201 0.14530687 -0.02182611 0.306461 -0.015977565 -0.13543463 0.11690472 -0.3093381
0.20634516 -0.048837934 -0.07389903 -0.032835092 -0.26197958 -0.1394731 -0.290114 -0.22992751
-0.0052899914 -0.08689235 -0.024875151 0.32361224 -0.316193 -0.00070506753 0.015641678 -0.2650564
0.13377023 0.19962847 -0.12132075 -0.09200023 0.32356286 0.18850644 0.16422288 -0.008621666
0.26088876 0.22549282 0.2858986 -0.19443949 0.208071 0.050915267 -0.14155741 -0.14830975
0.32358122 0.108874105 -0.29624218 -0.106692426 -0.30214736 0.12472389 -0.13222763 0.055918027
0.20804636 0.058139015 -0.16004151 -0.28533244 -0.08850878 0.10925428 0.1596113 0.28381038
0.05880593 -0.02772622 0.019584693 -0.21001552 -0.25104135 0.12972492 0.21412227 0.29742575
0.1942751 -0.010617499 0.18124229 0.08083229 0.1383802 -0.16541545 -0.26123172 -0.0015157219
-0.029919103 0.28441986 -0.091483325 0.21828584 -0.038113996 0.24808235 -0.004925957 0.21496844
-0.21868023 -0.28568444 -0.1484644 0.23023413 -0.30452046 0.20616053 -0.24023253 -0.17292565
0.28369328 0.0025155721 0.24947383 0.2253044 -0.29137933 0.08895533 0.07577581 -0.20119967
-0.16422653 -0.20807111 0.21098834 -0.2887792 -0.33562216 -0.033116445 0.13770044 0.23829298
0.01026768 -0.05134383 0.04459517 0.20773369 0.2482833 -0.09862548 0.15928863 -0.002419825
-0.15782902 0.06223981 -0.24918215 0.099115774 0.07455152 -0.05670054 0.31307462 -0.058768325
0.28133702 0.1304966 0.24171893 0.04518784 -0.32688344 0.30469036 -0.13811539 0.032472007
0.16001682 -0.21723478 0.25611973 0.005875766 0.23726813 -0.12765306 0.18013442 0.21501972
0.19276582 -0.06572253 0.16176829 0.097053975 -0.18724447 0.27701768 0.17899333 0.07620181
-0.25521964 0.26340356 -0.33726797 0.18249565 -0.028296482 -0.23900348 0.22461502 -0.27379656
00000000: 8ad2 19be b7d3 30be 2363 78be 9b5f b43d
00000010: 67fa a33e a428 e3bd d15c 7abd 46e3 89be
00000020: cb9f 283e 56ae 193e 34dc 80be fbd5 753e
00000030: b4a1 623e 56ce 42be 8a40 903e c4ea a0be
00000040: 3e82 873d c7fa dabd 8fbf 5a3e 202d a53e
00000050: e3cf 8bbe ca72 4e3e 6148 1abe af60 a63e
00000060: a2fa 96bd 0a59 a1be 4daf 8b3d 68e8 2f3e
00000070: 4d8a 9b3e eb1a 75be 6461 523e a56e e23d
00000080: 71a3 793d 0e03 5b3e be18 30be 0447 183e
00000090: 759b 09be 423b 84be cb9e f0bd a837 1cbd
000000a0: fa7e ab3e a6e9 e5bc d431 73be 05a4 803e
000000b0: a3e3 75be d3fe e93d b17f e0bd 314b 573e
000000c0: 90eb 07bd ab72 933e 4e47 bfbd 4637 023e
000000d0: 14f7 043e 2542 c6bb 8dfb 80be 6702 a33e
000000e0: 615f 3b3e b037 78be b2fd 5abe df9e b7bd
000000f0: 8315 8fbe d909 a03d c78d 4dbd 7174 a7be
00000100: a458 a1be bc72 3d3d 68fb a63e 4195 a73d
00000110: 5a58 4e3e 3229 56be f446 8d3e 51cb 99bd
00000120: 972a 6bbd 5520 923e 01fa 09be 6d39 b9bc
00000130: 90a3 c83d d848 e83d 9aca afbd 4962 23bd
00000140: 631b 793e f4ce 39be 0e39 a5be a6ff 5dbe
00000150: 362c f83d d961 2dbe 3253 a2be 6ce4 e03d
00000160: e735 80be ab54 343e 005e 123d 909d 413e
00000170: 45bb a2bd 2de2 27be 12c8 373e fc99 4d3e
00000180: 5565 f7bd 9bb2 4d3e d3fe 85be bc8f 15be
00000190: 4d99 2f3e 6018 183d 4fac 273e accc a5be
000001a0: 888e 9d3d 53cb 143e accc b2bc 75e8 9c3e
000001b0: 62e3 82bc 60af 0abe be6b ef3d 9061 9ebe
000001c0: 254c 533e 490a 48bd 6058 97bd 177e 06bd
000001d0: 3022 86be 09d2 0ebe d289 94be 1e72 6bbe
000001e0: aa57 adbb 9ef4 b1bd f9c6 cbbc 81b0 a53e
000001f0: 0de4 a1be 48d4 38ba fa22 803c 79b5 87be
00000200: 10fb 083e 686b 4c3e 0377 f8bd 9e6a bcbd
00000210: 08aa a53e d507 413e 0b2a 283e e341 0dbc
00000220: 3693 853e 97e7 663e 4d61 923e 251b 47be
00000230: 9010 553e 878c 503d 6df4 10be 83de 17be
00000240: 70ac a53e 63f9 de3d 0ead 97be 8f81 dabd
00000250: 0fb3 9abe 3d6f ff3d ae66 07be 4d0a 653d
00000260: 1b0a 553e 2d23 6e3d ece1 23be 1817 92be
00000270: 1744 b5bd b5c0 df3d 2571 233e 984f 913e
00000280: 7dde 703d 1922 e3bc 1470 a03c 4f0e 57be
00000290: 7e88 80be 9cd6 043e de42 5b3e 3048 983e
000002a0: 0df0 463e 05f5 2dbc 9497 393e 668b a53d
000002b0: 8ab3 0d3e ab62 29be 2ac0 85be 30ab c6ba
000002c0: e818 f5bc 7b9f 913e 9c5b bbbd 5386 5f3e
000002d0: 6c1d 1cbd 4d09 7e3e ec69 a1bb b020 5c3e
000002e0: b6ed 5fbe 3b45 92be 0d07 18be 7fc2 6b3e
000002f0: 1bea 9bbe bf1b 533e 84ff 75be 6c13 31be
00000300: 3f40 913e 4cdc 243b 1176 7f3e 32b6 663e
00000310: ac2f 95be 362e b63d 5930 9b3d 4907 4ebe
00000320: 002b 28be 9810 55be 540d 583e deda 93be
00000330: abd6 abbe 1ca5 07bd 5801 0d3e 1303 743e
00000340: c539 283c e84d 52bd 6da9 363d 24b8 543e
00000350: fa3d 7e3e 28fc c9bd 8f1c 233e ed95 1ebb
00000360: ee9d 21be 2cef 7e3d 9b29 7fbe 36fd ca3d
00000370: 78ae 983d d33e 68bd 514b a03e 0eb7 70bd
00000380: 680b 903e e7a0 053e 2b85 773e e216 393d
00000390: 445d a7be 6000 9c3e 1f6e 0dbe 5e01 053d
000003a0: 73db 233e cb72 5ebe 2022 833e 7f89 c03b
000003b0: 6bf6 723e 7cb7 02be 2875 383e 212e 5c3e
000003c0: 6764 453e 8999 86bd 96a6 253e 3cc4 c63d
000003d0: 04bd 3fbe 43d5 8d3e 074a 373e b20f 9c3d
000003e0: 26ac 82be d5dc 863e 63ae acbe 24e0 3a3e
000003f0: 06ce e7bc 54bd 74be 7b01 663e 102f 8cbe

block1.0.bias f4 [64]
0.25544572 -0.31390208 0.13495599 0.1365719 -0.26696122 -0.021128332 0.062349916 -0.18442541
0.066437066 -0.08666269 -0.14708364 -0.117676586 -0.22351241 -0.29369253 0.23272924 0.10883338
0.04823838 0.23745799 -0.1562823 -0.24378325 2.3391856e-05 0.15273373 0.10720383 0.26680648
-0.0066560837 0.2370764 -0.06795873 0.11796201 0.10315362 0.30534232 -0.018085245 0.1524626
-0.21747765 0.29953423 -0.19098887 -0.07524209 0.04479051 0.20785794 -0.19489379 0.2905832
-0.27052414 -0.13085207 0.27753618 -0.15206346 0.055971995 -0.27001756 -0.28146818 -0.2917813
0.14031714 0.145377 -0.027729075 0.04537539 0.3236093 0.00560437 -0.18653263 0.06027582
-0.25456694 -0.21651909 -0.041304108 -0.12545915 0.3169836 -0.09484327 0.16555902 0.050021924
00000000: c8c9 823e c6b7 a0be e731 0a3e 81d9 0b3e
00000010: 24af 88be 5315 adbc a062 7f3d 04da 3cbe
00000020: 2810 883d 357c b1bd 189d 16be 6c00 f1bd
00000030: 70e0 64be de5e 96be 9350 6e3e 09e4 de3d
00000040: 9c95 453d 3028 733e 7808 20be 51a2 79be
00000050: a139 c437 3b66 1c3e ae8d db3d dc9a 883e
00000060: 471b dabb 28c4 723e f22d 8bbd 1196 f13d
00000070: 3542 d33d d455 9c3e 8227 94bc 281f 1c3e
00000080: 76b2 5ebe 8d5c 993e 9692 43be 8618 9abd
00000090: 4176 373d b6d8 543e 3d92 47be 52c7 943e
000000a0: 2482 8abe 16fe 05be 3919 8e3e 86b6 1bbe
000000b0: e442 653d be3f 8abe 991c 90be 5c64 95be
000000c0: 4caf 0f3e b5dd 143e 1628 e3bc 8cdb 393d
000000d0: 1eb0 a53e dda4 b73b 6902 3fbe c7e3 763d
000000e0: 9956 82be 2eb7 5dbe 7f2e 29bd 5d78 00be
000000f0: ad4b a23e 303d c2bd 4e88 293e cae3 4c3d

block1.1.weight f4 [64]
0.9948026 1.0011681 0.99699354 0.9967014 0.99678314 0.9973016 0.9933743 1.0091139
0.997034 0.99600524 0.9996518 0.9972605 0.9985507 0.99759024 0.9979399 0.99538374
1.009668 1.002761 0.99877906 0.9975408 0.99295723 0.99876875 0.99937475 0.9973186
0.9969578 0.9972261 0.9934774 0.9989571 0.9975831 0.9965889 0.99605316 0.9962121
1.0123682 1.0062429 0.99332607 0.9975859 1.0021261 0.9990235 1.0031925 0.9975378
0.99742305 0.99706376 1.0081391 0.9975022 1.0048807 1.0008299 1.0001513 0.9962007
0.99845934 0.99931943 1.0024117 0.9984355 0.9993144 0.9997915 0.99542195 0.99567103
0.9962314 0.9977894 1.0068965 1.0024368 0.9955765 0.99763244 0.99833083 1.0042762
00000000: 62ab 7e3f 4726 803f f83a 7f3f d327 7f3f
00000010: 2e2d 7f3f 284f 7f3f c74d 7e3f a52a 813f
00000020: 9f3d 7f3f 33fa 7e3f 2ee9 7f3f 774c 7f3f
00000030: 05a1 7f3f 1362 7f3f fd78 7f3f 78d1 7e3f
00000040: cd3c 813f 795a 803f fcaf 7f3f d55e 7f3f
00000050: 7232 7e3f 4faf 7f3f 06d7 7f3f 4650 7f3f
00000060: a038 7f3f 364a 7f3f 8954 7e3f a7bb 7f3f
00000070: 9b61 7f3f 7320 7f3f 57fd 7e3f c207 7f3f
00000080: 4895 813f 91cc 803f 9e4a 7e3f ca61 7f3f
00000090: ab45 803f 01c0 7f3f 9d68 803f a35e 7f3f
000000a0: 1e57 7f3f 923f 7f3f b40a 813f 4e5c 7f3f
000000b0: ee9f 803f 321b 803f f504 803f 0207 7f3f
000000c0: 089b 7f3f 66d3 7f3f 074f 803f 7899 7f3f
000000d0: 12d3 7f3f 56f2 7f3f f9d3 7e3f 4ce4 7e3f
000000e0: 0509 7f3f 206f 7f3f fce1 803f d94f 803f
000000f0: 1ade 7e3f d764 7f3f 9c92 7f3f 1f8c 803f

block1.1.bias f4 [64]
-0.0038052164 -0.0044627856 -0.00083840184 -0.0002146807 -0.0046674535 -0.0009421662 -0.006199836 0.008452249
-0.005564602 -0.0098404465 0.0032330204 -0.0020217001 -0.002770473 0.00059153384 0.0024679967 -0.00032979154
0.007460024 0.0038173888 0.001010752 -0.0002869672 -0.0073732864 -0.0036625606 -0.0021425493 -0.0006649604
-0.0011574635 -0.0050806976 -0.000502752 -0.006153278 -0.006975309 -0.0025523305 -0.005709532 0.0021054477
0.015794193 0.0052829976 0.0052924715 -0.003228391 -0.009490485 -0.00046532357 -0.011238298 -0.0028666216
-0.0029632854 0.0017710832 0.011009697 -0.0054413294 0.0042631007 -0.0022628214 -0.00042984838 -0.005746424
-0.00039017183 0.0043749507 -0.0018998375 -0.007264792 -0.00038730525 0.0020906245 -0.0074794297 -0.0031419774
-0.0010622379 -0.006082695 0.0034603789 0.0035612362 0.00377141 -0.0038766288 -0.0026903583 0.006860354
00000000: f060 79bb 8f3c 92bb 32c8 5bba e91b 61b9
00000010: 70f1 98bb b4fb 76ba fe27 cbbb 4d7b 0a3c
00000020: 4457 b6bb d339 21bc 15e1 533b 807e 04bb
00000030: d390 35bb 2a11 1b3a 1dbe 213b dfe7 acb9
00000040: 3873 f43b 282d 7a3b 367b 843a 1674 96b9
00000050: 9c9b f1bb 9207 70bb 036a 0cbb bd50 2eba
00000060: 08b6 97ba fb7b a6bb 1ecb 03ba 70a1 c9bb
00000070: 2291 e4bb 0045 27bb 0717 bbbb 8dfb 093b
00000080: d362 813c ff1c ad3b 786c ad3b 6a93 53bb
00000090: fb7d 1bbc acf6 f3b9 d720 38bc eedd 3bbb
000000a0: ae33 42bb b123 e83a 0462 343c 2e4d b2bb
000000b0: 7bb1 8b3b d84b 14bb 465d e1b9 804c bcbb
000000c0: fa8f ccb9 bf5b 8f3b f803 f9ba 7e0d eebb
000000d0: 3b0f cbb9 dc02 093b 0116 f5bb a2e9 4dbb
000000e0: ca3a 8bba 5851 c7bb 86c7 623b a163 693b
000000f0: c329 773b 0a0f 7ebb b950 30bb d2cc e03b

block1.1.running_mean f4 [64]
0.05384788 -0.26916772 0.28266397 0.51206136 -0.48348764 0.27196288 -0.19479854 -0.17963086
0.25498995 -0.5757692 -0.062722474 0.07288715 -0.48306164 -0.6521036 0.48779833 0.3594998
0.03962629 0.28875268 0.10928877 -0.16308957 -0.14501305 0.31705981 -0.26949587 0.62052464
0.13710813 0.344575 0.4240014 0.2561178 -0.098951034 -0.11392298 0.2718226 -0.03270862
-0.22401193 0.27313575 0.32843882 0.054196145 -0.021832967 0.5710044 -0.14829324 0.111010864
-0.036590837 0.24324664 0.30689386 -0.2824209 0.010648801 -0.35452554 -0.50662386 -0.53964555
0.22846746 0.1281068 0.050842892 -0.09212351 0.18277036 -0.23750915 -0.01642448 0.33780453
-0.15129842 -0.548258 -0.14148813 -0.06941347 0.4502378 0.40853027 0.563371 0.08947504
00000000: 988f 5c3d 5ad0 89be 55b9 903e 7416 033f
00000010: b18b f7be b83e 8b3e 4579 47be 27f1 37be
00000020: 0b8e 823e 9c65 13bf a474 80bd dc45 953d
00000030: db53 f7be 43f0 26bf b4c0 f93e 5c10 b83e
00000040: 2d4f 223d 64d7 933e cad2 df3d f400 27be
00000050: 4d7e 14be aa55 a23e 5dfb 89be b4da 1e3f
00000060: 1366 0c3e 226c b03e b616 d93e df21 833e
00000070: d7a6 cabd 7450 e9bd 552c 8b3e 79f9 05bd
00000080: 6263 65be 73d8 8b3e 2229 a83e c7fc 5d3d
00000090: 0ddb b2bc 582d 123f 2fda 17be aa59 e33d
000000a0: 46e0 15bd a615 793e 3121 9d3e 7999 90be
000000b0: 4f78 2e3c 5f84 b5be 1ab2 01bf 3626 0abf
000000c0: 60f3 693e 6e2e 033e a340 503d 40ab bcbd
000000d0: 2728 3b3e 9935 73be a28c 86bc b7f4 ac3e
000000e0: f9ed 1abe a35a 0cbf 44e2 10be a628 8ebd
000000f0: 9285 e63e e12a d13e 1539 103f b13e b73d

block1.1.running_var f4 [64]
0.017115423 0.0017635871 0.0102209905 0.058699645 0.019749897 0.03541567 0.028333636 0.0008293647
0.014874897 0.10070313 0.0034290624 0.015348006 0.027949432 0.05438088 0.027971543 0.027315242
0.00029553234 0.0019863239 0.029839694 0.0031300052 0.009398961 0.011879107 0.058663912 0.051919457
0.009742191 0.0053943666 0.10013945 0.008198511 0.01720012 0.0724762 0.035853837 0.014655182
0.0012043791 0.00085765304 0.11139579 0.00822714 0.0030429643 0.05486041 0.0018256995 0.015707262
0.022906736 0.058162045 0.0028541787 0.008123367 0.0010631173 0.004295038 0.021961093 0.0255802
0.0036603373 0.0010967881 0.0029051874 0.007986688 0.008811018 0.02536644 0.012929622 0.03195383
0.006398404 0.046249684 0.0063051055 0.0037997076 0.008293414 0.104699306 0.06537807 0.001428064
00000000: a535 8c3c 2a28 e73a f175 273c 0a6f 703d
00000010: 89ca a13c 0610 113d f11b e83c b969 593a
00000020: d7b5 733c 713d ce3d 1fba 603b 3476 7b3c
00000030: 35f6 e43c 7cbe 5e3d 9424 e53c 37c4 df3c
00000040: aef1 9a39 fc2c 023b 6072 f43c c620 4d3b
00000050: 1afe 193c 96a0 423c 9249 703d 7fa9 543d
00000060: b69d 1f3c 3ac3 b03b e915 cd3d 0c53 063c
00000070: 44e7 8c3c 676e 943d 79db 123d 4a1c 703c
00000080: 42dc 9d3a 1fd4 603a 7a23 e43d 20cb 063c
00000090: 786c 473b 4fb5 603d 4f4c ef3a 84ac 803c
000000a0: e8a6 bb3c 533b 6e3d 2c0d 3b3b df17 053c
000000b0: 4c58 8b3a 64bd 8c3b c0e7 b33c 918d d13c
000000c0: 45e2 6f3b 1ac2 8f3a f564 3e3b 99da 023c
000000d0: 175c 103c 48cd cf3c c4d6 533c 05e2 023d
000000e0: b4a9 d13b 4f70 3d3d 0f9b ce3b 8404 793b
000000f0: 19e1 073c 976c d63d f0e4 853d e02d bb3a

block2.0.weight f4 [64, 64, 3, 3]
0.026369903 -0.038184583 0.03134429 0.020437943 0.01711588 0.026803937 -0.008405134 -0.014402919
0.0011412912 -0.020965641 -0.045236383 0.026034018 4.788788e-05 -0.019316245 -0.024348918 -0.03296279
0.006043644 -0.0042650043 -0.038291305 0.0024150873 -0.024447197 -0.02637559 0.0069502355 -0.0004521364
-0.030487085 -0.007305692 -0.019054482 0.03247891 -0.037275665 -0.020740353 -0.022024343 0.022530723
-0.0075509455 0.0013938792 -0.03288486 0.031300712 -0.035408266 -0.020619089 -0.035280302 -0.023541387
0.017102243 0.009701847 -0.012916062 0.015232832 0.009779734 0.002109439 0.005508802 -0.040601637
0.025991471 0.03372405 0.034191802 0.03105925 -0.027250353 -0.0048401076 0.013103155 -0.038391665
0.0134271495 -0.003555758 -0.010761549 -0.0071658613 -0.036411505 0.03707944 -0.03584736 0.038958177
-0.031131936 0.037699975 0.012741443 0.005807111 0.0073880935 0.0064831185 0.0020669408 -0.0023056162
-0.01385474 -0.017640354 0.034114018 0.036624435 0.028955076 -0.007830512 0.023444867 0.009069141
0.039100464 -0.040963113 -0.023424856 0.014482451 -0.019709632 -0.036873564 0.023376487 -0.021055572
-0.004855016 -0.0008472419 -0.045259662 -0.011890132 0.037464447 0.0037471375 0.03825576 0.03996916
0.010302277 0.022199191 0.027793838 0.011305166 -0.010728144 -0.0027158386 -0.0040483405 -0.015900476
0.0024747807 0.03934019 -0.021262832 0.01990198 -0.011753862 0.039732236 -0.03278499 0.02224327
0.032292165 -0.024185335 -0.016483817 0.022937715 0.009626906 -0.018909674 -0.034367904 0.002603347
0.00086070277 0.0030067747 -0.0001664104 0.025555471 0.0014224256 -0.023081485 0.015841499 0.034938693
-0.029759767 0.002846955 0.02048623 -0.027478624 -0.0043326328 0.018827038 0.0077660005 -0.043448262
-0.0041233515 -0.010007087 -0.0057422067 0.0045155794 0.03457204 -0.040805545 0.026178882 -0.014818945
0.014097479 -0.0050007026 0.018165661 -0.022616882 -0.03302836 0.0007552471 0.040017173 0.0065249954
0.011806205 0.024859833 -0.036445457 0.00048298904 -0.024834968 0.031129539 0.005537975 -0.020414632
0.037910674 -0.027938172 -0.032128844 0.03339177 -0.027233005 0.011524715 0.0051120245 0.034765683
-0.02735753 0.023914998 0.017761713 0.019099118 -0.018903706 -0.028378317 -0.012661614 -0.012711415
-0.030150462 -0.014961352 -0.026030809 -0.0358054 0.001293597 -0.026203416 0.011315786 -0.003299063
-0.023597658 0.017629422 -0.025467202 0.016481407 -0.027276376 -0.040285025 -0.027426422 0.036750924
0.021294096 -0.006386394 -0.0017934499 0.021980572 0.020631047 -0.016847923 0.015864873 0.00816326
0.025221612 -0.04137421 -0.040401626 0.020548744 0.03606465 -0.040090445 -0.0035111716 0.02024301
0.031073943 -0.028697109 -0.01722566 0.011565875 0.015998695 0.031524483 0.012987753 -0.008250891
-0.027982594 0.010257286 -0.015218501 -0.034100473 0.037924778 0.0045713866 -0.003987052 0.02788902
0.013852635 0.01606151 0.016434215 0.00017988792 0.020160532 -0.03950369 -0.016243372 -0.030093558
-0.034412503 -0.038234193 -0.024183465 -0.02483133 0.016889334 0.02041334 0.027529735 -0.03669857
0.038437262 -0.017266842 -0.020533081 -0.03544808 -0.021395048 0.039759006 -0.00086852117 0.03868941
0.0267461 0.043810796 0.010510082 0.0025475584 -0.019487467 -0.004133931 -0.0131501565 -0.026219016
00000000: b205 d83c 7067 1cbd df62 003d 796d a73c
00000010: 9a36 8c3c ee93 db3c b0b5 09bc 39fa 6bbc
00000020: 6197 953a 23c0 abbc c949 39bd 4b45 d53c
00000030: 38db 4838 1a3d 9ebc 6277 c7bc fe03 07bd
00000040: c309 c63b 73c1 8bbb 58d7 1cbd 7146 1e3b
00000050: 7d45 c8bc 9f11 d8bc cdbe e33b b80c edb9
00000060: 0dc0 f9bc 9664 efbb 2518 9cbc 9b08 053d
00000070: 5eae 18bd ace7 a9bc 656c b4bc 5a92 b83c
00000080: ec6d f7bb d3b2 b63a 46b2 06bd 2d35 003d
00000090: 4208 11bd 5de9 a8bc 1482 10bd ded9 c0bc
000000a0: 011a 8c3c 7ff4 1e3c e49d 53bc 2193 793c
000000b0: 2d3b 203c 843e 0a3b 2e83 b43b e74d 26bd
000000c0: 11ec d43c 3b22 0a3d b40c 0c3d f86f fe3c
000000d0: 223c dfbc c499 9ebb 9eae 563c 9440 1dbd
000000e0: 8cfd 5b3c b807 69bb 3551 30bc 9acf eabb
000000f0: 3b24 15bd 9ce0 173d aed4 12bd 9c92 1f3d
00000100: 6708 ffbc 4a6b 1a3d 7cc1 503c 9449 be3b
00000110: d217 f23b 5770 d43b 8375 073b d219 17bb
00000120: fefe 62bc 8182 90bc 24bb 0b3d 8103 163d
00000130: 3233 ed3c 8c4b 00bc 730f c03c bc96 143c
00000140: cf27 203d f0c8 27bd 7ce5 bfbc cd47 6d3c
00000150: 1876 a1bc bc08 17bd 0c80 bf3c bc7c acbc
00000160: d316 9fbb 7119 5eba 3262 39bd d4ce 42bc
00000170: 5274 193d 8992 753b 12b2 1c3d b4b6 233d
00000180: e2ca 283c 14db b53c e7af e33c 4e39 393c
00000190: 19c5 2fbc 36fc 31bb f1a7 84bb b741 82bc
000001a0: ee2f 223b 2e23 213d 642f aebc 7a09 a33c
000001b0: 4593 40bc 45be 223d 8e49 06bd 8537 b63c
000001c0: ca44 043d 5320 c6bc 1209 87bc e0e7 bb3c
000001d0: 2cba 1d3c 76e8 9abc 5cc5 0cbd ea9c 2a3b
000001e0: c9a0 613a 4f0d 453b 747e 2eb9 b559 d13c
000001f0: af70 ba3a 6215 bdbc 08c6 813c e01b 0f3d
00000200: c1ca f3bc fb93 3a3b bdd2 a73c da1a e1bc
00000210: c2f8 8dbb 293b 9a3c ef79 fe3b cef6 31bd
00000220: 2e1d 87bb c4f4 23bc 1f29 bcbb 6df7 933b
00000230: 699b 0d3d b723 27bd 1875 d63c 29cb 72bc
00000240: 1df9 663c efdc a3bb 27d0 943c 0a47 b9bc
00000250: bf48 07bd c6fb 453a 0ce9 233d a1cf d53b
00000260: d06e 413c d9a6 cb3c d547 15bd b139 fd39
00000270: b472 cbbc 6003 ff3c e777 b53b 963c a7bc
00000280: 3948 1b3d 98de e4bc 8999 03bd cfc5 083d
00000290: c017 dfbc 29d2 3c3c c582 a73b 7666 0e3d
000002a0: e61c e0bc 63e9 c33c 0381 913c c175 9c3c
000002b0: f2db 9abc a579 e8bc a972 4fbc 8a43 50bc
000002c0: 1afe f6bc 7520 75bc 903e d5bc afa8 12bd
000002d0: ea8d a93a 8ca8 d6bc d965 393c 1835 58bb
000002e0: e04f c1bc 946b 903c 98a0 d0bc 0404 873c
000002f0: b572 dfbc e901 25bd 60ad e0bc 2388 163d
00000300: f570 ae3c f544 d1bb 3112 ebba 9a10 b43c
00000310: 7102 a93c a804 8abc 0df7 813c 32bf 053c
00000320: 8e9d ce3c 0178 29bd 2d7c 25bd d755 a83c
00000330: 87b8 133d e135 24bd af1b 66bb abd4 a53c
00000340: c88e fe3c 3316 ebbc d41c 8dbc cc7e 3d3c
00000350: b20f 833c d11f 013d 96ca 543c bf2e 07bc
00000360: c13b e5bc 2d0e 283c 0557 79bc f0ac 0bbd
00000370: 0357 1b3d 92cb 953b d1a5 82bb 8477 e43c
00000380: 2af6 623c 6e93 833c 0ca1 863c 4ca0 3c39
00000390: b327 a53c 9fce 21bd d210 85bc c486 f6bc
000003a0: 20f4 0cbd 759b 1cbd 671c c6bc 136b cbbc
000003b0: 805b 8a3c e039 a73c 0a86 e13c 3d51 16bd
000003c0: 6470 1d3d 3173 8dbc fe34 a8bc 0232 11bd
000003d0: ab44 afbc 57da 223d 78ad 63ba c978 1e3d
000003e0: a31a db3c f372 333d 7b32 2c3c f0f4 263b
000003f0: 2ea4 9fbc ed75 87bb c173 57bc 43c9 d6bc

block2.0.bias f4 [64]
0.025503464 -0.018750003 0.0053675855 -0.025962673 -0.02578339 0.017727027 -0.02800918 0.013438495
0.026820013 -0.013125255 0.027150929 -0.005241027 0.015678769 0.014418685 -0.0034823222 0.02136678
-0.03365791 -0.034668453 0.0188597 -0.0092241345 0.0018834186 0.025981156 0.036257673 0.028212378
-0.021961505 -0.009413581 0.01686754 -0.01613099 -0.017873332 -0.0061948923 0.027310299 -0.012784527
-0.028688278 0.016085595 0.02367209 -0.007427028 0.027623864 -0.029566284 -0.014956087 -0.03738016
0.0032331278 -0.02339813 0.02302307 0.030030118 0.03198168 0.03814305 0.031857833 -0.031529658
-0.012689946 -0.01863848 0.031941228 -0.0038409708 -0.016505543 0.018329525 -0.02712422 -0.040548597
0.039785743 0.030327084 -0.033770762 0.012445101 0.004798431 0.008621795 0.022626054 0.03749271
00000000: a4ec d03c 9b99 99bc 92e2 af3b acaf d4bc
00000010: b037 d3bc 4538 913c 8273 e5bc 222d 5c3c
00000020: a5b5 db3c 4f0b 57bc a06b de3c ecbc abbb
00000030: c370 803c 593c 6c3c ac37 64bb 6309 af3c
00000040: e0dc 09bd 8200 0ebd a87f 9a3c d320 17bc
00000050: 0bdd f63a 6fd6 d43c ed82 143d a51d e73c
00000060: 9de8 b3bc 6c3b 1abc cc2d 8a3c 2325 84bc
00000070: 186b 92bc 86fe cabb d9b9 df3c 3176 51bc
00000080: ae03 ebbc f0c5 833c f9eb c13c 6d5e f3bb
00000090: 714b e23c fe34 f2bc 600a 75bc f01b 19bd
000000a0: e2e2 533b 6fad bfbc e19a bc3c b901 f63c
000000b0: 39ff 023d e33b 1c3d 5c7d 023d 3e25 01bd
000000c0: 7ee9 4fbc baaf 98bc ced4 023d ccb8 7bbb
000000d0: a236 87bc cd27 963c 9d33 debc 4916 26bd
000000e0: 60f6 223d 8170 f83c 3653 0abd 89e6 4b3c
000000f0: 283c 9d3b 6e42 0d3c 465a b93c f591 193d

block2.1.weight f4 [64]
1.0016872 0.99759483 1.0025748 1.0000325 0.9975906 1.0057974 0.9943127 0.9956224
0.99412066 1.0023178 1.0028583 0.9981904 1.0014741 0.9985643 0.9920153 0.99909586
0.99838096 0.99822783 0.99816227 0.99865687 0.99759465 1.0005845 1.002017 0.99982256
0.9935551 0.99757963 1.0071642 1.003795 0.9950639 0.99548244 0.9959609 1.0040035
0.993323 0.9987175 1.0028231 0.9989275 0.9987815 1.0030441 1.0038825 1.0020236
0.9973654 0.9974659 0.99797523 0.9952627 1.0038873 0.9941062 0.9971821 0.9984484
1.007767 0.99235505 1.0065777 0.9985457 0.9984476 1.0071845 1.0016127 1.0071487
0.996915 0.9949268 1.0094095 0.99315774 1.001171 0.9990446 0.9976342 1.004016
00000000: 4937 803f 6062 7f3f 5f54 803f 1101 803f
00000010: 1962 7f3f f8bd 803f 478b 7e3f 1ce1 7e3f
00000020: b17e 7e3f f34b 803f a95d 803f 6889 7f3f
00000030: 4e30 803f e9a1 7f3f b7f4 7d3f bfc4 7f3f
00000040: e595 7f3f dc8b 7f3f 9087 7f3f faa7 7f3f
00000050: 5d62 7f3f 2713 803f 1842 803f 5ff4 7f3f
00000060: a159 7e3f 6161 7f3f c2ea 803f 5b7c 803f
00000070: 82bc 7e3f f0d7 7e3f 4bf7 7e3f 3083 803f
00000080: 6b4a 7e3f f3ab 7f3f 825c 803f b6b9 7f3f
00000090: 25b0 7f3f c063 803f 397f 803f 4f42 803f
000000a0: 5753 7f3f ed59 7f3f 4e7b 7f3f 89c9 7e3f
000000b0: 617f 803f be7d 7e3f 5347 7f3f 509a 7f3f
000000c0: 82fe 803f fb0a 7e3f 8ad7 803f b1a0 7f3f
000000d0: 439a 7f3f 6ceb 803f d834 803f 40ea 803f
000000e0: d235 7f3f 86b3 7e3f 5534 813f 963f 7e3f
000000f0: 5f26 803f 63c1 7f3f f464 7f3f 9983 803f

block2.1.bias f4 [64]
-0.0020681503 -0.006848426 -0.00683253 -0.01325438 -0.008044789 -0.0044884286 -0.004944477 -0.00223978
-0.008841733 -0.008324397 -0.006927868 -0.006063752 -0.00088301644 -0.008872006 -0.005030786 -0.0024858692
-0.004075777 -0.007586284 -0.006985299 -0.0042953645 -0.0038423906 -0.002267137 -0.005673082 -0.0025851743
-0.008818048 -0.001180602 -0.0062303636 -0.010527468 -0.0059222346 -0.007007818 -0.007505626 -0.0044052918
-0.008014931 -0.0042379065 -0.006286876 -0.0070067896 0.003371665 -0.000687624 -0.0019237462 -0.00861445
-0.0062696915 -0.0047985413 -0.0039338544 -0.010064973 -0.0023014578 -0.006461389 -0.0040148157 -0.0019645663
0.0011181235 -0.004165017 -0.0057769725 -0.0061650225 -0.0029651606 0.00035810415 -0.0006656713 0.0021499617
-0.002647944 -0.005019649 -0.0027422558 -0.006937674 -0.012771139 -0.0046784612 -0.0064146817 -0.009909234
00000000: ce89 07bb c368 e0bb 6ae3 dfbb e628 59bc
00000010: 4ace 03bc ab13 93bb 4805 a2bb 46c9 12bb
00000020: ebdc 10bc 0d63 08bc 2b03 e3bb 70b2 c6bb
00000030: 3b7a 67ba e45b 11bc 4bd9 a4bb f7e9 22bb
00000040: 188e 85bb 5d96 f8bb efe4 e4bb 21c0 8cbb
00000050: 9ed0 7bbb 3f94 14bb 43e5 b9bb 076c 29bb
00000060: 9379 10bc 6ebe 9aba 1428 ccbb 677b 2cbc
00000070: 4e0f c2bb d7a1 e5bb c1f1 f5bb 445a 90bb
00000080: 0f51 03bc 23de 8abb 2302 cebb 3699 e5bb
00000090: 27f7 5c3b aa41 34ba 3626 fcba 9f23 0dbc
000000a0: fc71 cdbb 153d 9dbb 90e7 80bb 8ee7 24bc
000000b0: 0ed4 16bb 0fba d3bb b78e 83bb f4bf 00bb
000000c0: 008e 923a b27a 88bb c24c bdbb f503 cabb
000000d0: 2453 42bb edbf bb39 7280 2eba 5fe6 0c3b
000000e0: 2189 2dbb de7b a4bb 6bb7 33bb 6d55 e3bb
000000f0: 0a3e 51bc c74d 99bb 4032 d2bb 575a 22bc

block2.1.running_mean f4 [64]
-0.21850844 -0.32777035 -0.27526024 0.18489715 0.11173951 -0.5054822 -0.46960387 0.24613637
0.58676434 -0.16058682 -0.28801584 0.16185167 -0.19441949 -0.2104449 0.61837125 -0.08186314
-0.44686523 0.34509605 -0.51750916 0.004657395 -1.0633991 0.13042194 -0.40254253 -0.0030284992
-0.19951203 -0.77919704 0.058794893 -0.37109324 -0.008223974 0.44037905 -0.121504135 -0.22284067
0.39635298 0.6722301 -0.22767763 0.5223525 0.09248751 -0.25703698 -0.02353345 -0.08288377
0.4806525 0.44262704 -0.55961514 -0.21558404 0.30715474 -0.4638443 -0.56216043 -0.1367689
-0.15388007 0.017880991 0.21546504 -0.12212714 -0.2620536 0.17609143 -0.18782991 0.059169926
-0.6021659 -0.38628113 -0.030435538 -0.20210479 0.7594962 0.25765133 0.49456367 -0.27211702
00000000: adc0 5fbe 84d1 a7be e9ee 8cbe ae55 3d3e
00000010: afd7 e43d 4867 01bf eb6f f0be 2c0b 7c3e
00000020: 3036 163f df70 24be d076 93be 72bc 253e
00000030: e715 47be de7e 57be 944d 1e3f dda7 a7bd
00000040: 85cb e4be 6eb0 b03e 7b7b 04bf 109d 983b
00000050: 761d 88bf 548d 053e 0e1a cebe c979 46bb
00000060: e24c 4cbe 7579 47bf ead2 703d efff bdbe
00000070: d9bd 06bc 5d79 e13e 29d7 f8bd 5830 64be
00000080: c7ee ca3e 4617 2c3f 5324 69be e5b8 053f
00000090: 176a bd3d 5a9a 83be 39c9 c0bc f7be a9bd
000000a0: 1618 f63e 03a0 e23e f042 0fbf 10c2 5cbe
000000b0: 6343 9d3e 007d edbe bfe9 0fbf 260d 0cbe
000000c0: bd92 1dbe 287b 923c dea2 5c3e cb1d fabd
000000d0: e42b 86be 5051 343e 7c56 40be 2a5c 723d
000000e0: 8b27 1abf a4c6 c5be f353 f9bc 8ff4 4ebe
000000f0: 586e 423f e0ea 833e 7337 fd3e ec52 8bbe

block2.1.running_var f4 [64]
0.09265106 0.22816862 0.25466642 0.053697392 0.20254827 0.13330403 0.94792473 0.38511106
0.14557452 0.24853969 0.10645377 0.2810172 0.21139361 0.071363285 0.20676133 0.28147212
0.44356152 0.22073926 0.17099452 0.23555519 0.7185107 0.32604918 0.123240076 0.21157832
0.6520155 0.24730536 0.059914965 0.1050897 0.2891169 0.15301777 0.26468876 0.12020768
0.9092236 0.25921768 0.07664695 0.14979286 0.056492638 0.16724154 0.059704855 0.07046679
0.24566081 0.5186669 0.46863225 0.44607273 0.09899434 0.37481773 0.25537056 0.24428388
0.08814957 0.16251162 0.06428739 0.1472808 0.29377323 0.07614083 0.12230528 0.0856976
0.29269904 0.13913381 0.058084235 0.7523952 0.34109113 0.98076534 0.3715377 0.0970546
00000000: d7bf bd3d 09a5 693e a363 823e ccf1 5b3d
00000010: d068 4f3e da80 083e 32ab 723f 472d c53e
00000020: 7d11 153e 3081 7e3e 6f04 da3d 7de1 8f3e
00000030: 9177 583e ea26 923d 3eb9 533e 1d1d 903e
00000040: 7f1a e33e 7909 623e 3019 2f3e 6135 713e
00000050: 51f0 373f ebef a63e 4b65 fc3d fda7 583e
00000060: 7dea 263f 9e3d 7d3e 6569 753d 4539 d73d
00000070: 2107 943e b1b0 1c3e 4985 873e 722f f63d
00000080: e1c2 683f 2eb8 843e 13f9 9c3d 4d63 193e
00000090: d364 673d 5e41 2b3e 148d 743d e450 903d
000000a0: 828e 7b3e 5bc7 043f 91f0 ef3e a563 e43e
000000b0: 8bbd ca3d 1ce8 bf3e eebf 823e 8e25 7a3e
000000c0: c387 b43d 7269 263e 1ba9 833d c7d0 163e
000000d0: 7269 963e b9ef 9b3d 317b fa3d 3982 af3d
000000e0: a6dc 953e 1879 0e3e bce9 6d3d f99c 403f
000000f0: 7fa3 ae3e 7013 7b3f 303a be3e 90c4 c63d

block3.0.weight f4 [64, 64, 3, 3]
-0.030591581 -0.028697098 -0.018511225 0.019468518 0.03524856 0.035123214 -0.017982123 0.04706106
-0.03451397 -0.015730474 -0.017869497 0.0022171238 -0.0066735605 -0.011943438 0.023260092 -0.03318173
0.0098706335 -0.00626261 0.018469313 0.0068167998 -0.00381622 0.00070880755 -0.04117009 -0.0015201843
0.025504043 -0.032459088 -0.004105868 -0.026123462 -5.322276e-05 -0.010485783 0.036489725 -0.022977687
-0.028143484 0.021513859 0.041688465 0.025009856 -0.029053902 -0.037359543 -0.015167968 -0.03006001
0.023204692 0.015134886 0.021899285 0.016439399 -0.041442852 -0.02755016 -0.02137122 -0.012446808
-0.0011159254 -0.006720947 0.01891827 0.01839662 0.034491494 0.017818315 -0.02860631 0.029370742
-0.009323443 0.0014983971 -0.025650034 -0.030467547 0.037688307 0.0022317562 -0.02377326 -0.026039304
-0.012911368 0.019117698 0.025270917 -0.030074997 0.0035518047 0.008059179 -0.033225548 -0.023309983
-0.018384065 -0.0016235518 0.023375563 0.034660295 -0.03409337 0.03984844 -0.012077154 -0.007757264
0.03855388 -0.0023547697 0.028321298 -0.015611916 -0.041785724 -0.016083082 0.01810818 -0.019972268
0.032943133 -0.0146056935 0.032555684 -0.012245673 0.022634665 0.012334967 0.01237775 -0.0032681022
0.041750945 0.024779087 0.027495971 -0.005072768 -0.03285251 -0.015232088 0.001337687 -0.025509963
0.020829666 0.021525195 0.021762952 -0.016822742 0.018331228 0.03315274 0.031788368 0.019565891
-0.0026980848 -0.018167753 0.032241564 0.021455694 -0.020640455 0.0041348576 -0.024411045 -0.014558209
0.009441639 -0.02514994 -0.034362167 -0.0059332303 0.024754893 -0.025442855 -0.0029322985 -0.026377713
0.025278393 -0.022522451 0.02921768 0.0093469145 0.029588027 -0.01705396 0.032121554 0.011365698
0.0051088 0.019906446 -0.0025612281 0.023807013 0.009954319 0.0009001819 -0.039017968 -0.00827399
-0.022867836 0.012971323 0.018511623 0.034356702 0.00049524184 0.0048993025 0.023488037 -0.040214512
-0.019878637 0.01218052 0.022244465 0.007837241 0.031115873 0.020029414 0.019348314 0.0036291846
0.04384491 0.028332496 0.015615719 -0.029715203 0.026075691 -0.0143030165 -0.024608087 -0.04006977
0.016780632 0.01099164 0.00734229 -0.027466496 0.01714269 0.010166064 0.022787074 -0.025330737
0.02196716 0.014081119 0.0005706008 0.01048869 -0.043620773 0.013143275 -0.01533307 -0.0073115584
-0.0010698981 -0.011998831 -0.032475933 -0.0086374115 0.030371588 -0.04328554 0.014992672 -0.005912139
-0.028048566 -0.021139553 0.026920069 -0.032583624 -0.03193544 -0.0019082784 0.027455067 0.028935071
0.023761189 0.027508687 0.004367961 0.0075230477 -0.013042292 -0.04149886 -0.010746908 0.03301702
-6.836101e-05 0.029640889 -0.010679144 -0.01949201 -0.032993797 0.041667014 0.0070897033 -0.012769287
-0.009154607 0.028928222 0.007883397 0.030793486 0.019999826 -0.001194895 -0.01571059 -0.003896355
-0.014039379 0.023860969 0.015825858 -0.0050457455 0.015755747 0.0017039239 0.005801274 -0.009040811
0.041745763 0.0039951317 -0.03432753 0.044348605 -0.0363916 0.009448659 -0.018020296 0.016422698
0.008746004 -0.025256412 0.02779383 -0.043212622 0.0231457 0.008203974 0.0021670023 -0.00076253706
-0.034468446 0.016088387 -0.03611435 -0.015160255 -0.009159557 -0.009044946 0.0033691432 -0.023449874
00000000: 329b fabc 2d16 ebbc daa4 97bc 717c 9f3c
00000010: cb60 103d 5cdd 0f3d 3f4f 93bc 19c3 403d
00000020: 855e 0dbd 32dd 80bc 0d63 92bc 2a4d 113b
00000030: e2ad dabb 69ae 43bc f38b be3c 91e9 07bd
00000040: 70b8 213c 9536 cdbb f54c 973c 765f df3b
00000050: 8c19 7abb 45cf 393a f8a1 28bd ec40 c7ba
00000060: dbed d03c d2f3 04bd 848a 86bb df00 d6bc
00000070: 813b 5fb8 90cc 2bbc 4076 153d b43b bcbc
00000080: 2a8d e6bc d53d b03c 86c1 2a3d 78e1 cc3c
00000090: 7302 eebc 5206 19bd 1283 78bc 6940 f6bc
000000a0: c417 be3c 50f8 773c 2166 b33c ebab 863c
000000b0: fbbf 29bd e0b0 e1bc b212 afbc b2ed 4bbc
000000c0: 3e44 92ba 643b dcbb 7dfa 9a3c 82b4 963c
000000d0: f446 0d3d b7f7 913c c857 eabc e99a f03c
000000e0: 5bc1 18bc dd65 c43a 0520 d2bc 1497 f9bc
000000f0: 0e5f 1a3d a842 123b 24c0 c2bc 6150 d5bc
00000100: 348a 53bc b89c 9c3c f404 cf3c d75f f6bc
00000110: 65c5 683b a60a 043c 8317 08bd 94f4 bebc
00000120: 2e9a 96bc 5ccd d4ba 1c7e bf3c f4f7 0d3d
00000130: 7da5 0bbd 1e38 233d 41df 45bc a630 febb
00000140: acea 1d3d 7b52 1abb 1102 e83c 1fc9 7fbc
00000150: 8227 2bbd abc0 83bc 9b57 943c e29c a3bc
00000160: 61ef 063d b84c 6fbc 1c59 053d 13a2 48bc
00000170: 556c b93c 9a18 4a3c 0ccc 4a3c a82d 56bb
00000180: 0a03 2b3d 83fd ca3c 3b3f e13c 7639 a6bb
00000190: 5b90 06bd 0290 79bc 5455 af3a 45fa d0bc
000001a0: faa2 aa3c 9b55 b03c 3848 b23c d9cf 89bc
000001b0: 5f2b 963c 2bcb 073d 8534 023d a648 a03c
000001c0: 5ad2 30bb 8ad4 94bc bb0f 043d dac3 af3c
000001d0: 2c16 a9bc b37d 873b acf9 c7bc 8e85 6ebc
000001e0: 1bb1 1a3c 3f07 cebc 58bf 0cbd 8b6b c2bb
000001f0: c6ca ca3c 896d d0bc ce2b 40bb 1316 d8bc
00000200: a214 cf3c 0181 b8bc eb59 ef3c cd23 193c
00000210: 9762 f23c bfb4 8bbc e491 033d 3137 3a3c
00000220: b867 a73b d812 a33c 47da 27bb ed06 c33c
00000230: 7117 233c 2ffa 6b3a 4ed1 1fbd a18f 07bc
00000240: 5455 bbbc ac85 543c b0a5 973c 9db9 0c3d
00000250: 1ed3 013a 548a a03b fc69 c03c f9b7 24bd
00000260: 86d8 a2bc ce90 473c 063a b63c c567 003c
00000270: b7e6 fe3c ba14 a43c 5b80 9e3c 9dd7 6d3b
00000280: b896 333d 8d19 e83c 13d9 7f3c 4c6d f3bc
00000290: b09c d53c 3357 6abc e696 c9bc 3320 24bd
000002a0: 8977 893c 4816 343c 9897 f03b 6b01 e1bc
000002b0: d46e 8c3c 908f 263c f5ab ba3c 6882 cfbc
000002c0: 79f4 b33c 7eb4 663c 5f94 153a c1d8 2b3c
000002d0: b2ab 32bd e456 573c 8f37 7bbc cc95 efbb
000002e0: d33b 8cba bf96 44bc 7c05 05bd ee83 0dbc
000002f0: d6cd f83c 2e4c 31bd d3a3 753c 9eba c1bb
00000300: 1bc6 e5bc db2c adbc 7a87 dc3c 6876 05bd
00000310: bcce 02bd 331f faba 73e9 e03c 3e09 ed3c
00000320: d3a6 c23c e659 e13c 1d21 8f3b e683 f63b
00000330: 56af 55bc b5fa 29bd cd13 30bc db3c 073d
00000340: 0a5d 8fb8 73d1 f23c 94f7 2ebc b5ad 9fbc
00000350: 8124 07bd 08ab 2a3d be50 e83b 4636 51bc
00000360: 34fd 15bc e1fa ec3c 5d29 013c 9f42 fc3c
00000370: add6 a33c 069e 9cba 7fb3 80bc fd59 7fbb
00000380: 6c05 66bc 1478 c33c 3ba5 813c c856 a5bb
00000390: 3212 813c 3356 df3a 9d18 be3b e91f 14bc
000003a0: 9bfd 2a3d 98e9 823b 069b 0cbd e2a6 353d
000003b0: 5c0f 15bd 8cce 1a3c 4d9f 93bc e588 863c
000003c0: 664b 0f3c 89e6 cebc e3af e33c b8ff 30bd
000003d0: 0d9c bd3c f669 063c 4404 0e3b ffe4 47ba
000003e0: c92e 0dbd cbcb 833c a4ec 13bd b862 78bc
000003f0: f711 16bc 4131 14bc d8cc 5c3b f319 c0bc

block3.0.bias f4 [64]
0.0050706193 -0.0010695338 -0.027470272 -0.02179631 0.03719649 0.0071719186 -0.037662134 -0.03418533
-0.03792606 -0.037475273 -0.018177122 -0.004919549 0.025316255 -0.035104003 0.032511096 -0.031523846
0.018250275 -0.010409365 -0.0033822402 -0.038289394 0.014995741 -0.022844844 -0.03370991 0.03217393
-0.002955664 -0.02637388 0.018293818 -0.013423325 0.010107432 -0.030563246 0.025979353 -0.002984299
-0.0002919347 -0.039448466 0.024042953 -0.0067554084 0.035424888 -0.0011527986 -0.032431547 -0.021659113
0.008557559 -0.037229497 -0.020183817 -0.012402811 -0.021003103 -0.022029428 -0.030135965 0.023573237
0.0012719863 -0.019138133 0.0074629877 -0.036238458 -0.014140897 -0.00573786 -0.02928559 -0.0085449945
0.033057984 0.00431137 -0.028941423 -0.0328591 0.009217976 -0.00805981 0.022238955 0.0003789845
00000000: 7027 a63b 992f 8cba 5609 e1bc 2d8e b2bc
00000010: 595b 183d 6a02 eb3b 9c43 1abd eb05 0cbd
00000020: 5b58 1bbd ac7f 19bd 30e8 94bc 2b34 a1bb
00000030: 0964 cf3c 37c9 0fbd 5b2a 053d 261f 01bd
00000040: 9a81 953c 0b8c 2abc 93a8 5dbb 57d5 1cbd
00000050: b2b0 753c 1c25 bbbc 6713 0abd d0c8 033d
00000060: d0b3 41bb 090e d8bc ebdc 953c 81ed 5bbc
00000070: a499 253c c65f fabc a7d2 d43c 3b94 43bb
00000080: d00e 99b9 b794 21bd baf5 c43c 795c ddbb
00000090: b019 113d 8119 97ba f1d6 04bd 746e b1bc
000000a0: 0135 0c3c f57d 18bd 8858 a5bc 2935 4bbc
000000b0: b30e acbc 0f77 b4bc b3df f6bc a91c c13c
000000c0: c7b8 a63a 93c7 9cbc 148c f43b c76e 14bd
000000d0: 39af 67bc a904 bcbb 55e8 efbc 4e00 0cbc
000000e0: cf67 073d 6546 8d3b 9016 edbc 4397 06bd
000000f0: fe06 173c 4b0d 04bc 782e b63c 70b2 c639

block3.1.weight f4 [64]
1.0039574 0.9937029 0.99437875 0.9951019 0.9959378 0.99852276 0.9966469 0.99952155
1.0034779 0.99657464 1.0002935 0.9988558 0.9989369 0.9983165 0.99504685 1.005883
0.9989849 0.99534 0.9959866 0.9999805 0.9927164 0.9974068 1.0021673 1.0001493
0.9929527 0.99399227 0.9984816 1.0049974 1.0001092 1.0021417 1.0018127 0.99367666
0.99797505 1.0004517 1.0011547 1.0005832 1.0080189 1.0052323 1.0008495 1.0014291
0.99711496 0.99412304 1.004985 1.0006447 0.9975535 1.0122379 1.0043771 1.0008651
0.99453616 0.9927511 1.0055656 1.0044891 1.0056779 0.9897926 0.9984057 1.0025609
1.0097088 0.99915445 0.9950658 0.9999837 1.0041837 1.0071851 0.9921747 0.9954971
00000000: ad81 803f 5063 7e3f 9b8f 7e3f 00bf 7e3f
00000010: c8f5 7e3f 309f 7f3f 4024 7f3f a5e0 7f3f
00000020: f771 803f 841f 7f3f 9e09 803f 04b5 7f3f
00000030: 54ba 7f3f ac91 7f3f 64bb 7e3f c6c0 803f
00000040: 79bd 7f3f 9ace 7e3f faf8 7e3f b9fe 7f3f
00000050: a922 7e3f 0d56 7f3f 0547 803f e404 803f
00000060: 2632 7e3f 4776 7e3f 7d9c 7f3f c1a3 803f
00000070: 9403 803f 2e46 803f 663b 803f 9861 7e3f
00000080: 4b7b 7f3f cd0e 803f d625 803f 1c13 803f
00000090: c306 813f 74ab 803f d61b 803f d42e 803f
000000a0: ed42 7f3f d97e 7e3f 59a3 803f 2015 803f
000000b0: ab5f 7f3f 0391 813f 6e8f 803f 591c 803f
000000c0: ec99 7e3f f024 7e3f 60b6 803f 1993 803f
000000d0: 0eba 803f 0c63 7d3f 8497 7f3f ea53 803f
000000e0: 233e 813f 96c8 7f3f a2bc 7e3f effe 7f3f
000000f0: 1789 803f 71eb 803f 29ff 7d3f e6d8 7e3f

block3.1.bias f4 [64]
-0.0064853546 -0.0058128294 -0.0088064745 -0.010653912 -0.0046172175 -0.0044282544 -0.013829428 -0.003099599
-0.0057438905 -0.0067952177 -0.0008212085 -0.0059072417 -0.00673418 -0.0009756225 -0.005591301 -0.014346859
-0.0036994428 -0.007721497 -0.00053372193 -0.0058222897 -0.009053287 -0.0076437225 -0.0014433516 -0.0045170467
-0.009558819 -0.0061028083 -0.009656326 -0.008091497 -0.0027983193 -0.0023260687 -0.0055255853 -0.0041990695
-0.004404921 -0.004575429 -0.001481401 -0.004610085 -0.0057542385 -0.010286582 -0.0002869536 -0.0029254493
-0.0056781187 -0.0017746226 -0.008743243 -0.011482025 -0.0059836344 0.0007243419 -0.0025513202 -0.0052291974
-0.0028258811 -0.008775603 -0.003893344 -0.011710247 -0.0010490214 -0.011159646 -0.006056888 -0.00033557104
-0.003312597 -0.0065162447 -0.010370883 -0.008298647 -0.008815785 -0.007187477 -0.01233582 -0.010381007
00000000: 1983 d4bb 8c79 bebb 0849 10bc bf8d 2ebc
00000010: 074c 97bb e41a 91bb d394 62bc a422 4bbb
00000020: 3f37 bcbb 6baa debb 5f46 57ba 8991 c1bb
00000030: 65aa dcbb ebc0 7fba 3b37 b7bb 170f 6bbc
00000040: 5a72 72bb 9d04 fdbb 79e9 0bba e8c8 bebb
00000050: 3d54 14bc 3178 fabb d82e bdba bc03 94bb
00000060: 989c 1cbc 11fa c7bb 9135 1ebc 3392 04bc
00000070: 0264 37bb f570 18bb f80f b5bb 5998 89bb
00000080: 2857 90bb 7bed 95bb 922b c2ba 3210 97bb
00000090: 0d8e bcbb 0d89 28bc 4372 96b9 e5b8 3fbb
000000a0: 830f babb 749a e8ba d23f 0fbc 1a1f 3cbc
000000b0: 5d12 c4bb c3e1 3d3a 0d34 27bb b059 abbb
000000c0: 6b32 39bb 8cc7 0fbc 7927 7fbb 56dc 3fbc
000000d0: 517f 89ba f3d6 36bc dc78 c6bb 95ef afb9
000000e0: 2818 59bb 3986 d5bb a3ea 29bc 0cf7 07bc
000000f0: 1570 10bc ed84 ebbb 2e1c 4abc 1915 2abc

block3.1.running_mean f4 [64]
0.14047249 -0.16390637 0.004154944 -0.5535996 -0.08709083 0.26056254 0.0009566628 -0.21134521
-0.06620823 -0.24197672 -0.10850037 -0.009940751 0.09936028 -0.72267175 -0.226776 0.3029855
-0.010062237 0.32947624 0.10018977 0.08824042 -0.0978234 0.5325465 -0.3587011 0.09867636
0.08060535 -0.15645866 0.23219635 0.16697024 0.3044285 0.03200275 -0.05294528 -0.87920284
-0.48081252 0.32204092 0.23120761 -0.40097523 0.23096797 0.29040635 0.11304404 -0.16092727
-0.8633792 -0.24033552 0.30983284 -0.115584075 0.14581922 0.3766963 0.34025002 -0.39939204
-0.018451963 0.14254797 0.33353728 0.13676603 -0.06474049 0.085930064 0.277876 -0.8563728
0.09969622 0.32677034 0.31562224 -0.037484486 0.3202303 0.38805535 0.28962946 -0.2307927
00000000: 05d8 0f3e 12d7 27be 3226 883b b4b8 0dbf
00000010: ad5c b2bd 7468 853e 8ec8 7a3a e16a 58be
00000020: 2e98 87bd bfc8 77be 7135 debd 88de 22bc
00000030: 677d cb3d 0401 39bf f837 68be ea20 9b3e
00000040: 15dc 24bc 1cb1 a83e 4b30 cd3d 65b7 b43d
00000050: a257 c8bd f854 083f aca7 b7be d516 ca3d
00000060: 6b14 a53d b336 20be e1c4 6d3e 3ffa 2a3e
00000070: 0dde 9b3e 5115 033d 26dd 58bd 7013 61bf
00000080: 0f2d f6be 8ce2 a43e b0c1 6c3e a04c cdbe
00000090: de82 6c3e 24b0 943e a283 e73d 1eca 24be
000000a0: 6b06 5dbf 841a 76be 69a2 9e3e 58b7 ecbd
000000b0: a251 153e 56de c03e 4035 ae3e 1d7d ccbe
000000c0: 9228 97bc 18f8 113e 66c5 aa3e 650c 0c3e
000000d0: a996 84bd 1afc af3d c345 8e3e 3f3b 5bbf
000000e0: 882d cc3d 714e a73e 3d99 a13e 5589 19bd
000000f0: 3af5 a33e 31af c63e 504a 943e ec54 6cbe

block3.1.running_var f4 [64]
0.18203421 0.31820017 0.34796658 0.2390248 0.31209856 0.18360525 0.297459 0.14831145
0.12304374 0.27907148 0.22454336 0.16699174 0.43353996 0.3005352 0.3209166 0.19354263
0.16741432 0.41984966 0.27150258 0.12636451 0.23657274 0.2513463 0.2227224 0.27494946
0.2787985 0.15474674 0.33831114 0.12536591 0.23286362 0.22931355 0.13806815 0.6248807
0.45950192 0.33017585 0.16113953 0.28538004 0.20741029 0.40708396 0.11260866 0.16787183
0.54033345 0.21863684 0.157006 0.36057064 0.27484354 0.22713535 0.42481962 0.42725962
0.25821453 0.21238595 0.16999625 0.22377193 0.16765979 0.11360954 0.34285915 0.41787106
0.116816975 0.29241788 0.17037003 0.24731518 0.27240232 0.16618663 0.44445378 0.18157709
00000000: 2d67 3a3e 22eb a23e ad28 b23e ebc2 743e
00000010: 62cb 9f3e 0403 3c3e 8c4c 983e f5de 173e
00000020: 5bfe fb3d 75e2 8e3e b2ee 653e e2ff 2a3e
00000030: f3f8 dd3e c0df 993e 2e4f a43e 0a30 463e
00000040: a96e 2b3e 89f6 d63e 6302 8b3e b365 013e
00000050: 2040 723e 76b0 803e 5711 643e 2dc6 8c3e
00000060: adbe 8e3e ee75 1e3e 1e37 ad3e ec5f 003e
00000070: cd73 6e3e 2cd1 6a3e bd61 0d3e 2ef8 1f3f
00000080: d643 eb3e cf0c a93e c301 253e 551d 923e
00000090: 5d63 543e 4f6d d03e 5e9f e63d 98e6 2b3e
000000a0: 4b53 0a3f 56e2 5f3e 2ec6 203e b79c b83e
000000b0: 4bb8 8c3e 2b96 683e f581 d93e c6c1 da3e
000000c0: b234 843e b47b 593e 7f13 2e3e 7824 653e
000000d0: 02af 2b3e 1eac e83d 3c8b af3e 32f3 d53e
000000e0: bd3d ef3d ccb7 953e 7b75 2e3e 3140 7d3e
000000f0: 5178 8b3e d42c 2a3e 728f e33e 58ef 393e

block4.0.weight f4 [64, 64, 3, 3]
0.010031954 -0.030724794 0.026280032 0.0096881995 0.02648797 0.02998199 0.031218577 -0.033495333
0.010237349 0.025134709 -0.026450833 0.01772721 0.010624609 0.032406203 -0.043231577 -0.033524316
-0.0407517 0.030284995 -0.0067461235 0.040005583 -0.009077755 0.028601546 0.021081071 -0.03848555
0.029788295 0.027526163 -0.032269914 -0.033083618 0.017271835 0.0361181 -0.027963 0.021517716
0.008881785 -0.015796306 0.012122943 0.016280036 -0.028246125 -0.03726138 -0.006695098 -0.013122286
-0.016163742 0.012295952 0.009965094 0.024089413 -0.02632656 -0.03471751 0.027592314 -0.010275735
-0.008918335 0.024946323 -0.0048896386 0.018674748 0.029258637 0.024624793 -0.0459837 0.025836047
0.011218375 0.027688326 0.015615646 -0.021315275 0.026077561 0.040303517 0.024744025 0.004487496
0.019485123 0.026471842 0.020021016 -0.041573457 0.0146677885 0.013301646 -0.034636363 0.036422964
0.008560655 -0.037773237 0.031948887 -0.0019815697 -0.019736528 -0.00038338316 0.017242784 -0.037446406
0.00166623 -0.0037457694 -0.013485926 0.021467805 -0.00028292293 0.018684352 -0.02825934 0.03618397
-0.018527778 0.003369299 0.021182796 -0.03188747 -0.028847657 0.032459285 0.018616471 0.013758054
0.010110014 0.038750727 -0.026763406 0.037482124 -0.0045655165 0.023548217 -0.036973838 -0.012831783
0.0026907083 0.0281479 0.015040692 0.04151045 -0.030882422 -0.013334631 0.043675296 0.0075586084
-0.022695811 0.0293675 0.0113187665 0.0006814667 -0.013382243 0.027766248 -0.019495366 0.009625571
0.040339097 -0.034295816 0.018908074 -0.009593299 -0.011696879 0.023617566 0.000102606304 0.024836311
0.041794077 0.02700034 -0.03195143 -0.0041169077 0.012522208 -0.034940116 0.026381554 -0.025845258
0.008916553 -0.030327734 0.005146561 0.019623708 -0.020798828 -0.04134902 -0.009439892 -0.025737006
0.01990867 0.03149053 0.018812807 -0.040435866 -0.036981344 -0.032719582 0.021308666 0.023257196
-0.030396564 -0.0319367 -0.009707374 0.016108368 0.0073181996 0.027973404 0.0054379026 0.0051193098
-0.021618515 -0.023202505 0.040676866 -0.02983198 0.017277876 -0.041905683 -0.043598693 -0.008887766
-0.033079438 0.011214114 0.0074248984 -0.01983458 -0.036143698 -0.012363895 -0.015981015 0.027063366
-0.04138714 -0.016514601 0.028936705 -0.038924776 -0.030896293 -0.024155809 0.015552023 0.012174809
0.02820401 -0.0045976164 0.037751403 -0.017478768 0.031625416 0.030327637 -0.030666476 0.00857065
-0.010116373 -0.035685077 -0.029227154 0.038341418 0.011456471 0.03166899 -0.011041886 -0.03783375
1.8864837e-05 -0.009400846 -0.02803826 0.016996665 -0.0061228243 -0.015160104 0.007249567 0.033133682
0.015841424 -0.022665747 -0.019902498 0.00079407834 0.024935758 -0.015144905 0.031133095 -0.00764266
-0.03636704 0.0059818337 0.0034834163 -0.024220796 -0.042253185 -0.02196075 0.019922864 -0.022748183
0.03128482 0.017224403 0.021666517 -0.037160918 0.00985728 -0.019631384 0.0285411 -0.015738249
-0.020729406 0.040687468 -0.006526039 0.036023635 0.044163555 -0.025405496 0.03224885 -0.011910202
-0.03371229 -0.0029525456 0.026008384 -0.0060130795 -0.021662422 0.011705615 -0.010608852 -0.04436249
-0.03814059 0.013514677 -0.013302314 -0.030221932 -0.022607692 0.008045372 -0.018091874 0.0031692372
00000000: 115d 243c 90b2 fbbc 3949 d73c 41bb 1e3c
00000010: 4dfd d83c ca9c f53c 1abe ff3c 6732 09bd
00000020: 8eba 273c 4ee7 cd3c 6baf d8bc a738 913c
00000030: d712 2e3c 5ebc 043d 9813 31bd cb50 09bd
00000040: 41eb 26bd 3d18 f83c 960e ddbb e5dc 233d
00000050: ddba 14bc ca4d ea3c 36b2 ac3c 06a3 1dbd
00000060: 9506 f43c 8c7e e13c 752d 04bd b082 07bd
00000070: aa7d 8d3c 93f0 133d a912 e5bc ec45 b03c
00000080: e884 113c 4167 81bc 4f9f 463c b65d 853c
00000090: 6b64 e7bc 649f 18bd 8d62 dbbb dbfe 56bc
000000a0: d369 84bc f674 493c a244 233c 2957 c53c
000000b0: ccaa d7bc f333 0ebd 4709 e23c 8e5b 28bc
000000c0: 351e 12bc 3b5c cc3c 4339 a0bb c9fb 983c
000000d0: cfaf ef3c efb9 c93c 6759 3cbd 1ea6 d33c
000000e0: 46cd 373c a1d2 e23c c4d8 7f3c 5f9d aebc
000000f0: 9ca0 d53c 4d15 253d fbb3 ca3c d80b 933b
00000100: 449f 9f3c 7adb d83c 1d03 a43c ee48 2abd
00000110: 2a51 703c 26ef 593c dcde 0dbd 3f30 153d
00000120: fd41 0c3c 1cb8 1abd d6dc 023d 39dd 01bb
00000130: 80ae a1bc d100 c9b9 bd40 8d3c 6761 19bd
00000140: 6765 da3a 957b 75bb 13f4 5cbc 40dd af3c
00000150: 4655 94b9 ed0f 993c 2280 e7bc a435 143d
00000160: 91c7 97bc 75cf 5c3b 8b87 ad3c 709c 02bd
00000170: ec51 ecbc 07f4 043d 9281 983c 7669 613c
00000180: 79a4 253c 15b9 1e3d ee3e dbbc db86 193d
00000190: 549a 95bb 31e8 c03c e171 17bd 663c 52bc
000001a0: 9856 303b 6d96 e63c 3c6d 763c dd06 2a3d
000001b0: 22fd fcbc 7f79 5abc dee4 323d 34ae f73b
000001c0: 91ec b9bc 1d94 f03c 5972 393c 75a4 323a
000001d0: 3241 5bbc 0b76 e33c bfb4 9fbc 92b4 1d3c
000001e0: 9c3a 253d c579 0cbd 1be5 9a3c 362d 1dbc
000001f0: 44a4 3fbc a079 c13c 572e d738 8575 cb3c
00000200: 4430 2b3d d12f dd3c 81df 02bd 20e7 86bb
00000210: f229 4d3c 5e1d 0fbd 211e d83c 6fb9 d3bc
00000220: bc16 123c de71 f8bc 7ca4 a83b e6c1 a03c
00000230: 4e62 aabc 975d 29bd c7a9 1abc 6ad6 d2bc
00000240: 8217 a33c 37fc 003d 511d 9a3c 14a0 25bd
00000250: c079 17bd f804 06bd 838f ae3c e085 be3c
00000260: 3702 f9bc 0fd0 02bd ad0b 1fbc b2f5 833c
00000270: 82cd ef3b 7b28 e53c 6f30 b23b e2bf a73b
00000280: 5019 b1bc 2e13 bebc c99c 263d 3262 f4bc
00000290: 558a 8d3c 4ba5 2bbd 8b94 32bd fe9d 11bc
000002a0: 4e7e 07bd 67bb 373c 904c f33b 217c a2bc
000002b0: 6a0b 14bd ef91 4abc 9eea 82bc feb3 dd3c
000002c0: 9085 29bd a149 87bc ab0c ed3c 966f 1fbd
000002d0: 391a fdbc 67e2 c5bc eacd 7e3c da78 473c
000002e0: 190c e73c 9aa7 96bb 37a1 1a3d a22f 8fbc
000002f0: a789 013d aa71 f83c 4338 fbbc e96b 0c3c
00000300: 25bf 25bc 842a 12bd c96d efbc e40b 1d3d
00000310: ecb3 3b3c 58b7 013d 07e9 34bc 90f7 1abd
00000320: ee3f 9e37 0206 1abc 7eb0 e5bc 973c 8b3c
00000330: f9a1 c8bb 1662 78bc c78d ed3b 2fb7 073d
00000340: e0c5 813c 84ad b9bc 900a a3bc b229 503a
00000350: 1346 cc3c 5622 78bc d50a ff3c 476f fabb
00000360: 9bf5 14bd 4203 c43b 074a 643b b16a c6bc
00000370: ad11 2dbd 08e7 b3bc 4635 a33c 665a babc
00000380: 8324 003d 311a 8d3c fb7d b13c 0c36 18bd
00000390: 6e80 213c ffd1 a0bc 06cf e93c 80ed 80bc
000003a0: b7d0 a9bc e7a7 263d 62d8 d5bb 858d 133d
000003b0: d8e4 343d 301f d0bc 5f17 043d 0223 43bc
000003c0: e615 0abd 7f7f 41bb 890f d53c 5e09 c5bb
000003d0: 6475 b1bc e8c8 3f3c c0d0 2dbc 71b5 35bd
000003e0: 4f39 1cbd aa6c 5d3c f3f1 59bc fc93 f7bc
000003f0: c433 b9bc bcd0 033c 6935 94bc fab2 4f3b
