legacy/results/old/basic/basic_10.pth (torch, 961545 bytes, 26 tensors)

block1.0.weight f4 [64, 1, 3, 3]
000000 0c 68 12 be d3 01 2f be ed 2d 77 be e6 76 b7 3d
       -0.14297503 -0.1709054 -0.24138613 0.08958225
000010 00 ea a5 3e b4 6a d9 bd 6f 48 71 bd c5 ec 87 be
       0.3240509 -0.10616055 -0.05890697 -0.26547828
000020 6d b7 30 3e 0d 51 16 3e 6d d7 83 be e6 0e 73 3e
       0.17257471 0.14679356 -0.25750294 0.23736152
000030 c7 04 5f 3e 9f 16 47 be 94 75 8f 3e 6f 27 a1 be
       0.21779166 -0.19442223 0.28019392 -0.31475398
000040 c9 85 85 3d 0d d7 da bd df aa 58 3e a4 0b a2 3e
       0.06519658 -0.10685549 0.21158932 0.31649506
000050 39 25 8f be f5 a6 51 3e 29 70 1d be 05 5e a4 3e
       -0.27958086 0.20473845 -0.15374817 0.3210298
000060 c6 65 93 bd bb 15 a2 be f7 ba 88 3d a3 a1 31 3e
       -0.07197146 -0.31657204 0.06676286 0.17346816
000070 a9 e3 9c 3e be 4e 72 be 2a c8 57 3e c0 ee de 3d
       0.3064244 -0.2366285 0.2107245 0.10885382
000080 7b 63 75 3d 3b b8 55 3e 1d e3 39 be b5 3d 14 3e
       0.059909325 0.2087106 -0.18153043 0.14476664
000090 fc ec fa bd 2d ff 81 be dc 8b eb bd c2 5c f6 bc
       -0.122522324 -0.25389996 -0.115012854 -0.030073527
0000a0 7e 62 af 3e 33 a7 b2 bc e1 c4 70 be 02 53 83 3e
       0.3425483 -0.021808242 -0.23512603 0.25649267
0000b0 b5 51 71 be b3 4c e4 3d 4d 17 e8 bd b8 15 58 3e
       -0.23566325 0.11147442 -0.11332569 0.21102035
0000c0 53 ec 05 bd 71 a1 8c 3e d1 36 cb bd 03 99 06 3e
       -0.03269608 0.2746692 -0.09922565 0.13144307
0000d0 d6 b6 0b 3e 68 e3 07 bc c7 f8 7e be c0 9c a4 3e
       0.13643965 -0.008293964 -0.24899589 0.3215084
0000e0 89 ee 3d 3e 4d e2 70 be b4 6c 57 be c3 7f b2 bd
       0.18548025 -0.23523827 -0.2103756 -0.08715775
0000f0 08 b2 92 be 31 08 96 3d 76 09 4f bd 25 49 a7 be
       -0.28651452 0.07325781 -0.050546132 -0.32672992
000100 df 63 a1 be bf 46 3d 3d fe fa a7 3e 96 3e a8 3d
       -0.31521508 0.046210047 0.3280868 0.08215062
000110 71 23 4d 3e 8a 7e 56 be fa 6c 8c 3e ad 66 9e bd
       0.20033051 -0.20946708 0.27426893 -0.077344276
000120 77 cb 74 bd 07 6c 8f 3e 1d 17 0f be ca b3 bc bc
       -0.05976435 0.28012106 -0.13973661 -0.023034949
000130 07 76 cc 3d 04 a5 e7 3d f1 bd b5 bd 6e 1e 2d bd
       0.099834494 0.11310771 -0.08874119 -0.042265348
000140 06 12 78 3e 21 0a 42 be 9d e3 a4 be 9f 96 59 be
       0.24225625 -0.18949176 -0.32204905 -0.21248864
000150 10 08 e9 3d 2e 3e 32 be 71 68 a5 be eb fe e5 3d
       0.11378491 -0.17406532 -0.32306245 0.11230262
000160 1e 78 7c be 42 7e 2f 3e f5 91 f1 3c 79 f0 39 3e
       -0.24655196 0.17138007 0.029488543 0.1815814
000170 ce 87 b4 bd ae e9 2c be e9 32 36 3e 83 34 48 3e
       -0.08814965 -0.16886017 0.17792858 0.19551282
000180 c2 d9 f7 bd 61 f8 4d 3e c3 7f 87 be 77 fe 14 be
       -0.12102081 0.2011428 -0.26464662 -0.14550196
000190 8f c3 2e 3e 3f df 19 3d 73 9e 27 3e 24 a9 a6 be
       0.17066787 0.03756642 0.16369037 -0.3255092
0001a0 bd 82 9f 3d 91 81 15 3e 04 cb b3 bc 32 2c 9b 3e
       0.07788608 0.14600207 -0.021947391 0.30307156
0001b0 ae ae 6d bc 49 38 08 be 3c c4 f2 3d da 3a 9c be
       -0.014506979 -0.13302721 0.11853835 -0.3051365
0001c0 b5 5b 58 3e 58 ac 3a bd aa cb 95 bd 22 5f 01 bd
       0.21128733 -0.045574516 -0.073142365 -0.031584866
0001d0 45 04 87 be eb 31 0f be 2d 94 96 be a6 0a 6a be
       -0.26370445 -0.13983886 -0.29409924 -0.22855625
0001e0 e9 1c c2 bb 4e 56 b0 bd 41 2e b6 bc 62 15 a7 3e
       -0.0059238565 -0.08610211 -0.022238852 0.326335
0001f0 1c b0 9f be 57 91 46 3b 52 9f 20 3c 46 15 89 be
       -0.31189048 0.0030299032 0.00980361 -0.26774043
000200 ff cc 06 3e f8 b0 48 3e 87 8a fe bd cf c4 b9 bd
       0.13164137 0.19598758 -0.12428766 -0.090707414
000210 42 31 a6 3e 2a bc 3f 3e ef c7 27 3e 2b cd ec bb
       0.32459456 0.18724123 0.16384862 -0.0072266064
000220 c3 00 8a 3e 53 96 64 3e 0c 83 94 3e 20 48 42 be
       0.26953706 0.22322969 0.2900623 -0.18972826
000230 a0 bb 53 3e 56 9d 5e 3d 1b 83 0e be be 79 15 be
       0.20677042 0.054349266 -0.139172 -0.14597222
000240 cb 45 a6 3e e5 89 e2 3d a1 03 97 be af c5 d8 bd
       0.32475123 0.110614575 -0.29494956 -0.1058458
000250 83 8b 99 be 32 82 01 3e 0c bf 08 be 60 08 6b 3d
       -0.29989251 0.12647322 -0.13354129 0.057381034
000260 c6 59 56 3e b1 af 66 3d ab 3e 27 be 7f 70 93 be
       0.20932683 0.056319896 -0.163325 -0.28796765
000270 e8 18 bc bd ad 47 da 3d d1 fc 22 3e 6f e7 8e 3e
       -0.09184438 0.10658202 0.15916754 0.27910945
000280 86 5c 6f 3d 33 e5 da bc 97 b5 a2 3c 10 8c 56 be
       0.058437847 -0.026720619 0.01986198 -0.20951867
000290 89 34 81 be bd 8c 04 3e b3 2f 5c 3e 0c 56 96 3e
       -0.25235394 0.12944312 0.21502571 0.29362524
0002a0 65 8b 48 3e b5 10 13 3a 5e dc 3c 3e 17 61 a1 3d
       0.19584425 0.00056100945 0.18443438 0.078798465
0002b0 c7 41 0b 3e 60 3a 2e be f0 17 87 be cb 74 70 bb
       0.13599311 -0.17014456 -0.2638545 -0.0036690708
0002c0 34 5b 12 bd d3 3b 8f 3e b3 e2 bc bd 15 85 5d 3e
       -0.03573151 0.2797533 -0.09222927 0.21632798
0002d0 7d 42 0a bd db d3 81 3e 57 1c a3 ba 8a c7 61 3e
       -0.033754814 0.25356945 -0.0012444359 0.22048774
0002e0 9f 90 5b be 64 d9 90 be bf 7b 12 be ac f9 71 3e
       -0.21441887 -0.28290856 -0.14305018 0.23630399
0002f0 dd 5e 96 be 79 10 4e 3e af b5 7a be 38 29 33 be
       -0.2936925 0.20123471 -0.2448337 -0.17496192
000300 90 03 8b 3e aa 35 00 bc 43 eb 7c 3e 69 c7 5d 3e
       0.27151155 -0.0078252945 0.2469912 0.216581
000310 15 bf 9a be 33 26 b5 3d 67 b6 98 3d 06 a4 45 be
       -0.3022391 0.088451765 0.074566655 -0.19300851
000320 54 b3 22 be 4f bf 59 be e3 43 5c 3e 42 98 93 be
       -0.15888721 -0.21264385 0.21510272 -0.288271
000330 0c 61 ad be cb f5 00 bd df 18 0f 3e fd 34 65 3e
       -0.33863103 -0.031484406 0.13974331 0.22383495
000340 b2 5a af 3a c1 e0 2b bd 8e 5d 22 3d d0 38 59 3e
       0.001337847 -0.04196239 0.039640002 0.21213078
000350 32 09 86 3e 6e a6 c8 bd fa e9 28 3e a8 be 08 3b
       0.2617889 -0.09797369 0.16495505 0.0020865593
000360 b6 bc 22 be 99 11 71 3d a5 11 82 be 7a 41 c3 3d
       -0.158923 0.058854673 -0.25404087 0.09533973
000370 d1 3b 93 3d 57 fa 7c bd bf b1 9d 3e e1 eb 6c bd
       0.071891434 -0.06176218 0.30799672 -0.05784214
000380 55 8c 8f 3e 3d ef f6 3d 0e 1c 73 3e 97 41 22 3d
       0.28036752 0.1205735 0.23741171 0.039613333
000390 46 af a9 be 7a 85 99 3e 8e d0 13 be 41 f9 fb 3c
       -0.33141536 0.29984647 -0.14435026 0.030758502
0003a0 87 b7 21 3e ec 22 63 be 80 d7 82 3e 87 be ac 3b
       0.15792666 -0.2218129 0.25555038 0.005271736
0003b0 39 06 73 3e aa b5 01 be 1a dc 37 3e 08 6b 5b 3e
       0.23732843 -0.12666956 0.17955056 0.21427548
0003c0 cd 60 43 3e b6 73 84 bd 15 5b 2c 3e 72 ed c3 3d
       0.19079895 -0.064673826 0.1683162 0.095667735
0003d0 c8 0c 43 be 1b 98 8b 3e 17 1a 31 3e 3a 37 93 3d
       -0.19047844 0.27264485 0.17295109 0.07188268
0003e0 88 23 85 be ec 1c 86 3e 0c e9 ae be b7 10 36 3e
       -0.2600367 0.2619394 -0.34162176 0.17779814
0003f0 2f e9 d7 bc fd 98 71 be 68 8e 68 3e 35 67 8c be
       -0.026356308 -0.23593517 0.22710574 -0.2742249

block1.0.bias f4 [64]
000000 99 92 86 3e f7 45 9e be 80 cd 08 3e 55 13 0e 3e
       0.2628372 -0.30912754 0.13359642 0.13874562
000010 21 e3 86 be d5 28 8c bc 4f 17 74 3d f9 3c 3f be
       -0.2634516 -0.017109314 0.05959254 -0.18675603
000020 b1 5c 83 3d a3 b1 b5 bd 0c d0 1f be f7 12 ee bd
       0.06414164 -0.08871772 -0.15606707 -0.11624711
000030 f6 b6 66 be 9b 4f 96 be 4e 23 6f 3e f2 9f d2 3d
       -0.22530732 -0.2935761 0.23353311 0.102844134
000040 51 91 48 3d 4d 99 70 3e 74 8b 1c be 7c f7 7a be
       0.04896671 0.2349598 -0.15287572 -0.2450847
000050 14 54 1e 3c e8 87 17 3e b4 1a db 3d 04 d0 87 3e
       0.0096636005 0.14797938 0.106984526 0.2652589
000060 93 7d 1d ba bb 46 6d 3e 51 e2 89 bd e4 90 f3 3d
       -0.0006007787 0.23171513 -0.067326196 0.1189287
000070 e0 88 dc 3d 3e 87 9a 3e ea f1 7b bc b7 94 1b 3e
       0.10768294 0.30181307 -0.015377501 0.15193449
000080 a2 14 61 be 3a e5 99 3e b6 36 49 be 11 3a 9c bd
       -0.21980527 0.30057698 -0.19649777 -0.07628263
000090 95 38 3f 3d 07 ba 51 3e 53 3e 4e be 99 86 9a 3e
       0.04668482 0.2048112 -0.20140962 0.30180815
0000a0 1b 50 8a be ba f3 08 be 9e a4 8c 3e a0 af 1b be
       -0.2701424 -0.13374224 0.27469343 -0.15203714
0000b0 ee 63 7f 3d 7c 36 8f be a1 d5 8e be 74 fe 92 be
       0.06235116 -0.27971256 -0.2789736 -0.28709757
0000c0 a6 00 13 3e 7c 26 12 3e d5 4c 0f bd a4 d2 20 3d
       0.14355716 0.14272493 -0.034985382 0.039263383
0000d0 c6 d9 a2 3e c2 e1 29 3c 9c e8 3c be 6c 3a 7c 3d
       0.31806773 0.010368766 -0.18448108 0.061579153
0000e0 be 0c 85 be db 91 5a be 83 9b 36 bd f0 7d f3 bd
       -0.25986284 -0.21344702 -0.0445819 -0.11889255
0000f0 84 85 a0 3e 47 a4 c6 bd 45 ee 2b 3e 35 82 5e 3d
       0.31351864 -0.09699302 0.16790111 0.054323394

block1.1.weight f4 [64]
000000 83 19 7d 3f 99 73 80 3f 64 05 7e 3f 3f da 7c 3f
       0.9886705 1.0035278 0.99226975 0.9877052
000010 d1 78 7e 3f 7f f2 7d 3f 4b 5b 7c 3f 7c 57 83 3f
       0.994031 0.99198145 0.985768 1.0261073
000020 18 42 7e 3f e3 d5 7d 3f 91 03 80 3f e0 7e 7e 3f
       0.993196 0.9915449 1.0001088 0.99412346
000030 ea ea 7d 3f 84 fd 7d 3f 25 27 7e 3f 19 1e 7d 3f
       0.99186575 0.9921496 0.9927848 0.9887405
000040 db f2 83 3f 06 f9 80 3f c1 de 7d 3f 9f 14 7f 3f
       1.0308489 1.0075996 0.9916802 0.9964084
000050 89 81 7d 3f 07 ca 7e 3f 30 3f 7e 3f a1 5f 7e 3f
       0.9902578 0.9952702 0.99315166 0.9936467
000060 d0 40 7e 3f b5 a2 7f 3f 83 10 7c 3f a7 92 7e 3f
       0.99317646 0.99857646 0.98462695 0.99442524
000070 2e 4a 7e 3f a1 49 7d 3f 69 18 7e 3f 9d c5 7d 3f
       0.9933194 0.98940474 0.99255997 0.9912966
000080 96 34 83 3f 6a 9b 81 3f 6e 71 7c 3f 5a db 7e 3f
       1.0250423 1.0125554 0.9861058 0.99553454
000090 cc ec 80 3f 87 f2 7d 3f d5 70 80 3f ce 40 7f 3f
       1.0072265 0.9919819 1.0034434 0.9970826
0000a0 5f 42 7e 3f 67 94 7d 3f 97 f0 81 3f ef f5 7e 3f
       0.99320024 0.9905457 1.0151547 0.99594015
0000b0 97 d0 80 3f f6 52 80 3f 04 f9 7e 3f b0 a3 7d 3f
       1.0063657 1.0025318 0.9959872 0.9907789
0000c0 42 77 7f 3f 24 04 81 3f 22 a7 80 3f 9f a5 7e 3f
       0.9979135 1.0079389 1.0051005 0.9947147
0000d0 18 dd 7e 3f 60 e8 7e 3f b4 d6 7d 3f a1 20 7d 3f
       0.9955611 0.99573326 0.99155736 0.9887791
0000e0 a9 c1 7e 3f 0d 4b 7d 3f 8f 32 81 3f a9 8f 80 3f
       0.9951425 0.98942643 1.0093554 1.0043842
0000f0 82 17 7e 3f dd 8f 7d 3f 74 e0 7d 3f e3 52 81 3f
       0.9925462 0.9904764 0.99170613 1.010342

block1.1.bias f4 [64]
000000 06 dd ee bb 23 ed f8 bb 27 2d ce ba d9 cb e6 bb
       -0.0072895316 -0.0075966283 -0.0015730009 -0.0070433435
000010 f1 ed 47 bc b6 b3 9c bb 3c fe 6f bc 72 47 67 3c
       -0.012202726 -0.0047821654 -0.014648017 0.014116155
000020 71 90 d9 bb 68 46 99 bc 26 4f 85 3b ec cb a4 ba
       -0.006639533 -0.01871033 0.004068273 -0.001257298
000030 ee 9d 1f bc d1 94 20 bb 9e b9 ad 3a d8 21 bb bb
       -0.009742243 -0.0024502764 0.0013254171 -0.0057108216
000040 b3 b5 e3 3b 71 44 86 3a ee fe fa 3a 2f 16 e5 bb
       0.0069491505 0.0010243786 0.0019149461 -0.00699117
000050 08 76 8a bc 8a 4c 03 bc 57 cb 31 bb d3 c9 8b bb
       -0.016901985 -0.008013854 -0.0027129257 -0.0042660027
000060 de be 7e bb 6e a4 3d bc d3 f8 55 bc bd c4 3c bc
       -0.003887109 -0.011574848 -0.013059813 -0.011521515
000070 83 0c 88 bc 54 19 f3 bb 7f d7 17 bc cd f6 76 3b
       -0.016607529 -0.007418791 -0.009267687 0.0037683726
000080 48 70 0d 3d 5d ca 32 3c 4f d3 01 3b 48 4b 71 bb
       0.034530908 0.010912505 0.0019809788 -0.0036818553
000090 74 1b a4 bc 87 e7 cb bb b3 68 aa bc b4 e9 c7 bb
       -0.020032622 -0.0062226686 -0.020801878 -0.0061008576
0000a0 77 f2 be bb 50 5e 50 39 ce 48 74 3c 63 52 04 bc
       -0.005827244 0.0001987156 0.014909936 -0.008076283
0000b0 b3 58 3d 3b 3a 16 33 ba 5d d7 c5 bb 4d 00 4b bc
       0.002889198 -0.000683162 -0.006037636 -0.012390208
0000c0 43 64 ce 3a 24 49 84 3c 3a 42 00 bc 87 df 5e bc
       0.0015746433 0.016148157 -0.00782829 -0.013603098
0000d0 62 f2 d1 b8 7a e7 b3 3a 59 74 12 bc 03 6c ec bb
       -0.00010011044 0.0013725602 -0.008938872 -0.0072150244
0000e0 3e c0 0f 3b ee 5d 6f bc 93 8b ab 3b 1d d3 db 3b
       0.0021934654 -0.014609797 0.0052351444 0.0067085163
0000f0 1b 25 ab 3b 21 97 3e bc 50 0f 41 bc 1f e9 3e 3c
       0.005222929 -0.011632712 -0.011783436 0.01165226

block1.1.running_mean f4 [64]
000000 c7 b8 9e 3d 78 2e 8d be b9 ed 8b 3e a8 31 02 3f
       0.07750087 -0.27574515 0.27329805 0.5085702
000010 ae 45 e9 be 45 d6 88 3e a4 e3 43 be 5f 50 3c be
       -0.45560974 0.26725975 -0.19129807 -0.18390034
000020 1d 5b 77 3e ec da 15 bf 58 2b b9 bd c6 a8 95 3d
       0.2415585 -0.58537173 -0.0904147 0.073075816
000030 83 2e f3 be a7 29 25 bf fc 09 f6 3e d8 5b b9 3e
       -0.47496423 -0.6451668 0.48054492 0.36202884
000040 8a 9b 32 3d 01 e2 8e 3e 47 dc ed 3d fc c2 34 be
       0.043605365 0.27906802 0.1161428 -0.17652506
000050 9a a5 e3 bd 4f 00 92 3e 70 1c 86 be 23 40 1f 3f
       -0.1111557 0.2851586 -0.2619357 0.6220724
000060 7e af 07 3e d2 f3 a3 3e 44 94 d9 3e 7d b9 74 3e
       0.13250539 0.32021958 0.4249593 0.23898883
000070 0f fe ab bd d7 a9 f0 bd 7b 79 89 3e 1b 58 b5 bb
       -0.08398067 -0.117511444 0.26850495 -0.0055341846
000080 e4 3c 63 be aa 5b 8f 3e 6a 24 a3 3e d0 0c 21 3d
       -0.22191197 0.27999622 0.3186372 0.03931886
000090 e9 0d 2c bc e2 78 0b 3f 30 a0 1e be bd 1c 10 3e
       -0.010501363 0.5448133 -0.15490794 0.14073463
0000a0 64 f8 60 bd 22 97 80 3e 17 1a 98 3e 23 04 89 be
       -0.054924384 0.25115305 0.29707405 -0.2676097
0000b0 ad 2a bc 3c 80 1e b4 be f3 7c f2 be f0 f9 08 bf
       0.022969568 -0.3517952 -0.47360954 -0.53506374
0000c0 72 89 5e 3e a8 ba 03 3e bb 74 d7 3c 0a 81 89 bd
       0.21732119 0.12864172 0.026300779 -0.067140654
0000d0 d8 82 3f 3e e7 cc 5a be 6a 6b a7 bc 33 de aa 3e
       0.18702257 -0.21367227 -0.020436961 0.3337265
0000e0 36 ac 1e be 16 01 0b bf 24 c6 03 be 3d 65 8b bd
       -0.15495381 -0.5429853 -0.12868553 -0.06806419
0000f0 19 b2 dd 3e 3b d2 ce 3e 57 ec 0f 3f 3e 1b b1 3d
       0.4329994 0.40394768 0.5622 0.08647774

block1.1.running_var f4 [64]
000000 e9 99 71 3c c8 e8 b2 3a 8d 66 18 3c 69 08 6d 3d
       0.014746168 0.0013649696 0.009301794 0.05786935
000010 ec 2f 81 3c f3 88 0a 3d c8 f9 e0 3c d0 ba 50 3a
       0.015769921 0.03382201 0.027462855 0.00079624075
000020 a7 76 5b 3c 37 8c d7 3d 50 79 15 3b c6 af 7a 3c
       0.013394988 0.10524791 0.0022807904 0.015300697
000030 78 7c d7 3c 48 56 59 3d 88 3f db 3c 1e 4f f1 3c
       0.026304469 0.0530608 0.026763692 0.029456671
000040 cc 02 88 39 cd 3f df 3a 5e c2 fe 3c 09 a7 1d 3b
       0.00025942025 0.0017032564 0.03109854 0.002405586
000050 2b c3 df 3b 53 8c 0c 3c 8c 11 6a 3d 1e c3 5b 3d
       0.0068286858 0.008578378 0.05714564 0.053652875
000060 5a d2 0c 3c bc 2f 7b 3b a1 64 d0 3d f9 a5 cf 3b
       0.008595074 0.0038328012 0.101754434 0.006336924
000070 a9 42 81 3c 96 d1 96 3d 7a c9 0e 3d b4 7c 32 3c
       0.015778856 0.07364194 0.03486011 0.010893989
000080 57 41 95 3a 0d 5d 3f 3a f3 ae e3 3d a4 00 e1 3b
       0.0011387271 0.00072999374 0.11117353 0.0068665314
000090 55 b5 28 3b a5 36 48 3d 95 b0 ee 3a d0 98 57 3c
       0.0025742848 0.048880238 0.0018210585 0.013158992
0000a0 e9 d5 a1 3c 44 c4 7f 3d ac ed 2c 3b e8 ba da 3b
       0.01975532 0.062443033 0.002638678 0.006675113
0000b0 15 3f 5e 3a 81 89 63 3b 7a c7 89 3c 19 4e d4 3c
       0.0008478028 0.003471941 0.01681875 0.025916146
0000c0 07 24 31 3b 13 77 86 3a bd 6d f9 3a af f0 a1 3b
       0.002702953 0.0010258876 0.0019029897 0.004942022
0000d0 e4 97 fe 3b 9a 73 b4 3c dd b9 49 3c c5 46 ff 3c
       0.0077695716 0.02202778 0.01231238 0.031161675
0000e0 24 96 d7 3b 89 c7 3d 3d 08 aa a6 3b b3 3b 66 3b
       0.0065791775 0.04633287 0.0050861873 0.0035130798
0000f0 d5 16 e3 3b 84 a8 d7 3d 39 3c 85 3d 74 d5 9b 3a
       0.006930212 0.10530189 0.06505627 0.0011889176

block2.0.weight f4 [64, 64, 3, 3]
000000 d0 7c df 3c 80 62 1f bd 42 ee f0 3c 05 9b a3 3c
       0.027281195 -0.038912296 0.029410485 0.01997138
000010 76 d6 85 3c dd eb d3 3c 5f 95 04 bc 74 06 80 bc
       0.016337615 0.025869304 -0.0080922535 -0.015628077
000020 b4 2d 62 b9 e6 c2 86 bc d2 85 53 bd c5 89 c1 3c
       -0.00021570065 -0.016450357 -0.051641293 0.023625264
000030 5c 6a f9 39 43 42 8b bc 05 01 ca bc b1 22 0e bd
       0.00047572225 -0.01699937 -0.02465869 -0.034701053
000040 f5 3e a4 3b 76 77 c0 bb 30 f5 20 bd b1 07 49 3b
       0.005012388 -0.005873616 -0.03929633 0.003067475
000050 3f f9 c0 bc 87 4b cc bc 0e 95 18 3c 86 85 15 bb
       -0.02355635 -0.024938358 0.009312881 -0.0022815182
000060 f3 2f ed bc 72 d7 da bb fa 44 92 bc fd 40 04 3d
       -0.028953528 -0.006678515 -0.017855156 0.03228854
000070 9a 45 17 bd 0a 84 a6 bc 00 43 a0 bc 75 e1 c3 3c
       -0.03693161 -0.020326633 -0.019563198 0.023911217
000080 83 7e d1 bb ad c3 1a 3b 1b 2f 03 bd 73 a8 07 3d
       -0.006393255 0.0023615167 -0.032027345 0.03311963
000090 d1 05 15 bd ee cb aa bc 3c 2a 13 bd 9d 9f d9 bc
       -0.0363825 -0.020849194 -0.03592895 -0.026565367
0000a0 7b 7a 7b 3c b3 73 09 3c e8 58 65 bc cc 5c 5d 3c
       0.015349026 0.008389401 -0.013998248 0.013510894
0000b0 e3 2d 1b 3c 4e 1c f4 3a 35 db c1 3b 16 dc 25 bd
       0.009471389 0.0018624158 0.005916024 -0.040493093
0000c0 22 41 e1 3c 54 ec 10 3d ba 99 0e 3d 9c 05 04 3d
       0.027496878 0.03538163 0.034814574 0.032231912
0000d0 ad 91 db bc 35 fb 57 bb 4e 1a 3c 3c 61 89 19 bd
       -0.026802862 -0.0032956128 0.011480881 -0.03748453
0000e0 e0 03 66 3c 1d 70 3f bb 8c 50 30 bc a8 af e4 bb
       0.01403901 -0.0029211112 -0.010761391 -0.0069789477
0000f0 21 8e 22 bd 13 dd 0f 3d b0 89 0d bd 72 71 2e 3d
       -0.039686326 0.035122942 -0.034555137 0.04258866
000100 3d f7 03 bd 15 aa 11 3d 71 41 3f 3c b5 0f 8e 3b
       -0.032218207 0.035562593 0.011673317 0.0043353685
000110 f5 e9 e0 3b 5e e0 0a 3b f3 db d8 3a bf d9 40 bb
       0.0068638274 0.0021190862 0.0016545042 -0.0029426662
000120 d9 11 7c bc 70 21 86 bc 28 30 04 3d 78 18 1d 3d
       -0.015385115 -0.016373366 0.032272488 0.038353413
000130 8c 56 f7 3c e5 7e e1 bb 8a c5 c8 3c 2a ad 1e 3c
       0.030192636 -0.006881582 0.024508256 0.00968484
000140 e3 c5 29 3d bc a9 21 bd 38 e7 b8 bc 01 a8 62 3c
       0.041448485 -0.039468512 -0.022571191 0.013834001
000150 fe 8d ab bc 72 bb 16 bd b7 cf c6 3c f2 3f b2 bc
       -0.02094173 -0.036799856 0.024268968 -0.021759007
000160 7d 03 88 bb 85 5c c4 b9 b6 c3 50 bd b8 5e 55 bc
       -0.0041508065 -0.00037452966 -0.050967894 -0.013023071
000170 66 98 16 3d a4 c3 5b 3b 65 a1 0f 3d 81 77 22 3d
       0.036766432 0.003353336 0.035066027 0.03966475
000180 3b 80 37 3c 5d c5 aa 3c 94 cf f2 3c c2 d9 51 3c
       0.011200006 0.020846063 0.029639997 0.012808265
000190 2c f4 1e bc c7 c2 34 bb dd d4 76 bb 6f c5 71 bc
       -0.00970177 -0.0027581917 -0.0037663497 -0.0147565445
0001a0 34 4a d6 3a ea 48 22 3d 33 e4 a6 bc 63 8c a8 3c
       0.0016349019 0.039620318 -0.020372486 0.020574754
0001b0 9f 4a 43 bc 0e db 24 3d 95 1e 08 bd 01 c0 b7 3c
       -0.0119196465 0.04024797 -0.03323229 0.022430422
0001c0 3c ab 05 3d a6 73 be bc 76 4a a1 bc 02 38 ad 3c
       0.032634005 -0.023248505 -0.019688826 0.02114487
0001d0 93 c4 08 3c 5e fb 89 bc 37 05 08 bd a5 b0 20 3b
       0.008347648 -0.016843494 -0.0332081 0.002451935
0001e0 e7 8d 8f ba b1 cb 48 3b 12 14 ad 38 c2 c9 c5 3c
       -0.0010952324 0.0030638988 8.253021e-05 0.024144057
0001f0 44 5e 17 3b a7 7b b6 bc 61 64 9d 3c a6 28 14 3d
       0.0023096958 -0.022275759 0.019212903 0.036171578
000200 ec 10 ef bc 20 db 7b 3b 38 bb b3 3c ce 17 d7 bc
       -0.029182874 0.003843017 0.021939859 -0.026256468
000210 95 84 a9 bb 3a 61 9b 3c 25 b1 08 3c 7e 11 31 bd
       -0.0051732757 0.01896726 0.008343016 -0.043229572
000220 15 1c 19 bb 7a 60 21 bc ae da a0 bb 62 b2 b5 3b
       -0.0023362685 -0.009849662 -0.004908881 0.0055449465
000230 a7 38 05 3d 75 63 25 bd 6f c1 e1 3c 9b 12 73 bc
       0.03252473 -0.040378053 0.027558057 -0.014835979
000240 8f f0 7e 3c 41 ef 4e bb c8 a8 a8 3c b9 a5 a3 bc
       0.015560283 -0.0031575712 0.020588294 -0.019976484
000250 f1 33 26 bd 9f 1f 16 ba a6 dd 24 3d d7 f9 21 3c
       -0.04057688 -0.0005726758 0.040250443 0.009886227
000260 82 a3 47 3c 7c 6b e9 3c d4 74 20 bd 6e 08 17 bb
       0.012184979 0.028493635 -0.039173916 -0.0023045796
000270 c2 20 e4 bc fd fd ef 3c 9e 02 ca 3b 83 a7 c7 bc
       -0.027847651 0.029295916 0.006164863 -0.024371868
000280 60 90 26 3d 29 73 c9 bc 16 c1 f8 bc 79 3e 0e 3d
       0.04066503 -0.024591045 -0.030365508 0.034727547
000290 a4 9f dd bc 29 b2 2f 3c bd 9f ad 3b ab 39 0a 3d
       -0.027053662 0.010723629 0.0052985833 0.033746403
0002a0 0b e1 e3 bc 26 d3 d8 3c 85 e3 a5 3c 8e cd ab 3c
       -0.02781727 0.02646787 0.020250091 0.02097204
0002b0 c3 0a a0 bc 1b f2 e5 bc 11 8c 73 bc 19 33 6c bc
       -0.019536382 -0.028069546 -0.014864937 -0.0144164795
0002c0 a5 ae e7 bc 2d 13 81 bc bf 90 e8 bc 03 62 14 bd
       -0.02828152 -0.015756214 -0.028389333 -0.036226284
0002d0 8d d9 7e 3a d4 b1 e3 bc 72 68 29 3c 7e 7b 87 bb
       0.00097217486 -0.027794756 0.010339843 -0.0041345945
0002e0 58 4f c5 bc 4e e0 8b 3c 79 4c ca bc 30 bc 51 3c
       -0.024085686 0.01707473 -0.024694668 0.012801215
0002f0 a8 d0 e5 bc ae db 29 bd c8 2d e6 bc d1 29 1f 3d
       -0.028053597 -0.04146927 -0.028098002 0.03885824
000300 b4 be 97 3c e4 b4 e2 bb bb 84 62 bb c1 03 a4 3c
       0.018523552 -0.0069185365 -0.0034563977 0.020021321
000310 88 8d cc 3c 19 d2 8a bc e7 8d 89 3c 76 94 09 3c
       0.024969831 -0.016945885 0.016791297 0.008397212
000320 e3 83 c8 3c 45 ec 25 bd 05 d3 23 bd cf ef af 3c
       0.024476951 -0.040508527 -0.039996166 0.021476654
000330 23 56 0e 3d e5 a8 27 bd ed 90 a4 bb 7f e7 98 3c
       0.034750115 -0.040932555 -0.0050221593 0.018665073
000340 2b f1 03 3d 49 85 ef bc 27 a2 70 bc f9 d1 4c 3c
       0.032212418 -0.02923836 -0.014687098 0.012501233
000350 1a 99 88 3c 18 71 09 3d eb d6 69 3c e2 b8 e3 bb
       0.016674567 0.03355512 0.014272432 -0.00694953
000360 b0 48 c8 bc 49 93 26 3c 71 ab 82 bc f6 6e 0d bd
       -0.024448723 0.010166951 -0.01595089 -0.03452965
000370 28 77 1b 3d 65 3b b3 3b 10 32 9b bb 5b 36 ec 3c
       0.037955433 0.005469727 -0.0047361925 0.028834512
000380 0f 3f 92 3c 7a ca 55 3c 83 65 85 3c 10 dc ee 3a
       0.017852334 0.013048762 0.016283756 0.0018223543
000390 32 13 a1 3c 9d 3d 2e bd e7 58 93 bc 87 13 e6 bc
       0.019662473 -0.042539228 -0.017986728 -0.028085483
0003a0 fc ec 0f bd 69 09 1f bd c7 c2 ca bc 24 48 c8 bc
       -0.035138115 -0.038827334 -0.02475108 -0.024448462
0003b0 a3 d8 7e 3c e6 b7 b4 3c 6b 25 ec 3c b1 50 18 bd
       0.01555458 0.022060346 0.028826436 -0.03718633
0003c0 ca 08 21 3d 66 7d 88 bc e5 c5 a0 bc e1 be 12 bd
       0.039315023 -0.016661357 -0.019625613 -0.035826568
0003d0 e7 99 ad bc 77 5d 28 3d 7a ca 06 bb 9f 1a 22 3d
       -0.02119155 0.04110476 -0.0020567463 0.03957617
0003e0 f0 1f cf 3c d0 65 34 3d 1a db 70 3c 12 6b cc 3a
       0.025283784 0.04404241 0.014700675 0.0015595874
0003f0 0a 6d 9c bc 05 95 73 bb 21 62 5a bc 26 22 d6 bc
       -0.019094963 -0.003716768 -0.01332906 -0.02613933

block2.0.bias f4 [64]
000000 1e 27 bc 3c 08 69 53 bc 99 16 98 3b 60 e0 eb bc
       0.022967871 -0.012903459 0.0046413657 -0.028793514
000010 96 31 bd bc 67 82 40 3c 0a 15 f4 bc e4 88 76 3c
       -0.023094933 0.01174984 -0.029795188 0.015047286
000020 24 92 c6 3c 94 a6 84 bc ad a0 f4 3c 19 0d a9 ba
       0.024239607 -0.016192712 0.029861772 -0.001289758
000030 98 61 ab 3c 21 aa a7 3c c9 94 2e bb b3 31 99 3c
       0.02092056 0.020466866 -0.0026638976 0.018700456
000040 38 36 21 bd b2 aa 08 bd 99 7c 32 3c 5a b1 0c bc
       -0.039358348 -0.033365913 0.010893964 -0.008587206
000050 99 68 3f bb cd 13 e7 3c a4 7f 12 3d cc 57 cc 3c
       -0.0029206632 0.028207684 0.03576626 0.024944209
000060 37 34 88 bc c2 08 0c bc 21 29 bd 3c da cf a5 bc
       -0.01662646 -0.00854701 0.0230909 -0.020240713
000070 49 7a ac bc 2f 4c cc bb da 1b 00 3d fc ab 81 bc
       -0.021054404 -0.0062346677 0.03127656 -0.015829079
000080 ab 2e d2 bc 3c e2 55 3c 5a c8 d0 3c 8f 7f 81 bb
       -0.025657019 0.013054427 0.02548616 -0.0039519737
000090 f6 50 d1 3c a9 aa 00 bd af 39 19 bc 39 54 03 bd
       0.0255513 -0.031412754 -0.009352132 -0.032062743
0000a0 7b cf a7 ba f5 14 ef bc 9b 8c f3 3c fa 67 ff 3c
       -0.0012802923 -0.029184798 0.029730132 0.03117751
0000b0 4a df ee 3c c3 29 19 3d 81 a7 13 3d ba 53 1b bd
       0.029159207 0.037393343 0.036048416 -0.037921645
0000c0 4f f9 ae bb 78 c5 a6 bc c2 d7 dc 3c 7f 12 28 3a
       -0.0053397785 -0.020357832 0.02695835 0.00064114475
0000d0 9e 92 a0 bc 29 b8 84 3c b9 4d c1 bc 22 d9 23 bd
       -0.019601163 0.016201096 -0.023596631 -0.040001996
0000e0 72 42 19 3d ef 07 9b 3c 86 6f 2e bd fe 0e 5f 3c
       0.037416883 0.018924681 -0.042586826 0.013614414
0000f0 0a 15 d6 3b ea cf 57 3b 64 7a e6 3c 52 7d 0c 3d
       0.00653327 0.0032930323 0.028134532 0.034299202

block2.1.weight f4 [64]
000000 a7 d3 80 3f e9 42 7f 3f 30 88 80 3f d8 66 80 3f
       1.0064591 0.9971147 1.0041561 1.0031385
000010 a8 81 7e 3f 6b 14 81 3f 8b 14 7d 3f 82 1b 7d 3f
       0.9941659 1.0084356 0.9885947 0.988701
000020 00 0b 7d 3f 41 58 80 3f 19 2c 80 3f 81 4f 7e 3f
       0.9884491 1.0026933 1.0013458 0.99340063
000030 0c 3a 81 3f 1a 57 80 3f a9 72 7b 3f 1d 36 7f 3f
       1.009584 1.0026581 0.9822183 0.99691945
000040 2b 1d 7f 3f eb d9 7e 3f 61 b1 7f 3f 81 65 7e 3f
       0.9965388 0.99551266 0.99880034 0.9937363
000050 28 0a 80 3f a0 62 80 3f 3d 8b 80 3f 53 33 80 3f
       1.00031 1.0030098 1.0042492 1.0015663
000060 31 de 7c 3f a0 09 80 3f 3c b8 81 3f 09 58 81 3f
       0.9877654 1.0002937 1.0134349 1.0104991
000070 c8 a3 7d 3f 6a 20 7e 3f 9e 1b 7f 3f 19 cd 80 3f
       0.99078035 0.9926821 0.99651515 1.0062591
000080 67 0a 7d 3f f7 31 7e 3f 19 10 81 3f 9b 26 7f 3f
       0.98844 0.9929499 1.0083038 0.9966828
000090 45 21 80 3f 01 7f 80 3f 0e 8b 81 3f 90 e3 80 3f
       1.0010153 1.0038759 1.0120561 1.0069447
0000a0 4a 3e 7e 3f 7b 18 7e 3f 30 76 7e 3f c2 4e 7d 3f
       0.99313796 0.99256104 0.9939909 0.989483
0000b0 5c 4d 80 3f 86 3b 7e 3f b8 4d 7f 3f e5 91 7e 3f
       1.0023608 0.99309576 0.99727964 0.9944137
0000c0 ca 83 81 3f 72 3b 7c 3f be 95 81 3f 84 73 7f 3f
       1.0118344 0.98528206 1.0123823 0.9978564
0000d0 62 91 7f 3f d9 ee 80 3f e7 a6 80 3f 98 cb 80 3f
       0.9983121 1.007289 1.0050935 1.0062132
0000e0 cb 60 7e 3f 57 62 7f 3f 0a 77 82 3f db 53 7c 3f
       0.99366444 0.9975943 1.0192578 0.98565453
0000f0 3e 1a 80 3f 95 e3 7e 3f b3 f6 7d 3f 37 01 81 3f
       1.0008008 0.9956601 0.9920456 1.0078496

block2.1.bias f4 [64]
000000 98 ca 0a bb b8 f0 7d bc 27 83 52 bc c2 ae b9 bc
       -0.0021177884 -0.015499286 -0.012848652 -0.022666339
000010 23 81 61 bc c9 be aa bc bd 12 79 bc 99 80 3a bc
       -0.013763699 -0.020842927 -0.015202221 -0.011383199
000020 0d 57 89 bc 54 05 88 bc 0e 06 82 bc 7f bc 86 bc
       -0.016765142 -0.016604103 -0.015872028 -0.016447304
000030 e8 36 56 37 39 70 c7 bc 5c f9 b0 bc b0 c9 48 bc
       1.2768178e-05 -0.024345504 -0.021603279 -0.012255117
000040 0f 88 29 bc 56 2d 64 bc 86 74 85 bc cc aa 11 bc
       -0.01034738 -0.013926825 -0.016290914 -0.008890819
000050 2a ad e2 bb 3e ef d5 bb 15 6f 5e bc ca fa 56 bc
       -0.0069176154 -0.006528764 -0.013576289 -0.013121316
000060 a5 50 aa bc d7 c0 e3 bb 5a 03 56 bc 2b 13 9b bc
       -0.020790407 -0.0069504785 -0.0130623225 -0.018930038
000070 f9 c4 40 bc 36 ec 8b bc be 22 69 bc 55 02 11 bc
       -0.011765712 -0.017080408 -0.014229475 -0.008850654
000080 7f fd ab bc 4d 35 6c bc ed 4d 50 bc a1 14 69 bc
       -0.0209949 -0.014417005 -0.012713891 -0.01422611
000090 bc d4 c9 3b 5c ad e9 bb 82 0c 01 39 59 f1 ac bc
       0.006159393 -0.0071312618 0.00012307058 -0.021111177
0000a0 d4 fd e1 bb 82 a5 4c bc 85 be 88 bc d9 26 c6 bc
       -0.0068967137 -0.012490632 -0.01669241 -0.024188446
0000b0 33 3f 18 bc e7 bb 79 bc 69 a6 56 bc 95 c7 5f bc
       -0.009292412 -0.015242553 -0.013101199 -0.013658424
0000c0 6d f3 2b 3b 0f df 4d bc 7e 46 7c bc 5d 2e 72 bc
       0.0026237622 -0.012565388 -0.015397666 -0.014781562
0000d0 e6 c9 6c bc 48 0f 7f bb ce d3 0c ba 5a 37 48 bc
       -0.014452433 -0.003891902 -0.00053721375 -0.012220228
0000e0 59 93 0c bc 8a ef 8a bc cf 80 b2 bb 6e d3 9c bc
       -0.008580052 -0.016959924 -0.005447484 -0.019143786
0000f0 01 65 c7 bc 45 ab 7b bc 01 59 88 bc d5 db d1 bc
       -0.024340155 -0.015360658 -0.016644003 -0.02561752

block2.1.running_mean f4 [64]
000000 d9 8f 78 be 42 20 05 bf fd 6e aa be 48 7e 43 3c
       -0.24273624 -0.52002347 -0.33287802 0.011931963
000010 be b8 7d bd 52 99 d9 be 41 10 02 bf 18 c5 57 3e
       -0.061943762 -0.42499787 -0.5080605 0.21071279
000020 57 3c 00 3f de f0 18 be bb 82 a6 be 34 cc c3 3d
       0.5009207 -0.14935634 -0.32521614 0.09560433
000030 ba 7f b3 be a6 8b 77 be 07 21 24 3f 82 09 2b be
       -0.35058385 -0.24174365 0.64112896 -0.16702846
000040 f6 40 0e bf 40 33 c0 3e b1 b1 48 bf 7b 80 05 be
       -0.5556787 0.375391 -0.78396136 -0.13037293
000050 32 bd 89 bf a8 28 2e bc 26 1c 1c bf f3 28 67 3d
       -1.0760863 -0.01062981 -0.6098045 0.056435537
000060 6a 5e 3e be f6 3e 4c bf 94 97 07 3e 52 9a cb be
       -0.18590704 -0.7978357 0.13241416 -0.39766175
000070 24 26 06 be fb 36 fa 3e 09 b4 c2 bd d8 cc b3 be
       -0.13100487 0.48870072 -0.09506995 -0.3511722
000080 07 74 e8 3e a2 46 3b 3f 13 4b a0 be 79 d8 16 3f
       0.45401022 0.7315465 -0.31307277 0.5892406
000090 9d bc 0d be e5 83 cc be 00 57 d8 bd a9 18 8b bd
       -0.13841482 -0.39944378 -0.10563469 -0.06791813
0000a0 da 39 cc 3e 82 11 dc 3e 94 e2 23 bf 73 3b c8 be
       0.39887887 0.42982107 -0.64017606 -0.39107856
0000b0 8f d3 6e 3e 52 ef da be 9e 35 27 bf c9 eb 83 be
       0.2332289 -0.42760712 -0.6531619 -0.25765827
0000c0 e1 5c 05 be d4 40 e9 3d 34 b3 00 3e d5 f1 4b be
       -0.13023712 0.11389318 0.1256836 -0.1991647
0000d0 77 f6 da be 1d 34 05 3e dc b5 74 be 24 17 fa bc
       -0.42766163 0.13008161 -0.23897499 -0.030528612
0000e0 6c fc 19 bf 16 29 1a bf cb a6 cc bd 04 05 b5 bd
       -0.6015079 -0.6021894 -0.09992751 -0.08838847
0000f0 b7 20 39 3f 92 df 98 3e 64 c8 8f 3e 98 64 4f be
       0.72315544 0.2985807 0.28082573 -0.20253217

block2.1.running_var f4 [64]
000000 7a 8e d8 3d 52 6d b1 3e 67 ef a9 3e 36 83 8d 3d
       0.1057405 0.34653717 0.33190462 0.06909792
000010 4c b2 39 3e 0a b4 1e 3e 9d 76 87 3f c9 26 dd 3e
       0.18134421 0.15498367 1.0583073 0.43193653
000020 1f 22 1b 3e a4 3d 0b 3f 84 10 05 3e 2e 31 73 3e
       0.15149735 0.5439093 0.12994581 0.2374923
000030 e7 fb 7f 3e fe 96 be 3d a4 9c 42 3e ea d0 c2 3e
       0.24998437 0.09306143 0.19005066 0.38050014
000040 7c 81 03 3f d3 2b 4a 3e 61 9b 73 3e f8 86 90 3e
       0.5136945 0.1974328 0.23789741 0.28227973
000050 24 ff 30 3f 12 11 8f 3e fd ae 3c 3e 13 a8 27 3e
       0.69139314 0.2794271 0.18426128 0.16372709
000060 b0 95 31 3f 42 19 86 3e b0 17 67 3d d8 af ef 3d
       0.6936903 0.26191145 0.056419075 0.117034614
000070 ea 9e d0 3e f5 f7 82 3e f4 30 03 3e ff f0 11 3e
       0.40746242 0.255798 0.12811643 0.14252089
000080 bf 02 75 3f 1a 53 ba 3e dc 2d df 3d 45 63 46 3e
       0.95707315 0.36391526 0.10897419 0.19373806
000090 a6 66 f9 3d 64 61 2e 3e 54 0b 65 3d e4 96 8f 3d
       0.12177782 0.17029339 0.055919006 0.07011202
0000a0 1f 02 a6 3e 28 e0 d0 3e 3e d5 26 3f 27 ef 5b 3f
       0.32423493 0.40796018 0.6516913 0.8591179
0000b0 d8 9d ef 3d d4 08 ed 3e 9d 0f 88 3e bc 03 8b 3e
       0.11700028 0.46295798 0.26574412 0.27151287
0000c0 e1 54 b4 3d 92 16 1e 3e d8 b9 a0 3d 86 bc 4a 3e
       0.08805252 0.15438297 0.07847947 0.19798478
0000d0 36 07 6b 3e 08 07 af 3d 5b 4b ea 3d 3f a5 d6 3d
       0.2295197 0.08546263 0.11440154 0.10480737
0000e0 c6 97 97 3e 4f 0f 4d 3e d7 4e 86 3d 0f 5e 2c 3f
       0.2960798 0.20025371 0.06558006 0.6733102
0000f0 df 1d f0 3e 38 e7 af 3f 7a 2d 8c 3e c1 09 d3 3d
       0.4689779 1.3742437 0.27378446 0.10304595

block3.0.weight f4 [64, 64, 3, 3]
000000 42 2c 04 bd 2c 7d d1 bc ed 1b ac bc f8 0a a7 3c
       -0.03226877 -0.025572382 -0.02100941 0.020390972
000010 06 79 f8 3c b1 58 2a 3d 61 91 a5 bc 11 de 5f 3d
       0.030331146 0.04158849 -0.020210924 0.05465514
000020 92 d2 19 bd 53 bf 89 bc b5 15 ba bc aa 07 ca b8
       -0.03755433 -0.016814863 -0.022715429 -9.633538e-05
000030 26 48 f7 bb 1f d9 6f bc 35 ad b1 3c bb c9 1c bd
       -0.0075464426 -0.014639168 0.021689037 -0.038278323
000040 00 7b c0 3b 1d 0f 0f bc fd 0d 84 3c 3f be ba 3b
       0.0058740377 -0.008731631 0.016119951 0.0056989486
000050 22 a3 f9 b9 6f b6 c4 b9 6a 19 1e bd fd 5d 01 3a
       -0.00047614524 -0.00037519957 -0.038598455 0.0004934965
000060 9b f2 db 3c 4c a8 fa bc 16 47 32 3b 11 d8 c5 bc
       0.026849082 -0.030597828 0.0027203015 -0.02415088
000070 9f ee 95 bb b1 87 5d bc 78 89 12 3d 0a f0 b5 bc
       -0.004575565 -0.013521121 0.03577563 -0.022209186
000080 c8 43 11 bd 52 f1 f0 3c c5 02 17 3d 29 a6 cb 3c
       -0.03546503 0.029411945 0.036867876 0.024859505
000090 37 f9 0b bd dd a9 24 bd d7 3b 8f bc 96 4a dd bc
       -0.034173217 -0.040201057 -0.017484589 -0.027013104
0000a0 e3 77 d4 3c e1 ed a1 3c d2 af 9e 3c e1 f0 5e 3c
       0.025936073 0.01976675 0.019370947 0.013607235
0000b0 4f a2 2d bd 96 84 fb bc 98 fa a0 bc 7d 10 46 bc
       -0.042391118 -0.03070287 -0.019650742 -0.012088892
0000c0 f4 b5 a0 3a 3d 98 a6 bb 87 ed 85 3c c1 8f 90 3c
       0.0012261258 -0.005084066 0.016348613 0.017646672
0000d0 15 b9 10 3d 20 57 50 3c 4c 19 e5 bc ad ef e1 3c
       0.035332758 0.012716085 -0.027966164 0.027580107
0000e0 e5 e0 e3 bb 9c e3 5c 3b c3 87 d6 bc 6b eb 02 bd
       -0.0069542998 0.0033705002 -0.026187783 -0.031962793
0000f0 3f d8 1a 3d b2 bc f9 b9 c3 5b c5 bc e9 9b e5 bc
       0.037803885 -0.0004763357 -0.024091607 -0.028028445
000100 9e e9 7c bc 53 74 8f 3c 9e d6 e0 3c 2b fd 06 bd
       -0.015436558 0.017511522 0.027446087 -0.032956284
000110 af 91 7e 3b ff cc 0f 3c 12 06 17 bd 00 81 c5 bc
       0.0038844158 0.008776902 -0.036871023 -0.024109364
000120 6c 2f 92 bc 22 0c 45 bb f3 71 af 3c 77 22 01 3d
       -0.017844878 -0.0030067046 0.02141664 0.03152701
000130 3c c2 0c bd 66 5f 1d 3d 5e a5 63 bc be 2f 52 bc
       -0.034364924 0.038421057 -0.013894407 -0.012828765
000140 33 04 22 3d 8e 89 60 bb 63 a0 d6 3c 61 6d 8f bc
       0.039554786 -0.0034261676 0.026199525 -0.01750821
000150 e3 aa 3b bd 89 31 54 bc 49 3c 82 3c b5 fe ab bc
       -0.045817267 -0.012951263 0.015897887 -0.020995477
000160 08 55 0a 3d d9 28 6e bc cd 1d ed 3c 15 88 85 bc
       0.0337725 -0.014536106 0.028944874 -0.01630024
000170 1f 5d 97 3c c6 07 76 3c e4 3c 03 3c 2f d5 44 bc
       0.01847702 0.015016502 0.008010123 -0.012013718
000180 a4 61 35 3d 73 25 bc 3c 80 a7 a2 3c 98 49 07 bc
       0.04428257 0.022967076 0.01985526 -0.008257292
000190 06 35 0f bd d8 e7 85 bc e1 fd b9 b9 1f e9 bc bc
       -0.034962676 -0.016345903 -0.00035475104 -0.02306038
0001a0 18 4e c4 3c be 9c b9 3c 1d af b9 3c f5 8b b6 bc
       0.02396302 0.022657748 0.022666508 -0.022283534
0001b0 d6 f2 98 3c 07 85 f6 3c 38 53 fa 3c a0 06 a7 3c
       0.01867048 0.03009273 0.03055726 0.020388901
0001c0 d5 6c 28 bc 98 09 c1 bc 6c 41 f9 3c ca b3 82 3c
       -0.010279854 -0.023564145 0.030426703 0.01595487
0001d0 dd ec ce bc 3f 82 b8 ba 2f 8d b4 bc 85 78 84 bc
       -0.02525943 -0.0014076902 -0.022039978 -0.01617075
0001e0 07 dc 3e 3c 04 4c d7 bc 1b 36 07 bd 0e 86 f3 bb
       0.011649138 -0.026281364 -0.033010583 -0.007431752
0001f0 a7 0a bc 3c a7 e8 db bc 57 3e 94 bb 58 b6 e3 bc
       0.022954298 -0.026844336 -0.004524033 -0.02779691
000200 db b6 be 3c f1 2d e0 bc 7e b3 e3 3c d9 71 23 3c
       0.023280552 -0.027365657 0.02779555 0.009975874
000210 2f 17 02 3d f9 7d 88 bc 63 0c 0c 3d ee 46 50 3c
       0.03176039 -0.016661631 0.0341915 0.012712223
000220 46 75 78 3b d1 8b a1 3c 36 1c 13 bb f1 79 c6 3c
       0.0037911697 0.01971999 -0.0022447235 0.024228068
000230 cd 4a 50 3c b9 e0 df bb 46 62 2e bd ba 58 21 bc
       0.012713146 -0.006832209 -0.04257419 -0.009847814
000240 89 a7 cd bc 04 ff 38 3c 5d ad 89 3c 56 e9 07 3d
       -0.025104301 0.011291269 0.016806299 0.03318151
000250 f2 eb 4e bb 66 5c 96 3b 1f c8 be 3c 01 ed 46 bd
       -0.003157374 0.0045886515 0.023288785 -0.04856587
000260 b2 cd c4 bc 05 96 59 3c 7a 53 8c 3c 4c e2 72 3b
       -0.024023864 0.013280396 0.017129648 0.0037061153
000270 80 97 0d 3d 0a db 8b 3c 19 57 96 3c 6a 5d 38 3b
       0.03456831 0.01707222 0.018352078 0.002813185
000280 60 02 1a 3d 0b 32 e7 3c 47 ac 8f 3c 90 64 fa bc
       0.03759992 0.028222105 0.017538203 -0.03056553
000290 ae a7 ec 3c 3e 4c 3b bc 18 a3 c3 bc 32 4f 3a bd
       0.02888855 -0.011431752 -0.02388148 -0.045485683
0002a0 2b fc 7d 3c 37 4a 12 3c e6 ca ef 3b a5 88 f8 bc
       0.015502016 0.008928827 0.0073178886 -0.030338595
0002b0 ef 70 87 3c e6 ae db 3b 44 91 dd 3c 7d f0 de bc
       0.016533343 0.006704199 0.027046807 -0.027214283
0002c0 3a 41 a5 3c 73 0f 65 3c d0 0d 3d 3a 2b 5c 3b 3c
       0.020172704 0.013980734 0.0007211836 0.011435549
0002d0 bf e9 43 bd a1 14 06 3c c9 ac 7b bc b7 cd 35 bc
       -0.04783034 0.008183629 -0.015361019 -0.0110964095
0002e0 ca 74 13 3a 6e cc 3d bc c9 4c 1d bd 59 2e 1b bc
       0.0005625008 -0.011584384 -0.038403306 -0.009471499
0002f0 92 1e f7 3c 2a be 31 bd fe a4 87 3c 45 df 84 39
       0.030165944 -0.043394245 0.016558167 0.0002534335
000300 e6 cf db bc 60 00 cf bc 4b 65 e3 3c 70 f4 ff bc
       -0.026832532 -0.025268734 0.027758261 -0.031244487
000310 fa fc 0c bd 29 3f a6 39 51 87 c4 3c 2b e8 c4 3c
       -0.034420945 0.00031709045 0.023990305 0.024036488
000320 57 28 b2 3c 7d 93 ec 3c 26 91 0a 3b d3 05 e2 3b
       0.021747751 0.028878922 0.0021143644 0.006897667
000330 90 a9 85 bc fc 56 3b bd b7 af bc bb 21 f4 d9 3c
       -0.016316205 -0.04573725 -0.0057582515 0.026605668
000340 9b 3f 68 3a 87 e6 ea 3c 3d 3a 00 bc af 39 8b bc
       0.00088595756 0.028674377 -0.007826385 -0.01699528
000350 54 a4 25 bd ec d0 3f 3d be 70 67 3b 45 86 8e bc
       -0.04043992 0.046830103 0.0035315002 -0.01739801
000360 b1 7d 18 bc 48 31 dc 3c b5 b6 10 3c 41 41 0a 3d
       -0.009307311 0.026878968 0.008832623 0.033753637
000370 12 8b a9 3c c2 66 68 ba 66 51 79 bc f9 c4 b6 bb
       0.020696197 -0.000886541 -0.015217161 -0.00557768
000380 92 35 83 bc 20 c5 af 3c 99 1d 8d 3c 48 f0 d3 bb
       -0.016016755 0.021456301 0.017226027 -0.0064678527
000390 f5 3f 7a 3c b5 13 37 3a f0 62 a2 3b 19 50 1b bc
       0.015274038 0.00069838326 0.004955642 -0.009479546
0003a0 8b 45 42 3d 60 9d 0b 3c 48 ca 1e bd 7a c9 4e 3d
       0.047429603 0.008521408 -0.03876713 0.05048511
0003b0 99 23 28 bd fd e2 b5 3b 4e bc b7 bc 31 48 a4 3c
       -0.041049574 0.0055507408 -0.022428658 0.020053955
0003c0 22 04 f8 3b 91 4c aa bc 60 4b bd 3c be bd 38 bd
       0.007568852 -0.020788463 0.02310723 -0.045102827
0003d0 37 ec c2 3c 89 0f 43 3c 9e c0 b2 ba c3 e0 3a bb
       0.023794277 0.011905559 -0.0013637727 -0.0028515316
0003e0 59 c8 0f bd 32 3d b0 3c c6 41 1a bd 1b 00 40 bc
       -0.035103176 0.021513555 -0.037660383 -0.011718775
0003f0 36 01 7b bb e0 d5 7e bb e3 e9 a5 3b 44 9d a2 bc
       -0.0038300282 -0.0038884804 0.005063282 -0.01985038

block3.0.bias f4 [64]
000000 69 ee 99 3b cb 49 0a bb 41 1b c9 bc 91 60 99 bc
       0.00469761 -0.0021101113 -0.024549128 -0.018722804
000010 45 c0 22 3d 4d 55 14 3b cd b1 01 bd b4 6b 07 bd
       0.039734144 0.002263385 -0.031663705 -0.033061698
000020 8d a3 20 bd a2 e5 15 bd 82 68 8d bc 8f 31 db bb
       -0.039218474 -0.036595948 -0.017261747 -0.0066892575
000030 04 74 b8 3c 6d 43 17 bd 5a a1 f5 3c 0c 3c 13 bd
       0.022516258 -0.036929537 0.029984165 -0.035945937
000040 6b c9 97 3c 4a 42 f2 bb c9 fa 9a bb 3a 95 2a bd
       0.01852866 -0.007393156 -0.004729603 -0.04164622
000050 ee a2 75 3c 77 72 a3 bc 40 c0 1a bd ea d5 06 3d
       0.014992459 -0.019952042 -0.037781 0.032918848
000060 e9 fe b7 bb 76 96 e4 bc 45 61 9b 3c 36 19 56 bc
       -0.0056151045 -0.027903777 0.01896728 -0.013067534
000070 bb 0a 16 3c 00 e7 f6 bc 9d ff e0 3c 8c d7 52 bb
       0.009157832 -0.030139446 0.027465636 -0.0032171933
000080 22 a2 b6 ba 82 14 33 bd ad 36 bc 3c ef 93 8f bb
       -0.0013933817 -0.04372073 0.02297529 -0.0043816487
000090 6c de 0a 3d f6 e6 08 bb 41 e1 15 bd d8 f5 9f bc
       0.033903524 -0.0020889617 -0.036591772 -0.019526407
0000a0 cf 15 e4 3b 73 2a 1f bd fd 57 96 bc 70 d7 55 bc
       0.0069606076 -0.038858842 -0.018352503 -0.013051853
0000b0 3d fd 96 bc aa 3f e1 bc 94 72 17 bd 65 16 06 3d
       -0.0184313 -0.027496178 -0.036974505 0.0327362
0000c0 17 fc 87 3b 2a 03 96 bc 59 7e 32 3c 59 87 16 bd
       0.0041499245 -0.018312056 0.010894381 -0.03675017
0000d0 40 e8 7b bc b1 65 bb bb c8 32 fe bc 36 6e e7 bb
       -0.015375197 -0.0057189097 -0.031030074 -0.0070626987
0000e0 68 ba 11 3d b4 d9 63 3b 2c 3e d1 bc 02 6f 04 bd
       0.03557816 0.0034767212 -0.025542341 -0.032332428
0000f0 75 f8 34 3c 43 1d 03 bc 27 0e b3 3c f8 59 30 3b
       0.011045565 -0.008002582 0.021857334 0.0026909094

block3.1.weight f4 [64]
000000 89 c8 80 3f 67 76 7d 3f ec e6 7e 3f 81 f3 7e 3f
       1.0061198 0.9900879 0.9957111 0.9959031
000010 db de 7e 3f b6 b4 7f 3f a9 6f 7d 3f 13 28 80 3f
       0.995588 0.9988512 0.98998505 1.001223
000020 f3 8a 80 3f 02 1e 80 3f c5 29 80 3f 85 96 7f 3f
       1.0042404 1.0009158 1.0012747 0.9983905
000030 88 d8 7e 3f b6 3c 81 3f a1 37 7d 3f 99 8f 80 3f
       0.9954915 1.0096653 0.9891301 1.0043823
000040 9f 7c 7e 3f b3 bc 7d 3f cd e4 7f 3f a9 4c 80 3f
       0.99408907 0.9911606 0.999585 1.0023395
000050 a1 dc 7c 3f 2d f1 7e 3f be d8 80 3f 97 21 80 3f
       0.98774153 0.99586755 1.0066144 1.0010251
000060 b8 07 7c 3f a5 f9 7c 3f db 63 80 3f b9 4a 81 3f
       0.9844928 0.9881843 1.0030473 1.0100929
000070 0c 42 7e 3f 54 8c 80 3f 9d 46 82 3f 63 90 7f 3f
       0.9931953 1.0042825 1.01778 0.9982969
000080 e6 78 80 3f 25 0c 80 3f 2e 26 80 3f 07 37 80 3f
       1.0036895 1.0003706 1.0011652 1.0016793
000090 ce 60 80 3f 75 05 80 3f 5f 4a 80 3f a2 33 80 3f
       1.0029542 1.0001665 1.0022696 1.0015757
0000a0 51 25 7e 3f 53 7a 7d 3f a7 79 80 3f 15 11 7f 3f
       0.9927569 0.99014777 1.0037125 0.9963544
0000b0 09 83 7f 3f 8d 62 81 3f e2 bf 7f 3f 82 31 81 3f
       0.9980932 1.01082 0.99902165 1.0093234
0000c0 8a ef 7f 3f 65 04 7c 3f fb 0d 81 3f ec 60 80 3f
       0.9997488 0.98444206 1.0082392 1.0029578
0000d0 49 04 81 3f ea 01 80 3f fe 2e 80 3f d4 cb 81 3f
       1.0079433 1.0000584 1.0014341 1.0140328
0000e0 e9 0d 82 3f 11 38 7f 3f 03 b4 7d 3f 13 42 80 3f
       1.0160495 0.99694926 0.991028 1.0020164
0000f0 36 4d 80 3f b0 03 81 3f 00 26 7c 3f d6 a8 7e 3f
       1.0023563 1.007925 0.98495483 0.99476373

block3.1.bias f4 [64]
000000 b8 11 5c bc be 83 9f bc bf f4 96 bc ce 09 9f bc
       -0.013431959 -0.019472 -0.01842725 -0.019413855
000010 9e 73 ea bb d0 3f 92 bc f5 8f 07 bd 4a 23 f4 bb
       -0.007154896 -0.017852694 -0.033096272 -0.007450496
000020 28 37 96 bc 18 52 80 bc f5 08 42 bc 23 7a 6c bc
       -0.018336847 -0.015664145 -0.011842956 -0.014433417
000030 ea b7 56 bc f9 2e af 3b f2 f9 89 bc 45 fd ed bc
       -0.013105372 0.0053461757 -0.016842816 -0.029051432
000040 3e be 88 bc 2d 97 50 bc b4 a5 3c bc 69 d4 ad bc
       -0.016692277 -0.012731356 -0.011514116 -0.02121945
000050 83 2e 9e bc 15 83 9b bc 2b 1d 60 bc 32 66 95 bc
       -0.019309288 -0.018983403 -0.013678829 -0.018237207
000060 e9 d6 e8 bc c7 ff 15 bc 6f 2a ed bc 7a 73 9a bc
       -0.02842279 -0.00915522 -0.028950898 -0.018853892
000070 19 2e 2f bc 84 1d 2e bc 3c d4 25 bc ae 90 f1 bb
       -0.010692143 -0.010627154 -0.010121401 -0.0073719835
000080 29 29 07 bc 7d 95 07 bc b9 2d 4e bc b0 a3 e6 bb
       -0.008249559 -0.008275387 -0.012584143 -0.007038556
000090 da a7 b5 bc 5a 13 e1 bc 3b 97 a2 bc d7 9d 26 bc
       -0.022174764 -0.027475048 -0.019847503 -0.010169468
0000a0 7d a8 67 bc bf 28 af bb ad 9d c5 bc 8c 00 d5 bc
       -0.014139292 -0.0053454335 -0.024123037 -0.026001237
0000b0 ec 3c 57 bc 42 e4 28 bc 5b b9 64 bc ec b4 83 bc
       -0.0131370835 -0.010308327 -0.013960208 -0.016077481
0000c0 15 c5 19 bc 2b b3 af bc a7 8a 89 bc e7 39 c2 bc
       -0.009385367 -0.021447739 -0.016789747 -0.02370925
0000d0 8c 14 5d bc 82 d4 b6 bc 6f 11 98 bc f8 0a 01 bc
       -0.013493668 -0.022318128 -0.018563 -0.00787615
0000e0 1b 9a 8b bc e5 95 82 bc 3e b9 a0 bc 85 80 9b bc
       -0.017041257 -0.015940616 -0.01961958 -0.018982181
0000f0 64 03 9f bc af 29 89 bc 38 90 e7 bc 29 34 92 bc
       -0.019410796 -0.01674351 -0.028267011 -0.017847138

block3.1.running_mean f4 [64]
000000 51 cc 81 bd a3 11 a7 be 8a b1 d9 bc 6d e1 fb be
       -0.063377984 -0.32630643 -0.026573915 -0.49195424
000010 ab df ec bd 28 c8 1a 3e fd 4e d0 3d 2d 80 89 be
       -0.11566099 0.15115416 0.10171316 -0.26855603
000020 eb ad 83 bc d3 e9 99 be d4 56 16 bd e6 bc ab bd
       -0.016074141 -0.30061206 -0.0367039 -0.08385639
000030 e2 62 79 bd a6 05 48 bf 5c 0d 11 be 98 f4 0c 3e
       -0.060885318 -0.7813362 -0.14165252 0.1376518
000040 76 49 c2 bd b0 4e a8 3e 54 9e 82 3d 83 dd e0 3c
       -0.09486668 0.32872534 0.06377855 0.027449375
000050 65 fe 92 bd 75 bd ac 3e c7 ba d3 be 1f 7f 0b 3e
       -0.07177428 0.33738294 -0.41353437 0.13622712
000060 30 93 95 3d ab c4 58 be 8d ac 7d 3d 40 c0 72 3e
       0.073034644 -0.21168773 0.061932135 0.2370615
000070 e6 e4 8e 3e a1 45 4c 3c 5f 26 cc bd 3c 11 84 bf
       0.2790901 0.012467773 -0.09968256 -1.031776
000080 66 e6 08 bf 57 1d 9a 3e 46 b7 15 3e 92 91 f1 be
       -0.5347656 0.3010051 0.14620695 -0.47181374
000090 c0 bc 66 3d 04 d1 8d 3e 22 62 08 3e 38 b1 55 be
       0.05633235 0.2769853 0.13318685 -0.20868385
0000a0 2d 81 6b bf d6 5e c1 be ce 2f 41 3e 26 0a e9 be
       -0.9199398 -0.37767667 0.18865892 -0.45515555
0000b0 3b 1a a2 3d 05 eb b6 3e 36 64 ef 3d d5 d1 98 be
       0.07915159 0.3572618 0.116890356 -0.2984759
0000c0 0a a0 39 3b e5 a7 37 3e 73 c0 c4 3e 80 03 c3 3d
       0.002832415 0.1793514 0.38428077 0.09522152
0000d0 60 5a 3a 3c a5 9c 72 3d 5f 36 6e 3e 88 c8 54 bf
       0.011374086 0.05923142 0.23262928 -0.83118486
0000e0 34 f3 d7 3d 3c 21 9b 3e 75 f8 80 3e 5d 50 8d bd
       0.10544434 0.30298793 0.25189558 -0.06900094
0000f0 70 d9 c2 3e fd 3a 7a 3e 05 8d a0 3e f2 03 a0 be
       0.38056517 0.24436565 0.3135759 -0.3125301

block3.1.running_var f4 [64]
000000 63 77 fa 3d b0 2b 81 3e 6f 6a 31 3e 8f 4f 63 3e
       0.122298025 0.25228643 0.17325757 0.22198318
000010 35 86 8b 3e bc f4 21 3e a3 08 85 3e f3 37 0e 3e
       0.2725083 0.15816015 0.25983152 0.1388853
000020 9e 3f 15 3e 99 25 5a 3e 8a a4 76 3e 67 25 23 3e
       0.1457505 0.21303405 0.24086204 0.15932237
000030 c6 47 85 3e 4c aa 8e 3e 50 14 78 3e 2b e3 3a 3e
       0.2603132 0.278643 0.24226499 0.1825072
000040 4a 18 2c 3e 91 91 d1 3e 08 e4 7a 3e 7f ca cc 3d
       0.1680614 0.4093137 0.2450105 0.099995606
000050 be 1b 5b 3e c0 c1 4e 3e 72 bb 59 3e ee 32 61 3e
       0.21397302 0.20191097 0.21262911 0.21992084
000060 fd 95 87 3e 1e 52 5e 3e 3e 93 a7 3e 2a 8b 03 3e
       0.2648162 0.21711013 0.32729524 0.12846056
000070 ab 48 38 3e 4b 30 9a 3e c5 28 21 3e 04 cf 19 3f
       0.1799647 0.3011497 0.15738209 0.60081506
000080 20 6a e3 3e 9e 83 a7 3e 8d 50 29 3e 43 54 b1 3e
       0.44416904 0.32717603 0.16534634 0.346346
000090 0e 57 11 3e 3a 19 c9 3e d3 8b ee 3d 4e 03 46 3e
       0.14193365 0.3927706 0.11647763 0.19337198
0000a0 e3 a7 24 3f 21 ca 8a 3e a0 6f 08 3e 4c ed 57 3e
       0.64318675 0.27107337 0.13323832 0.21086615
0000b0 d4 2b 4e 3e af 3a 4d 3e de de 9d 3e 3d 92 bc 3e
       0.20133907 0.20041917 0.30834097 0.3683032
0000c0 cb b7 3e 3e b5 c1 19 3e 78 1b 3b 3e 81 c5 50 3e
       0.18624799 0.150153 0.18272197 0.20387842
0000d0 09 ff 09 3e 6b 9c d1 3d 38 29 87 3e 28 a0 d0 3e
       0.13476194 0.102349125 0.26398635 0.4074719
0000e0 89 02 15 3e 54 f3 82 3e 06 87 38 3e 60 01 57 3e
       0.14551748 0.2557627 0.18020257 0.20996618
0000f0 f1 ca 7b 3e 89 6f 05 3e bf a7 81 3e 6a d7 3a 3e
       0.24589135 0.13030829 0.25323293 0.18246236
