legacy/results/old/basic/basic_11.pth (torch, 961553 bytes, 26 tensors)

block1.0.weight f4 [64, 1, 3, 3]
-0.14031819 -0.16786173 -0.239639 0.09229041 0.3281917 -0.1034656 -0.056499917 -0.26172695
0.17548542 0.14583866 -0.25896057 0.23621681 0.2172157 -0.19533758 0.279732 -0.31495613
0.06520399 -0.107037485 0.21008271 0.31551942 -0.28047574 0.20481493 -0.1541407 0.32099235
-0.07195522 -0.3169354 0.06684099 0.17205606 0.3062139 -0.23802377 0.20795351 0.106618196
0.058689043 0.20892555 -0.18233417 0.14511466 -0.120235026 -0.25212753 -0.11302103 -0.028897626
0.34442946 -0.020148905 -0.23528339 0.25745788 -0.23459826 0.111888215 -0.112083666 0.21201968
-0.034444638 0.2705301 -0.1019609 0.131954 0.13683997 -0.010354682 -0.2465201 0.32335252
0.18725385 -0.23307894 -0.20873119 -0.08575547 -0.2873726 0.073883615 -0.049041305 -0.3271129
-0.31570724 0.045962136 0.32795858 0.08155617 0.19966185 -0.21013205 0.27344087 -0.07812809
-0.05797567 0.28354067 -0.13858312 -0.021507451 0.10255642 0.11280166 -0.088233545 -0.042217825
0.23928703 -0.19015801 -0.31929564 -0.21301499 0.11219495 -0.17499562 -0.32556298 0.11237276
-0.24718359 0.16910088 0.027342826 0.17999502 -0.088612564 -0.17066842 0.17723855 0.19557382
-0.12215577 0.20077945 -0.26441416 -0.14619777 0.16935259 0.035765447 0.16264787 -0.32685325
0.077003725 0.14535044 -0.022356322 0.3038614 -0.013505347 -0.13230315 0.119617894 -0.30480242
0.21213003 -0.043327916 -0.07492682 -0.031878207 -0.2631763 -0.14168489 -0.2964426 -0.2293543
-0.007658639 -0.086948045 -0.02247357 0.32588622 -0.31062844 0.0040024444 0.007388119 -0.26920834
0.13038397 0.19423822 -0.12614968 -0.091127165 0.3250745 0.18548365 0.1627944 -0.006619796
0.2718483 0.22409777 0.29043317 -0.18776353 0.20824338 0.05551062 -0.13802189 -0.14472264
0.3242481 0.11027469 -0.29559344 -0.10656588 -0.30029857 0.12597029 -0.1348255 0.056506276
0.2083184 0.055925295 -0.16367663 -0.28822398 -0.09232565 0.10633762 0.15919077 0.27863705
0.05808983 -0.026923478 0.017381428 -0.2116326 -0.2541375 0.1271926 0.21298102 0.29269078
0.19400834 -0.0003656283 0.18353833 0.07994265 0.1372189 -0.16946873 -0.26252916 -0.002886498
-0.035517246 0.28079686 -0.09128958 0.21685843 -0.033120304 0.25452822 3.2862896e-05 0.2205457
-0.21498208 -0.28283677 -0.14323963 0.23583736 -0.2920502 0.20121033 -0.2439954 -0.17369105
0.27167022 -0.0077984 0.24820374 0.21742384 -0.30205578 0.08974859 0.07520615 -0.19265959
-0.15870808 -0.21181667 0.2168779 -0.28821367 -0.3379222 -0.029254997 0.14050835 0.22238997
0.0012540839 -0.04123426 0.040409207 0.21404772 0.26291838 -0.09966879 0.16326651 0.00092544494
-0.159869 0.057167895 -0.25640917 0.09377532 0.07023899 -0.0641899 0.30621514 -0.0587492
0.27848446 0.12016138 0.23754635 0.039636172 -0.331669 0.2990901 -0.14488482 0.030695612
0.15779802 -0.22210783 0.2567906 0.008343101 0.23744999 -0.12641667 0.1811869 0.21353757
0.18936464 -0.064997494 0.1678115 0.09745081 -0.1892877 0.27292287 0.17260426 0.07188336
-0.25987783 0.26259148 -0.34132004 0.17829707 -0.026580188 -0.23529571 0.2276098 -0.2737679
00000000: 92af 0fbe f2e3 2bbe ed63 75be c102 bd3d
00000010: be08 a83e c6e5 d3bd 756c 67bd 1301 86be
00000020: 73b2 333e bb56 153e 7b96 84be d2e2 713e
00000030: cb6d 5e3e 9306 48be 0839 8f3e ee41 a1be
00000040: ab89 853d 7836 dbbd ec1f 573e c38b a13e
00000050: 849a 8fbe 01bb 513e 0fd7 1dbe 1c59 a43e
00000060: 425d 93bd 5b45 a2be eee3 883d 772f 303e
00000070: 11c8 9c3e 81bc 73be c4f1 543e a45a da3d
00000080: ec63 703d 94f0 553e cfb5 3abe f098 143e
00000090: c83d f6bd dc16 81be 9277 e7bd b7ba ecbc
000000a0: 0f59 b03e 510f a5bc 21ee 70be 85d1 833e
000000b0: 873a 70be a625 e53d 1f8c e5bd b01b 593e
000000c0: d215 0dbd ec82 8a3e e0d0 d0bd f31e 073e
000000d0: c71f 0c3e afa6 29bc c46f 7cbe 768e a53e
000000e0: 79bf 3f3e 3fac 6ebe a1bd 55be 90a0 afbd
000000f0: 8022 93be 4b50 973d 89df 48bd 587b a7be
00000100: 61a4 a1be cb42 3c3d 30ea a73e ec06 a73d
00000110: 2874 4c3e db2c 57be 7100 8c3e 9f01 a0bd
00000120: e577 6dbd 3e2c 913e bce8 0dbe 6530 b0bc
00000130: 1a09 d23d 8f04 e73d cab3 b4bd 99ec 2cbd
00000140: a907 753e c8b8 42be b87a a3be 9a20 5abe
00000150: 77c6 e53d 0d32 33be 31b0 a6be b123 e63d
00000160: b21d 7dbe c828 2d3e 10fe df3c 9d50 383e
00000170: 817a b5bd b4c3 2ebe 067e 353e 8144 483e
00000180: ce2c fabd 2199 4d3e 4b61 87be deb4 15be
00000190: c46a 2d3e ca7e 123d 2a8d 263e 4f59 a7be
000001a0: 21b4 9d3d bfd6 143e 9b24 b7bc b993 9b3e
000001b0: 8845 5dbc 7a7a 07be 3afa f43d 100f 9cbe
000001c0: 9d38 593e 9d78 31bd 3c73 99bd b992 02bd
000001d0: 0bbf 86be d815 11be 53c7 97be dbdb 6abe
000001e0: 52f5 fabb d111 b2bd 7e1a b8bc 8fda a63e
000001f0: b10a 9fbe f026 833b 0918 f23b add5 89be
00000200: 6083 053e 62e6 463e 622d 01be e1a0 babd
00000210: 2a70 a63e 6def 3d3e 93b3 263e e0ea d8bb
00000220: b32f 8b3e e379 653e a8b3 943e 1545 40be
00000230: c13d 553e 1b5f 633d 9c55 0dbe 2c32 14be
00000240: d903 a63e b2d7 e13d 0658 97be 363f dabd
00000250: bcc0 99be 5bfe 003e b20f 0abe 2073 673d
00000260: 6b51 553e ec11 653d d99a 27be 1892 93be
00000270: 3b15 bdbd 8ac7 d93d e802 233e 84a9 8e3e
00000280: 9aef 6d3d a08e dcbc 7f63 8e3c 37b6 58be
00000290: 4f1e 82be c73e 023e b217 5a3e 91db 953e
000002a0: 1faa 463e cdb1 bfb9 79f1 3b3e f9b8 a33d
000002b0: 1c83 0c3e 3689 2dbe 396a 86be 672b 3dbb
000002c0: 887a 11bd 9bc4 8f3e 08f6 babd 2310 5e3e
000002d0: 28a9 07bd 8651 823e 44d6 0938 bbd6 613e
000002e0: 4324 5cbe fbcf 90be 69ad 12be 597f 713e
000002f0: 9b87 95be 150a 4e3e eed9 79be 11dc 31be
00000300: 5c18 8b3e b889 ffbb 1f29 7e3e 5ba4 5e3e
00000310: 0ea7 9abe 1cce b73d af05 9a3d 8e48 45be
00000320: 5f84 22be 78e6 58be 3d15 5e3e be90 93be
00000330: 2304 adbe 2da8 efbc 6ce1 0f3e 32ba 633e
00000340: 1360 a43a 41e5 28bd 2084 253d 532f 5b3e
00000350: 3d9d 863e 271f ccbd 562f 273e 8f99 723a
00000360: b3b4 23be e228 6a3d 1048 83be 460d c03d
00000370: 76d9 8f3d ff75 83bd 3bc8 9c3e 00a3 70bd
00000380: 8495 8e3e 2b17 f63d 5a3f 733e 8a59 223d
00000390: 85d0 a9be 5622 993e b05c 14be 5d75 fb3c
000003a0: ce95 213e 3c70 63be 0f7a 833e 80b1 083c
000003b0: 1726 733e 5f73 01be 0f89 393e 98a9 5a3e
000003c0: cee8 413e 681d 85bd c7d6 2b3e 4a94 c73d
000003d0: a3d4 41be 8cbc 8b3e 2cbf 303e 9537 933d
000003e0: b50e 85be 6472 863e 80c1 aebe 8293 363e
000003f0: b2be d9bc 5cf1 70be 8b12 693e 4e2b 8cbe

block1.0.bias f4 [64]
0.26624498 -0.30788094 0.13627106 0.13810782 -0.2619392 -0.016300647 0.059645895 -0.18587032
0.06467868 -0.09223541 -0.15244743 -0.11664315 -0.22643487 -0.29055128 0.23176579 0.099356316
0.052327912 0.23283127 -0.15151061 -0.24518959 0.011181754 0.14792119 0.106234156 0.26604864
-0.0036265387 0.23403893 -0.06620405 0.11976428 0.11142646 0.29757762 -0.015296729 0.15178062
-0.21837144 0.30212286 -0.19945095 -0.07461311 0.044401944 0.2023602 -0.19879417 0.30182162
-0.27123216 -0.13689245 0.27194986 -0.15254284 0.06616143 -0.2772256 -0.28237793 -0.28543773
0.14425181 0.14598659 -0.032389607 0.043976665 0.31804308 0.0061084204 -0.18264551 0.062512
-0.26015434 -0.21269275 -0.046463665 -0.12190547 0.31396624 -0.09517482 0.17013824 0.054825794
00000000: 4351 883e 92a2 9dbe a48a 0b3e 236c 0d3e
00000010: e51c 86be ef88 85bc 414f 743d ca54 3ebe
00000020: 4176 843d ebe5 bcbd 2e1b 1cbe 9be2 eebd
00000030: 8bde 67be 23c3 94be 0354 6d3e 537b cb3d
00000040: cb55 563d 526b 6e3e 9925 1bbe fb12 7bbe
00000050: ad33 373c a778 173e 4b91 d93d 8737 883e
00000060: 39ab 6dbb e7a7 6f3e fd95 87bd fa46 f53d
00000070: 8e33 e43d 185c 983e 229f 7abc 616c 1b3e
00000080: c39c 5fbe d9af 9a3e df3c 4cbe c2ce 98bd
00000090: d0de 353d 8337 4f3e b390 4bbe 5d88 9a3e
000000a0: f1de 8abe 892d 0cbe 033d 8b3e 3134 1cbe
000000b0: a57f 873d 84f0 8dbe d793 90be e524 92be
000000c0: bfb6 133e 827d 153e f7aa 04bd e020 343d
000000d0: 8bd6 a23e 2529 c83b 6d07 3bbe 4b06 803d
000000e0: f332 85be 21cc 59be af50 3ebd 93a9 f9bd
000000f0: 2fc0 a03e 04eb c2bd b838 2e3e 0391 603d

block1.1.weight f4 [64]
0.9874807 1.0048745 0.9913603 0.9867736 0.9934988 0.99132884 0.9848392 1.0284492
0.9920376 0.99029183 1.000015 0.9932735 0.9907113 0.9911082 0.9914946 0.98701006
1.0355865 1.0085266 0.9910898 0.9954074 0.98973286 0.9939317 0.9910729 0.9926012
0.99355733 0.997736 0.9839019 0.9929015 0.99256074 0.98788565 0.99124306 0.9912305
1.0272659 1.0141536 0.98488414 0.9941254 1.0075694 0.99061203 1.0051764 0.9975414
0.9927375 0.9897398 1.015364 0.99618775 1.0073447 1.0032426 0.99546385 0.9894439
0.99768245 1.0099225 1.0045308 0.99371886 0.9941169 0.99566674 0.99025965 0.9871201
0.99541485 0.9866691 1.0104064 1.0038604 0.9920657 0.9885338 0.9905052 1.0122181
00000000: 89cb 7c3f ba9f 803f cac9 7d3f 329d 7c3f
00000010: f055 7e3f bac7 7d3f 6c1e 7c3f 39a4 833f
00000020: 2df6 7d3f c483 7d3f 7e00 803f 2c47 7e3f
00000030: 419f 7d3f 44b9 7d3f 97d2 7d3f b1ac 7c3f
00000040: 198e 843f 6617 813f 10b8 7d3f 05d3 7e3f
00000050: 225f 7d3f 4f72 7e3f f4b6 7d3f 1d1b 7e3f
00000060: c659 7e3f a06b 7f3f ffe0 7b3f cb2e 7e3f
00000070: 7618 7e3f 13e6 7c3f 1bc2 7d3f 48c1 7d3f
00000080: 737d 833f c9cf 813f 5e21 7c3f 017f 7e3f
00000090: 09f8 803f c098 7d3f 9fa9 803f e05e 7f3f
000000a0: 0b24 7e3f 965f 7d3f 73f7 813f 2906 7f3f
000000b0: acf0 803f 416a 803f b8d6 7e3f 324c 7d3f
000000c0: 1e68 7f3f 2445 813f 7794 803f 5c64 7e3f
000000d0: 727e 7e3f 04e4 7e3f a881 7d3f e7b3 7c3f
000000e0: 82d3 7e3f 5996 7c3f ff54 813f 7f7e 803f
000000f0: 05f8 7d3f 8d10 7d3f c091 7d3f 5d90 813f

block1.1.bias f4 [64]
-0.006781892 -0.006789423 -0.0021336912 -0.009159975 -0.014849192 -0.00506291 -0.017126625 0.01640631
-0.0050733495 -0.021211132 0.0043352535 -0.00089612266 -0.010600863 -0.0019823296 0.0009198989 -0.006612596
0.007060775 0.0010550537 0.0038377992 -0.007837657 -0.01615139 -0.009253819 -0.0022071146 -0.0037924726
-0.0052689128 -0.012159085 -0.016293513 -0.011336489 -0.017590104 -0.007685316 -0.010024421 0.0036796047
0.036810342 0.014298133 0.0006798263 -0.003814727 -0.021736016 -0.006940817 -0.019731572 -0.0058089183
-0.006189482 -0.00061535666 0.015316655 -0.008965707 0.002894036 0.0016784997 -0.005056629 -0.012857882
0.0021159456 0.020306887 -0.008342382 -0.0151426885 -0.00037743623 0.0021747355 -0.008900286 -0.00788161
0.0031555751 -0.015638411 0.005829765 0.0079900855 0.006635311 -0.012695185 -0.013466856 0.010941669
00000000: a23a debb cf79 debb 66d5 0bbb b813 16bc
00000010: 074a 73bc c4e6 a5bb 234d 8cbc 8766 863c
00000020: 573e a6bb f8c2 adbc be0e 8e3b c6e9 6aba
00000030: 3eaf 2dbc f9e9 01bb 5f25 713a 7aae d8bb
00000040: 135e e73b ba49 8a3a 9683 7b3b 8469 00bc
00000050: eb4f 84bc 549d 17bc 3da5 10bb 228b 78bb
00000060: d8a6 acbb e636 47bc f979 85bc aebc 39bc
00000070: 1f19 90bc 1ad5 fbbb 783d 24bc 8625 713b
00000080: 71c6 163d b742 6a3c 5f36 323a 8000 7abb
00000090: bb0f b2bc cb6f e3bb 1ba4 a1bc bd58 bebb
000000a0: 23d1 cabb e34f 21ba b5f2 7a3c e7e4 12bc
000000b0: dea9 3d3b 1b01 dc3a 14b2 a5bb dea9 52bc
000000c0: adab 0a3b a15a a63c 7cae 08bc 0a19 78bc
000000d0: a2e2 c5b9 0286 0e3b 81d2 11bc de21 01bc
000000e0: c4cd 4e3b 201c 80bc 9d07 bf3b d9e8 023c
000000f0: 066d d93b 77ff 4fbc 17a4 5cbc b044 333c

block1.1.running_mean f4 [64]
0.0929844 -0.27847418 0.27316597 0.50396633 -0.44740942 0.2650029 -0.18661638 -0.18350615
0.2456344 -0.59271675 -0.089186564 0.068364605 -0.47536626 -0.6463613 0.4729939 0.365116
0.04662755 0.27449772 0.11148254 -0.17373538 -0.10735156 0.2884482 -0.25962994 0.622226
0.121958554 0.3190896 0.42768282 0.24093857 -0.08101422 -0.12164809 0.26919985 -0.0026193755
-0.22213824 0.2820883 0.3159381 0.044637892 -0.011680268 0.54034513 -0.15712957 0.15179622
-0.055779193 0.24976245 0.2978449 -0.2597148 0.028401775 -0.35181177 -0.47702217 -0.5338707
0.21850066 0.1340427 0.026811058 -0.054828793 0.18810426 -0.21441883 -0.019965015 0.33166662
-0.15913156 -0.5423651 -0.12691708 -0.06894142 0.44199294 0.4056784 0.5612799 0.08596553
00000000: 9b6e be3d 2b94 8ebe 69dc 8b3e f003 013f
00000010: d912 e5be 76ae 873e 5d18 3fbe 09e9 3bbe
00000020: 9687 7b3e 49bc 17bf 72a7 b6bd be02 8c3d
00000030: 3563 f3be ef77 25bf 422c f23e 7cf0 ba3e
00000040: 88fc 3e3d f78a 8c3e f550 e43d b0e7 31be
00000050: 22db dbbd 7caf 933e 37ee 84be 344a 1f3f
00000060: 68c5 f93d b65f a33e 3ef9 da3e 9ab8 763e
00000070: c9ea a5bd a222 f9bd 90d4 893e d4a9 2bbb
00000080: 3578 63be e16d 903e a3c2 a13e 39d6 363d
00000090: 985e 3fbc 0f54 0a3f 93e6 20be 7870 1b3e
000000a0: b978 64bd bac1 7f3e 207f 983e 57f9 84be
000000b0: d7aa e83c ac20 b4be 403c f4be c0ab 08bf
000000c0: a3be 5f3e 7d42 093e dda2 db3c 2894 60bd
000000d0: 679e 403e 9c90 5bbe ac8d a3bc 35d0 a93e
000000e0: 62f3 22be 70d8 0abf 8df6 01be 2931 8dbd
000000f0: e64c e23e 14b5 cf3e 0ab0 0f3f b20e b03d

block1.1.running_var f4 [64]
0.01287809 0.0012726528 0.008981179 0.056206476 0.014667292 0.03296813 0.0263086 0.000830683
0.013844877 0.106058516 0.002139221 0.0145857725 0.025901161 0.053992216 0.025439443 0.030729134
0.00027358643 0.0016500183 0.02966399 0.0025809405 0.0065812115 0.008919351 0.055749245 0.053039376
0.00782124 0.003603311 0.101826444 0.00646925 0.015753357 0.07318209 0.034769937 0.010407476
0.001185478 0.00074238394 0.11053423 0.0071846945 0.002516858 0.04800008 0.0016624732 0.011774447
0.0196959 0.062663 0.0027916736 0.0059028394 0.00079199113 0.0036597766 0.016745264 0.025845688
0.0027485879 0.0010262845 0.001813253 0.0042546117 0.007595346 0.021339072 0.01200503 0.030300777
0.0062980996 0.04609264 0.0048461743 0.0036822252 0.00776283 0.10446884 0.06364045 0.0011981308
00000000: a0fe 523c 24cf a63a cc25 133c c338 663d
00000010: 154f 703c 9709 073d 2285 d73c 31c2 593a
00000020: 9fd5 623c 3535 d93d 2c32 0c3b 2af9 6e3c
00000030: ac2e d43c f126 5d3d 6166 d03c aabb fb3c
00000040: 2670 8f39 6d45 d83a e501 f33c ff24 293b
00000050: 34a7 d73b 7822 123c 5259 643d d13f 593d
00000060: a924 003c 8725 6c3b 628a d03d 01fc d33b
00000070: 2f0d 813c 7ee0 953d ec6a 0e3d 1e84 2a3c
00000080: 0a62 9b3a 8b9c 423a c55f e23d 966d eb3b
00000090: dff1 243b bb9b 443d 58e7 d93a 9ce9 403c
000000a0: 4c59 a13c 7555 803d 83f4 363b 9b6c c13b
000000b0: a09d 4f3a ddd8 6f3b 5d2d 893c 56ba d33c
000000c0: a721 343b 6584 863a adaa ed3a 456a 8b3b
000000d0: 61e2 f83b 47cf ae3c bfb0 443c 5639 f83c
000000e0: 4a60 ce3b a3cb 3c3d a8cc 9e3b 7d51 713b
000000f0: 565f fe3b c2f3 d53d ed55 823d 990a 9d3a

block2.0.weight f4 [64, 64, 3, 3]
0.02781529 -0.038918413 0.028785897 0.020038346 0.016001651 0.025545929 -0.007652539 -0.015750194
-0.0006928418 -0.01517316 -0.051948622 0.022342471 0.00034146206 -0.017226072 -0.024973826 -0.035385225
0.0041712206 -0.006042396 -0.03902415 0.00288416 -0.023395974 -0.024722232 0.009410414 -0.0027375703
-0.028810116 -0.007372376 -0.018658428 0.03245411 -0.037182435 -0.020280678 -0.019323567 0.0238663
-0.006586376 0.0023228277 -0.03238224 0.032652874 -0.036229823 -0.020891048 -0.036326073 -0.026830932
0.015272029 0.00781512 -0.01372607 0.012933495 0.009345369 0.0018222904 0.005833663 -0.04072793
0.027403444 0.035238598 0.034343775 0.03195367 -0.027296668 -0.003435554 0.011649398 -0.037164778
0.0138548035 -0.002241169 -0.010310987 -0.0070120357 -0.039829984 0.03463885 -0.034268577 0.042426243
-0.032165162 0.034852915 0.011313652 0.0040101777 0.006405099 0.0024664465 0.00044413452 -0.0031520652
-0.015564813 -0.01620432 0.031649552 0.03797904 0.02996691 -0.007211014 0.024635637 0.0093830675
0.04090673 -0.03905726 -0.022032747 0.01380532 -0.020591278 -0.036552377 0.024373017 -0.021772863
-0.003670596 -0.0003487778 -0.051249504 -0.013674234 0.035576057 0.0032531999 0.0341324 0.03918096
0.011477812 0.01983223 0.029581085 0.012862755 -0.0095022945 -0.0034533401 -0.0040783463 -0.015176939
0.0011049412 0.039223593 -0.02042748 0.02025336 -0.011547821 0.040463164 -0.033542432 0.022884266
0.03308962 -0.023216495 -0.019984098 0.020756023 0.008248023 -0.01634867 -0.032636702 0.0025676074
-0.00095431996 0.0032938833 -8.7475106e-05 0.023997718 0.0029568654 -0.02214267 0.019734032 0.03617884
-0.029557751 0.0037824598 0.021286547 -0.026611395 -0.005829462 0.018708978 0.008205396 -0.043170527
-0.0019527073 -0.010295291 -0.004968863 0.0055544213 0.031766474 -0.040675394 0.027109766 -0.015528313
0.016094526 -0.0018930974 0.020803297 -0.01935096 -0.044869266 -0.0007084239 0.040881604 0.009887047
0.012880879 0.02940062 -0.039697636 -0.0024121322 -0.028404843 0.028562615 0.00577996 -0.024555588
0.04138301 -0.024251884 -0.030055188 0.034474656 -0.027579704 0.0098167425 0.004728393 0.033116937
-0.028268462 0.026264008 0.020228652 0.020705346 -0.020057874 -0.028166292 -0.015418829 -0.014977117
-0.028561309 -0.015361633 -0.02851852 -0.03624736 0.0011511375 -0.02813214 0.010370531 -0.003624978
-0.024586618 0.016723862 -0.024840767 0.0123336995 -0.028387584 -0.041318033 -0.028570997 0.03891273
0.017704507 -0.0074370983 -0.004053949 0.019161833 0.025412658 -0.017756158 0.01719379 0.0087221125
0.024025846 -0.039888956 -0.03971562 0.021517355 0.0346416 -0.041068856 -0.0053186105 0.018404277
0.032230046 -0.029709296 -0.0146010835 0.0121329855 0.016277349 0.033444993 0.013966368 -0.007312431
-0.023834642 0.009841936 -0.01596126 -0.035093114 0.037279703 0.0052831713 -0.0048421263 0.029331872
0.01818598 0.01378102 0.016217642 0.0019310368 0.019645905 -0.043546505 -0.019345917 -0.027378552
-0.036061887 -0.039041214 -0.024998616 -0.02446589 0.014953752 0.02202028 0.02871141 -0.037881047
0.038980503 -0.01704569 -0.019965993 -0.035790022 -0.020995844 0.04092414 -0.002737141 0.03890166
0.024514992 0.043405432 0.015307313 0.0008561659 -0.018730605 -0.0033620156 -0.013441871 -0.025674416
00000000: e4dc e33c ea68 1fbd 67d0 eb3c 7527 a43c
00000010: e515 833c b245 d13c 26c2 fabb 8d06 81bc
00000020: d39f 35ba d898 78bc 14c8 54bd 8f07 b73c
00000030: 4306 b339 b11d 8dbc e995 ccbc 19f0 10bd
00000040: bcae 883b 4bff c5bb cad7 1fbd 2d04 3d3b
00000050: eaa8 bfbc 4786 cabc 232e 1a3c cf68 33bb
00000060: 3103 ecbc f993 f1bb 8fd9 98bc 9aee 043d
00000070: 9c4c 18bd aa23 a6bc 754c 9ebc 4283 c33c
00000080: 87d2 d7bb 953a 183b 3da3 04bd 05bf 053d
00000090: b965 14bd b423 abbc a6ca 14bd 8bcc dbbc
000000a0: 8837 7a3c fd0a 003c 4fe3 60bc 03e7 533c
000000b0: 521d 193c ebd9 ee3a 5028 bf3b 54d2 26bd
000000c0: 307d e03c 5956 103d 0fac 0c3d dae1 023d
000000d0: 439d dfbc 0827 61bb 1edd 3e3c 183a 18bd
000000e0: 42ff 623c 94e0 12bb 6aef 28bc 38c5 e5bb
000000f0: c424 23bd 77e1 0d3d 355d 0cbd 24c7 2d3d
00000100: 9ebf 03bd eec1 0e3d e55c 393c cf67 833b
00000110: dde1 d13b 1ba4 213b bada e839 e192 4ebb
00000120: 8f03 7fbc ecbe 84bc f6a2 013d e98f 1b3d
00000130: 2a7d f53c 5f4a ecbb add0 c93c 70bb 193c
00000140: d18d 273d 81fa 1fbd 057e b4bc b52f 623c
00000150: 0aaf a8bc f2b7 15bd eca9 c73c 015d b2bc
00000160: 628e 70bb 2adc b6b9 00eb 51bd e509 60bc
00000170: 33b8 113d a333 553b 6ace 0b3d 377c 203d
00000180: 6f0d 3c3c 3377 a23c 0854 f23c 4ebe 523c
00000190: 83af 1bbc 6f51 62bb a6a3 85bb b2a8 78bc
000001a0: add3 903a eba8 203d 8857 a7bc 60ea a53c
000001b0: 1233 3dbc b4bc 253d ca63 09bd c977 bb3c
000001c0: fb88 073d 8530 bebc b1b5 a3bc 8908 aa3c
000001d0: b722 073c a5ed 85bc 10ae 05bd 4e45 283b
000001e0: 542b 7aba 31de 573b d772 b7b8 dd96 c43c
000001f0: f8c7 413b 8b64 b5bc 44a9 a13c 4330 143d
00000200: 1923 f2bc 25e3 773b 2061 ae3c 2400 dabc
00000210: 1205 bfbb 9243 993c ed6f 063c 94d3 30bd
00000220: fcf1 ffba 95ad 28bc d8d1 a2bb dd01 b63b
00000230: 901d 023d 3e9b 26bd 4d15 de3c 776a 7ebc
00000240: abd8 833c cf21 f8ba ad6b aa3c e885 9ebc
00000250: d6c8 37bd 86b5 39ba 7873 273d 48fd 213c
00000260: 530a 533c 92d9 f03c fd99 22bd dd14 1ebb
00000270: 46b1 e8bc 25fc e93c d265 bd3b cd28 c9bc
00000280: 3b81 293d e3ab c6bc 4c36 f6bc 4c35 0d3d
00000290: d5ee e1bc 67d6 203c a3f0 9a3b a0a5 073d
000002a0: 4393 e7bc 9e27 d73c 8fb6 a53c 429e a93c
000002b0: 6950 a4bc ffbc e6bc 429f 7cbc 9562 75bc
000002c0: 68f9 e9bc 5caf 7bbc ac9f e9bc 1d78 14bd
000002d0: c4e1 963a 6075 e6bc 29e9 293c 0a91 6dbb
000002e0: e069 c9bc 7b00 893c dd7e cbbc 4913 4a3c
000002f0: 148d e8bc 193d 29bd b90d eabc f462 1f3d
00000300: 0b09 913c e7b2 f3bb fdd6 84bb 47f9 9c3c
00000310: 352e d03c 5d75 91bc fed9 8c3c 31e7 0e3c
00000320: dad1 c43c 9a62 23bd d9ac 22bd 2a45 b03c
00000330: 5ae4 0d3d d137 28bd bd47 aebb 91c4 963c
00000340: a703 043d e960 f3bc 6239 6fbc 6ec9 463c
00000350: 1358 853c 9efd 083d 31d3 643c 1e9d efbb
00000360: de40 c3bc 1240 213c 30c1 82bc ccbd 0fbd
00000370: 9ab2 183d 741e ad3b b3aa 9ebb 6549 f03c
00000380: c4fa 943c cac9 613c dcda 843c d81a fd3a
00000390: 73f0 a03c d25d 32bd 547b 9ebc fc48 e0bc
000003a0: a1b5 13bd aee9 1fbd e6c9 ccbc b16c c8bc
000003b0: 9500 753c e063 b43c 3134 eb3c 2829 1bbd
000003c0: 05aa 1f3d 67a3 8bbc b98f a3bc 8f98 12bd
000003d0: 7aff abbc 12a0 273d 9b61 33bb 5957 1f3d
000003e0: aad3 c83c e5c9 313d 86cb 7a3c 5270 603a
000003f0: ed70 99bc 4355 5cbb 4b3b 5cbc 2753 d2bc

block2.0.bias f4 [64]
0.024561865 -0.009284903 0.007472085 -0.029920923 -0.020850096 0.010979437 -0.02881111 0.016190449
0.023656923 -0.016506959 0.027946193 -0.0013508791 0.021913316 0.021559933 -0.004020187 0.017085902
-0.039051324 -0.03434092 0.009807887 -0.010742565 -0.0027930583 0.025878057 0.03524424 0.0229703
-0.019440139 -0.0075553567 0.024568379 -0.019341227 -0.0215946 -0.006184051 0.029498506 -0.014998712
-0.025590722 0.01581306 0.026002517 -0.0029128601 0.026077114 -0.028379403 -0.009130083 -0.035825618
-0.0006640461 -0.031296674 0.027437177 0.03277522 0.028881062 0.03624549 0.039693937 -0.035380337
-0.001529548 -0.024073016 0.025142834 0.0011452863 -0.019667052 0.013173142 -0.022263043 -0.03652803
0.036876936 0.017027289 -0.042987775 0.014133207 0.0075193704 0.0046903635 0.028650379 0.03528436
00000000: f735 c93c b51f 18bc 64d8 f43b b91c f5bc
00000010: d2cd aabc 19e3 333c 4705 ecbc d5a1 843c
00000020: 2acc c13c 9a39 87bc 6aef e43c fb0f b1ba
00000030: 8e83 b33c 759e b03c c6bb 83bb bcf7 8b3c
00000040: 48f4 1fbd 11a9 0cbd 42b1 203c 9501 30bc
00000050: be0b 37bb 38fe d33c 445c 103d 362c bc3c
00000060: ed40 9fbc ed92 f7bb a043 c93c 7e71 9ebc
00000070: 29e7 b0bc 94a3 cabb daa6 f13c 28bd 75bc
00000080: a2a3 d1bc 648a 813c 3b03 d53c afe5 3ebb
00000090: ac9f d53c ec7b e8bc 5896 15bc e2bd 12bd
000000a0: 6113 2eba f130 00bd eec3 e03c 4f3f 063d
000000b0: fa97 ec3c 2776 143d 1c96 223d f9ea 10bd
000000c0: 1d7b c8ba c634 c5bc 58f8 cd3c 6e1d 963a
000000d0: cc1c a1bc 2ad4 573c fc60 b6bc 6a9e 15bd
000000e0: 450c 173d d07c 8b3c f313 30bd f78e 673c
000000f0: 0d65 f63b 9fb1 993b 33b4 ea3c 5586 103d

block2.1.weight f4 [64]
1.0087975 0.9979081 1.004485 1.0037519 0.99299175 1.008016 0.9874702 0.9872774
0.98754114 1.0024843 1.0014797 0.9922934 1.0105821 1.0040821 0.9806387 0.9968477
0.9964552 0.99473655 0.9988109 0.99267733 1.000945 1.0041529 1.0048685 1.0015806
0.9857806 1.0012714 1.0149636 1.0122657 0.99179244 0.9919747 0.9964307 1.0063989
0.9865105 0.9922192 1.0085868 0.99619603 1.0017152 1.0026615 1.0122334 1.0080916
0.9925887 0.99154294 0.9941356 0.98909044 1.002086 0.99422365 0.9983913 0.9937531
1.0122403 0.9850451 1.0128337 0.9974194 0.99861217 1.0064906 1.0050035 1.0061083
0.99312305 0.99796015 1.0209764 0.9848872 0.9999062 0.994735 0.99134004 1.008719
00000000: 4720 813f e876 7f3f f792 803f f17a 803f
00000010: b534 7e3f ab06 813f d9ca 7c3f 36be 7c3f
00000020: 7fcf 7c3f 6851 803f 7d30 803f f106 7e3f
00000030: c15a 813f c385 803f 230b 7b3f 6931 7f3f
00000040: b017 7f3f 0ea7 7e3f 12b2 7f3f 1a20 7e3f
00000050: f71e 803f 1588 803f 889f 803f cb33 803f
00000060: 1e5c 7c3f a929 803f 54ea 813f ec91 813f
00000070: 1ce6 7d3f 0ef2 7d3f 1516 7f3f aed1 803f
00000080: f48b 7c3f 1402 7e3f 5f19 813f b406 7f3f
00000090: 3438 803f 3657 803f dd90 813f 2509 813f
000000a0: 4b1a 7e3f c2d5 7d3f ac7f 7e3f 0835 7d3f
000000b0: 5b44 803f 7185 7e3f 9296 7f3f 9a66 7e3f
000000c0: 1791 813f ea2b 7c3f 89a4 813f e156 7f3f
000000d0: 0ca5 7f3f afd4 803f f4a3 803f 28c8 803f
000000e0: 503d 7e3f 517a 7f3f 5baf 823f 9121 7c3f
000000f0: daf9 7f3f f4a6 7e3f 76c8 7d3f b41d 813f

block2.1.bias f4 [64]
-0.000767337 -0.017898494 -0.01400557 -0.025381936 -0.015453664 -0.02320318 -0.017383924 -0.014375178
-0.019439375 -0.018493483 -0.017400118 -0.01842057 -0.0005552514 -0.026964815 -0.02287774 -0.012728386
-0.011659726 -0.016738849 -0.01862657 -0.01040058 -0.007872731 -0.0076247803 -0.015124575 -0.013411944
-0.023646718 -0.008170511 -0.014054313 -0.019324157 -0.011587048 -0.017925415 -0.015117714 -0.008646323
-0.023478664 -0.014119226 -0.014276325 -0.013283613 0.0063776732 -0.011022137 -0.002042311 -0.021418918
-0.006871391 -0.013949937 -0.018988738 -0.026876967 -0.0108333295 -0.017184118 -0.013362079 -0.016074786
0.0020444242 -0.015237229 -0.015316945 -0.015722804 -0.017299414 -0.003973028 -0.0034433152 -0.013377798
-0.009889479 -0.020643586 -0.005188887 -0.01996714 -0.026035242 -0.016857311 -0.019016525 -0.025196066
00000000: 1d27 49ba dd9f 92bc 9e77 65bc c7ed cfbc
00000010: 5d31 7dbc 9814 bebc bb68 8ebc de85 6bbc
00000020: 533f 9fbc a57f 97bc b18a 8ebc bce6 96bc
00000030: 4a8e 11ba 51e5 dcbc 196a bbbc b88a 50bc
00000040: 6f08 3fbc e91f 89bc c096 98bc 3267 2abc
00000050: a1fc 00bc 4bd9 f9bb 11cd 77bc c5bd 5bbc
00000060: c3b6 c1bc 9bdd 05bc 1044 66bc b24d 9ebc
00000070: 9ad7 3dbc 52d8 92bc 4ab0 77bc 4fa9 0dbc
00000080: 5456 c0bc 5354 67bc 3fe7 69bc 83a3 59bc
00000090: cdfb d03b 3196 34bc 4bd8 05bb ba76 afbc
000000a0: 6829 e1bb 478e 64bc 458e 9bbc 162d dcbc
000000b0: 477e 31bc b5c5 8cbc 9fec 5abc 45af 83bc
000000c0: bffb 053b 92a5 79bc ecf3 7abc 1ccd 80bc
000000d0: 80b7 8dbc 2d30 82bb 3ea9 61bb 8d2e 5bbc
000000e0: 7b07 22bc bd1c a9bc 8a07 aabb 2192 a3bc
000000f0: dc47 d5bc 5818 8abc 8bc8 9bbc fb67 cebc

block2.1.running_mean f4 [64]
-0.23738217 -0.40162387 -0.3288174 0.010883786 -0.046283495 -0.46884152 -0.517446 0.2695456
0.47928783 -0.031404138 -0.29487035 0.09916911 -0.37122962 -0.24467573 0.61550605 -0.15795112
-0.48995087 0.41239735 -0.7973119 -0.14469497 -1.0310515 0.047966838 -0.5148402 0.026109088
-0.11716842 -0.7817301 0.09987549 -0.45441347 -0.035499997 0.49767706 -0.14403966 -0.4179834
0.3143415 0.7082469 -0.34856245 0.57390434 -0.047875073 -0.43261307 -0.08038505 -0.13335635
0.42511353 0.44750795 -0.5767093 -0.3922071 0.1861795 -0.40964508 -0.64789253 -0.18149649
-0.15611108 0.21145011 0.13971066 -0.13459282 -0.41468945 0.05627476 -0.2816598 -0.028115721
-0.651426 -0.5731958 -0.065131046 -0.18007556 0.65957344 0.23218074 0.27633804 -0.17259525
00000000: 5014 73be a5a1 cdbe c15a a8be e851 323c
00000010: c393 3dbd ff0b f0be 5777 04bf e201 8a3e
00000020: 3765 f53e a0a1 00bd 3ff9 96be 2d19 cb3d
00000030: cf11 bebe 468c 7abe ce91 1d3f f0bd 21be
00000040: d7da fabe bf25 d33e a21c 4cbf eb2a 14be
00000050: 7ff9 83bf e078 443d 91cc 03bf bae2 d53c
00000060: fff5 efbd 771f 48bf 858b cc3d e2a8 e8be
00000070: 7268 11bd 87cf fe3e 227f 13be ec01 d6be
00000080: 5ef1 a03e ab4f 353f c776 b2be 65eb 123f
00000090: a718 44bd 767f ddbe eba0 a4bd 918e 08be
000000a0: 7ba8 d93e c31f e53e 38a3 13bf 5ecf c8be
000000b0: d7a5 3e3e 00bd d1be 49dc 25bf 37da 39be
000000c0: 95db 1fbe 6186 583e 5010 0f3e b3d2 09be
000000d0: 2d52 d4be 5d80 663d b735 90be f152 e6bc
000000e0: dbc3 26bf f6bc 12bf 6d63 85bd ba65 38be
000000f0: ced9 283f cac0 6d3e 2e7c 8d3e cfbc 30be

block2.1.running_var f4 [64]
0.11178009 0.2845369 0.3849738 0.07428765 0.19198868 0.1290564 0.8677376 0.39071026
0.13660792 0.5466057 0.12878573 0.2780516 0.29518843 0.0935955 0.14980365 0.28745067
0.45251676 0.17635646 0.25062183 0.26819205 0.8253899 0.27673373 0.142987 0.19928618
0.5719361 0.2712656 0.062204015 0.15217108 0.2973407 0.28508994 0.16872191 0.14976566
0.8784393 0.28883517 0.10165687 0.14865458 0.10981175 0.22781105 0.050690386 0.08384298
0.27368414 0.47510234 0.5501991 0.86078924 0.124352664 0.44345424 0.2921602 0.28878695
0.09033671 0.18851674 0.06051388 0.2093302 0.32591277 0.10324976 0.15270542 0.11402675
0.4016029 0.21283495 0.06811625 0.63522255 0.573726 1.1308185 0.25947633 0.09274025
00000000: f6ec e43d d2ae 913e 491b c53e 2024 983d
00000010: ae98 443e 5c27 043e 0d24 5e3f 2d0b c83e
00000020: f2e2 0b3e 5aee 0b3f 68e0 033e c85c 8e3e
00000030: f022 973e ffae bf3d 2166 193e bc2c 933e
00000040: 47b0 e73e ca96 343e 8151 803e 7850 893e
00000050: c14c 533f 0bb0 8d3e 2f6b 123e ad11 4c3e
00000060: 676a 123f 53e3 8a3e a3c9 7e3d bcd2 1b3e
00000070: 0a3d 983e 4ff7 913e 70c5 2c3e 2b5c 193e
00000080: 66e1 603f 34e2 933e 7a31 d03d e838 183e
00000090: fce4 e03d 4d47 693e b9a0 4f3d deb5 ab3d
000000a0: 5420 8c3e 9d40 f33e d9d9 0c3f af5c 5c3f
000000b0: 9cac fe3d 6f0c e33e 0696 953e e2db 933e
000000c0: 7402 b93d 880a 413e 67dd 773d a85a 563e
000000d0: 0ade a63e 9c74 d33d cf5e 1c3e db86 e93d
000000e0: e59e cd3e 68f1 593e 8880 8b3d f29d 223f
000000f0: b5df 123f a9be 903f 15da 843e 9aee bd3d

block3.0.weight f4 [64, 64, 3, 3]
-0.033333432 -0.026139567 -0.022170627 0.019967884 0.030554168 0.042577278 -0.021912638 0.05579076
-0.038946778 -0.018147232 -0.024552291 0.00046650672 -0.008062278 -0.014638848 0.021536293 -0.039681032
0.0066612707 -0.007638916 0.015263444 0.005369879 -0.00092504703 0.0009653138 -0.037012853 -0.00046172002
0.027747229 -0.028944667 0.0033112469 -0.024599265 -0.005567069 -0.014287361 0.03451518 -0.02217323
-0.036874965 0.030153774 0.036520462 0.024725683 -0.036522675 -0.041753653 -0.017715454 -0.027892353
0.025196642 0.01965325 0.018145947 0.013013256 -0.043132618 -0.03190866 -0.018979259 -0.012524188
0.0010565689 -0.0054438524 0.015129531 0.017583158 0.035537146 0.012045425 -0.028936489 0.026970875
-0.00685122 0.004285183 -0.025213828 -0.031317547 0.038266104 0.00034200706 -0.02328776 -0.028302904
-0.016172862 0.017034153 0.0282337 -0.031892087 0.0039663445 0.009089505 -0.035933554 -0.023704696
-0.017982142 -0.0041706366 0.02025718 0.031513557 -0.034007598 0.03762252 -0.013828887 -0.012446095
0.039753918 -0.0036375048 0.02608529 -0.019089924 -0.04488589 -0.011641205 0.0150088845 -0.021022098
0.034338925 -0.014453068 0.028698841 -0.016874202 0.017185394 0.016795956 0.009806985 -0.013333912
0.043455657 0.02443256 0.01901997 -0.008306751 -0.03569204 -0.017708417 0.00012787734 -0.021516234
0.024143754 0.02536531 0.024059342 -0.022424974 0.017782487 0.02916348 0.030033922 0.018818295
-0.011716676 -0.0244157 0.029313141 0.016084325 -0.026365658 -0.0039461656 -0.02376346 -0.017525408
0.011721274 -0.02730023 -0.032901376 -0.0076154703 0.021919334 -0.027309602 -0.0048877676 -0.028453154
0.021722944 -0.026813176 0.02859333 0.009569427 0.03290326 -0.015407105 0.035677433 0.011665236
0.0036807593 0.019185342 -0.000458982 0.02556278 0.01340198 -0.0064198077 -0.041296154 -0.009262501
-0.026021633 0.011317282 0.016267901 0.03286409 -0.0021644994 0.004258042 0.02367336 -0.049289245
-0.024025267 0.01321808 0.01604253 0.0038403242 0.035401795 0.017244464 0.019454543 0.0028228385
0.0373863 0.02850545 0.015875818 -0.03271044 0.027512105 -0.012258399 -0.024580417 -0.046908513
0.01446038 0.007719346 0.006759744 -0.030906824 0.017239286 0.0063461084 0.028410131 -0.026513727
0.020266503 0.0141635975 0.00077998784 0.012149771 -0.049419623 0.0075384323 -0.016005028 -0.0119564915
0.0023255984 -0.011093667 -0.039073344 -0.008097624 0.030342903 -0.043514032 0.01660746 -0.00033574388
-0.02634384 -0.025721794 0.027701234 -0.031713765 -0.034782946 -3.6425536e-05 0.021604888 0.02196895
0.022769742 0.027037645 0.0017304054 0.0069510136 -0.017982328 -0.04565499 -0.0041076057 0.025773399
0.00079584675 0.027255544 -0.0072065275 -0.016351406 -0.042059455 0.047743645 0.00413343 -0.017831834
-0.009237449 0.026650613 0.008798345 0.035455335 0.022696685 -0.0006248039 -0.013778328 -0.0045726057
-0.01571629 0.020046331 0.018165546 -0.007538407 0.014089932 0.0011463255 0.0037986971 -0.010975319
0.048337977 0.008165922 -0.03888579 0.05085589 -0.041411653 0.005487848 -0.023200642 0.021504756
0.008587692 -0.020555314 0.022973033 -0.04699503 0.023283489 0.011624732 -0.0025393693 -0.0031279034
-0.036623538 0.020318583 -0.03931489 -0.013966909 -0.004632383 -0.0038738986 0.00492092 -0.020024246
00000000: a388 08bd a522 d6bc 2d9f b5bc b093 a33c
00000010: bc4c fa3c 8365 2e3d 2282 b3bc da84 643d
00000020: a886 1fbd 81a9 94bc e321 c9bc 7995 f439
00000030: a517 04bc c7d7 6fbc e16c b03c 9488 22bd
00000040: ca46 da3b df4f fabb 8613 7a3c cff5 af3b
00000050: db7e 72ba 1d0d 7d3a ca9a 17bd 0313 f2b9
00000060: 284e e33c 5e1d edbc 8101 593b 6684 c9bc
00000070: f66b b6bb 8915 6abc ca5f 0d3d a2a4 b5bc
00000080: 340a 17bd 0c05 f73c 7b96 153d 848d ca3c
00000090: cd98 15bd e105 2bbd 0020 91bc 817e e4bc
000000a0: 3069 ce3c daff a03c cfa6 943c 8d35 553c
000000b0: d4ab 30bd a8b2 02bd 647a 9bbc 4032 4dbc
000000c0: 927c 8a3a 5862 b2bb dae1 773c 8e0a 903c
000000d0: 668f 113d 2d5a 453c 370c edbc 06f2 dc3c
000000e0: 3380 e0bb b86a 8c3b 3b8d cebc d446 00bd
000000f0: ebbc 1c3d 694f b339 f9c5 bebc 7edb e7bc
00000100: f37c 84bc 358b 8b3c 5c4a e73c 47a1 02bd
00000110: 1cf8 813b 26ec 143c 102f 13bd 5a30 c2bc
00000120: 494f 93bc d6a9 88bb 63f2 a53c 5c14 013d
00000130: 8d4b 0bbd 121a 1a3d 8e92 62bc b5ea 4bbc
00000140: 01d5 223d 3463 6ebb d1b0 d53c 7962 9cbc
00000150: 44da 37bd c1ba 3ebc d3e7 753c 8936 acbc
00000160: f9a6 0c3d 90cc 6cbc d519 eb3c c43b 8abc
00000170: 62c8 8c3c ac97 893c 7aad 203c 7b76 5abc
00000180: 8ffe 313d cb26 c83c c5cf 9b3c 0a19 08bc
00000190: d131 12bd 3e11 91bc d016 0639 d042 b0bc
000001a0: 1fc9 c53c e9ca cf3c 1918 c53c 94b4 b7bc
000001b0: 94ac 913c 40e8 ee3c b309 f63c d328 9a3c
000001c0: 4df7 3fbc 6f03 c8bc 1d22 f03c 46c3 833c
000001d0: cbfc d7bc d64e 81bb 96ab c2bc 7291 8fbc
000001e0: 960a 403c bba4 dfbc 98c3 06bd 328b f9bb
000001f0: 2d90 b33c 63b8 dfbc 9129 a0bb 9716 e9bc
00000200: 51f4 b13c 4ea7 dbbc 8f3c ea3c 16c9 1c3c
00000210: 92c5 063d 156e 7cbc 8022 123d 8c1f 3f3c
00000220: e538 713b 942a 9d3c 85a3 f0b9 0969 d13c
00000230: fa93 5b3c 405d d2bb 2826 29bd bfc1 17bc
00000240: 522b d5bc 1f6c 393c 4344 853c 7f9c 063d
00000250: 46da 0dbb 0c87 8b3b a2ee c13c 85e3 49bd
00000260: a3d0 c4bc a590 583c a06b 833c f3ad 7b3b
00000270: 7901 113d 4344 8d3c 225f 9f3c 5fff 383b
00000280: 6022 193d 4384 e93c 010e 823c 62fb 05bd
00000290: 1161 e13c 74d7 48bc df5c c9bc 2423 40bd
000002a0: 3beb 6c3c 91f2 fc3b d880 dd3b 4f30 fdbc
000002b0: 6739 8d3c 04f3 cf3b 5dbc e83c 5133 d9bc
000002c0: f005 a63c 6f0e 683c 1978 4c3a d50f 473c
000002d0: 3b6c 4abd f404 f73b fa1c 83bc 29e5 43bc
000002e0: 1169 183b 36c2 35bc 5f0b 20bd e6ab 04bc
000002f0: ae91 f83c c53b 32bd 5e0c 883c c806 b0b9
00000300: 09cf d7bc 83b6 d2bc b3ed e23c 4be6 01bd
00000310: 9078 0ebd 9fc7 18b8 bcfc b03c 3af8 b33c
00000320: 9c87 ba3c 0d7e dd3c c5ce e23a 54c5 e33b
00000330: ad4f 93bc ba00 3bbd 1899 86bb bc22 d33c
00000340: 5fa0 503a 0547 df3c bc24 ecbb 62f3 85bc
00000350: 8946 2cbd d78e 433d b971 873b 1114 92bc
00000360: ab58 17bc 6352 da3c ef26 103c 9d39 113d
00000370: 66ee b93c e1c9 23ba 7fbe 61bc ccd5 95bb
00000380: 73bf 80bc 3438 a43c e9cf 943c be04 f7bb
00000390: 75d9 663c 4d40 963a 90f3 783b d3d1 33bc
000003a0: 0bfe 453d 5cca 053c b546 1fbd 444e 503d
000003b0: 449f 29bd 68d3 b33b 460f bebc be2a b03c
000003c0: 64b3 0c3c 9e63 a8bc f131 bc3c dc7d 40bd
000003d0: 04bd be3c a975 3e3c 8c6b 26bb 83fd 4cbb
000003e0: 9002 16bd 2873 a63c a608 21bd 76d5 64bc
000003f0: 3fcb 97bb 3ce1 7dbb ab3f a13b e309 a4bc

block3.0.bias f4 [64]
0.0060113356 -0.00048895634 -0.02559187 -0.01866613 0.040875692 0.0069101932 -0.03182009 -0.035186633
-0.03672538 -0.035582613 -0.018242912 -0.007553367 0.023089176 -0.03656142 0.030287629 -0.036496375
0.020213405 -0.0065700323 -0.006408286 -0.04164687 0.015458099 -0.02143505 -0.038927093 0.031610757
-0.005835392 -0.028455902 0.01795786 -0.012192889 0.007474073 -0.030736119 0.026558228 -0.003649067
-0.0026794723 -0.041336764 0.022181574 -0.0067993742 0.035037905 -0.0028639406 -0.038250674 -0.018453067
0.0062965206 -0.039813023 -0.02099279 -0.013527857 -0.016980253 -0.028172353 -0.037541486 0.032592405
0.002329526 -0.018874008 0.011654811 -0.03776436 -0.015788008 -0.003024277 -0.031358793 -0.005362735
0.03482195 0.002763528 -0.024205001 -0.03167284 0.009566667 -0.009591057 0.022191312 0.0018067518
00000000: bdfa c43b 4e2d 00ba 0ba6 d1bc b6e9 98bc
00000010: 456d 273d e76e e23b c855 02bd dc1f 10bd
00000020: 5a6d 16bd 13bf 11bd 2972 95bc 3c82 f7bb
00000030: 8325 bd3c 6dc1 15bd c31d f83c 397d 15bd
00000040: 9596 a53c 6d49 d7bb 99fc d1bb e995 2abd
00000050: f743 7d3c 8f98 afbc 0472 1fbd 487a 013d
00000060: d136 bfbb 5a1c e9bc 5d1c 933c afc4 47bc
00000070: 12e9 f43b 50ca fbbc a490 d93c 2f25 6fbb
00000080: 169a 2fbb bd50 29bd 22b6 b53c 49cd debb
00000090: e883 0f3d f3b0 3bbb bdac 1cbd e32a 97bc
000000a0: 0b53 ce3b fb12 23bd 12f9 abbc f2a3 5dbc
000000b0: 2c1a 8bbc b5c9 e6bc 1ac5 19bd 9d7f 053d
000000c0: f6aa 183b aa9d 9abc d2f3 3e3c cdae 1abd
000000d0: da55 81bc f332 46bb 1472 00bd e2b9 afbb
000000e0: 76a1 0e3d 4e1c 353b 9149 c6bc 61bb 01bd
000000f0: 82bd 1c3c cf23 1dbc 8eca b53c 88d0 ec3a

block3.1.weight f4 [64]
1.0041959 0.99063057 0.99570864 0.9956948 0.99669665 0.99994546 0.98984814 1.000898
1.0047488 1.0023782 1.0011494 0.99884933 0.99426675 1.0127784 0.98838663 1.0035837
0.99288493 0.9898448 1.0004411 1.0024999 0.98965394 0.995812 1.0078211 1.001758
0.98470867 0.98720336 1.0041351 1.0110015 0.9921591 1.0039651 1.0195507 1.0001061
1.0055113 0.99894303 1.001301 1.0026 1.0031596 0.9981566 1.0023646 1.0010432
0.9923814 0.99018127 1.0053887 0.99577963 0.9963427 1.0099074 0.9974433 1.009895
1.0015359 0.9839089 1.0075784 1.0021335 1.0087667 1.0024617 0.9999602 1.0154141
1.0161715 0.99755836 0.9911031 1.0017222 1.000934 1.0089179 0.9842228 0.9955813
00000000: 7e89 803f f799 7d3f c3e6 7e3f dbe5 7e3f
00000010: 8327 7f3f 6dfc 7f3f b066 7d3f 6d1d 803f
00000020: 9c9b 803f ee4d 803f aa25 803f 97b4 7f3f
00000030: 4488 7e3f b9a2 813f e806 7d3f 6e75 803f
00000040: b52d 7e3f 7866 7d3f 740e 803f eb51 803f
00000050: f659 7d3f 89ed 7e3f 4800 813f 9b39 803f
00000060: de15 7c3f 5cb9 7c3f 8087 803f 7f68 813f
00000070: 24fe 7d3f ee81 803f a380 823f 7a03 803f
00000080: 98b4 803f bbba 7f3f a22a 803f 3255 803f
00000090: 8967 803f 3187 7f3f 7c4d 803f 2f22 803f
000000a0: b50c 7e3f 857c 7d3f 94b0 803f 6aeb 7e3f
000000b0: 5110 7f3f a544 813f 7258 7f3f 3d44 813f
000000c0: 5432 803f 74e1 7b3f 54f8 803f e945 803f
000000d0: 441f 813f aa50 803f 64fd 7f3f 17f9 813f
000000e0: e811 823f fc5f 7f3f efb8 7d3f 6f38 803f
000000f0: 9b1e 803f 3924 813f 07f6 7b3f 6bde 7e3f

block3.1.bias f4 [64]
-0.017611472 -0.022849062 -0.02024965 -0.01922417 -0.008737964 -0.020712622 -0.03496676 -0.010019817
-0.020436488 -0.016693411 -0.014019231 -0.016804675 -0.014317513 0.0057451567 -0.018202312 -0.029295962
-0.018457195 -0.014141678 -0.012505865 -0.025240123 -0.020512514 -0.020494564 -0.016584896 -0.02027724
-0.031266823 -0.008824436 -0.032636374 -0.021611221 -0.012636856 -0.011634906 -0.012413666 -0.007978995
-0.00910632 -0.00826975 -0.015152149 -0.007489221 -0.025366725 -0.030638583 -0.02349276 -0.012015208
-0.015339042 -0.006661288 -0.025169894 -0.028033353 -0.016445369 -0.013038686 -0.014964444 -0.018780714
-0.010151637 -0.023327045 -0.019308977 -0.025960894 -0.015943186 -0.024390776 -0.02081 -0.00894086
-0.017545348 -0.016957961 -0.021422753 -0.019562969 -0.022994516 -0.017399713 -0.02970829 -0.020148575
00000000: ef45 90bc f52d bbbc 98e2 a5bc 027c 9dbc
00000010: ad29 0fbc 84ad a9bc 4e39 0fbd 292a 24bc
00000020: 6c6a a7bc 9fc0 88bc ebb0 65bc f5a9 89bc
00000030: 0194 6abc de41 bc3b 041d 95bc 16fe efbc
00000040: 8b33 97bc 7fb2 67bc 66e5 4cbc 60c4 cebc
00000050: dc09 a8bc 37e4 a7bc 0cdd 87bc 741c a6bc
00000060: a411 00bd 5e94 10bc b8ad 05bd 040a b1bc
00000070: d10a 4fbc 55a0 3ebc b062 4bbc 55ba 02bc
00000080: ad32 15bc d87d 07bc b840 78bc 2468 f5bb
00000090: e1cd cfbc c4fd fabc e373 c0bc 6fdb 44bc
000000a0: 9b50 7bbc ef46 dabb 1831 cebc 34a6 e5bc
000000b0: 70b8 86bc 36a0 55bc 6d2d 75bc 03da 99bc
000000c0: 0d53 26bc 5c18 bfbc dc2d 9ebc f1ab d4bc
000000d0: 499b 82bc 2acf c7bc bc79 aabc af7c 12bc
000000e0: 43bb 8fbc 6ceb 8abc c57e afbc 8542 a0bc
000000f0: ff5e bcbc d889 8ebc cd5e f3bc a00e a5bc

block3.1.running_mean f4 [64]
-0.03427425 -0.24868503 -0.049004514 -0.6330202 -0.073185466 0.20601013 0.03534413 -0.22413172
-0.060800653 -0.2760252 0.023869913 -0.050690338 -0.06111913 -0.7757576 -0.16515443 0.14168085
-0.13330808 0.35888878 0.12520854 0.08496386 -0.015441814 0.36421466 -0.37541568 0.1485767
0.09094835 -0.30300266 0.18975411 0.2033624 0.24241658 -0.04102519 -0.15924793 -1.0952214
-0.6201406 0.32969797 0.20494576 -0.4078111 0.09345502 0.25444424 0.11799613 -0.26707745
-0.9161267 -0.34899405 0.20871703 -0.43176174 0.11718043 0.34939843 0.114417136 -0.32443017
0.05637893 0.1592081 0.34175378 0.055148795 0.0110710785 0.04457015 0.17059112 -0.89721566
0.03278084 0.2909616 0.19895722 -0.10660448 0.3901234 0.31803226 0.26580417 -0.36507535
00000000: 2863 0cbd 4aa7 7ebe f5b8 48bd 9d0d 22bf
00000010: 43e2 95bd 52f4 523e 02c5 103d c982 65be
00000020: 1b0a 79bd 2d53 8dbe d68a c33c aca0 4fbd
00000030: 0e58 7abd 0d98 46bf 3e1e 29be c914 113e
00000040: ea81 08be 45c0 b73e ab36 003e 8801 ae3d
00000050: aaff 7cbc 587a ba3e 7c36 c0be 7e24 183e
00000060: 2143 ba3d 2a23 9bbe e74e 423e 3c3e 503e
00000070: 0d3c 783e 080a 28bd e411 23be 3730 8cbf
00000080: 89c1 1ebf 2cce a83e 4ddd 513e 9ecc d0be
00000090: 5865 bf3d 8446 823e f4a7 f13d 60be 88be
000000a0: 4887 6abf 59af b2be ebb9 553e e00f ddbe
000000b0: 4bfc ef3d 5ae4 b23e 8853 ea3d b61b a6be
000000c0: 98ed 663d 7307 233e 5afa ae3e b4e3 613d
000000d0: 7863 353c 318f 363d 70af 2e3e edaf 65bf
000000e0: 3445 063d ebf8 943e 71bb 4b3e 7353 dabd
000000f0: 41be c73e 20d5 a23e 7c17 883e 28eb babe

block3.1.running_var f4 [64]
0.124291405 0.21793453 0.12461711 0.22656617 0.20586547 0.1173191 0.25937873 0.14053085
0.14265314 0.18955266 0.2342879 0.16009948 0.26028395 0.2833469 0.27079386 0.18685393
0.1463532 0.46489105 0.17762421 0.11021431 0.1919674 0.14745438 0.20116058 0.1905486
0.21955436 0.22178309 0.21359035 0.1345112 0.17136073 0.31986752 0.15939336 0.6368012
0.4614442 0.34007305 0.1493129 0.29243413 0.16688208 0.33964515 0.12186382 0.18596275
0.6401756 0.24701467 0.12718268 0.20534094 0.24323204 0.21650536 0.3083094 0.34202194
0.21138756 0.15340745 0.13767006 0.20186996 0.12453627 0.114274874 0.23903167 0.4582849
0.121460974 0.22455816 0.17927745 0.24531968 0.20825282 0.13453817 0.38000163 0.16847235
00000000: 7e8c fe3d 3b2a 5f3e 4137 ff3d f600 683e
00000010: 66ce 523e ff44 f03d 4acd 843e 52e7 0f3e
00000020: aa13 123e 181a 423e 2be9 6f3e 1ef1 233e
00000030: f043 853e d812 913e 7ea5 8a3e a356 3f3e
00000040: 9ddd 153e 3306 ee3e 1fe3 353e 0ab8 e13d
00000050: 1a93 443e 48fe 163e 0afd 4d3e 2c1f 433e
00000060: dcd2 603e 1b1b 633e 6eb7 5a3e 4ebd 093e
00000070: 3079 2f3e adc5 a33e 0338 233e 6705 233f
00000080: 6a42 ec3e 0e1e ae3e 7be5 183e edb9 953e
00000090: 23e3 2a3e f8e5 ad3e bd93 f93d 056d 3e3e
000000a0: 8ce2 233f 6af1 7c3e 2d3c 023e e544 523e
000000b0: d211 793e 95b3 5d3e bbda 9d3e 801d af3e
000000c0: fb75 583e d816 1d3e 61f9 0c3e 00b7 4e3e
000000d0: df0c ff3d f208 ea3d b8c4 743e 52a4 ea3e
000000e0: 88c0 f83d 93f2 653e 8294 373e 1535 7b3e
000000f0: 3a40 553e 60c4 093e 938f c23e 0484 2c3e

block4.0.weight f4 [64, 64, 3, 3]
0.008165456 -0.033319168 0.027378941 0.011484245 0.022753775 0.03555067 0.02437356 -0.03384917
0.009553832 0.0167952 -0.02836527 0.015349939 0.008672211 0.037727706 -0.0390883 -0.03940203
-0.040096916 0.031811528 -0.0088093495 0.03871708 -0.008754339 0.02632264 0.020923939 -0.040340945
0.030065438 0.025605597 -0.025085058 -0.03535144 0.016295424 0.042001512 -0.03146299 0.020112498
0.015052282 -0.019771539 0.0093410555 0.021867119 -0.026804686 -0.040275835 -0.011883989 -0.010771179
-0.014433332 0.013585766 0.012818961 0.027294137 -0.023188394 -0.036443774 0.023010748 -0.009256802
-0.008361036 0.021098731 -0.003918489 0.02496811 0.03364859 0.022755185 -0.044571478 0.033668417
0.008690983 0.025989415 0.0152387535 -0.021375362 0.02950177 0.040245406 0.029752845 0.0069252695
0.020565448 0.021002892 0.012013681 -0.044217624 0.013826484 0.01231173 -0.03895826 0.040538963
0.0131745655 -0.033357985 0.038037695 0.0054148166 -0.02193123 -0.0033040564 0.022233114 -0.04159311
-0.015279224 0.0013085544 -0.013758348 0.0166224 0.0060292096 0.01723866 -0.032635313 0.04545024
-0.016890204 0.0011851364 0.019487476 -0.032552563 -0.024069376 0.033595994 0.021271408 0.0077206143
0.0111854635 0.04133602 -0.03697064 0.0376136 -0.009874019 0.024539214 -0.047683064 -0.019347878
0.002181231 0.031254023 0.016196523 0.04038056 -0.02983614 -0.0096331565 0.04258637 0.010520725
-0.025266426 0.03270394 0.01217219 0.0010901266 -0.005077634 0.028098196 -0.016234115 0.019961841
0.04737701 -0.025963143 0.03217429 -0.0051309206 -0.0033536938 0.030657034 -0.0030942385 0.018396927
0.039156567 0.019966902 -0.034833625 -0.00567141 0.002953781 -0.039108828 0.029572872 -0.016924141
0.011580562 -0.020806877 0.0049716393 0.017407898 -0.020119237 -0.04399811 -0.009275425 -0.021981718
0.0246542 0.03251414 0.023647266 -0.03493501 -0.034600023 -0.039675884 0.02355174 0.026939675
-0.026292399 -0.027721861 -0.004902341 0.011034057 0.009140293 0.027538203 0.0062265815 0.007899743
-0.019523798 -0.022920916 0.044042382 -0.030411728 0.011481569 -0.041552894 -0.03785152 -0.008675742
-0.039116673 0.01214614 -0.00045616343 -0.018133027 -0.03386396 -0.011888511 -0.021352693 0.024272406
-0.043235026 -0.017300237 0.026049118 -0.037965972 -0.027941985 -0.02823661 0.012574166 0.012142681
0.02883609 -0.0050038155 0.04310265 -0.012171296 0.028502397 0.029319268 -0.03724692 0.006595047
-0.014925975 -0.03724754 -0.029467698 0.038729947 0.00899381 0.03109736 -0.009137992 -0.038290884
0.004547031 -0.013018318 -0.03151188 0.027464539 -0.008793642 -0.015891608 0.008766644 0.030698683
0.017331358 -0.01849335 -0.026799737 0.0024296471 0.023902548 -0.016947757 0.032161888 -0.0068257437
-0.033115372 0.0029117893 0.0029916666 -0.027733753 -0.043008506 -0.022641847 0.02527926 -0.020200484
0.0337108 0.011301487 0.019440608 -0.03814803 0.013088903 -0.022440495 0.02267379 -0.017726015
-0.018940048 0.045704626 -0.004186066 0.040728524 0.046785012 -0.022048358 0.037117004 -0.006681539
-0.034965094 -0.0018070253 0.027856635 0.0027672371 -0.008597787 0.02263594 -0.0071977098 -0.044908546
-0.032913893 0.022416456 -0.011247345 -0.025948206 -0.022600662 0.009979166 -0.020655196 0.00417026
00000000: 68c8 053c ae79 08bd cd49 e03c 6a28 3c3c
00000010: 2066 ba3c 949d 113d 0fab c73c 6da5 0abd
00000020: ad87 1c3c 1696 893c 485e e8bc 507e 7b3c
00000030: e415 0e3c 5e88 1a3d 0e1b 20bd 0664 21bd
00000040: aa3c 24bd ce4c 023d 1755 10bc cd95 1e3d
00000050: 5c6e 0fbc 94a2 d73c ae68 ab3c 8c3c 25bd
00000060: cb4b f63c d4c2 d13c 2e7f cdbc accc 10bd
00000070: fb7d 853c c709 2c3d 56df 00bd f7c2 a43c
00000080: d99d 763c ecf7 a1bc 3a0b 193c ac22 b33c
00000090: 8095 dbbc 46f8 24bd 10b5 42bc 9979 30bc
000000a0: c879 6cbc d596 5e3c 9f06 523c f497 df3c
000000b0: 96f5 bdbc 1146 15bd 0981 bc3c d7a9 17bc
000000c0: bafc 08bc 3fd7 ac3c ab66 80bb ec89 cc3c
000000d0: 1bd3 093d 1569 ba3c 9590 36bd e5e7 093d
000000e0: a064 0e3c c1e7 d43c f7ab 793c 621b afbc
000000f0: b2ad f13c 5ed8 243d 3dbc f33c 5fed e23b
00000100: df78 a83c 420e ac3c 08d5 443c 8a1d 35bd
00000110: 7a88 623c 23b7 493c b292 1fbd 2f0c 263d
00000120: 22da 573c 62a2 08bd 6acd 1b3d c66e b13b
00000130: 1fa9 b3bc de88 58bb 3822 b63c 895d 2abd
00000140: b655 7abc cd83 ab3a b26a 61bc b32b 883c
00000150: ad90 c53b 1738 8d3c 9bac 05bd 082a 3a3d
00000160: 535d 8abc 9456 9b3a 33a4 9f3c d655 05bd
00000170: 242d c5bc f49b 093d 6041 ae3c 35fd fc3b
00000180: 3c43 373c f54f 293d 876e 17bd b810 1a3d
00000190: a3c6 21bc 7606 c93c 514f 43bd 717f 9ebc
000001a0: fcf2 0e3b 3804 003d 92ae 843c 1666 253d
000001b0: ec6a f4bc 63d4 1dbc 0c6f 2e3d 1e5f 2c3c
000001c0: 89fb cebc 91f4 053d dd6d 473c 94e2 8e3a
000001d0: 4862 a6bb 302e e63c 68fd 84bc 0487 a33c
000001e0: 650e 423d a8b0 d4bc 30c9 033d 4821 a8bb
000001f0: a5c9 5bbb 7624 fb3c b5c8 4abb 27b5 963c
00000200: a362 203d a191 a33c b4ad 0ebd 3cd7 b9bb
00000210: 3994 413b 9430 20bd cf42 f23c 7fa4 8abc
00000220: 66bc 3d3c 2f73 aabc 22e9 a23b 029b 8e3c
00000230: 19d1 a4bc 5d37 34bd f4f7 17bc 0113 b4bc
00000240: 9bf7 c93c 8c2d 053d e9b7 c13c 0318 0fbd
00000250: c1b8 0dbd 2e83 22bd 94ef c03c 98b0 dc3c
00000260: 2863 d7bc f518 e3bc d1a3 a0bb 30c8 343c
00000270: 2bc1 153c cc97 e13c 5a08 cc3b ec6d 013c
00000280: 5ff0 9fbc a5c4 bbbc c965 343d 0422 f9bc
00000290: 311d 3c3c 5e33 2abd 320a 1bbd b324 0ebc
000002a0: ce38 20bd 9b00 473c 3829 efb9 b78b 94bc
000002b0: f0b4 0abd 07c8 42bc d8eb aebc edd6 c63c
000002c0: 3617 31bd 3ab9 8dbc f664 d53c 3582 1bbd
000002d0: 97e6 e4bc 7750 e7bc e003 4e3c 18f2 463c
000002e0: aa39 ec3c 0cf7 a3bb 688c 303d 1e6a 47bc
000002f0: dc7d e93c f62e f03c 3a90 18bd 441b d83b
00000300: 148c 74bc e090 18bd 3e66 f1bc 4ba3 1e3d
00000310: c65a 133c e4bf fe3c 84b7 15bc e7d6 1cbd
00000320: 43ff 943b c94a 55bc 9a12 01bd 50fd e03c
00000330: 3513 10bc 1e2f 82bc f8a1 0f3c ce7b fb3c
00000340: 7efa 8d3c 5e7f 97bc 1f8b dbbc b73a 1f3b
00000350: 47cf c33c 06d6 8abc 2fbc 033d 7daa dfbb
00000360: fca3 07bd b8d3 3e3b d60f 443b e531 e3bc
00000370: b029 30bd 657b b9bc 7316 cf3c 7c7b a5bc
00000380: 5614 0a3d df29 393c e941 9f3c 1c41 1cbd
00000390: d772 563c 21d5 b7bc 62be b93c 2636 91bc
000003a0: 2928 9bbc c634 3b3d 442b 89bb f4d2 263d
000003b0: a4a1 3f3d c29e b4bc 0008 183d d0f0 dabb
000003c0: 8f37 0fbd b5d9 ecba 9933 e43c 895a 353b
000003d0: bbdd 0cbc 026f b93c c4da ebbb 06f2 37bd
000003e0: b8d0 06bd b7a2 b73c c946 38bc 5591 d4bc
000003f0: 0625 b9bc a87f 233c 1635 a9bc ada6 883b
