legacy/results/old/basic/basic_3.pth (torch, 961553 bytes, 26 tensors)

block1.0.weight f4 [64, 1, 3, 3]
00000000: b2c2 19be a0fa 31be c7dd 75be 5e2f b53d
00000010: f011 a33e 8876 e6bd 739d 82bd 5554 8cbe
00000020: b15e 233e baa0 1a3e e35c 80be d16b 753e
00000030: 9a8c 643e 9ea5 41be d668 903e 1b9d a0be
00000040: 9467 883d 809b dbbd f1fc 5a3e a5bb a73e
00000050: 3cf1 88be 6c3c 4d3e 739f 17be e77d a83e
00000060: 1761 96bd 9880 a0be 1ebf 903d ef71 2e3e
00000070: 7e78 9a3e f52c 76be 3cf6 503e debc ea3d
00000080: ad15 803d 1dd6 5e3e bad4 29be 6a98 193e
00000090: d198 0dbe 3744 86be 5805 fabd 6b3a 2cbd
000000a0: 1169 a93e f332 f5bc 5c9c 73be 31f8 7f3e
000000b0: 28c1 75be 6f59 ee3d a195 dbbd fbd7 573e
000000c0: e790 08bd 83ad 963e 8e48 b8bd 6d67 fd3d
000000d0: 88db 003e cb69 c2bb 0189 81be 9c62 a23e
000000e0: 0e0c 3b3e 8a3a 79be 1d0a 5cbe a149 babd
000000f0: 7452 8dbe 6d38 a53d 027a 52bd f48c a7be
00000100: b033 a1be df45 3f3d fa90 a63e 9752 a73d
00000110: 948d 4e3e ee30 56be 64b1 8d3e 0fb8 98bd
00000120: b86f 70bd d4bc 923e 8f22 08be 5b08 c4bc
00000130: 7bdc c73d 3095 e83d e1c9 b0bd ff49 2bbd
00000140: 6f03 773e 9220 37be 2407 a7be f8de 5ebe
00000150: a952 fc3d a993 2cbe 01a2 a0be 2fd5 df3d
00000160: ce1c 7fbe d064 383e d5fc 1a3d cd2f 443e
00000170: f330 97bd 7b3c 24be a3c9 3b3e d41d 533e
00000180: 8593 f1bd b9e4 503e b812 84be 60bd 17be
00000190: 405b 2f3e 8c10 1e3d 8c39 243e d615 a7be
000001a0: f588 9c3d df7e 103e 7bfa d4bc e871 9c3e
000001b0: 4b1c 8dbc bd18 0abe 06ac f03d 3ba2 9ebe
000001c0: b63a 543e a9d1 44bd 555f 97bd 4a76 01bd
000001d0: e275 85be 4e0c 11be ca88 95be b48f 6cbe
000001e0: 2117 03bc fb36 b7bd 1900 dbbc 21f3 a33e
000001f0: 9000 a3be 8e0c 19bb 16f6 903c 4ecf 86be
00000200: 5323 0b3e 6ef4 4b3e ecda f7bd 9e25 bcbd
00000210: 4337 a53e 579e 413e a893 2a3e f159 10bc
00000220: cda9 853e 4e9e 673e 45a5 913e 8bee 47be
00000230: 23e0 533e a214 4f3d 2896 11be 828f 18be
00000240: f645 a53e fb17 dd3d f2f5 97be 0a4f dcbd
00000250: 91fb 9abe c8b1 fe3d 0b06 08be 3e24 613d
00000260: fa97 543e 0a0e 7b3d 18ad 20be 7f15 91be
00000270: f729 aebd 97b0 e53d ddab 243e 1ee2 923e
00000280: fb51 783d 2bd9 d6bc a07e c23c 7134 51be
00000290: 850e 7bbe 4b53 093e fd84 603e 903b 9b3e
000002a0: 8b8c 483e dca5 bdbb 1566 3e3e bba5 a73d
000002b0: bde0 0d3e 06cd 27be 0079 85be 0a58 20bb
000002c0: 6645 ecbc 3b64 923e af68 bdbd ac4c 5f3e
000002d0: 840c 29bd 40bd 7b3e eef4 f7bb e4d5 573e
000002e0: aaf7 61be fa91 93be db88 1bbe 83c4 693e
000002f0: 737f 9dbe 3cff 543e 8c20 74be 4011 2dbe
00000300: bae5 923e 2a03 c43b 257c 813e ed1c 6a3e
00000310: 9425 93be 5fa4 bb3d 1331 9a3d e45a 50be
00000320: ad75 28be 493a 53be 9bfb 583e 73d8 93be
00000330: dfc6 abbe 89d9 07bd 3536 0b3e 3794 763e
00000340: 1648 4e3c 3e37 53bd e5cf 303d 6ace 4e3e
00000350: d58a 7e3e 2baf cabd 3633 223e aef8 acba
00000360: 20e2 21be b102 833d affe 7cbe 389d cd3d
00000370: f3d5 9b3d 7191 5ebd 7c08 a13e 1561 6dbd
00000380: c56b 903e d4bd 053e d09b 763e fedf 373d
00000390: 79a0 a7be edee 9b3e 2642 0dbe 0c7e 083d
000003a0: fa6d 243e 8909 5ebe 0e73 823e 0b00 cf3b
000003b0: 1b27 753e 7fd8 04be 32a6 363e 9b0b 5c3e
000003c0: 3066 463e eb94 8abd 4146 223e 6cef c63d
000003d0: 8023 3ebe 890a 8f3e 0b9f 393e e0cb a03d
000003e0: 9cc9 80be 12bf 873e 96a7 abbe f0f4 3d3e
000003f0: f8d2 dabc cff6 72be f42e 673e c6be 8bbe
-0.15015677 -0.17380762 -0.24010383 0.08846925 0.31849623 -0.11253077 -0.06377687 -0.2740809
0.1595409 0.15100375 -0.25070867 0.2396691 0.2231926 -0.18910834 0.28204983 -0.31369862
0.06660381 -0.10723019 0.21385552 0.3276035 -0.26746547 0.2004258 -0.14806919 0.32908556
-0.07342737 -0.3134811 0.07067703 0.1703565 0.30170053 -0.24040587 0.20406431 0.11461805
0.06254134 0.21761365 -0.16585055 0.14999548 -0.13827826 -0.2622392 -0.122080505 -0.0420479
0.33087972 -0.029931521 -0.23790115 0.24997021 -0.23999465 0.11638152 -0.10721899 0.21078484
-0.033341315 0.29429254 -0.08998214 0.123732425 0.12583745 -0.0059330217 -0.25299838 0.31715858
0.18266317 -0.24338737 -0.21488233 -0.09096075 -0.2760197 0.08067403 -0.051385887 -0.32724726
-0.31484747 0.046697494 0.32532483 0.0817005 0.20171195 -0.20917103 0.276744 -0.074569814
-0.058700293 0.2865969 -0.13294433 -0.023929765 0.0975885 0.1135658 -0.08632255 -0.041818615
0.24122404 -0.17883518 -0.32622635 -0.21764743 0.12320454 -0.16853203 -0.313736 0.109293334
-0.24913332 0.18007207 0.037838776 0.1915886 -0.07382383 -0.16038696 0.18338637 0.20616847
-0.11795715 0.20399751 -0.2579553 -0.14818335 0.17124653 0.03859 0.16037577 -0.32633847
0.0764331 0.14110897 -0.025998345 0.30555654 -0.017225405 -0.13486 0.11751561 -0.30983147
0.20725521 -0.04805151 -0.0739123 -0.03160695 -0.260665 -0.1416485 -0.29205924 -0.23101693
-0.00800112 -0.089460336 -0.026733445 0.3202143 -0.31836367 -0.002335343 0.017695468 -0.26330036
0.13587694 0.19917461 -0.12102303 -0.091868624 0.32268724 0.18908058 0.16657889 -0.008810506
0.2610611 0.22618982 0.28446403 -0.1952459 0.2069097 0.050556786 -0.14217436 -0.14898494
0.32279938 0.107955895 -0.2967983 -0.10757263 -0.30270055 0.12436253 -0.13283555 0.054966204
0.207611 0.061292686 -0.1569103 -0.28336713 -0.08504098 0.112153225 0.16081186 0.2868814
0.060625058 -0.0262266 0.02374202 -0.20430161 -0.24517258 0.1341068 0.21925731 0.3031888
0.19584863 -0.0057875942 0.18593629 0.081859075 0.13855262 -0.16386804 -0.26068878 -0.0024466538
-0.028841686 0.28592095 -0.092484824 0.21806592 -0.0412717 0.24583912 -0.0075670397 0.21077687
-0.22067133 -0.2882231 -0.15188925 0.2282887 -0.307613 0.20800489 -0.2384054 -0.16901112
0.28690892 0.0059818225 0.25290027 0.22862597 -0.28739607 0.09162211 0.075288914 -0.20347172
-0.1645114 -0.20627703 0.2118973 -0.28876075 -0.33550164 -0.033166442 0.13594897 0.24079977
0.012590429 -0.051566355 0.043167014 0.20195928 0.24857648 -0.09896692 0.15839848 -0.0013196671
-0.15808916 0.06396998 -0.24706529 0.10039753 0.07609167 -0.054337922 0.31451786 -0.057953913
0.28207222 0.13060695 0.24082875 0.04489135 -0.32739618 0.30455723 -0.13794765 0.033323333
0.16057578 -0.21683325 0.25478405 0.006317144 0.23940699 -0.12973212 0.17836836 0.21488802
0.19374919 -0.06766685 0.15847112 0.09713635 -0.1856823 0.27937725 0.18127076 0.07851386
-0.25153816 0.26512963 -0.33526295 0.18550467 -0.026711926 -0.23726963 0.22576505 -0.27293986

block1.0.bias f4 [64]
00000000: ab2c 823e 3b29 a2be 08df 063e fb1e 0c3e
00000010: d097 89be 9780 83bc a0ad 793d 1505 40be
00000020: b0cf 863d 8f49 b4bd 6403 13be e7f3 fabd
00000030: 700e 63be 90c0 96be c04d 6e3e 02be e03d
00000040: 044c 423d 88ab 703e 25da 1fbe 86a9 78be
00000050: 64af 0cbb 3d93 1b3e 0fc0 d23d 335d 883e
00000060: 9a1d 07bc 5271 723e d79f 90bd e502 f43d
00000070: d6cd d53d 07e1 9d3e 5eaf 83bc 1290 1d3e
00000080: 6b0e 62be 2fe1 993e 0f8e 44be 22bf 9fbd
00000090: 0c15 2c3d d008 583e f1a9 44be 4df5 943e
000000a0: d0b6 88be d759 08be 5ebd 8e3e 509c 1cbe
000000b0: 66a1 633d 7834 8bbe 19f6 8dbe fb33 94be
000000c0: 11a7 0f3e 7103 153e 80f2 e6bc 0a25 4a3d
000000d0: 9a9e a53e fc63 c93b b57f 3dbe 44e5 7a3d
000000e0: 41d2 81be c411 61be 8896 34bd 4a32 04be
000000f0: 4f30 a43e 6e18 c4bd 38b8 273e fe31 463d
0.25424704 -0.3167208 0.13171017 0.13683693 -0.26873636 -0.016052527 0.060956597 -0.18751939
0.06582582 -0.08803093 -0.14356762 -0.12253552 -0.22173476 -0.2944379 0.23271847 0.10973741
0.047435775 0.23502934 -0.1561056 -0.24283418 -0.0021466846 0.15192886 0.102905385 0.26633605
-0.008246804 0.23676041 -0.07061737 0.119146146 0.10439651 0.30835745 -0.016074833 0.1538699
-0.22075813 0.30054614 -0.19194816 -0.078001276 0.04201226 0.21097112 -0.19205453 0.290934
-0.26701975 -0.13315521 0.2787885 -0.15294003 0.055573843 -0.27188468 -0.2772682 -0.28945908
0.14028575 0.14552094 -0.028191805 0.04935173 0.32347566 0.0061459523 -0.18505748 0.0612538
-0.25355724 -0.21979433 -0.04408887 -0.12909809 0.32068107 -0.09574972 0.16378868 0.04838752

block1.1.weight f4 [64]
00000000: 1a44 7f3f 0312 803f 5e9c 7f3f 376d 7f3f
00000010: 6f89 7f3f 05fb 7f3f 42ee 7e3f 5875 803f
00000020: 5493 7f3f 0d66 7f3f 000e 803f 15c2 7f3f
00000030: 900f 803f d263 7f3f 57cf 7f3f bc67 7f3f
00000040: 36c2 803f 8b21 803f 94d6 7f3f 11a4 7f3f
00000050: 1aaf 7e3f ad03 803f 51cf 7f3f e1d7 7f3f
00000060: 6dc0 7f3f 9565 7f3f aa1a 7f3f ca15 803f
00000070: 55a1 7f3f 69c4 7f3f fe69 7f3f 1655 7f3f
00000080: bc8a 803f 7d8a 803f b2d5 7e3f c0b4 7f3f
00000090: c482 7f3f 20db 7f3f 6733 803f 4a86 7f3f
000000a0: ae06 803f 8f9c 7f3f a4a0 803f 3f8c 7f3f
000000b0: 3b70 803f 2a9d 7f3f 2815 803f 8327 7f3f
000000c0: 9d2a 803f 35c9 7f3f 4e54 803f fedf 7f3f
000000d0: fc2b 803f 3f21 803f a480 7f3f 716f 7f3f
000000e0: c99b 7f3f 2516 803f a185 803f a937 803f
000000f0: 8748 7f3f 2013 803f ba02 803f 7d5d 803f
0.9971329 1.0005497 0.9984797 0.99776024 0.9981908 0.999924 0.995823 1.003581
0.9983418 0.9976509 1.0004272 0.9990552 1.0004749 0.9976169 0.9992575 0.9976766
1.0059268 1.0010237 0.99936795 0.9985972 0.99485934 1.0001122 0.99925715 0.9993878
0.99902993 0.99764377 0.9965006 1.000665 0.9985555 0.99909073 0.99771106 0.99739206
1.0042338 1.0042263 0.99544823 0.9988518 0.9980891 0.99943733 1.0015687 0.99814284
1.0002038 0.99848264 1.0049024 0.99823374 1.003425 0.9984919 1.0006456 0.99669665
1.0013005 0.9991639 1.0025728 0.9995116 1.0013423 1.0010146 0.99805665 0.9977942
0.99847084 1.0006758 1.004078 1.0016986 0.9972004 1.0005836 1.0000832 1.002853

block1.1.bias f4 [64]
00000000: 2117 c8ba 99d9 62bb 869e 73b9 27b6 de38
00000010: 3fd2 88ba 3506 b439 8abe 43bb 13d1 953b
00000020: 33bf 2fbb ba18 b3bb 925f e23a 4ecd 8fba
00000030: 14d7 913a a131 d539 2fb3 643b 783b 433a
00000040: dd36 8d3b 7b8c 493b 47cc 6b3a a446 633a
00000050: c7cc 4cbb e68b d5ba d668 92ba 2fea f3b9
00000060: deee d4b9 8564 54bb f291 c3ba 8c38 17bb
00000070: 4b7d 47bb ba37 27bb 55c2 61bb dc19 bf3a
00000080: 7300 ed3b a1e0 533b e114 073b b7c0 8cba
00000090: a8ad c0bb 460b 293a 0ab7 c9bb fbe6 26bb
000000a0: b739 8fba 1e14 f93a 96e2 b23b 7284 49bb
000000b0: 03ab 0e3b ada6 17bb 6a76 a83a f462 3dbb
000000c0: 2c5a c939 2b73 cf3a 112f 2c39 2501 61bb
000000d0: 6925 023b 4c93 1a3b 631b 5fbb e5ff 09bb
000000e0: 56a7 ebba f547 3db8 e29a 673b eab8 b8b7
000000f0: 3bdd 293a 2386 423a f1c2 c4ba e9de ee3a
-0.0015265682 -0.0034614562 -0.0002323334 0.000106197134 -0.0010438635 0.000343369 -0.0029868209 0.0045720427
-0.0026816844 -0.005465594 0.0017270914 -0.001097122 0.001112672 0.00040663502 0.003489684 0.0007447521
0.0043095187 0.00307539 0.0008994978 0.0008669889 -0.0031249986 -0.0016292303 -0.001117016 -0.00046523052
-0.0004061376 -0.0032408547 -0.0014920814 -0.0023074476 -0.003043967 -0.0025515393 -0.0034448106 0.001457985
0.0072327196 0.0032329934 0.002061181 -0.0010738586 -0.0058800764 0.0006448518 -0.006155853 -0.0025467265
-0.0010927235 0.0019003188 0.00545914 -0.003074911 0.0021769411 -0.0023140118 0.0012852673 -0.0028898092
0.0003840489 0.0015827169 0.00016420732 -0.0034332958 0.0019858724 0.002358633 -0.0034043423 -0.0021057066
-0.0017978947 -4.5128127e-05 0.003534012 -2.2020617e-05 0.0006479804 0.00074205006 -0.001501171 0.0018224391

block1.1.running_mean f4 [64]
00000000: d5e4 413d 12d9 89be 4ad1 933e 0611 043f
00000010: f69f fdbe 3df5 8e3e e6e0 46be c41d 3bbe
00000020: 167a 803e 704a 12bf 59ee 36bd 57af 723d
00000030: 7fde f4be 813c 29bf cf96 fb3e 60c7 b63e
00000040: a97d 1c3d 373a 973e af74 023e 2aba 23be
00000050: 492e 20be 2ecd a73e acd1 8bbe 51f8 1d3f
00000060: 9de1 103e 2000 b03e ce2f d53e fbcd 873e
00000070: a74e c1bd a63d e4bd 330b 8d3e 5dd7 2ebd
00000080: eb49 68be a087 893e f5c1 a53e b9af 5b3d
00000090: 2b5d 0abd 272c 153f 0aae 10be 3205 da3d
000000a0: 8e0b 03bd a56c 743e 7f93 9e3e f21d 92be
000000b0: 4fae 663b 84d5 bdbe c2eb 00bf 879a 09bf
000000c0: 5567 6c3e 5935 013e 574d 6b3d e819 d2bd
000000d0: 3d84 353e b48d 72be 4613 99bc 82fd ae3e
000000e0: 1d0c 19be 233a 0dbf df17 24be 85fc 85bd
000000f0: b48f e93e eb4d ce3e 1f85 103f 7440 c23d
0.04733737 -0.26923424 0.28870612 0.51588476 -0.49536103 0.27921477 -0.1942173 -0.18273073
0.25093144 -0.5714483 -0.0446609 0.05924925 -0.47826 -0.66107947 0.49138495 0.35698986
0.038205776 0.29536602 0.12739824 -0.15988985 -0.15642656 0.32773727 -0.27308404 0.61707026
0.14148565 0.34375095 0.41638035 0.26524338 -0.0943883 -0.11144571 0.27547607 -0.042685855
-0.22684447 0.26861286 0.3237454 0.05363438 -0.03378026 0.58270496 -0.1412889 0.10645522
-0.03199344 0.2386957 0.30971906 -0.2853847 0.003519911 -0.37076962 -0.5035974 -0.53751415
0.23086293 0.12618007 0.057446804 -0.102588475 0.17726226 -0.23686868 -0.018685948 0.34177786
-0.14946027 -0.55166835 -0.16024731 -0.06542305 0.4561745 0.40293822 0.56453127 0.0948495

block1.1.running_var f4 [64]
00000000: 2674 953c cb1b f63a ac88 3c3c 8524 783d
00000010: 57ba b23c b62c 153d 30b8 e73c f160 593a
00000020: 418b 6e3c d1aa cb3d 0a09 973b 0a6a 673c
00000030: 0785 e23c 5a6c 6b3d c804 ee3c 6e8e dc3c
00000040: f9a9 9a39 b57e 1e3b 0090 0c3d ca4e 573b
00000050: ac77 2e3c 647e 5f3c 0468 723d b403 543d
00000060: 58c7 2c3c 8b45 b13b 40b1 cb3d 3d53 173c
00000070: 5547 8a3c 05be 963d b5ab 153d d2f0 873c
00000080: a3d5 9a3a b1b7 813a 35e7 e33d a06f 0b3c
00000090: 5ddd 6a3b 7392 6e3d 9561 033b f7a6 873c
000000a0: 86c7 bf3c 176d 6e3d 5aa9 3a3b 66df 093c
000000b0: 78de b03a 1b16 b13b 3e43 b73c 7ddb d33c
000000c0: 7f5f 7f3b 5450 923a 98bd 5e3b 3979 213c
000000d0: f95d 1c3c 99ba d23c d2a2 4d3c db9e 073d
000000e0: 3c15 d53b 7811 403d c513 003c 9c0a 883b
000000f0: 16a5 0c3c 0341 d53d f459 893d d873 da3a
0.01824386 0.0018776593 0.0115071945 0.060581703 0.02181737 0.036419593 0.02828607 0.00082923385
0.014559568 0.0994469 0.004609232 0.014124403 0.027651323 0.05747638 0.029055014 0.026923385
0.00029499808 0.002418441 0.034317017 0.0032853358 0.010648649 0.013640974 0.05918123 0.051761344
0.010545574 0.0054099015 0.09945917 0.009236154 0.016879717 0.07360462 0.036540706 0.016594324
0.0011812936 0.0009896663 0.111280836 0.0085105 0.003583751 0.058245134 0.0020047177 0.016559107
0.02341057 0.058209505 0.002848229 0.008415079 0.0013494035 0.0054042465 0.02237093 0.025861496
0.0038966832 0.0011162856 0.0033987518 0.009855562 0.009543889 0.025723742 0.012551026 0.03311048
0.0065027755 0.04689166 0.007817213 0.0041516554 0.008584281 0.104127906 0.0670661 0.0016666604

block2.0.weight f4 [64, 64, 3, 3]
00000000: b91e d23c 535d 1bbd 63da 013d a717 a43c
00000010: ab88 8a3c 2260 e13c befe 08bc a4d4 69bc
00000020: 610d d73a 5f1a b2bc ebf1 30bd 70b3 db3c
00000030: 009f b8ba 6d08 99bc b6b1 dcbc aac6 06bd
00000040: 9a8a f63b 8743 aabb fa02 18bd 232b 8c3b
00000050: c380 bcbc 74c9 dabc e0ba f43b f378 f539
00000060: 4360 eebc a556 d0bb 3003 90bc 25ce 0d3d
00000070: 167e 0fbd 0a84 9fbc 3bde acbc 6466 be3c
00000080: 0fca d2bb ef5f 1d3b cbde 03bd 58db 043d
00000090: 4977 12bd fc43 a7bc 78dd 0fbd 3c8d c0bc
000000a0: cdaf 8b3c a26b 293c 623e 4bbc 4700 793c
000000b0: cd38 253c 0b69 943b 1de8 f03b 0c90 21bd
000000c0: 52c4 dd3c 903b 0d3d 2bb5 103d 65fa 023d
000000d0: 0288 d9bc 2e47 66bb 60f3 4a3c b55e 20bd
000000e0: f707 543c d66a 80bb 2cf4 39bc ec55 0bbc
000000f0: b23e 17bd 4980 173d b7ca 14bd 80f0 173d
00000100: 18a6 febc 0c28 173d 5531 4c3c db74 923b
00000110: c1bf d93b 5085 013c 4c4d 723b b953 aeba
00000120: c55b 39bc 530d 87bc a7e4 103d 341e 173d
00000130: a326 f23c f51d e0bb 2edc c93c b67c 1d3c
00000140: 2848 263d e10b 2abd 0b3c c1bc 63f8 6d3c
00000150: f3b0 a8bc d4d2 18bd 091a bf3c 10cf adbc
00000160: 3609 a4bb eab3 84ba 743a 29bd ce39 2cbc
00000170: 5869 1e3d 2e4a a93b 2b72 203d 5296 243d
00000180: 5d47 483c b868 b83c 5645 f63c 4702 4d3c
00000190: 940f 1fbc 0c5e 05bb 3209 5dbb 9fb4 73bc
000001a0: 48e9 693b bc35 243d f1cb a4bc 311f b43c
000001b0: 857b 51bc 7898 203d 8965 04bd 38e7 b03c
000001c0: f111 013d 29ea cbbc 3ef4 84bc 465b c13c
000001d0: d147 303c 3ef7 a3bc 80e9 0cbd d621 333b
000001e0: e9ac 6839 cf05 213b c67c cab9 e3e5 ce3c
000001f0: a5a3 c43a b99e bfbc d839 853c 7ef2 103d
00000200: e898 edbc 9ffa 403b e9b7 a73c 62c1 dbbc
00000210: bb1d 46bb e2ae a23c e408 1b3c 3219 29bd
00000220: 7d59 31bb 39c5 0cbc 8a44 89bb f92e a03b
00000230: e885 0f3d 9cc4 22bd 7280 de3c 92de 54bc
00000240: 9c63 663c 262c 0cbc 9623 5f3c f00e e1bc
00000250: e623 fabc 61b8 dc3a ff95 253d c3ff 9f3b
00000260: a1f8 393c bbbd c13c 2daa 15bd c90b 87ba
00000270: 72cf d2bc 9551 ed3c 0c1e b53b ddd6 93bc
00000280: a9ed 1f3d 172b e4bc bb8b febc 49c6 0b3d
00000290: d21a e1bc 6860 463c b2ac af3b 4821 143d
000002a0: 0477 d5bc 87a1 c73c 5b2e 9b3c 0e5a 9f3c
000002b0: 53f8 96bc cde4 f1bc a6e8 3bbc 1f83 41bc
000002c0: b944 ebbc 3f40 53bc fac0 bfbc 45d4 09bd
000002d0: 723a 403a 8ef7 e0bc 2967 4d3c b2c9 77bb
000002e0: 9751 ccbc 6f59 8e3c 30b0 d7bc d32b 8a3c
000002f0: b029 d6bc 7e8f 1ebd bd30 ccbc 0d57 173d
00000300: c39d b93c 5e54 9ebb 62c4 04ba e874 c53c
00000310: ad63 af3c 11ca 86bc 73f7 793c 4fc8 ff3b
00000320: 28b7 cb3c 3293 2dbd 8f96 27bd dd58 a63c
00000330: 1edf 123d 5ddf 24bd 74ca 25bb 731d bb3c
00000340: b4ec 053d 99b0 e2bc b0cf 89bc f558 483c
00000350: 0768 8c3c 359c 033d c619 5e3c 5458 debb
00000360: dfd0 e9bc 2c4e 2e3c 5182 7abc ced1 0dbd
00000370: 828d 183d cd48 a63b 8199 19bb ed26 f03c
00000380: 8b81 733c 99cd a13c f383 8c3c 2760 e73a
00000390: 2331 c13c 89ac 1bbd 2b2c 79bc 323a f0bc
000003a0: 847d 0ebd 5d47 15bd ada9 b1bc 81c8 bcbc
000003b0: d60f 953c 2b80 ae3c 74ca e83c 7b76 11bd
000003c0: 5415 213d 2196 86bc 301b 9bbc b0e8 09bd
000003d0: c83a 9abc 209b 293d 1db8 0d3a c715 233d
000003e0: 6abc e03c 2f56 373d 385b 383c 9dc2 7c3b
000003f0: 6140 acbc d724 99bb 9f07 55bc d829 ddbc
0.025649415 -0.037930798 0.03170241 0.02003081 0.016910871 0.02751166 -0.0083615165 -0.014271889
0.0016407185 -0.02174109 -0.04319946 0.02681896 -0.0014085472 -0.018680776 -0.026940208 -0.032904305
0.007523847 -0.005196038 -0.037112214 0.0042776032 -0.023010617 -0.026707388 0.0074685663 0.00046820156
-0.029098636 -0.006357985 -0.017579645 0.034620423 -0.035032354 -0.01947214 -0.021102061 0.023242183
-0.0064327787 0.002401348 -0.032194894 0.032435745 -0.03575829 -0.02041816 -0.03512332 -0.023504846
0.017051602 0.010340603 -0.01240501 0.01519782 0.010084343 0.0045291237 0.007351889 -0.039444014
0.027071152 0.03448063 0.035329025 0.031977076 -0.026554111 -0.0035137641 0.012387127 -0.03915282
0.012941352 -0.003918986 -0.011349719 -0.008504372 -0.036925025 0.036987577 -0.036326136 0.037094593
-0.031085059 0.036903426 0.012462934 0.0044694967 0.0066451733 0.007905319 0.0036972342 -0.0013300098
-0.0113133835 -0.016485846 0.03537431 0.03689404 0.029559439 -0.0068395087 0.024641123 0.009612253
0.040596157 -0.041515235 -0.023588201 0.014524552 -0.020592188 -0.037310436 0.023327844 -0.0212169
-0.005005981 -0.0010124419 -0.04131551 -0.010511829 0.038674682 0.0051663136 0.03917138 0.04018242
0.012224046 0.022510871 0.030062359 0.01251275 -0.009708304 -0.0020350246 -0.0033727405 -0.014874606
0.0035692025 0.040090308 -0.020116778 0.02198753 -0.012785797 0.039207906 -0.032323394 0.021594629
0.03151125 -0.02489193 -0.016229745 0.023603093 0.01075931 -0.020015355 -0.03440237 0.00273334
0.00022189658 0.0024570113 -0.00038621406 0.025256103 0.0015002383 -0.023391115 0.016262934 0.03538751
-0.029003575 0.0029446257 0.020473437 -0.02682561 -0.0030230123 0.019858781 0.009462569 -0.041283794
-0.0027061396 -0.008591943 -0.0041890787 0.004888412 0.035039812 -0.039738283 0.027160857 -0.012992518
0.014061835 -0.008555448 0.013619324 -0.027472943 -0.030534696 0.0016839617 0.04042625 0.004882784
0.011350782 0.02365004 -0.036539245 -0.0010303195 -0.025733683 0.028969565 0.0055272635 -0.01804679
0.03904501 -0.027852578 -0.031072488 0.034124646 -0.02747861 0.012107946 0.005361163 0.036164552
-0.026057728 0.024369014 0.018943002 0.019452121 -0.018428957 -0.029528046 -0.011469042 -0.011811047
-0.028719293 -0.012893735 -0.023407448 -0.0336497 0.0007332928 -0.027461793 0.012536802 -0.0037809429
-0.024941249 0.01737663 -0.02632913 0.0168666 -0.026142925 -0.038711064 -0.024925584 0.036948252
0.022658234 -0.0048318347 -0.0005064664 0.024103597 0.021409834 -0.016453775 0.01525675 0.007805861
0.02486761 -0.042376705 -0.04091507 0.020306045 0.035857312 -0.04025208 -0.0025297673 0.02284119
0.03269644 -0.027672099 -0.016822666 0.01222824 0.017139448 0.032131393 0.01355595 -0.006785432
-0.02854198 0.010638755 -0.015289859 -0.034623913 0.037244327 0.0050745965 -0.0023437443 0.029315436
0.014862428 0.019751357 0.017152762 0.0017652557 0.023583 -0.03800634 -0.015208284 -0.029324625
-0.03478767 -0.03644501 -0.021687353 -0.023044826 0.018196028 0.02130135 0.02841685 -0.035513382
0.03932698 -0.016429009 -0.018933862 -0.033669174 -0.018826857 0.041407704 0.0005406158 0.03981569
0.027433593 0.044759925 0.011252217 0.0038568147 -0.021026792 -0.004673581 -0.013002305 -0.026997492

block2.0.bias f4 [64]
00000000: b20f c93c f54f 72bc a576 a13b d704 d7bc
00000010: 04c8 c5bc 7b82 973c 2f8b ddbc 905a 2f3c
00000020: 9db5 db3c 0b2b 64bc 4bc6 dd3c b22f eabb
00000030: 3e9b 773c 27c6 6a3c 19d0 53ba 7a3b c63c
00000040: 3d44 fcbc 2627 1abd b3f1 b53c 7b23 1fbc
00000050: 2442 17bb 69df cb3c 8941 073d 3abd ff3c
00000060: be9c aebc b0f3 30bc 37c7 743c c3c2 8ebc
00000070: 82ec 92bc 7ac3 e5bb 3c2c fa3c 3e25 19bc
00000080: a064 eabc 45c6 943c 72eb c93c 2230 0ebb
00000090: 4610 dd3c e538 edbc c64b 4bbc 3963 1abd
000000a0: d0fa 1e3b 912a b3bc b41a e33c 02a6 f23c
000000b0: 0701 f43c 11fb 0f3d 9644 033d 059b 04bd
000000c0: eb01 30bc 576d a3bc faf6 103d 63a5 97bb
000000d0: ba5d 8abc 1f14 853c 884d ebbc 744c 1bbd
000000e0: 3a19 263d cc9c ff3c a60a 10bd 1370 573c
000000f0: 8576 a83b ede8 e43b e11d af3c e802 213d
0.024543617 -0.014789571 0.0049274736 -0.026247425 -0.024143226 0.018494835 -0.027043907 0.010702744
0.026819998 -0.013926278 0.027072093 -0.007146799 0.015112696 0.01432947 -0.000808002 0.024198283
-0.030794257 -0.03763499 0.022209978 -0.009713049 -0.0023080194 0.024886804 0.033021484 0.03121816
-0.021314975 -0.010800287 0.014940075 -0.017426854 -0.017935041 -0.007011828 0.03053867 -0.009347258
-0.028612435 0.018160949 0.024648402 -0.002169617 0.026985299 -0.028957793 -0.0124082025 -0.037692282
0.0024258383 -0.021870883 0.027722694 0.029620174 0.029785646 0.035151545 0.03204783 -0.0323744
-0.010742645 -0.019949598 0.035391785 -0.00462787 -0.016890395 0.016244946 -0.028723493 -0.03791471
0.0405514 0.031202696 -0.035166405 0.013149279 0.0051410818 0.0069857747 0.021376552 0.039309412

block2.1.weight f4 [64]
00000000: b1ff 7f3f abaa 7f3f 1045 803f 8dd6 7f3f
00000010: 3bc0 7f3f f95a 803f 2a62 7f3f f980 7f3f
00000020: 51d6 7e3f 691f 803f 2837 803f 40e7 7f3f
00000030: 441b 803f 839c 7f3f 4bab 7e3f 600d 803f
00000040: 679c 7f3f d1b1 7f3f 5236 7f3f 6304 803f
00000050: 0f89 7f3f c296 7f3f 5f1c 803f 7fd3 7f3f
00000060: 8d68 7f3f b3a9 7f3f a267 803f 0508 803f
00000070: 280a 7f3f 7340 7f3f 4585 7f3f de1d 803f
00000080: 7d41 7f3f d229 803f b514 803f f79d 7f3f
00000090: 87d0 7f3f a92d 803f 364d 803f d302 803f
000000a0: 979c 7f3f fbfe 7f3f 9da9 7f3f 0a6c 7f3f
000000b0: 0462 803f 0ed2 7e3f 0686 7f3f b4aa 7f3f
000000c0: 31b9 803f ba05 7f3f 1980 803f 73cc 7f3f
000000d0: 66b9 7f3f d1db 803f cfd3 7f3f bffd 803f
000000e0: ae8b 7f3f ec36 7f3f 1281 803f b3f9 7e3f
000000f0: c521 803f 8444 803f 07e0 7f3f a761 803f
0.9999953 0.99869794 1.0021076 0.99936754 0.99902695 1.0027763 0.9975916 0.9980617
0.9954577 1.0009586 1.0016832 0.99962234 1.0008321 0.9984819 0.9948012 1.0004082
0.99848026 0.998807 0.9969226 1.0001339 0.9981851 0.99839413 1.0008658 0.9993209
0.99768907 0.99868315 1.0031626 1.0002447 0.9962487 0.99707717 0.9981273 1.0009115
0.997093 1.0012763 1.0006319 0.9985041 0.9992756 1.0013934 1.0023563 1.0000862
0.9984831 0.99998444 0.99868184 0.9977423 1.0029912 0.9953927 0.9981388 0.9986985
1.0056516 0.99618113 1.0039092 0.9992134 0.9989227 1.0067083 0.9993257 1.0077437
0.9982251 0.9969318 1.0039389 0.9959976 1.0010306 1.0020909 0.99951214 1.0029801

block2.1.bias f4 [64]
00000000: c789 523a e431 5ebb 550c 38bb 9bfd e8bb
00000010: 5340 c6bb 6ac8 c6ba 8173 86ba 7f26 4738
00000020: 357a c0bb cf37 9bbb 8f91 21bb 9261 cbba
00000030: 3434 1ab9 7adf 56ba d420 4cbb b2b6 503a
00000040: ee53 c7ba d5c5 85bb 3446 96bb de0d 9eb9
00000050: 7fac 50ba eb05 faba 04cb 04bb da07 43b9
00000060: 32ad 67bb f60b 023b 2241 7ebb 88b6 3cbb
00000070: eff8 a2bb fa89 5abb cfd8 79bb 1349 233a
00000080: 0aae 99bb 6e7c ecba b5bf 45bb 1856 67bb
00000090: 3f1e cd3a 3959 c539 c47e 253b f451 4bbb
000000a0: 77a9 76bb 28b8 d5ba e723 dcba bda6 76bb
000000b0: 5e28 8dba a66d 69bb 850b 0bbb adb4 173a
000000c0: 9bb9 883a f2a4 24bb ed82 53bb 152b 93bb
000000d0: 5413 4d39 7162 253a 892b b8ba 3f07 803b
000000e0: b60b b3b9 103e 07bb 0d77 423a 0d88 6ebb
000000f0: 860a cdbb 8040 5b38 c7f8 dfba b8a4 93bb
0.00080313947 -0.003390425 -0.0028083522 -0.0071103103 -0.0060501485 -0.0015165929 -0.0010257812 4.748115e-05
-0.005873943 -0.0047368775 -0.002465341 -0.0015516749 -0.00014706032 -0.0008196753 -0.0031147497 0.0007961794
-0.0015207508 -0.0040824213 -0.0045860056 -0.0003014644 -0.0007960274 -0.001907525 -0.0020262608 -0.00018599574
-0.0035351035 0.0019843555 -0.0038796146 -0.002879532 -0.004973523 -0.00333464 -0.0038123613 0.00062288455
-0.0046899365 -0.0018042454 -0.003017408 -0.0035299119 0.0015649273 0.00037641244 0.002525256 -0.003102419
-0.003763763 -0.0016305493 -0.0016795368 -0.0037636005 -0.0010769477 -0.0035618334 -0.0021216583 0.00057871157
0.0010431291 -0.002512273 -0.0032274083 -0.0044912198 0.00019557524 0.00063089194 -0.001405106 0.003907114
-0.00034150266 -0.0020636357 0.00074182526 -0.003639701 -0.006257358 5.227374e-05 -0.0017087691 -0.00450572

block2.1.running_mean f4 [64]
00000000: 72fc 37be e104 babe c6d9 86be 37df 013e
00000010: 8e49 183e 06c5 f4be cec6 76be b3ac a13e
00000020: 4d6f 013f 5fbf c3bd 51d6 44be e798 9bbd
00000030: b0ee f63c e90d 63be 9916 2a3f 451d 35be
00000040: 2a60 02bf 740b a83e 66e9 f4be c536 b7bd
00000050: 11ca 7abf 4309 113e 5092 b0be 516b 973d
00000060: 9c0d 40be 7a58 1cbf 9fb2 f33d d843 dabe
00000070: 14a2 c03d 8699 f13e f78a adbb fe45 52be
00000080: 987b db3e dc9f 3c3f 3465 51be 817e 053f
00000090: a1cf 5e3d 8697 88be 7c36 24bd 1be3 81bd
000000a0: afc3 b43e 17d9 f13e bbd0 febe 5bac 85be
000000b0: 9c4c 503e 42d2 d8be 4a61 c9be 6a29 30be
000000c0: b8b7 cfbc fb1b 4c3e 36ca 373e 34c6 b1bd
000000d0: ee0b 90be 9db3 5e3e 3a02 42be 2c33 fe3d
000000e0: 6403 d7be 2f08 9bbe 8492 d0bd b635 c9b9
000000f0: ccc5 123f 9749 063f cd54 b83e 0a45 22be
-0.17967394 -0.36331847 -0.26338023 0.12682806 0.14871809 -0.47806567 -0.24099275 0.31577072
0.50560457 -0.095579855 -0.1922238 -0.07597523 0.030143112 -0.22173275 0.6644073 -0.17686947
-0.50927985 0.32821238 -0.4783432 -0.08945993 -0.9796458 0.1416369 -0.34486628 0.07393516
-0.18755192 -0.61072505 0.11899304 -0.42629886 0.09405914 0.47187442 -0.005296107 -0.20534512
0.42867732 0.73681426 -0.20448762 0.52146155 0.05439723 -0.26678103 -0.040091023 -0.06342145
0.35305545 0.4723594 -0.49768624 -0.2610806 0.20341724 -0.42347914 -0.39332038 -0.17203298
-0.025356159 0.19932549 0.17948231 -0.08680382 -0.28134102 0.21748205 -0.18946162 0.12412104
-0.41994774 -0.3027968 -0.10184196 -0.00038377725 0.57333064 0.5245604 0.36002198 -0.15846649

block2.1.running_var f4 [64]
00000000: a770 b83d 4874 393e 666b 373e a039 2c3d
00000010: aff6 1a3e 29de c93d dbcb 403f d9e2 853e
00000020: 9bb5 f23d 2550 953e a6e2 063e 982e 583e
00000030: 1789 153e 10c4 983d 200e 353e bd68 3c3e
00000040: 643d 093f 2e5a f43d af7a f53d 0d0f af3e
00000050: 287e 263f 3eb1 a83e efbe a33d c9a0 353e
00000060: 7793 053f a573 343e ad3c 423d 2e88 ef3d
00000070: 92bf b23e 869f 2e3e 22b4 0f3e d9b7 c83d
00000080: 2222 1f3f 3f9d 763e a74c 003e 3797 0a3e
00000090: 6da8 a53d 3c47 e03d a7fc 513d c246 493d
000000a0: d7cb 3d3e 570f c63e 892a e13e a8be fc3e
000000b0: 0995 963d 8766 c73e 9b2a 323e db32 be3e
000000c0: b11c 7d3d b29e 003e e70b bd3d 10a0 2b3e
000000d0: 5a25 853e 19c2 a43d 2e3a 2a3e 0448 953d
000000e0: 00c9 593e 2e7c b83d a171 443d 5b27 143f
000000f0: c593 5a3e 82fe 4c3f dc0b b03e 908a 863d
0.09005862 0.18110764 0.17912063 0.042047143 0.15133165 0.09856827 0.7531106 0.26149634
0.11851045 0.29162708 0.13172397 0.21111524 0.14603077 0.07459271 0.1768117 0.1839933
0.536093 0.11931263 0.11986291 0.3419117 0.6503625 0.32947725 0.07995402 0.17737116
0.5217814 0.1762224 0.047421146 0.11695896 0.34911782 0.17053041 0.14033559 0.09800691
0.6216146 0.24083422 0.1252924 0.13534246 0.08088765 0.10951087 0.05126634 0.049139746
0.1853479 0.38683578 0.43977764 0.4936421 0.07352645 0.3894541 0.17399065 0.37148175
0.06179494 0.12560537 0.09230786 0.16760278 0.2600506 0.08044834 0.16623756 0.072891265
0.21268082 0.090080604 0.047959927 0.5787255 0.21345432 0.8007585 0.34384048 0.065693974

block3.0.weight f4 [64, 64, 3, 3]
00000000: f6ff fbbc 76ff e8bc 3610 a5bc 00db 893c
00000010: 9724 113d ad78 083d 77d3 9fbc 495d 373d
00000020: 1afe 15bd 454d 6dbc c397 92bc 0095 c03b
00000030: 5ac1 a7bb 793e 59bc 05a8 d03c 21ca fabc
00000040: ef62 1f3c d010 95bb bee8 a53c 4d9c 173c
00000050: 1863 98bb e62b 1d3b 8cac 20bd d8e1 40bb
00000060: 40bf e53c ca63 04bd 177a e9bb 6ac2 ccbc
00000070: 70dd 2a3a a1b0 bcbb 83bc 153d d908 b7bc
00000080: a97a ddbc 482e a53c f837 2c3d e58c c63c
00000090: 9ffb dfbc d4dc 17bd 4e8d 45bc e16e e2bc
000000a0: eec9 b53c bdc6 863c 634c cb3c 5760 8c3c
000000b0: 2cff 22bd cc64 d6bc b163 b5bc b90b 43bc
000000c0: fb7f 9cba ac1e 14bc fef1 933c e98f 903c
000000d0: d937 0a3d 1075 913c 3677 eabc cfdf eb3c
000000e0: 7c5b 0fbc 9577 783a 5f4c e1bc 393a f8bc
000000f0: dac4 153d 7ef2 123b 5d2d bfbc 2fbf c6bc
00000100: c70d 4dbc ff3c 9f3c 2b40 ce3c bc24 fdbc
00000110: 17f8 0b3b 88f8 0d3c 3bbe 0bbd e43d bebc
00000120: c012 88bc 5be2 54ba 887e ca3c 1140 133d
00000130: 82fe 09bd c928 1f3d f953 1fbc e27b e4bb
00000140: 42f0 183d 2a99 23ba 5f75 ee3c 663a 70bc
00000150: 5f5a 20bd 05a3 8cbc 1780 9c3c 3856 a1bc
00000160: a8d5 023d cee7 7cbc 4021 143d 7f23 38bc
00000170: 10fc c83c bd6b 723c ef21 6b3c 3970 5bb9
00000180: f359 2c3d 477a d83c fa66 f33c ce79 20bb
00000190: 20af f9bc 7d2d 57bc 2705 003b 8e25 e1bc
000001a0: f61e 963c 3618 a93c 8aec ab3c 7a61 82bc
000001b0: f474 973c d9f6 083d e772 063d 1b3d 8c3c
000001c0: 8fdd 90bb ab62 86bc 53a5 033d 41b5 a13c
000001d0: f49b a5bc baa0 b83b 1372 cebc 05f3 6bbc
000001e0: e4e3 063c aaa7 dbbc 43c6 17bd 011e 1fbb
000001f0: 3a8c bc3c 4120 edbc 4abe 4abb 0707 d6bc
00000200: 9b9b dc3c b8f4 b3bc 49b3 eb3c aabc 143c
00000210: 27b7 e93c 1f47 96bc e2cc 073d 90a1 533c
00000220: 3640 9e3b d183 963c f7c4 acba f3b2 c73c
00000230: bc54 123c da6d a73b c87a 1abd 5cbb f2bb
00000240: 4e11 b0bc 92e6 793c 5dfd a43c 2f99 0d3d
00000250: 99f5 263a d19f b63b a3db c33c 49d9 20bd
00000260: 1266 9cbc ac11 493c 516c b93c 559a 1d3c
00000270: 987c e83c ca51 953c 32c1 a13c b15a 323b
00000280: c6c0 2f3d a5ac ed3c 70a3 803c 5d33 f4bc
00000290: 8850 c63c 6cec 61bc b8c9 c0bc bd1d 1ebd
000002a0: ffeb 8e3c ae2a 223c 56b4 a83b 108b d7bc
000002b0: 6693 913c e618 303c 6181 b43c f17f d1bc
000002c0: 3e25 b13c fb1e 643c ba62 acba c29b 243c
000002d0: 5625 2cbd e462 843c 7354 5abc d608 fcbb
000002e0: f9f0 e5ba 7107 48bc c4fa 00bd 8aa1 f3bb
000002f0: bfe8 003d 2ac5 2abd a199 853c e472 d7bb
00000300: 0295 e1bc 5b57 99bc 3cfb d73c 9795 06bd
00000310: ec69 f8bc 50fe 74bb f653 e43c 38e5 033d
00000320: 8741 d63c 92d1 e23c 816c 6f3b b4fb b73b
00000330: b47a 27bc 61da 25bd c330 38bc c2bf 153d
00000340: 3ab2 0db9 51c4 f13c f450 14bc b221 97bc
00000350: 5e89 04bd 59d8 2e3d 2a76 223c 7920 50bc
00000360: 1dda 0cbc 74e3 ee3c 76b0 f23b 585e f23c
00000370: b8a8 993c 1973 10bb f317 81bc f362 8cbb
00000380: bc43 6bbc b14b db3c f6b2 8c3c c619 bbbb
00000390: 05d6 8a3c b502 1c3b b427 bb3b f972 0abc
000003a0: 81b1 2a3d 6568 713b edf1 01bd cbac 2d3d
000003b0: 3d1f 1cbd 5aff 453c fbc9 8ebc 4330 803c
000003c0: 19ab 2c3c 5a6d d5bc a2b9 f13c a5bb 2abd
000003d0: 3d32 bd3c 840b 0a3c 7d31 df3a 4410 28bb
000003e0: d147 0fbd 9f18 793c 599c 19bd 0f6a 92bc
000003f0: 775c 1fbc e551 3cbc d1d3 5c3b 64f0 bdbc
-0.0307617 -0.028442126 -0.020149332 0.01682806 0.035435285 0.03331821 -0.019510014 0.044766698
-0.036619283 -0.0144837545 -0.017894631 0.005877137 -0.005119485 -0.013259524 0.025470743 -0.03061396
0.009728177 -0.0045491233 0.020252582 0.009253574 -0.004650485 0.0023982464 -0.039227054 -0.0029431488
0.028045297 -0.03232173 -0.00712515 -0.024995048 0.0006517982 -0.0057583605 0.036556732 -0.022343086
-0.027036028 0.02016367 0.042045563 0.024237106 -0.027341662 -0.037075832 -0.012057615 -0.027640762
0.022191014 0.016452188 0.024816697 0.017135782 -0.039794132 -0.02617111 -0.022142263 -0.01190465
-0.0011939997 -0.009040516 0.018059727 0.017646747 0.033744667 0.017756015 -0.028621297 0.028793244
-0.008749839 0.00094782683 -0.027502237 -0.0303012 0.036564685 0.0022422369 -0.02333706 -0.024261085
-0.012515492 0.019438265 0.025177082 -0.030901305 0.002135759 0.0086652115 -0.034116965 -0.023222871
-0.016610503 -0.0008120888 0.024718538 0.03594977 -0.033689983 0.038857255 -0.0097246105 -0.006972776
0.037338503 -0.000624078 0.029108701 -0.014662361 -0.039148685 -0.017167578 0.019104047 -0.019694433
0.03194204 -0.015436126 0.036164522 -0.011238932 0.024534255 0.014796195 0.014351352 -0.00020927274
0.04207797 0.026425494 0.029712189 -0.0024486664 -0.030479014 -0.013133404 0.001953432 -0.027483728
0.01832531 0.020641427 0.020986814 -0.015915621 0.018488385 0.033438537 0.032824423 0.017118981
-0.004420943 -0.01640447 0.032140087 0.019739749 -0.020215966 0.0056343945 -0.02520088 -0.014401202
0.008233044 -0.026813347 -0.03705431 -0.0024279358 0.023016084 -0.028946044 -0.0030936175 -0.026126398
0.026929667 -0.021967277 0.028772013 0.009078184 0.028529717 -0.01834446 0.033154376 0.0129169375
0.004829432 0.018373402 -0.0013181259 0.024377322 0.008931335 0.005109531 -0.03771475 -0.007407589
-0.021492627 0.015252726 0.020140344 0.034569915 0.00063689944 0.005573251 0.023908442 -0.03926972
-0.01909164 0.01227228 0.022634657 0.009619315 0.028379723 0.018227477 0.019745443 0.00272147
0.042908452 0.029012987 0.015702933 -0.029809648 0.024208322 -0.0137892775 -0.023533687 -0.03860258
0.017446516 0.009897871 0.005148451 -0.026311427 0.01777048 0.010748124 0.022034349 -0.025573703
0.021624204 0.013923402 -0.0013151981 0.010046901 -0.042027794 0.016160436 -0.013325798 -0.007691483
-0.0017543129 -0.012208805 -0.03148915 -0.0074350284 0.031471964 -0.041691937 0.016308608 -0.0065749753
-0.027536873 -0.018718412 0.026364915 -0.032857504 -0.030323945 -0.0037383027 0.027872067 0.032201022
0.026154293 0.027687822 0.003653318 0.005614722 -0.010222126 -0.040491465 -0.011242094 0.036559828
-0.00013513202 0.029512556 -0.009052504 -0.018448684 -0.032357566 0.042686794 0.009915868 -0.012703055
-0.008596924 0.029161192 0.0074062897 0.029586002 0.01875721 -0.002204126 -0.01575849 -0.0042842566
-0.014359411 0.02676949 0.017175179 -0.0057098595 0.016947756 0.0023805324 0.00571152 -0.008450263
0.041673187 0.0036835906 -0.03172486 0.042401116 -0.03811573 0.012084806 -0.017430296 0.015648013
0.01053884 -0.02605312 0.029507462 -0.041682858 0.023095245 0.008425597 0.0017028298 -0.002564446
-0.0349806 0.015203624 -0.03750262 -0.017872838 -0.009726635 -0.011494135 0.0033695588 -0.023185916

block3.0.bias f4 [64]
00000000: b4c0 983b 38ae 6038 5a20 fdbc e2eb b3bc
00000010: cd5b 0c3d 8ec2 a73b 1db5 15bd 6294 07bd
00000020: 2814 0fbd b0bb 17bd 6781 84bc 1a07 94bb
00000030: 4cf9 ce3c de84 05bd cab0 0d3d 38ef fdbc
00000040: fe8d 933c e793 03bc b3ea 91bb f1d6 15bd
00000050: 1ce5 843c a4c4 bbbc 4fb4 0fbd aab4 ec3c
00000060: 3347 97bb bfb8 eabc 5fea 8b3c 90c2 88bc
00000070: 3be6 2c3c 8165 fdbc b568 cc3c 4612 b0ba
00000080: 5ee6 d438 8934 25bd 6b03 ad3c 4758 02bc
00000090: 7bae 163d bbe4 a2ba b273 04bd 5286 c4bc
000000a0: 853a 1a3c 538e 0ebd eb7e a8bc 6ccc 49bc
000000b0: c8af a8bc af9d afbc c261 f1bc 60fa c63c
000000c0: 8c51 483b 74af 9fbc 217c 133c 605b 14bd
000000d0: 73e6 80bc 6e7d fcbb 7a05 f4bc 41ba fcbb
000000e0: 893d 143d 335b 3e3b 4166 eabc 5bc7 09bd
000000f0: 1ae5 103c 82c0 e7bb e1f5 b73c d45e b93a
0.004661644 5.3568016e-05 -0.030899215 -0.021963064 0.034267236 0.0051196283 -0.036549676 -0.033100493
-0.034931332 -0.037044227 -0.016174985 -0.004517448 0.025265358 -0.032597415 0.034592427 -0.030997857
0.018012043 -0.008030868 -0.004453027 -0.036581937 0.01622253 -0.022920914 -0.035084065 0.028894741
-0.004616642 -0.028652547 0.01707953 -0.016694337 0.010552938 -0.03093219 0.024952272 -0.001343318
0.00010151857 -0.040333305 0.021119794 -0.007955617 0.03678749 -0.0012427786 -0.0323369 -0.02398983
0.009413366 -0.0348037 -0.020568332 -0.012316804 -0.020591632 -0.021437494 -0.02946556 0.02428931
0.0030566184 -0.019492842 0.009001763 -0.036219954 -0.015734887 -0.007705382 -0.029787768 -0.007712633
0.036191497 0.0029046058 -0.028613212 -0.033637386 0.008843685 -0.0070725093 0.022456111 0.0014142641

block3.1.weight f4 [64]
00000000: 2e75 803f 64be 7f3f 98cd 7e3f 24b2 7e3f
00000010: ce2f 7f3f e6b8 7f3f 64b1 7f3f 586b 7f3f
00000020: a250 803f 4941 7f3f f428 803f 8ba8 7f3f
00000030: 6516 803f e089 7f3f ebd7 7f3f 7e68 803f
00000040: 41de 7f3f 9ef5 7e3f aef6 7e3f 7918 803f
00000050: 4bff 7e3f 258c 7f3f ad1f 803f 42fc 7f3f
00000060: 8a16 7f3f 159e 7e3f e739 803f 0528 803f
00000070: 5f20 803f b865 803f 6c87 7f3f 004d 7f3f
00000080: 7692 7f3f 8819 803f 84a4 7f3f 0fdd 7f3f
00000090: 5ecd 803f bc94 803f e817 803f 6fff 7f3f
000000a0: c18c 7f3f e2ca 7e3f 3c90 803f 5066 803f
000000b0: db2c 7f3f e34a 813f d071 803f 8ba9 7f3f
000000c0: 02dd 7e3f 4e7a 7f3f b87c 803f da8f 803f
000000d0: 528a 803f e15b 7d3f fc78 7f3f 8671 7f3f
000000e0: 438c 803f 65a0 7f3f 50c2 7f3f ee96 7f3f
000000f0: c454 803f 8ed5 803f bf02 7f3f ef7c 7f3f
1.003576 0.9989989 0.9953246 0.9949057 0.9968232 0.9989151 0.9988005 0.9977317
1.0024607 0.9970899 1.0012498 0.9986655 1.0006834 0.99819756 0.9993884 1.0031888
0.9994851 0.9959353 0.99595153 1.0007468 0.99608296 0.9982322 1.0009667 0.9999429
0.99643767 0.99459964 1.001767 1.0012213 1.0009879 1.0031042 0.9981601 0.9972687
0.99832857 1.0007792 0.99860406 0.99946684 1.0062673 1.004539 1.0007296 0.99999136
0.9982415 0.99528325 1.0044017 1.0031223 0.9967782 1.0100979 1.0034733 0.9986808
0.9955598 0.99796 1.0038061 1.00439 1.0042212 0.9896832 0.9979398 0.997826
1.0042804 0.9985412 0.9990587 0.99839675 1.0025868 1.0065172 0.99613565 0.9980001

block3.1.bias f4 [64]
00000000: 894e 8e37 6910 f239 f162 b6bb 9a48 f4bb
00000010: f94f 81ba e99f 593a a696 92bb dd24 90ba
00000020: 8d45 96ba 2970 3bbb 019c 2b3b 9619 efba
00000030: 6239 8db9 7c39 62ba 802b 7fb9 e7f7 62bb
00000040: 8891 21ba 239a 60bb 410a 4bba 81ae b838
00000050: c8d3 8bbb 0158 51bb 37c3 c1b9 b3da c139
00000060: 55eb 82bb f764 d3bb 62fd 37ba f103 57bb
00000070: b55a 5aba bde2 f039 f924 97bb e5d1 93ba
00000080: aecd 60bb 01b2 23bb 64e3 82ba 877f c0ba
00000090: 38db 2dbb 7a42 17bb 6e27 2f3b 86bb 7aba
000000a0: 2965 34bb a2fe 84b9 8efd e1ba 4d72 b3bb
000000b0: f58d b2bb 87b6 a03b 2e34 873a 9543 e2ba
000000c0: 2bea 5dba 5e1b 4dbb 794c 5a3a ce6a bfbb
000000d0: 6c20 543b 27b3 e9bb 5607 10bb 19e6 bdba
000000e0: 2889 74ba bac2 abba 6e16 72bb 5d0c feba
000000f0: 5d28 7ebb 92ec 44bb 21d8 c5bb aed7 9fbb
1.696429e-05 0.00046170063 -0.005565994 -0.007454944 -0.0009865753 0.00083017215 -0.004473525 -0.0010997314
-0.001146482 -0.0028600788 0.0026185515 -0.0018241878 -0.0002693637 -0.00086297817 -0.000243349 -0.0034632625
-0.00061633484 -0.003427156 -0.00077453634 8.8063076e-05 -0.0042671897 -0.0031943324 -0.00036957275 0.00036974772
-0.003995339 -0.006451245 -0.0007018653 -0.0032808746 -0.00083295564 0.000459453 -0.004612562 -0.0011277763
-0.0034302282 -0.0024977925 -0.000998598 -0.0014686444 -0.002652837 -0.0023080395 0.0026726383 -0.00095646863
-0.0027526116 -0.00025366718 -0.0017241703 -0.005476272 -0.0054490515 0.0049045715 0.0010315233 -0.0017262573
-0.00084653747 -0.003129683 0.00083274354 -0.0058415895 0.0032367958 -0.0071319523 -0.0021977029 -0.001448813
-0.0009328299 -0.0013104298 -0.0036939639 -0.0019382347 -0.0038781383 -0.0030048233 -0.0060377275 -0.004878006

block3.1.running_mean f4 [64]
00000000: 2d07 733e 774a 88be b320 f0bc 90b8 03bf
00000010: 6f3e 83be 8ec2 8f3e 9dbd e3bd 1bba 83bd
00000020: e21a b8bd dac6 bdbe fd6d 47bd 9028 14bd
00000030: fe97 2a3d c380 26bf 1f32 bfbe b71a 8b3e
00000040: 9157 913c cf6e 973e 3ca9 d03d f823 1b3e
00000050: 60d9 88bd f598 cd3e ae61 f5be cf6e 1c3e
00000060: 2ddd ac3e 358e 4ebe 06c2 7d3e 696b 3a3e
00000070: 13e2 ba3e e792 d03d 83d8 a0bc 47a6 2fbf
00000080: d352 f5be b065 d93e 9796 e33c 0d5d c0be
00000090: 9dfc ae3e d246 af3e b56f fd3c c5f1 23be
000000a0: 0182 33bf 7387 07be 431e 8b3e 4fee 2ebd
000000b0: 6503 433e a76d bd3e 6ac8 f33e f13a b8be
000000c0: 6953 3a3e 2b25 803e b254 cc3e 65b9 603e
000000d0: 8d1e e9bd 7d78 253d 4a8b 933e d478 48bf
000000e0: c1e4 523e 3133 d13e d8b7 643e 0122 51bc
000000f0: 144b 8b3e 8b3f e73e c4ac b03e 835f aebd
0.23733206 -0.26619312 -0.029312467 -0.51453495 -0.2563357 0.2807812 -0.1112015 -0.06431981
-0.089895025 -0.37065774 -0.048688877 -0.036171496 0.041648857 -0.65040225 -0.37342927 0.2716882
0.01774195 0.29576728 0.10188529 0.1515044 -0.06682086 0.4015576 -0.47926086 0.15276645
0.33762494 -0.20171435 0.24781045 0.18205036 0.36500606 0.101842694 -0.01963449 -0.68613094
-0.47914752 0.42460394 0.027781768 -0.37570992 0.34177104 0.3423372 0.030937055 -0.16010197
-0.70120245 -0.13235264 0.27171525 -0.042707738 0.19044264 0.3699772 0.4761384 -0.3598247
0.18195881 0.25028357 0.39908367 0.21945722 -0.1138278 0.04039811 0.28817207 -0.7830937
0.20595075 0.40859368 0.22335756 -0.012764455 0.27205718 0.45165667 0.3450681 -0.08514311

block3.1.running_var f4 [64]
00000000: 9246 193e a9a7 c03e 7047 a73e d35b 683e
00000010: e973 a83e 5b36 5b3e 720c 533e 943d 1a3e
00000020: ef3a 673e 8f75 de3e ddbd 703e 1e70 4a3e
00000030: b324 8f3e 6104 8a3e 982c 9e3e a049 0e3e
00000040: c0d6 273e c2c4 ed3e bc97 4e3e b048 fe3d
00000050: 0b19 a93e 9bfa 273e 36b4 a23e 945e 603e
00000060: 2a9b e53e 042f 1d3e fbfd 993e 428d 1c3e
00000070: bc34 4b3e cc85 8c3e 2915 e53d c151 1d3f
00000080: 1a08 cd3e 0534 b93e 1dae 693e 0664 8c3e
00000090: e93d 683e c7f5 fd3e c54a 043e 1a40 8b3e
000000a0: 7778 fc3e 7c00 4e3e 17f7 063e ebdb a73e
000000b0: 4dea 9c3e 042a 853e 4fcc f03e 7012 d03e
000000c0: d2c9 813e 68b0 423e 9329 403e 68b6 883e
000000d0: 07ff 133e c5d5 d83d 5f60 a23e 88c3 c13e
000000e0: 48f7 0b3e b8c0 993e 2267 6a3e ed0e 983e
000000f0: 302d 8e3e c323 243e 9e10 ad3e 56c3 413e
0.14968327 0.37627915 0.3267169 0.22691278 0.32900932 0.21407454 0.20610216 0.15062553
0.22581075 0.43449065 0.23509927 0.19769332 0.27957687 0.26956466 0.30893397 0.13895273
0.16390514 0.46439177 0.2017507 0.12416208 0.3302692 0.16404192 0.31778115 0.21911079
0.44844943 0.15349966 0.30076584 0.1528826 0.19844335 0.2744583 0.111856766 0.6145287
0.40045244 0.361725 0.22820325 0.27420062 0.22679867 0.49601576 0.12919147 0.27197343
0.49310657 0.20117372 0.13180195 0.32784972 0.30647507 0.26008618 0.47030875 0.40639067
0.2534929 0.19012606 0.1876586 0.26701665 0.14452754 0.10587648 0.3171415 0.3784449
0.13668549 0.30029845 0.22890905 0.29698887 0.2776885 0.16029267 0.3380174 0.18922171

block4.0.weight f4 [64, 64, 3, 3]
00000000: 256e 223c 7e11 ffbc 3ca9 c23c f5b6 ca3b
00000010: aeff c83c f782 e33c d05c ea3c 3170 1abd
00000020: 1a17 123c 38ce cb3c 5b90 ddbc 1f16 973c
00000030: a620 2a3c 593d 023d fca6 2dbd b412 05bd
00000040: 323f 27bd e728 003d 1b7e cbbb fed6 223d
00000050: 3c0c 18bc ffa4 f23c ae7f b03c 0c8a 20bd
00000060: 6944 e73c 034d d23c dcc9 11bd ad8c 02bd
00000070: ddd0 883c 30f3 0d3d 866a e6bc 9929 ab3c
00000080: b377 003c 9325 83bc e943 493c d402 723c
00000090: b3f2 d6bc 8bf7 11bd bc18 e8bb f9c3 39bc
000000a0: 8be6 68bc a98e 2e3c fecf 2c3c 68be c93c
000000b0: a786 ddbc 31dd 0abd 8770 ee3c 6d6c 34bc
000000c0: d1aa 23bc 0b12 cd3c 3538 acbb 7511 853c
000000d0: 63f0 d93c 83b0 b63c 321c 2ebd 6775 ce3c
000000e0: 4363 573c 6bfd 003d 0572 883c 632c 9dbc
000000f0: ed5e d53c 7d6d 1d3d 1c17 be3c aa94 9f3b
00000100: 8262 9d3c 856a db3c fc62 ae3c 48b5 2fbd
00000110: b5e0 553c 0e0a 613c 8bcb 0dbd a6f3 0b3d
00000120: c986 123c 4d5a 1cbd 9356 093d b5b8 91ba
00000130: 19ff 89bc 842c 623b 992d 973c 1036 14bd
00000140: 5aef db3b 7060 a5bb 91a5 40bc 3484 c53c
00000150: 0294 eaba 8fe1 a13c 1236 d6bc d8ae 043d
00000160: dd90 9cbc 69d0 b33b b1c2 af3c ab13 05bd
00000170: d500 f8bc 8a8c 023d bf3c 8d3c a5d0 813c
00000180: ecb7 2c3c 65c5 183d 0e8c b9bc 5723 183d
00000190: b6c6 8bbb 6141 b53c d913 16bd f494 77bc
000001a0: 9820 463a e36e df3c e53d 4b3c e554 233d
000001b0: f893 04bd 72ec 86bc 7ecd 203d 2776 b13b
000001c0: 65cb bebc b5fe dc3c 3463 303c 35a6 9e3a
000001d0: 6873 7cbc 8f5d e73c 267c 87bc c3ed 1f3c
000001e0: 4837 1b3d 70c8 14bd 6f6e 803c 0a2b 33bc
000001f0: 34aa 45bc 7fc6 b93c 4d9d 903a 08a8 d13c
00000200: 5520 283d bc81 e13c a57c 05bd 0996 9abb
00000210: 6472 643c 82aa 13bd f6bc c73c fe53 e7bc
00000220: 2f79 b93b 33ea 05bd d482 333b 058a 8c3c
00000230: 0be1 aebc 1152 37bd 7fd2 7abc 6b4d fabc
00000240: 6f36 a23c 4c35 f63c caf3 733c b660 26bd
00000250: f2cd 1abd b593 f8bc a8ca a93c 7739 b53c
00000260: fbaa 00bd 9349 fbbc a3b1 23bc 025f 863c
00000270: 15c4 d13b 3bca e43c 6a23 9e3b cbd5 583b
00000280: bb00 c9bc 8d1b cfbc a118 253d 5df9 f4bc
00000290: 536f a73c c445 28bd 2523 33bd e0a9 fcbb
000002a0: 2601 febc 3616 383c f6d1 1b3c b2d8 a3bc
000002b0: f4fb 16bd cfba 4dbc 2622 81bc 0e03 d43c
000002c0: 2219 1bbd a553 9fbc 5e59 d53c f779 1cbd
000002d0: 48fe f5bc 3f08 c0bc 20d8 843c b162 473c
000002e0: 96bc ec3c 693c fcba f0f2 1a3d 915f 95bc
000002f0: 6805 043d af1d fb3c 255a eabc 96ab 153c
00000300: 2743 27bc cc63 0cbd 9e02 ebbc 0f98 193d
00000310: dbe8 313c fef2 033d 44c5 37bc fe8e 18bd
00000320: e611 0abb 2f25 2cbc 2aaa e8bc 0b1c 693c
00000330: 705d bfbb 1e08 72bc bed1 d23b c7fa 103d
00000340: ba4a 713c 063e cbbc 645c 9ebc 2ff5 b4ba
00000350: b4e3 ce3c a8eb 73bc 22e4 e83c 3662 f7bb
00000360: 0e8d 1abd 3547 b83b 6d30 a33a c02d c8bc
00000370: 93d9 2bbd ea26 c2bc 9d92 993c b1b8 bfbc
00000380: 8b80 f03c f79f a13c 8afd b63c 13f5 16bd
00000390: 533e 163c 04c2 9abc bac2 f93c 1548 84bc
000003a0: d8e1 b1bc 0797 1f3d 8caf 04bc f179 083d
000003b0: 65e3 283d 005d d8bc 30c2 003d 1339 43bc
000003c0: b08a 0dbd 4bdc 72bb 47d4 e93c 8603 e6bb
000003d0: 3c06 d5bc d91a fc3b 5a8b 24bc ee4d 2ebd
000003e0: 6101 17bd cf35 373c a6e8 6fbc 74e8 ffbc
000003f0: e0d7 aabc d653 c53b d05f b5bc dab7 543a
0.009913956 -0.03113627 0.023762338 0.006186361 0.02453598 0.02777241 0.02860871 -0.03770465
0.008916641 0.024878606 -0.027046373 0.018443165 0.010383761 0.031796787 -0.042395577 -0.03248854
-0.040831752 0.031289008 -0.0062101013 0.039755814 -0.009280261 0.029619692 0.021545257 -0.03919415
0.028230863 0.025671488 -0.0355929 -0.03187244 0.016701156 0.03465575 -0.028126966 0.020893859
0.0078410385 -0.016009128 0.012284257 0.014771182 -0.026238775 -0.035636466 -0.0070830267 -0.011338227
-0.014215122 0.01065413 0.010547636 0.024626926 -0.027041746 -0.03390235 0.029106392 -0.011012179
-0.009989456 0.025033018 -0.005255724 0.016243676 0.026603883 0.022300964 -0.042507358 0.025202466
0.013146224 0.03149168 0.016655931 -0.019186204 0.02604624 0.038434494 0.023204379 0.004870017
0.019212011 0.02678419 0.021287434 -0.042897493 0.013054063 0.013735307 -0.03461794 0.034167908
0.008943268 -0.038172055 0.03352983 -0.0011117669 -0.016845273 0.0034511397 0.01845436 -0.03618437
0.0067118825 -0.0050468966 -0.011758224 0.02411089 -0.0017896893 0.019760875 -0.02614883 0.032393306
-0.019112045 0.005487491 0.02145514 -0.03248946 -0.030273834 0.03187231 0.01724088 0.01584656
0.010541897 0.037297625 -0.022649791 0.037143078 -0.0042656315 0.022125902 -0.036640022 -0.015111197
0.00075579574 0.027274555 0.0124048935 0.039875884 -0.032367676 -0.016470168 0.039258473 0.005415696
-0.023290345 0.026976923 0.010765839 0.0012103977 -0.015408374 0.028242854 -0.01653869 0.009761277
0.037894517 -0.036323965 0.015677659 -0.010935554 -0.012064505 0.022677658 0.0011033207 0.025592819
0.04104646 0.027527682 -0.032589573 -0.0047175926 0.0139432885 -0.03605128 0.024382096 -0.028238293
0.005660198 -0.032694053 0.0027391212 0.017155657 -0.021347543 -0.044756 -0.015308975 -0.030554494
0.019801347 0.03005471 0.014889667 -0.040619574 -0.03779406 -0.03034387 0.020726517 0.022122128
-0.03141306 -0.030674731 -0.009991082 0.016402725 0.0064015486 0.027928462 0.004825999 0.0033086415
-0.024536481 -0.025281692 0.04030669 -0.029904062 0.020438826 -0.04108216 -0.04373469 -0.0077106804
-0.031006407 0.011235764 0.009510508 -0.02000079 -0.036861375 -0.012556746 -0.015763354 0.025880363
-0.037865765 -0.019449065 0.02604359 -0.038202252 -0.030028477 -0.023441432 0.016216338 0.012169526
0.028898519 -0.0019244078 0.03782934 -0.018234046 0.03223172 0.030653803 -0.028607437 0.009135148
-0.010208881 -0.03427486 -0.028687771 0.03749853 0.01085874 0.032214157 -0.011216465 -0.037245743
-0.0021067797 -0.010506912 -0.028401453 0.014227877 -0.005839996 -0.014772443 0.0064336946 0.03539541
0.014727289 -0.024809849 -0.019331165 -0.001380598 0.025255062 -0.014887728 0.028429095 -0.0075495495
-0.037732176 0.005623723 0.0012450345 -0.024435878 -0.04195554 -0.023700196 0.018746668 -0.023403497
0.029358169 0.019729597 0.022337694 -0.036854815 0.009170133 -0.018891342 0.03048836 -0.016147653
-0.021714136 0.03896239 -0.008098494 0.033319417 0.041232485 -0.026411533 0.03143519 -0.011915463
-0.03455609 -0.0037057574 0.028543605 -0.007019463 -0.02600395 0.00769363 -0.01004299 -0.04255479
-0.03686655 0.011182263 -0.01464287 -0.031238772 -0.02085489 0.006021957 -0.022140414 0.0008114554
