legacy/results/old/basic/basic_7.pth (torch, 961551 bytes, 26 tensors)

block1.0.weight f4 [64, 1, 3, 3]
0	0xbe16c942	-0.14725211
1	0xbe2f8069	-0.17138828
2	0xbe77a8f7	-0.24185549
3	0x3db5ae75	0.08871166
4	0x3ea54d63	0.32285604
5	0xbddb916f	-0.10721099
6	0xbd75e70b	-0.060034793
7	0xbe886eb5	-0.26646963
8	0x3e2d754f	0.16939281
9	0x3e183b22	0.14866307
10	0xbe81e2f1	-0.25368455
11	0x3e7570cc	0.2396881
12	0x3e60658d	0.21913739
13	0xbe447b97	-0.19187771
14	0x3e902c09	0.28158596
15	0xbea11dac	-0.3146795
16	0x3d86cb6a	0.06581767
17	0xbdd9e78d	-0.10639868
18	0x3e5a23a5	0.2130266
19	0x3ea3b65b	0.31975064
20	0xbe8dea71	-0.27717927
21	0x3e4f12d7	0.2022203
22	0xbe1cbbb3	-0.15305977
23	0x3ea49460	0.3214445
24	0xbd964d34	-0.07338944
25	0xbea1f0e5	-0.316291
26	0x3d891a25	0.0669444
27	0x3e31a8e4	0.17349583
28	0x3e9c3188	0.3050654
29	0xbe737d83	-0.23778348
30	0x3e55642b	0.20838992
31	0x3dde601a	0.10858174
32	0x3d769482	0.06020022
33	0x3e577cd1	0.21043707
34	0xbe34697c	-0.17618364
35	0x3e17f033	0.14837722
36	0xbe05b7cb	-0.13058393
37	0xbe83c595	-0.2573668
38	0xbdee10db	-0.11624309
39	0xbd0ca149	-0.0343335
40	0x3ead1d22	0.3381129
41	0xbcd12865	-0.025531957
42	0xbe7115f9	-0.23543538
43	0x3e81ba3a	0.25337392
44	0xbe74591e	-0.2386212
45	0x3de6de89	0.11272914
46	0xbde3402c	-0.11096224
47	0x3e574519	0.21022452
48	0xbd0176b3	-0.03160734
49	0x3e90cc3a	0.28280813
50	0xbdc4a2e5	-0.09601382
51	0x3e04ebd5	0.12980588
52	0x3e07c0f7	0.13257204
53	0xbc08979d	-0.008336929
54	0xbe7e67d2	-0.24844292
55	0x3ea481d0	0.3213029
56	0x3e3edd99	0.1863922
57	0xbe73458c	-0.23756999
58	0xbe587182	-0.2113705
59	0xbdb256fc	-0.08707997
60	0xbe8fd4ee	-0.2809214
61	0x3d9d8663	0.07691648
62	0xbd4a8fd6	-0.04945358
63	0xbea72a4f	-0.32649466
64	0xbea11fbc	-0.31469524
65	0x3d3f337b	0.046679955
66	0x3ea790ba	0.32727605
67	0x3da90b06	0.08254056
68	0x3e4e509c	0.20147938
69	0xbe564675	-0.20925315
70	0x3e8d02f4	0.27541316
71	0xbd9b3bb0	-0.07579744
72	0xbd6c44d2	-0.05768282
73	0x3e91b77c	0.284603
74	0xbe0c9145	-0.13727291
75	0xbcb48a1b	-0.02203851
76	0x3dcb78c7	0.09935146
77	0x3de7a0da	0.11309977
78	0xbdb2b0a2	-0.08725096
79	0xbd2ebc99	-0.04266033
80	0x3e7623f3	0.24037151
81	0xbe3e56aa	-0.18587747
82	0xbea63c31	-0.32467797
83	0xbe5bc365	-0.21461256
84	0x3df26c5c	0.11837074
85	0xbe2df62f	-0.16988443
86	0xbea33442	-0.31875807
87	0x3de41d8a	0.11138447
88	0xbe7d3729	-0.24728073
89	0x3e3344a9	0.1750666
90	0x3d091bfa	0.033473946
91	0x3e3df719	0.18551292
92	0xbdac82b8	-0.0842337
93	0xbe2ab786	-0.16671571
94	0x3e36244e	0.17787287
95	0x3e4a4301	0.19752122
96	0xbdf97150	-0.12179816
97	0x3e4d7629	0.20064606
98	0xbe86c730	-0.26323843
99	0xbe14bfd4	-0.14526302
100	0x3e2f3420	0.17109728
101	0x3d16f122	0.036851056
102	0x3e286afa	0.16447058
103	0xbea637f2	-0.32464558
104	0x3d9b5853	0.07585206
105	0x3e152c46	0.1456767
106	0xbcaf2372	-0.021379206
107	0x3e9c5790	0.30535555
108	0xbc77a5a0	-0.015115172
109	0xbe083ca2	-0.1330438
110	0x3df0ca3a	0.11757322
111	0xbe9e1f27	-0.30883142
112	0x3e5693a5	0.2095476
113	0xbd42773c	-0.047476992
114	0xbd9929eb	-0.07478698
115	0xbcf7e883	-0.030262237
116	0xbe85e220	-0.26149082
117	0xbe0bebae	-0.13664123
118	0xbe941586	-0.2892267
119	0xbe6bf8de	-0.23044154
120	0xbb7c67b9	-0.0038513972
121	0xbdb0f82f	-0.08641087
122	0xbcd0dbe7	-0.025495483
123	0x3ea6fc05	0.3261415
124	0xbea0be06	-0.31394976
125	0x394aef53	0.00019353376
126	0x3c58c118	0.013229631
127	0xbe87dbef	-0.26534984
128	0x3e08b279	0.13349332
129	0x3e4c70d2	0.19964913
130	0xbdf5f0b8	-0.12008804
131	0xbdb8d869	-0.09025652
132	0x3ea67d29	0.32517365
133	0x3e42fbac	0.19041318
134	0x3e27d6e5	0.1639057
135	0xbbfe5968	-0.007762123
136	0x3e87097a	0.26374418
137	0x3e665aef	0.22495626
138	0x3e92bb09	0.28658321
139	0xbe463fb6	-0.19360241
140	0x3e54ae99	0.20769729
141	0x3d52693c	0.05136989
142	0xbe109bd5	-0.14121945
143	0xbe170465	-0.1474777
144	0x3ea62b9b	0.32455143
145	0x3de19c5c	0.11016151
146	0xbe97008a	-0.294926
147	0xbdd83704	-0.105573684
148	0xbe99c209	-0.3003085
149	0x3e0131df	0.1261668
150	0xbe0734ed	-0.13203783
151	0x3d6ce8ea	0.05783931
152	0x3e56f1d3	0.20990686
153	0x3d676cfc	0.05650042
154	0xbe25d712	-0.16195324
155	0xbe932367	-0.28737947
156	0xbdba406b	-0.09094318
157	0x3ddc07b3	0.10743656
158	0x3e22513e	0.15851304
159	0x3e8fd7db	0.28094372
160	0x3d6ea410	0.05826193
161	0xbce4f504	-0.027948864
162	0x3ca3b09a	0.019981671
163	0xbe55eec0	-0.20891857
164	0xbe809533	-0.2511383
165	0x3e05261a	0.13002816
166	0x3e5d70a4	0.21625
167	0x3e97579c	0.29559028
168	0x3e472e38	0.19451225
169	0xbb863783	-0.004095973
170	0x3e3cb2c4	0.18427569
171	0x3da4a95d	0.08040116
172	0x3e0d82b6	0.13819394
173	0xbe2b09ef	-0.16703008
174	0xbe8667e7	-0.26251146
175	0xbaedb7cf	-0.0018136444
176	0xbd0313c9	-0.03200129
177	0x3e901f3c	0.2814883
178	0xbdbb3ac7	-0.0914207
179	0x3e5f3e4d	0.2180111
180	0xbd155286	-0.036455654
181	0x3e801f92	0.25024086
182	0xbb6e42df	-0.0036355776
183	0x3e5e1fb2	0.21691778
184	0xbe5e21b6	-0.21692547
185	0xbe91d2fa	-0.28481275
186	0xbe15d043	-0.14630227
187	0x3e6e4aeb	0.23270766
188	0xbe99cf1f	-0.30040833
189	0x3e53772d	0.2065093
190	0xbe76fe4f	-0.24120449
191	0xbe31dfc0	-0.1737051
192	0x3e8f5b98	0.27999568
193	0xbac3212c	-0.0014887205
194	0x3e7e02a9	0.24805702
195	0x3e61d357	0.22053276
196	0xbe97687a	-0.29571897
197	0x3db4d861	0.088303335
198	0x3d957bb4	0.07298985
199	0xbe49e9d1	-0.197181
200	0xbe26e3db	-0.16297857
201	0xbe589c8d	-0.2115347
202	0x3e5a3cf2	0.21312311
203	0xbe93e8e8	-0.2888863
204	0xbeac31b9	-0.33631685
205	0xbd03760d	-0.032095004
206	0x3e0d58ad	0.13803358
207	0x3e6df5c1	0.23238279
208	0x3b946dbc	0.004529683
209	0xbd456dc4	-0.048200384
210	0x3d31ba9b	0.04339085
211	0x3e55ae5c	0.20867294
212	0x3e81bd85	0.25339904
213	0xbdc50819	-0.09620685
214	0x3e27ebc1	0.16398527
215	0x3afbf736	0.0019223455
216	0xbe211b4c	-0.15733069
217	0x3d7ca7eb	0.061683577
218	0xbe7fe57f	-0.2498989
219	0x3dc8b923	0.09800937
220	0x3d971b40	0.073782444
221	0xbd6bbb5b	-0.057551723
222	0x3e9fc573	0.3120533
223	0xbd65d668	-0.056112677
224	0x3e90cad9	0.2827976
225	0x3e01c92a	0.12674394
226	0x3e758254	0.23975497
227	0x3d2e6ad2	0.04258234
228	0xbea832de	-0.3285131
229	0x3e9adfeb	0.3024896
230	0xbe107ec2	-0.14110854
231	0x3d02beac	0.03192012
232	0x3e229ee0	0.15880919
233	0xbe60da13	-0.21958189
234	0x3e830101	0.25586703
235	0x3b9b219a	0.00473423
236	0x3e74116f	0.23834775
237	0xbe02d6b7	-0.1277722
238	0x3e3a28e0	0.18179655
239	0x3e5f7804	0.21823126
240	0x3e415543	0.18880181
241	0xbd88e1f5	-0.06683723
242	0x3e26a292	0.16272953
243	0x3dc8a246	0.09796576
244	0xbe3e6052	-0.18591431
245	0x3e8dcde6	0.2769615
246	0x3e37ce92	0.17949894
247	0x3d9e4a07	0.07728963
248	0xbe82c01d	-0.25537196
249	0x3e87af7d	0.26501074
250	0xbeac5e5f	-0.3366575
251	0x3e3ad6cb	0.18246
252	0xbcec559d	-0.028849417
253	0xbe74faa3	-0.23923735
254	0x3e663e98	0.22484815
255	0xbe8c7d35	-0.27439275

block1.0.bias f4 [64]
0	0x3e8427bc	0.25811565
1	0xbea24ee9	-0.3170083
2	0x3e0a7da0	0.13524485
3	0x3e0eabe9	0.13932766
4	0xbe8909fa	-0.26765424
5	0xbc8cf9fb	-0.017209044
6	0x3d747154	0.05967839
7	0xbe3c59af	-0.18393587
8	0x3d8cd963	0.06877401
9	0xbdba8d94	-0.09109035
10	0xbe1c9f1d	-0.15295072
11	0xbdeb62b8	-0.114934385
12	0xbe678eba	-0.2261304
13	0xbe97a8f0	-0.29621077
14	0x3e6f11b1	0.23346592
15	0x3dd9558f	0.10612022
16	0x3d409352	0.047015496
17	0x3e742dea	0.2384564
18	0xbe215685	-0.15755661
19	0xbe7b616d	-0.24548884
20	0x3b9ce717	0.0047882902
21	0x3e1a6c15	0.15080293
22	0x3dddf38c	0.108374685
23	0x3e88fe2a	0.26756412
24	0xbb8a35c5	-0.0042178356
25	0x3e72c9cb	0.2370979
26	0xbd88688b	-0.06660565
27	0x3df7426c	0.12073216
28	0x3dd6a77a	0.10481162
29	0x3e9b2d83	0.3030816
30	0xbcbdf9dc	-0.023190431
31	0x3e2469c5	0.16055973
32	0xbe609ae2	-0.21934083
33	0x3e97ddc2	0.29661375
34	0xbe4679b9	-0.19382371
35	0xbda238de	-0.07921003
36	0x3d407e94	0.046995714
37	0x3e5173a2	0.20454267
38	0xbe478206	-0.19483194
39	0x3e971011	0.29504445
40	0xbe8b29c8	-0.27180314
41	0xbe04b925	-0.12961252
42	0x3e8da422	0.27664286
43	0xbe1ba311	-0.15198924
44	0x3d6c8b74	0.05775018
45	0xbe8dc739	-0.27691057
46	0xbe8e4242	-0.27784926
47	0xbe95b221	-0.29237464
48	0x3e12b88d	0.14328213
49	0x3e1387e0	0.14407301
50	0xbceb2fbd	-0.028709287
51	0x3d3e43ed	0.046451498
52	0x3ea2582b	0.31707892
53	0x3bfeb19b	0.007772637
54	0xbe3f87d0	-0.18704152
55	0x3d7b9fcd	0.061431695
56	0xbe827873	-0.2548252
57	0xbe5c99b4	-0.21543008
58	0xbd2a6324	-0.041598454
59	0xbdfff801	-0.12498475
60	0x3ea0efdb	0.31432995
61	0xbdc83e64	-0.09777525
62	0x3e2a8718	0.16653097
63	0x3d54e998	0.051980585

block1.1.weight f4 [64]
0	0x3f7e1f92	0.9926692
1	0x3f803ff0	1.0019512
2	0x3f7eb341	0.9949227
3	0x3f7def4d	0.9919327
4	0x3f7ef98a	0.99599516
5	0x3f7ed95c	0.99550414
6	0x3f7db153	0.990987
7	0x3f8222a9	1.0166827
8	0x3f7ee567	0.9956879
9	0x3f7e6b13	0.9938213
10	0x3f7fe3f9	0.99957234
11	0x3f7ee9f7	0.9957575
12	0x3f7eeef6	0.99583375
13	0x3f7efe8c	0.9960716
14	0x3f7ec2f6	0.99516237
15	0x3f7e20a4	0.99268556
16	0x3f824353	1.0176796
17	0x3f80ba10	1.0056782
18	0x3f7e998f	0.9945306
19	0x3f7f2613	0.9966747
20	0x3f7de303	0.9917452
21	0x3f7f38ec	0.9969623
22	0x3f7f2586	0.9966663
23	0x3f7ee032	0.99560845
24	0x3f7e7839	0.99402195
25	0x3f7f5b58	0.99748755
26	0x3f7d49cd	0.98940736
27	0x3f7f0715	0.9962018
28	0x3f7ec715	0.99522525
29	0x3f7e9230	0.99441814
30	0x3f7e97e4	0.99450517
31	0x3f7e7d63	0.99410075
32	0x3f825dac	1.0184836
33	0x3f812ac5	1.0091177
34	0x3f7d5b9e	0.9896792
35	0x3f7f796d	0.99794656
36	0x3f808a0b	1.0042127
37	0x3f7ef7a2	0.9959661
38	0x3f809568	1.0045595
39	0x3f7fb9c4	0.9989283
40	0x3f7f10d3	0.99635047
41	0x3f7e5d72	0.99361336
42	0x3f8179ee	1.0115335
43	0x3f7f1140	0.99635696
44	0x3f80a3c6	1.004998
45	0x3f803b28	1.0018053
46	0x3f7f6768	0.9976716
47	0x3f7e5b8c	0.9935844
48	0x3f7fab2e	0.99870574
49	0x3f804cd9	1.0023452
50	0x3f8074d3	1.0035652
51	0x3f7f4276	0.99710786
52	0x3f7f642e	0.9976224
53	0x3f7f85f8	0.99813795
54	0x3f7e8be2	0.99432194
55	0x3f7e16f0	0.9925375
56	0x3f7ecaf1	0.99528414
57	0x3f7e761d	0.99398977
58	0x3f8117ff	1.0085448
59	0x3f8078f1	1.0036908
60	0x3f7ea02f	0.9946317
61	0x3f7ed827	0.9954857
62	0x3f7edb77	0.99553627
63	0x3f80afc1	1.0053636

block1.1.bias f4 [64]
0	0xbb831bfb	-0.0040011383
1	0xbbcc8b32	-0.0062421793
2	0xba5b3b78	-0.00083630485
3	0xbb20df76	-0.0024547256
4	0xbbfaf443	-0.007658513
5	0xbb1337b7	-0.0022463629
6	0xbc0d8d77	-0.008639685
7	0x3c3b61e1	0.01143691
8	0xbbc9a9fe	-0.006154298
9	0xbc5b81e0	-0.013397664
10	0x3b94f586	0.0045458702
11	0xbabaed89	-0.0014261465
12	0xbba9c5a6	-0.0051810322
13	0xba45ab09	-0.000754044
14	0x3aea91c3	0.0017896224
15	0xbb1c2acc	-0.002382922
16	0x3c108253	0.008820134
17	0x3b838a99	0.004014325
18	0x3b1d354d	0.0023988069
19	0xbb10c193	-0.0022088035
20	0xbc390ccc	-0.011294555
21	0xbbbc3d08	-0.00574458
22	0xbb539c55	-0.0032289226
23	0xbb2c5c9b	-0.0026300314
24	0xbae3f1f4	-0.0017390833
25	0xbc04f5bd	-0.008115229
26	0xbb9820c0	-0.004642576
27	0xbbeaa281	-0.0071604853
28	0xbc3d5c86	-0.011557704
29	0xbb328403	-0.002723933
30	0xbbe122b3	-0.0068705915
31	0x3b3bfc3e	0.0028684284
32	0x3cd0acce	0.025473025
33	0x3bf8d028	0.0075931735
34	0x3b820ed0	0.003969051
35	0xbb63e089	-0.0034771285
36	0xbc5142d8	-0.012772284
37	0xbb013686	-0.0019716336
38	0xbc7a550d	-0.015279067
39	0xbb2b7eba	-0.0026168064
40	0xbb5aa081	-0.0033359828
41	0x3a8b60da	0.0010633722
42	0x3c74e4bc	0.014947113
43	0xbbdac74b	-0.0066765896
44	0x3b700603	0.0036624677
45	0xbaa922e1	-0.0012904071
46	0xbb416f77	-0.00295159
47	0xbc067ff2	-0.0082092155
48	0x3a96df81	0.0011510701
49	0x3c1635f6	0.009168139
50	0xbb2a9afb	-0.0026032317
51	0xbc19342f	-0.00935082
52	0x3a85553f	0.00101725
53	0x39f916b8	0.00047509908
54	0xbbde180a	-0.006777768
55	0xbb9e851f	-0.0048376466
56	0x3a2a2eae	0.0006491941
57	0xbc287ad8	-0.0102831945
58	0x3b92695f	0.0044681276
59	0x3bb44829	0.005501766
60	0x3ba511c1	0.005037517
61	0xbbc4638b	-0.0059933118
62	0xbb9c7b7e	-0.0047754636
63	0x3c1b7dbd	0.009490428

block1.1.running_mean f4 [64]
0	0x3d873c3d	0.066032864
1	0xbe8d43eb	-0.2759088
2	0x3e8e102a	0.27746707
3	0x3f036fe9	0.51342636
4	0xbef31d95	-0.47483507
5	0x3e8bfc70	0.27341032
6	0xbe418cb4	-0.1890133
7	0xbe3801b5	-0.17969401
8	0x3e80414e	0.25049824
9	0xbf158edf	-0.5842113
10	0xbda0ae44	-0.078457385
11	0x3d99d79e	0.07511829
12	0xbef5a74c	-0.479792
13	0xbf26832a	-0.6504389
14	0x3efb3b46	0.4906866
15	0x3eb7e0e4	0.35913765
16	0x3d321583	0.043477546
17	0x3e90a6b0	0.28252172
18	0x3de7e635	0.113232054
19	0xbe2dda88	-0.16977894
20	0xbe05e4fb	-0.1307563
21	0x3e9cffc7	0.30663893
22	0xbe88a034	-0.26684725
23	0x3f1fe5c6	0.6245998
24	0x3e0fdc86	0.14048967
25	0x3eabe38b	0.3357204
26	0x3eda2b6f	0.42611262
27	0x3e8540e8	0.26026082
28	0xbdc0e298	-0.09418219
29	0xbdee861d	-0.11646674
30	0x3e86f458	0.26358294
31	0xbc7cb186	-0.015423184
32	0xbe632bfb	-0.22184746
33	0x3e8d6fb2	0.2762428
34	0x3ea56bba	0.3230875
35	0x3d326e29	0.04356209
36	0xbc8b37d9	-0.016994404
37	0x3f0e4610	0.55575657
38	0xbe19b94d	-0.15012093
39	0x3e02bc23	0.12767081
40	0xbd405b28	-0.046961933
41	0x3e80f450	0.25186396
42	0x3e9a50fd	0.30139914
43	0xbe8f4a97	-0.27986595
44	0x3c2f37ab	0.010694425
45	0xbeb64fe5	-0.3560783
46	0xbef9937b	-0.4874533
47	0xbf09ffc6	-0.53905904
48	0x3e6644ff	0.22487257
49	0x3e073339	0.13203134
50	0x3d14574a	0.036216058
51	0xbd9971c1	-0.074924
52	0x3e36a26a	0.17835394
53	0xbe645afc	-0.22300333
54	0xbca3beb4	-0.019988395
55	0x3eae4616	0.34037846
56	0xbe1b23d1	-0.15150382
57	0xbf0bf7e2	-0.54675114
58	0xbe091564	-0.13387066
59	0xbd97bd2f	-0.07409131
60	0x3ee0b676	0.43889207
61	0x3ecdf197	0.4022338
62	0x3f1093a3	0.56475276
63	0x3dafc4ce	0.085824594

block1.1.running_var f4 [64]
0	0x3c7f5fd0	0.015586808
1	0x3ad593ff	0.0016294717
2	0x3c1be564	0.00951514
3	0x3d6e718a	0.058213748
4	0x3c938548	0.01800789
5	0x3d0e92a4	0.034807816
6	0x3cd9b8ee	0.02657744
7	0x3a539226	0.0008070789
8	0x3c62f227	0.013851679
9	0x3dd0ed9f	0.102015726
10	0x3b358797	0.0027699226
11	0x3c7a475d	0.015275803
12	0x3cdaac56	0.026693504
13	0x3d59596c	0.053063795
14	0x3ce870fd	0.02837419
15	0x3ce30458	0.027712032
16	0x398afe73	0.0002651099
17	0x3add60ea	0.0016889845
18	0x3cfda306	0.030961525
19	0x3b37030c	0.00279254
20	0x3c074b97	0.008257768
21	0x3c2f15da	0.010686362
22	0x3d6e4813	0.058174204
23	0x3d587ca0	0.052853227
24	0x3c20e2f6	0.009819737
25	0x3b96ce71	0.0046022465
26	0x3dcd60fe	0.100282654
27	0x3c0905d6	0.008363208
28	0x3c88916f	0.01667091
29	0x3d94b294	0.072606236
30	0x3d0f6ab4	0.03501387
31	0x3c594774	0.013261665
32	0x3a99a8f8	0.001172333
33	0x3a42205a	0.00074053335
34	0x3de17f4a	0.110106066
35	0x3bf60f4c	0.0075091477
36	0x3b3d9f7c	0.0028934171
37	0x3d51e2d5	0.051241715
38	0x3ae4b2aa	0.0017448266
39	0x3c63a57c	0.013894435
40	0x3cad3425	0.021143029
41	0x3d770945	0.060311574
42	0x3b32db3e	0.0027291323
43	0x3c000c54	0.007815439
44	0x3a917ec8	0.0011100406
45	0x3b80162a	0.003908892
46	0x3c9c9730	0.01911506
47	0x3ccf4754	0.025302567
48	0x3b52de02	0.0032175784
49	0x3a866704	0.001025409
50	0x3b079f66	0.0020694374
51	0x3bcd964a	0.0062740194
52	0x3c0c2cff	0.00855565
53	0x3cbb8b62	0.022893611
54	0x3c4ccfa9	0.012500682
55	0x3d03e9d7	0.03220543
56	0x3bd12d57	0.0063835788
57	0x3d3c7939	0.046014044
58	0x3bb95afa	0.005656597
59	0x3b6977f5	0.0035624478
60	0x3befe216	0.0073206527
61	0x3dd36726	0.103224084
62	0x3d85ae75	0.06527416
63	0x3aa4a12e	0.0012560242

block2.0.weight f4 [64, 64, 3, 3]
0	0x3cdeb599	0.027186202
1	0xbd1d0f42	-0.03834463
2	0x3cfcc242	0.030854348
3	0x3ca65d41	0.020308139
4	0x3c89479e	0.016757783
5	0x3cd72f5a	0.026267696
6	0xbc12d5e3	-0.008962127
7	0xbc7995d4	-0.015233476
8	0x39c80085	0.0003814736
9	0xbc937883	-0.0180018
10	0xbd3f321e	-0.046678655
11	0x3cdc2493	0.026872909
12	0x3abfb9fc	0.0014627571
13	0xbc9329e1	-0.017964305
14	0xbcbbd6d9	-0.022929596
15	0xbd0588a7	-0.032601025
16	0x3bd7665f	0.006573483
17	0xbb0c7917	-0.002143448
18	0xbd1bd889	-0.0380483
19	0x3b915e47	0.0044362876
20	0xbcbb8f7a	-0.022895563
21	0xbcce212e	-0.025162306
22	0x3c174185	0.00923193
23	0x39ffe311	0.00048806568
24	0xbcf56e5d	-0.029959852
25	0xbbc49508	-0.005999211
26	0xbc97054f	-0.018435149
27	0x3d06d216	0.032915197
28	0xbd13e21d	-0.03610431
29	0xbc9e659a	-0.019335557
30	0xbca86e1d	-0.020560319
31	0x3cc31af6	0.023816567
32	0xbbcbb50b	-0.0062166504
33	0x3b3444ec	0.00275069
34	0xbd00244b	-0.03128461
35	0x3d0642cc	0.032778546
36	0xbd100a15	-0.035165865
37	0xbcab7f6f	-0.020934789
38	0xbd10a291	-0.035311285
39	0xbccbc8c4	-0.024876006
40	0x3c8813cb	0.016611
41	0x3c176769	0.0092409635
42	0xbc616da2	-0.013759049
43	0x3c6aac55	0.014323314
44	0x3c1e005b	0.009643639
45	0x3b27e097	0.0025616044
46	0x3bddc478	0.0067678057
47	0xbd209600	-0.03920555
48	0x3cdda3c7	0.027055634
49	0x3d0ff60b	0.035146754
50	0x3d118fb5	0.03553744
51	0x3d059a2e	0.03261774
52	0xbcd5e0a0	-0.026108086
53	0xbb5aec0f	-0.0033404862
54	0x3c4fd1fc	0.0126843415
55	0xbd1a52ea	-0.03767673
56	0x3c64fce1	0.013976307
57	0xbb7f9e6b	-0.0039004337
58	0xbc30cfab	-0.010791699
59	0xbbe3c78b	-0.0069512776
60	0xbd1bbca7	-0.03802171
61	0x3d13f213	0.03611953
62	0xbd0fe2fa	-0.03512857
63	0x3d2aa83d	0.04166435
64	0xbd0193ba	-0.031635024
65	0x3d1a4f70	0.037673414
66	0x3c4fd414	0.012684841
67	0x3bbd012e	0.005767963
68	0x3bf94fd8	0.007608395
69	0x3ba5b1b0	0.0050565824
70	0x3b06b965	0.002055728
71	0xbb0c62ba	-0.002142115
72	0xbc5ec86a	-0.013597587
73	0xbc7d65c5	-0.015466158
74	0x3d0df3fe	0.034656517
75	0x3d1d25a4	0.038365975
76	0x3cfac42e	0.030611124
77	0xbbba2055	-0.005680124
78	0x3ccad50b	0.02475979
79	0x3c2a9365	0.010411118
80	0x3d2a93d6	0.041644894
81	0xbd255894	-0.040367678
82	0xbcbcef7b	-0.023063412
83	0x3c715718	0.014730237
84	0xbca4543f	-0.020059703
85	0xbd16cce1	-0.03681648
86	0x3cc23aed	0.023709739
87	0xbcb1cec3	-0.021705037
88	0xbb9ff6ee	-0.0048817312
89	0xba8a1d73	-0.0010537341
90	0xbd403390	-0.046924174
91	0xbc253e40	-0.010085642
92	0x3d1d6da9	0.03843466
93	0x3b8da9eb	0.0043232343
94	0x3d1d85a8	0.038457543
95	0x3d2bc96b	0.041940134
96	0x3c465966	0.012106275
97	0x3cb70549	0.022341387
98	0x3cf97d1c	0.030455165
99	0x3c52f0a2	0.012874754
100	0xbc1620aa	-0.009163061
101	0xba9a39e5	-0.0011766521
102	0xbb4eb9c5	-0.0031543833
103	0xbc6dbf85	-0.014510994
104	0x3b6aa1e2	0.0035802056
105	0x3d256fc2	0.040389784
106	0xbca4eb8f	-0.020131854
107	0x3cad04b9	0.021120416
108	0xbc3a70cd	-0.011379433
109	0x3d23a979	0.039956544
110	0xbd07311d	-0.033005822
111	0x3cb3a178	0.02192758
112	0x3d04f4a9	0.03245989
113	0xbcc55415	-0.024087945
114	0xbc93d624	-0.018046446
115	0x3cb3bb62	0.021939937
116	0x3c143d05	0.009047751
117	0xbc934658	-0.017977878
118	0xbd0af2b3	-0.033922862
119	0x3b487db1	0.0030592496
120	0xb5a83a72	-1.2533985e-06
121	0x3b4b7fdd	0.0031051554
122	0x37d44469	2.5304225e-05
123	0x3ccada5c	0.024762325
124	0x3ab4dc8d	0.0013798639
125	0xbcbe01f8	-0.023194298
126	0x3c94edbc	0.018179767
127	0x3d162da9	0.03666464
128	0xbce63c50	-0.028104931
129	0x3b85c44f	0.0040822397
130	0x3cb73b26	0.022367071
131	0xbcd67ba3	-0.026182001
132	0xbb74e076	-0.0037365234
133	0x3ca3bfb1	0.019988867
134	0x3c0fd7ca	0.008779475
135	0xbd2d3fb3	-0.042297076
136	0xbafe7fd2	-0.0019416756
137	0xbc0f5585	-0.008748417
138	0xbb9a0cd3	-0.004701236
139	0x3bc94c74	0.006143147
140	0x3d0ef7c2	0.03490425
141	0xbd234c7a	-0.039867856
142	0x3ce15ffd	0.027511591
143	0xbc69d5b8	-0.014272146
144	0x3c6f6436	0.0146112945
145	0xbb33eb1d	-0.002745337
146	0x3c9be221	0.019028725
147	0xbcaa83d4	-0.020814814
148	0xbd18d45a	-0.03731189
149	0x36c9cc46	6.0140474e-06
150	0x3d1c9d66	0.038236044
151	0x3c0b349b	0.008496429
152	0x3c3d35c5	0.011548464
153	0x3cdd77a0	0.02703458
154	0xbd18ba8e	-0.037287287
155	0x3a14494b	0.00056566735
156	0xbccdbce2	-0.02511448
157	0x3cfdea7d	0.030995602
158	0x3b9df2b6	0.004820193
159	0xbcac1c8e	-0.02100971
160	0x3d1f387b	0.038872223
161	0xbcd7fa2c	-0.026364408
162	0xbcfb8573	-0.030703282
163	0x3d0fbf01	0.035094265
164	0xbcd1306d	-0.025535787
165	0x3c46fdd6	0.01214548
166	0x3bbe99ea	0.005816688
167	0x3d0f0411	0.034915987
168	0xbcdbcedc	-0.026832037
169	0x3cd3336d	0.025781358
170	0x3c9e42cb	0.019318959
171	0x3ca79ed5	0.02046148
172	0xbc91dc4e	-0.017805245
173	0xbcda2b1b	-0.026631882
174	0xbc4ae7f0	-0.0123844
175	0xbc49d87f	-0.012319683
176	0xbce8d015	-0.028419534
177	0xbc6f2487	-0.014596111
178	0xbcd21627	-0.025645329
179	0xbd101921	-0.035180215
180	0x3a6131d8	0.0008590496
181	0xbcddbaf6	-0.027066689
182	0x3c2eb0a8	0.010662235
183	0xbb854c34	-0.004067922
184	0xbcc53232	-0.024071787
185	0x3c87770b	0.016536256
186	0xbcd24e65	-0.025672147
187	0x3c718757	0.01474174
188	0xbce7cb7e	-0.028295275
189	0xbd264a80	-0.040598392
190	0xbcdc6f16	-0.026908439
191	0x3d1e66e9	0.03867236
192	0x3cac29a9	0.021015959
193	0xbbc16388	-0.0059017576
194	0xbab85bd4	-0.0014065453
195	0x3cb5ef86	0.02220894
196	0x3cba6b9c	0.02275639
197	0xbc824b78	-0.015905127
198	0x3c870ab3	0.016484594
199	0x3c09570f	0.008382573
200	0x3ccf1549	0.025278704
201	0xbd28420c	-0.041078612
202	0xbd24e34c	-0.04025583
203	0x3caa7161	0.020806016
204	0x3d0e9451	0.034809414
205	0xbd26e899	-0.040749166
206	0xbb8cf628	-0.004301805
207	0x3ca4d284	0.020119913
208	0x3d063fa3	0.032775532
209	0xbce12953	-0.027485525
210	0xbc7f6c2e	-0.015589757
211	0x3c535b96	0.012900254
212	0x3c90019d	0.017578894
213	0x3d08ca68	0.033396155
214	0x3c6b253f	0.014352142
215	0xbbdadf59	-0.006679457
216	0xbcd37811	-0.025814088
217	0x3c39f06a	0.011348823
218	0xbc679080	-0.014133573
219	0xbd0831ad	-0.0332505
220	0x3d1e6c92	0.03867776
221	0x3b9d8669	0.0048072827
222	0xbb697ba7	-0.003562668
223	0x3cf09bf0	0.029371232
224	0x3c83488e	0.016025808
225	0x3c6d114f	0.014469459
226	0x3c95ede9	0.018301921
227	0x3b047bf3	0.002021548
228	0x3ca0214e	0.01954713
229	0xbd23dce2	-0.040005572
230	0xbc6e3637	-0.014539293
231	0xbce83253	-0.028344309
232	0xbd09fe2b	-0.03368966
233	0xbd1626a2	-0.036657937
234	0xbcc1ab9d	-0.023641402
235	0xbcc009c4	-0.023442157
236	0x3c90105d	0.017585928
237	0x3cb17d19	0.021666097
238	0x3cec8040	0.028869748
239	0xbd11de56	-0.035612427
240	0x3d22e3d7	0.039768066
241	0xbc83d41a	-0.016092349
242	0xbc9d7257	-0.01921956
243	0xbd0ee110	-0.034882605
244	0xbca96e35	-0.020682434
245	0x3d29e7f8	0.04148099
246	0xba4630bb	-0.0007560362
247	0x3d23247f	0.039829727
248	0x3cdf8931	0.027287098
249	0x3d38d708	0.045126945
250	0x3c4fda75	0.012686362
251	0x3b3beda0	0.002867557
252	0xbc9c0efc	-0.019050114
253	0xbb792807	-0.0038018243
254	0xbc55320b	-0.013012419
255	0xbcda070a	-0.026614685

block2.0.bias f4 [64]
0	0x3cc02da1	0.023459258
1	0xbc72e346	-0.014824694
2	0x3ba12df5	0.0049188086
3	0xbcd0d60f	-0.025492696
4	0xbccf37e8	-0.025295213
5	0x3c6e6c50	0.014552191
6	0xbceb2450	-0.028703839
7	0x3c6555c0	0.013997495
8	0x3cd7cdb7	0.02634321
9	0xbc3076a5	-0.010770475
10	0x3d0077a8	0.031364113
11	0xbb5d118f	-0.003373239
12	0x3c7a9392	0.015293973
13	0x3c66a3be	0.014077125
14	0xbb0c80f3	-0.0021439164
15	0x3cc75b73	0.024335599
16	0xbd17b6da	-0.037039615
17	0xbd0f7099	-0.03501949
18	0x3c96e1b2	0.018418167
19	0xbc06ecf9	-0.00823521
20	0x3ac333a1	0.0014892706
21	0x3cd2ed60	0.025747955
22	0x3d104da6	0.0352303
23	0x3ce0c6e4	0.027438588
24	0xbcb0c2c9	-0.021577256
25	0xbc2c1a94	-0.010504384
26	0x3c9dd9dd	0.019268924
27	0xbc950881	-0.018192532
28	0xbc8f005c	-0.017456226
29	0xbbf1e5c2	-0.0073821256
30	0x3cf1c756	0.029513996
31	0xbc44ba9f	-0.012007385
32	0xbcd753bc	-0.026285045
33	0x3c860412	0.016359363
34	0x3cbbbcce	0.022917178
35	0xbbf9928e	-0.0076163476
36	0x3cefb6e5	0.029262016
37	0xbcea2039	-0.028579818
38	0xbc57b56e	-0.013165815
39	0xbd13ace0	-0.03605354
40	0xb9e0bced	-0.0004286537
41	0xbce3c6e7	-0.027804805
42	0x3cbcf7aa	0.023067314
43	0x3ce9f18d	0.028557563
44	0x3ce94051	0.028473051
45	0x3d1f8c22	0.038952
46	0x3cfee456	0.031114738
47	0xbd0430f4	-0.032273248
48	0xbbf8b6f9	-0.0075901714
49	0xbca1cb3d	-0.019750232
50	0x3d0393d2	0.032123394
51	0xb907fdf0	-0.00012969202
52	0xbc95c825	-0.018283913
53	0x3c904398	0.017610356
54	0xbcdb84d9	-0.026796745
55	0xbd223d92	-0.0396095
56	0x3d21a05d	0.039459575
57	0x3ce26a17	0.027638478
58	0xbd170a05	-0.03687479
59	0x3c775496	0.01509585
60	0x3b97834d	0.0046238066
61	0x3bc5daf6	0.006038065
62	0x3ccd06cd	0.025027657
63	0x3d0de9b7	0.034646716

block2.1.weight f4 [64]
0	0x3f807e6c	1.0038581
1	0x3f7fa54c	0.998616
2	0x3f809315	1.0044886
3	0x3f803497	1.0016049
4	0x3f7ef05a	0.995855
5	0x3f80f2cd	1.0074097
6	0x3f7e3962	0.9930631
7	0x3f7e1e51	0.9926501
8	0x3f7dbfc1	0.9912072
9	0x3f8070c8	1.0034418
10	0x3f802e80	1.0014191
11	0x3f7eeec1	0.9958306
12	0x3f807ff0	1.0039043
13	0x3f7fd403	0.9993288
14	0x3f7ce700	0.9878998
15	0x3f7fb3bb	0.9988362
16	0x3f7f4c98	0.9972625
17	0x3f7f0c23	0.99627894
18	0x3f7ff12c	0.99977374
19	0x3f7effec	0.99609256
20	0x3f7f90ce	0.9983033
21	0x3f804200	1.0020142
22	0x3f803424	1.0015912
23	0x3f8012a3	1.0005687
24	0x3f7ddc00	0.9916382
25	0x3f7fbdcd	0.9989899
26	0x3f814228	1.0098314
27	0x3f80f069	1.0073367
28	0x3f7e38cc	0.99305415
29	0x3f7e991d	0.9945238
30	0x3f7f3907	0.9969639
31	0x3f80a0e1	1.0049096
32	0x3f7dba0f	0.9911203
33	0x3f7f0bde	0.9962748
34	0x3f80b2e3	1.0054592
35	0x3f7f94cf	0.9983644
36	0x3f7fbd76	0.9989847
37	0x3f809bc7	1.004754
38	0x3f80ea15	1.0071436
39	0x3f803353	1.0015663
40	0x3f7ef4fc	0.99592566
41	0x3f7ebed5	0.99509937
42	0x3f7ee293	0.99564475
43	0x3f7df9ce	0.99209297
44	0x3f804071	1.0019666
45	0x3f7ea892	0.9947597
46	0x3f7f4977	0.99721473
47	0x3f7f012a	0.9961115
48	0x3f814c34	1.010138
49	0x3f7d77e6	0.99011075
50	0x3f811978	1.0085897
51	0x3f7f6c19	0.9977432
52	0x3f7f97c9	0.9984098
53	0x3f80ca13	1.0061668
54	0x3f80922f	1.0044612
55	0x3f80fb83	1.0076755
56	0x3f7ee7fe	0.9957274
57	0x3f7ea573	0.99471205
58	0x3f81bb98	1.0135374
59	0x3f7d393b	0.9891545
60	0x3f802da1	1.0013925
61	0x3f7fbab7	0.9989428
62	0x3f7ed714	0.99546933
63	0x3f80e51b	1.0069917

block2.1.bias f4 [64]
0	0xbb1751d5	-0.0023089547
1	0xbc392e44	-0.0113025345
2	0xbc04a795	-0.008096595
3	0xbc8398e5	-0.016064117
4	0xbc2f479a	-0.0106982235
5	0xbc39505c	-0.011310663
6	0xbc07d5c9	-0.008290716
7	0xbbcd54f5	-0.006266231
8	0xbc49d1ee	-0.012318118
9	0xbc36d243	-0.011158529
10	0xbc34d595	-0.01103725
11	0xbc30a9f0	-0.010782704
12	0xba9c6457	-0.0011931759
13	0xbc721b14	-0.014776964
14	0xbc41c590	-0.011826888
15	0xbbcb07e2	-0.006196008
16	0xbbdfdf1a	-0.0068320157
17	0xbc299508	-0.010350473
18	0xbc207397	-0.009793184
19	0xbbf1914c	-0.007372057
20	0xbb7bfb31	-0.0038449282
21	0xbb844f70	-0.00403779
22	0xbc2d9542	-0.010594668
23	0xbc01194a	-0.007879565
24	0xbc5e55ff	-0.013570308
25	0xbb59905c	-0.0033197617
26	0xbc0eaea8	-0.0087086335
27	0xbc621004	-0.013797764
28	0xbc02c331	-0.007981108
29	0xbc36c205	-0.011154656
30	0xbc2bf169	-0.010494568
31	0xbbd1cff6	-0.0064029647
32	0xbc6c4bac	-0.014422338
33	0xbbebab38	-0.0071920417
34	0xbc281090	-0.010257855
35	0xbc369a18	-0.011145137
36	0x3bb63276	0.0055602146
37	0xbb3d368e	-0.0028871628
38	0x3b396a87	0.0028292255
39	0xbc64fdab	-0.013976495
40	0xbba3da54	-0.005000392
41	0xbc074d95	-0.008258243
42	0xbc2485d6	-0.010041675
43	0xbc8a4812	-0.016880069
44	0xbb97863e	-0.004624157
45	0xbc261f80	-0.010139346
46	0xbc09a9f2	-0.0084023345
47	0xbbbf1fda	-0.0058326544
48	0x3b05e9fe	0.002043366
49	0xbc04dbf2	-0.00810908
50	0xbc2a2288	-0.010384209
51	0xbc1f20bd	-0.009712395
52	0xbbede0b1	-0.0072594513
53	0xba9d0e0d	-0.0011982337
54	0xba8ec890	-0.0010893513
55	0x398545ff	0.00025419888
56	0xbbd521df	-0.006504282
57	0xbc2b55f3	-0.010457504
58	0xbb08d4fe	-0.0020878906
59	0xbc563038	-0.01307302
60	0xbc907216	-0.017632525
61	0xbc0b3350	-0.008496121
62	0xbc43b4f3	-0.011944997
63	0xbc7da678	-0.015481584

block2.1.running_mean f4 [64]
0	0xbe00a92c	-0.12564534
1	0xbee72585	-0.45145813
2	0xbe8e3bb6	-0.2777993
3	0x3d11d896	0.035606943
4	0xbc8d54de	-0.017252382
5	0xbf0718e9	-0.52772385
6	0xbee1f21b	-0.44130024
7	0x3eab384f	0.33441398
8	0x3f0785d2	0.5293857
9	0xbdde8999	-0.108660884
10	0xbe827f55	-0.25487772
11	0x3de2d4a7	0.110757165
12	0xbe69f76d	-0.22848292
13	0xbe533e5f	-0.20629261
14	0x3f1c7e9c	0.6113069
15	0xbd1253bc	-0.035724387
16	0xbf1648da	-0.5870491
17	0x3ebe8e6f	0.37218043
18	0xbf36e05c	-0.71436095
19	0xbd3948a2	-0.045235284
20	0xbf8de9de	-1.1086996
21	0x3ccac9ca	0.024754424
22	0xbecc1a06	-0.39863604
23	0xbc307a16	-0.010771295
24	0xbe2ff17d	-0.17181964
25	0xbf264345	-0.64946395
26	0x3e140f49	0.14458956
27	0xbeccfde0	-0.4003744
28	0xbd966bca	-0.07344778
29	0x3ed69a3a	0.4191454
30	0xbd95b41d	-0.073097445
31	0xbea5c0d9	-0.32373694
32	0x3ebe25b3	0.37138137
33	0x3f4207c4	0.757931
34	0xbea353f4	-0.3189999
35	0x3f14c946	0.5811962
36	0xbcfcf5dc	-0.030878954
37	0xbebb751f	-0.36612794
38	0xbd556e4e	-0.052107148
39	0xbd8b5211	-0.06802762
40	0x3f04a064	0.51807237
41	0x3ee09311	0.43862203
42	0xbf06df5d	-0.52684575
43	0xbe85b541	-0.26114848
44	0x3e23c948	0.15994751
45	0xbf04ed6a	-0.51924765
46	0xbf10c75b	-0.5655419
47	0xbea58964	-0.32331383
48	0xbda99221	-0.08279825
49	0x3e4d16da	0.20028248
50	0x3e3fba9a	0.18723527
51	0xbdf17360	-0.11789584
52	0xbec31f32	-0.38109738
53	0x3e1c2c16	0.15251192
54	0xbe7eb8d5	-0.24875195
55	0x3d8fe268	0.070256054
56	0xbf0d91bc	-0.553005
57	0xbee14426	-0.43997306
58	0xbdb8ef3e	-0.09030007
59	0xbe444e66	-0.19170532
60	0x3f1fc42e	0.6240872
61	0x3e7a0831	0.24417187
62	0x3eb1481e	0.34625334
63	0xbe6caf50	-0.23113751

block2.1.running_var f4 [64]
0	0x3dad311d	0.08456633
1	0x3e870f83	0.26379022
2	0x3e7295b4	0.2368992
3	0x3d64f354	0.05589612
4	0x3e25195a	0.16122952
5	0x3e035237	0.12824331
6	0x3f6b41cc	0.91897273
7	0x3ee569c5	0.44807258
8	0x3e10b3d2	0.14131096
9	0x3ecaf7d7	0.39642212
10	0x3def3ead	0.11681876
11	0x3e4f0acf	0.20218967
12	0x3e808af0	0.25106
13	0x3da0c072	0.07849206
14	0x3e59b567	0.21260606
15	0x3e7a4e13	0.24443845
16	0x3f0e387d	0.55554944
17	0x3e3a3665	0.18184812
18	0x3e49a0b5	0.19690211
19	0x3e61df65	0.22057875
20	0x3f760181	0.96096045
21	0x3e886557	0.26639816
22	0x3df6b0b2	0.12045421
23	0x3e340578	0.17580211
24	0x3f1ed470	0.62042904
25	0x3e52a1f9	0.205696
26	0x3d621bdd	0.055202354
27	0x3e084278	0.13306606
28	0x3ed6e81f	0.4197397
29	0x3e7ce5a1	0.24696971
30	0x3e55db5a	0.20884457
31	0x3e06fa28	0.13181365
32	0x3f370a69	0.7150026
33	0x3ec62096	0.38696736
34	0x3dedacc5	0.11605219
35	0x3e0778d6	0.13229689
36	0x3dbbfeb3	0.091794394
37	0x3e16db07	0.1473199
38	0x3d3e0ea5	0.046400685
39	0x3d94b99d	0.072619654
40	0x3e424300	0.18970871
41	0x3f1525bf	0.5826072
42	0x3ef325e8	0.47489858
43	0x3f468fd3	0.7756321
44	0x3dc1b140	0.09457636
45	0x3eece2d1	0.46266797
46	0x3e640246	0.22266492
47	0x3e8855fe	0.26628107
48	0x3da84661	0.08216549
49	0x3e2a1465	0.16609342
50	0x3d8fbce6	0.070184514
51	0x3e681ff3	0.22668438
52	0x3e61bd4d	0.22044869
53	0x3da6d392	0.081458226
54	0x3deec217	0.116581134
55	0x3dceee40	0.10104036
56	0x3eb54ea0	0.3541155
57	0x3e11f521	0.14253666
58	0x3d8142f3	0.06311598
59	0x3f4004d5	0.75007373
60	0x3e9d3b82	0.30709463
61	0x3f4663c6	0.7749599
62	0x3e5463d8	0.20741212
63	0x3dc0da7b	0.09416672

block3.0.weight f4 [64, 64, 3, 3]
0	0xbcfd762c	-0.030940138
1	0xbce4c298	-0.02792482
2	0xbc9b49c0	-0.018956065
3	0x3ca178c5	0.019710908
4	0x3cfdf2b1	0.030999513
5	0x3d152cbc	0.036419615
6	0xbc99cf7c	-0.018775694
7	0x3d4420cc	0.04788284
8	0xbd12ca7b	-0.03583763
9	0xbc87ac00	-0.016561508
10	0xbc9da49b	-0.019243529
11	0x39af9c76	0.00033495174
12	0xbbf791fb	-0.007555244
13	0xbc5df08a	-0.0135461185
14	0x3cb092ed	0.021554435
15	0xbd0beb61	-0.03416002
16	0x3c03d944	0.008047406
17	0xbc199b1f	-0.009375363
18	0x3c945ddf	0.018111167
19	0x3b98ab3d	0.004659085
20	0xbb68b768	-0.003550971
21	0x397ca736	0.00024094884
22	0xbd277a3d	-0.04088806
23	0xb90bb438	-0.0001332321
24	0x3cd97d9d	0.026549155
25	0xbd023744	-0.031790987
26	0xba4382ee	-0.000745817
27	0xbccf2d35	-0.025290111
28	0xbafc0512	-0.0019227585
29	0xbc56e535	-0.013116171
30	0x3d12d0a5	0.03584351
31	0xbcc0783a	-0.023494828
32	0xbd02c416	-0.031925283
33	0x3cc48560	0.02398938
34	0x3d209a18	0.039209455
35	0x3cceecd1	0.025259407
36	0xbcfbf774	-0.030757643
37	0xbd204401	-0.039127354
38	0xbc82c5fa	-0.015963543
39	0xbce923e4	-0.028459497
40	0x3cce3d1c	0.025175624
41	0x3c9554f2	0.018228982
42	0x3ca787cd	0.020450497
43	0x3c75163d	0.014958915
44	0xbd2d212c	-0.042267963
45	0xbcf34f11	-0.029700788
46	0xbcb344db	-0.021883419
47	0xbc4eb576	-0.012616506
48	0xba7a8ea7	-0.0009558
49	0xbc09b5c5	-0.008405154
50	0x3c980d4d	0.01856103
51	0x3c92efee	0.017936673
52	0x3d097fb3	0.03356905
53	0x3c6a4326	0.014298236
54	0xbceabc8f	-0.028654365
55	0x3cee70f9	0.029106604
56	0xbc038f3c	-0.008029755
57	0x3af759ed	0.0018871404
58	0xbcd2fca5	-0.025755236
59	0xbcfcba2d	-0.030850494
60	0x3d1ea011	0.03872687
61	0x3acf20c5	0.0015802613
62	0xbccbd818	-0.024883315
63	0xbcd552f7	-0.026040537
64	0xbc60e6e6	-0.0137269255
65	0x3ca448f3	0.020054316
66	0x3cd3eb3d	0.025869006
67	0xbcf97155	-0.030449549
68	0x3b9198ce	0.0044432646
69	0x3c0119ff	0.007879733
70	0xbd0d115a	-0.034440376
71	0xbcc007cf	-0.023441223
72	0xbc9f319c	-0.019432835
73	0xbb0e42e3	-0.0021707348
74	0x3cb9934e	0.022653248
75	0x3d09e84e	0.03366881
76	0xbd0fc0d5	-0.03509601
77	0x3d25ef66	0.04051151
78	0xbc58c6e8	-0.013231017
79	0xbc3111d6	-0.010807475
80	0x3d1c57a7	0.03816953
81	0xbb266311	-0.0025388638
82	0x3ce60224	0.028077193
83	0xbc8065b1	-0.01567349
84	0xbd317b4b	-0.043330472
85	0xbc67c3f2	-0.014145838
86	0x3c8aec4d	0.01695838
87	0xbca49367	-0.020089818
88	0x3d083fa0	0.033263803
89	0xbc754bef	-0.014971717
90	0x3d006220	0.03134358
91	0xbc701936	-0.014654448
92	0x3caf0c87	0.021368278
93	0x3c5251e3	0.012836906
94	0x3c2c42bf	0.01051396
95	0xbbedf69f	-0.0072620655
96	0x3d2f529b	0.042803388
97	0x3cb1ca7c	0.021702997
98	0x3cbff9b7	0.023434503
99	0xbba4ddbb	-0.005031315
100	0xbd0815c6	-0.03322389
101	0xbc768d31	-0.015048311
102	0x3ad8e67a	0.001654818
103	0xbcc73bee	-0.024320569
104	0x3cba9541	0.022776248
105	0x3cba3244	0.022729047
106	0x3cbca87a	0.023029555
107	0xbc95e725	-0.018298695
108	0x3c9b0d03	0.018927103
109	0x3d07114f	0.03297549
110	0x3d012b0a	0.031535186
111	0x3ca1650d	0.019701505
112	0xbb9e3b2a	-0.0048288302
113	0xbca03958	-0.019558594
114	0x3cfcc775	0.030856827
115	0x3c9c614b	0.019089362
116	0xbcb28487	-0.02179171
117	0x3aa7a09e	0.0012788957
118	0xbcbe73cd	-0.023248577
119	0xbc6e5336	-0.014546206
120	0x3c22c64b	0.009934972
121	0xbcdb724e	-0.026787903
122	0xbd08d71b	-0.033408266
123	0xbc0b4cc4	-0.008502189
124	0x3cc2f105	0.023796568
125	0xbcde51f6	-0.027138691
126	0xbb4408d2	-0.0029912484
127	0xbcdb68df	-0.026783405
128	0x3cc430a9	0.023948984
129	0xbcc60c50	-0.024175793
130	0x3ce75f0c	0.028243564
131	0x3c15c287	0.009140617
132	0x3cf88743	0.030337935
133	0xbc8c9e09	-0.0171652
134	0x3cff508e	0.031166341
135	0x3c62255b	0.013802852
136	0x3bbd0082	0.005767883
137	0x3c9f3b02	0.019437317
138	0xbab85319	-0.0014062851
139	0x3cc94194	0.024567403
140	0x3c2f0efa	0.010684723
141	0xba6cca87	-0.00090328645
142	0xbd283af6	-0.041071855
143	0xbc250195	-0.010071178
144	0xbcc254bd	-0.023722047
145	0x3c4f1a72	0.012640582
146	0x3c92b945	0.017910609
147	0x3d09597e	0.033532612
148	0xba7781d6	-0.00094416493
149	0x3b9fe8d6	0.004880051
150	0x3cb7ffb4	0.022460796
151	0xbd35ed6d	-0.04441588
152	0xbcb3eb70	-0.021962851
153	0x3c60aa97	0.013712547
154	0x3cabb6b5	0.020961145
155	0x3bd4db7b	0.0064958907
156	0x3d064b00	0.03278637
157	0x3c946a2f	0.018117039
158	0x3c998aac	0.018742882
159	0x3b36d1c6	0.002789603
160	0x3d295cdc	0.041348323
161	0x3ce4a16d	0.027909005
162	0x3c7cb511	0.015424029
163	0xbcffdff9	-0.031234728
164	0x3cdced29	0.026968556
165	0xbc70b95f	-0.014692633
166	0xbcd37256	-0.025811356
167	0xbd313f85	-0.043273468
168	0x3c778e73	0.015109646
169	0x3c1cf0ed	0.009578926
170	0x3bb8164d	0.005617893
171	0xbce8a8d1	-0.02840081
172	0x3c94af6d	0.018150056
173	0x3c0f4646	0.008744782
174	0x3cc6922f	0.024239628
175	0xbcd61345	-0.026132235
176	0x3cadd6d9	0.021220611
177	0x3c7449f9	0.014910215
178	0x3ad102f3	0.0015946314
179	0x3c3ca9c7	0.011515087
180	0xbd3ce186	-0.046113513
181	0x3c23e7fe	0.010004042
182	0xbc81add0	-0.01582995
183	0xbc1f626a	-0.009728054
184	0xba9913c9	-0.001167887
185	0xbc559335	-0.013035585
186	0xbd1037d8	-0.035209507
187	0xbc16d3f9	-0.009205812
188	0x3ced9304	0.029000767
189	0xbd2b1505	-0.041768093
190	0x3c72ffdb	0.0148315085
191	0xbb864785	-0.0040978813
192	0xbce1c297	-0.027558608
193	0xbcc68d61	-0.024237337
194	0x3cdd5f00	0.027022839
195	0xbd0437f5	-0.032279927
196	0xbd0d1803	-0.034446727
197	0xba2d1e50	-0.0006603943
198	0x3ccb3845	0.024807105
199	0x3cce241e	0.025163706
200	0x3cb21d94	0.02174262
201	0x3cd90867	0.026493264
202	0x3b130a14	0.0022436427
203	0x3bd1e896	0.0064059
204	0xbc820a3f	-0.015874026
205	0xbd33feb1	-0.043944065
206	0xbc2df307	-0.010617024
207	0x3d0120b3	0.031525325
208	0xb9c75445	-0.00038019023
209	0x3ce8fa53	0.028439676
210	0xbc19ca66	-0.009386634
211	0xbca59021	-0.020210328
212	0xbd126fcd	-0.035751153
213	0x3d318813	0.04334266
214	0x3b5f9b8d	0.0034119815
215	0xbc7ee8c3	-0.015558424
216	0xbc1c202e	-0.009529157
217	0x3ce997cf	0.02851477
218	0x3c0dd46d	0.008656603
219	0x3d0162d7	0.0315884
220	0x3ca87fb1	0.0205687
221	0xba6619bb	-0.0008777638
222	0xbc77524e	-0.015095307
223	0xbb85856e	-0.004074744
224	0xbc641bc5	-0.013922636
225	0x3cb06e4c	0.021536969
226	0x3c78e3b5	0.015191008
227	0xbbd61fa6	-0.0065345345
228	0x3c6e1100	0.01453042
229	0xb8a1eb5c	-7.720917e-05
230	0x3b48bca7	0.0030630024
231	0xbc21842e	-0.009858174
232	0x3d2f7c94	0.042843416
233	0x3b987669	0.0046527875
234	0xbd149873	-0.0362782
235	0x3d3eb7bc	0.04656194
236	0xbd21f016	-0.039535604
237	0x3bff8501	0.0077978377
238	0xbcb600dc	-0.022217207
239	0x3c901e14	0.017592467
240	0x3c048a51	0.008089618
241	0xbcd075c0	-0.025446773
242	0x3cc7022a	0.024293024
243	0xbd34daac	-0.044153854
244	0x3cc65dcf	0.024214653
245	0x3c2acc5c	0.0104247
246	0xba6353f8	-0.0008671875
247	0xbadddbf5	-0.0016926514
248	0xbd118cf2	-0.035534807
249	0x3c900186	0.017578851
250	0xbd174611	-0.036932055
251	0xbc4b096e	-0.012392385
252	0xbbc62dff	-0.0060479636
253	0xbbbdf968	-0.005797554
254	0x3b9a44b0	0.004707895
255	0xbcac2fe5	-0.021018932

block3.0.bias f4 [64]
0	0x3bf98db0	0.0076157674
1	0xbb3f459c	-0.0029185778
2	0xbceb8cbe	-0.028753635
3	0xbca8f12b	-0.02062281
4	0x3d1e7540	0.038686037
5	0x3be57dab	0.007003506
6	0xbd1356f4	-0.035971597
7	0xbd07413f	-0.033021208
8	0xbd1bdb95	-0.038051207
9	0xbd1aa14d	-0.037751485
10	0xbca3a137	-0.019974334
11	0xbbb47ab2	-0.0055077905
12	0x3cbce232	0.023057077
13	0xbd0d03b3	-0.034427356
14	0x3cfe424d	0.031037474
15	0xbd1196a1	-0.03554404
16	0x3c8fcbc3	0.017553216
17	0xbc2b4085	-0.010452394
18	0xbb9fe71c	-0.0048798453
19	0xbd250604	-0.04028894
20	0x3c5bb13f	0.013408958
21	0xbcba23b9	-0.022722112
22	0xbd0dc311	-0.034609858
23	0x3cfdc3ca	0.030977149
24	0xbb874503	-0.0041281
25	0xbcd1195d	-0.02552479
26	0x3c9886e1	0.018619003
27	0xbc390c7f	-0.011294483
28	0x3be7f181	0.00707835
29	0xbcf5e02a	-0.030014116
30	0x3cec6401	0.02885628
31	0xbb58ad5a	-0.003306231
32	0x3a78dbbd	0.0009493193
33	0xbd2b3834	-0.041801646
34	0x3cbeae05	0.023276338
35	0xbc0340b2	-0.00801103
36	0x3d1268bc	0.035744414
37	0xba18cdbb	-0.0005828996
38	0xbd07cb2b	-0.03315274
39	0xbc9e0c75	-0.01929305
40	0x3bef0b68	0.007295061
41	0xbd1d4be9	-0.03840247
42	0xbc8dd7ca	-0.01731481
43	0xbc644ebd	-0.013934788
44	0xbcae3516	-0.021265548
45	0xbcbce3c6	-0.02305783
46	0xbd02ded5	-0.03195079
47	0x3ced22ba	0.028947223
48	0x3a7b32e7	0.0009582475
49	0xbca6aa91	-0.020345004
50	0x3be11e2f	0.0068700532
51	0xbd17265b	-0.036901813
52	0xbc811aaa	-0.015759785
53	0xbb9165c1	-0.004437179
54	0xbcf012dc	-0.029305868
55	0xbc30fab6	-0.010801962
56	0x3d13f4ee	0.036122255
57	0x3b7ddb37	0.0038735399
58	0xbcdcb39c	-0.026941113
59	0xbd083103	-0.033249866
60	0x3c067c6f	0.008208378
61	0xbc177eef	-0.009246572
62	0x3cba5fe6	0.022750806
63	0x3aa1e1e5	0.0012350647

block3.1.weight f4 [64]
0	0x3f80b552	1.0055335
1	0x3f7d9337	0.9905276
2	0x3f7edc4d	0.995549
3	0x3f7ed17a	0.99538386
4	0x3f7f0f57	0.9963278
5	0x3f7f69ce	0.9977082
6	0x3f7e7003	0.99389666
7	0x3f7ffc63	0.99994487
8	0x3f804d89	1.0023662
9	0x3f7f72bf	0.99784464
10	0x3f802e11	1.0014058
11	0x3f7f6bd9	0.9977394
12	0x3f7f76cf	0.9979066
13	0x3f806866	1.003186
14	0x3f7e1968	0.99257517
15	0x3f80af65	1.0053526
16	0x3f7f6e41	0.9977761
17	0x3f7e3ace	0.9930848
18	0x3f7f60aa	0.9975687
19	0x3f805c36	1.002814
20	0x3f7d4be6	0.98943937
21	0x3f7f1467	0.99640507
22	0x3f80acf0	1.0052776
23	0x3f801bcc	1.0008483
24	0x3f7cfc95	0.9882291
25	0x3f7ddb08	0.9916234
26	0x3f7ff4f2	0.9998313
27	0x3f8100d3	1.0078377
28	0x3f7ef9ad	0.99599725
29	0x3f803f97	1.0019406
30	0x3f8130c0	1.0093002
31	0x3f7e3cd4	0.99311566
32	0x3f7fdada	0.99943316
33	0x3f7fb253	0.99881476
34	0x3f803bca	1.0018246
35	0x3f801493	1.0006279
36	0x3f80cb09	1.0061961
37	0x3f808c25	1.0042769
38	0x3f802214	1.00104
39	0x3f804f44	1.002419
40	0x3f7e9051	0.9943896
41	0x3f7dd91b	0.991594
42	0x3f80bdab	1.0057882
43	0x3f7ff7d2	0.9998752
44	0x3f7f4f4a	0.9973036
45	0x3f817233	1.0112976
46	0x3f803be9	1.0018283
47	0x3f808339	1.0040046
48	0x3f7edd12	0.99556077
49	0x3f7d7265	0.9900268
50	0x3f81110c	1.0083327
51	0x3f808e92	1.0043509
52	0x3f8118f3	1.0085739
53	0x3f7e439f	0.9932193
54	0x3f801610	1.0006733
55	0x3f80c6cc	1.0060668
56	0x3f81d255	1.0142313
57	0x3f7f591b	0.9974534
58	0x3f7e476c	0.9932773
59	0x3f800103	1.0000309
60	0x3f80656a	1.0030949
61	0x3f80d4c9	1.0064937
62	0x3f7d295d	0.9889124
63	0x3f7e9a24	0.9945395

block3.1.bias f4 [64]
0	0xbc1ef6ba	-0.009702379
1	0xbc317412	-0.010830896
2	0xbc3a4f56	-0.011371454
3	0xbc730f86	-0.014835244
4	0xbbd86890	-0.0066042617
5	0xbc3db292	-0.011578219
6	0xbcbe947e	-0.023264166
7	0xbb265560	-0.0025380477
8	0xbc38e24a	-0.01128442
9	0xbc2fd495	-0.010731836
10	0xbb926068	-0.004467059
11	0xbc3097a4	-0.010778341
12	0xbc18e04e	-0.009330822
13	0x3af5c3da	0.0018750385
14	0xbc27f5a4	-0.010251436
15	0xbcac7d67	-0.02105589
16	0xbc149d82	-0.009070756
17	0xbc19bc10	-0.0093832165
18	0xbb83b831	-0.00401976
19	0xbc4da8b6	-0.012552431
20	0xbc6903ed	-0.014222127
21	0xbc5b74a6	-0.01339451
22	0xbb9e4771	-0.004830294
23	0xbc320ad5	-0.01086684
24	0xbc773679	-0.015088671
25	0xbbe65d88	-0.0070301928
26	0xbc8c8b8a	-0.017156381
27	0xbc4cc7b2	-0.012498783
28	0xbbd48ff1	-0.0064868857
29	0xbbcc3063	-0.006231354
30	0xbbf99b20	-0.0076173693
31	0xbbe25130	-0.006906651
32	0xbbb3857c	-0.005478559
33	0xbbcbcfb3	-0.006219828
34	0xbbaad484	-0.005213322
35	0xbbd7d38b	-0.006586497
36	0xbc46a84d	-0.012125087
37	0xbc8da83c	-0.017292134
38	0xbbe8d680	-0.0071056485
39	0xbbb4cd22	-0.005517618
40	0xbc17c805	-0.009263997
41	0xbb2b511a	-0.002614087
42	0xbc65471a	-0.013994003
43	0xbc9232c6	-0.017846476
44	0xbc13fdef	-0.00903271
45	0xbb4d03c4	-0.0031282762
46	0xbc0a0a8a	-0.008425364
47	0xbc1291d4	-0.008945901
48	0xbba540df	-0.0050431336
49	0xbc5398e2	-0.012914868
50	0xbbed32a0	-0.007238701
51	0xbc691477	-0.014226071
52	0xbbbc8526	-0.005753177
53	0xbc79369a	-0.015210772
54	0xbc1c17ca	-0.009527156
55	0xbb5a73ea	-0.003333325
56	0xbbef5d1f	-0.007304802
57	0xbc355e6c	-0.011069875
58	0xbc5dea4f	-0.013544633
59	0xbc508b84	-0.012728576
60	0xbc4b8e07	-0.012423999
61	0xbc3b2589	-0.011422523
62	0xbc988170	-0.018616408
63	0xbc4890d0	-0.012241557

block3.1.running_mean f4 [64]
0	0xbd085db6	-0.033292495
1	0xbe55d88c	-0.20883387
2	0xbe07bd45	-0.13255794
3	0xbf0a5f3a	-0.54051554
4	0x3b2ce031	0.0026378746
5	0x3e467783	0.19381528
6	0x3cda76f1	0.026668044
7	0xbe69f018	-0.22845495
8	0x3ce39d1e	0.02778488
9	0xbe88fa8e	-0.26753658
10	0xbdd974f6	-0.10618012
11	0x3cc5788f	0.024105338
12	0x3cbf5e40	0.023360372
13	0xbf3e7e4b	-0.7441146
14	0xbe59298b	-0.21207254
15	0x3e73cbb0	0.2380817
16	0xbd738c17	-0.059459772
17	0x3e9b03eb	0.30276427
18	0x3ddbb1c0	0.107272625
19	0x3c610757	0.01373466
20	0xbd5c9a87	-0.053858306
21	0x3eb7ac48	0.35873628
22	0xbeaa3bed	-0.33248845
23	0x3dabfbf9	0.08397669
24	0x3db3af47	0.08773666
25	0xbe5e9a44	-0.21738535
26	0x3e6f8ea3	0.23394255
27	0x3e4f0fff	0.20220946
28	0x3e9b3efd	0.30321494
29	0x3c8b14ce	0.016977694
30	0xbe46dd35	-0.19420321
31	0xbf843d04	-1.033112
32	0xbf1796bf	-0.59214395
33	0x3e81e59b	0.25370488
34	0x3e81bd80	0.2533989
35	0xbecfd05c	-0.40588653
36	0x3e0011fc	0.1250686
37	0x3e6c4ad5	0.23075421
38	0x3d8b1aaa	0.06792195
39	0xbe4389f8	-0.190956
40	0xbf766969	-0.96254593
41	0xbe7da3d0	-0.24769521
42	0x3e915998	0.28388667
43	0xbe776d04	-0.2416268
44	0x3df17c68	0.11791307
45	0x3ec09a1a	0.3761757
46	0x3e818bee	0.2530207
47	0xbeaa136a	-0.33217937
48	0xbd01f11e	-0.031724088
49	0x3e17a00a	0.14807144
50	0x3e8ae765	0.27129665
51	0x3d8c1278	0.0683946
52	0x3b7aa3eb	0.0038244675
53	0x3d5b5bec	0.05355446
54	0x3e82381a	0.25433427
55	0xbf65333a	-0.8953129
56	0x3dbf7173	0.093478106
57	0x3e7759f7	0.24155413
58	0x3e57167f	0.21004675
59	0xbd8674b6	-0.065652296
60	0x3eb51c66	0.3537323
61	0x3eacab35	0.3372437
62	0x3ea981ff	0.33106992
63	0xbeacae6c	-0.33726823

block3.1.running_var f4 [64]
0	0x3e011da0	0.12608957
1	0x3e81f371	0.25381044
2	0x3e41a999	0.18912353
3	0x3e5ed6a9	0.21761574
4	0x3e84637b	0.25857148
5	0x3e3dee67	0.18547975
6	0x3e742fba	0.23846331
7	0x3e216bb5	0.15763743
8	0x3e2775f5	0.16353591
9	0x3e802a8f	0.2503247
10	0x3e5cbd31	0.21556546
11	0x3e37cae5	0.17948492
12	0x3ea50cc8	0.32236314
13	0x3e86570e	0.26238292
14	0x3ea56350	0.32302332
15	0x3e2d2574	0.16908818
16	0x3e3c40ad	0.18384047
17	0x3ec7872e	0.3897032
18	0x3e6c9e4d	0.23107262
19	0x3db012d2	0.0859734
20	0x3e564450	0.20924497
21	0x3e2277a8	0.15865958
22	0x3e66b23c	0.22528929
23	0x3e78dc6a	0.24302831
24	0x3e815195	0.25257555
25	0x3e425f80	0.18981743
26	0x3e9c5550	0.30533838
27	0x3e272f57	0.16326652
28	0x3e64f047	0.22357284
29	0x3ec2ba7a	0.38032895
30	0x3e3bc292	0.18335941
31	0x3f41e7b9	0.75744206
32	0x3f02fb1d	0.5116442
33	0x3ebfa1c3	0.37428102
34	0x3e2aef27	0.16692792
35	0x3ea4ab14	0.32161772
36	0x3e2f3613	0.17110471
37	0x3eb0109d	0.34387675
38	0x3de7e9d6	0.113238975
39	0x3e771b7f	0.24131583
40	0x3f1eedcb	0.62081593
41	0x3e844590	0.25834322
42	0x3e23cde3	0.15996508
43	0x3e79e1c6	0.24402532
44	0x3e855ada	0.26045877
45	0x3e811720	0.25212955
46	0x3ebea5ca	0.37235862
47	0x3eb114af	0.34586093
48	0x3e67db1e	0.2264218
49	0x3e2d0bf3	0.1689909
50	0x3e2a5dc6	0.16637334
51	0x3e5f84ea	0.21828046
52	0x3e0c2f6c	0.13689965
53	0x3dfa7ce1	0.1223085
54	0x3e8fa738	0.28057265
55	0x3eef19f8	0.466995
56	0x3e0d82fd	0.138195
57	0x3e5ff39c	0.21870273
58	0x3e35f6db	0.17769949
59	0x3e7a598a	0.24448219
60	0x3e7c2bd5	0.24626096
61	0x3e2cee97	0.1688789
62	0x3ec63a9c	0.3871659
63	0x3e4036ec	0.18770951
