legacy/results/old/basic/basic_4.pth (torch, 961549 bytes, 26 tensors)

block1.0.weight f4 [64, 1, 3, 3]
0	0xbe19c69b	-0.15017168
1	0xbe31625e	-0.1732268
2	0xbe788bd6	-0.24272093
3	0x3db3afc6	0.087737605
4	0x3ea33b5c	0.31881225
5	0xbde71ecf	-0.11285173
6	0xbd809bb5	-0.06279699
7	0xbe8ae955	-0.27131143
8	0x3e2635da	0.1623148
9	0x3e1a635b	0.15076964
10	0xbe80a14e	-0.25123066
11	0x3e756e1b	0.23967783
12	0x3e640ff5	0.22271712
13	0xbe41e831	-0.1893623
14	0x3e905ef0	0.28197432
15	0xbea0a21c	-0.3137368
16	0x3d8866fc	0.06660268
17	0xbddb5953	-0.107103966
18	0x3e5947cd	0.21218796
19	0x3ea54cc2	0.32285124
20	0xbe8b988e	-0.27264827
21	0x3e4bc079	0.19897641
22	0xbe1b3225	-0.15155847
23	0x3ea61cd4	0.3244387
24	0xbd9b3322	-0.07578112
25	0xbea211ec	-0.31654298
26	0x3d89c672	0.067273036
27	0x3e2f39dd	0.17111917
28	0x3e9b0c58	0.30282855
29	0xbe75d8aa	-0.24008432
30	0x3e508927	0.2036482
31	0x3de690bd	0.112580754
32	0x3d7e10aa	0.06202761
33	0x3e5d207e	0.21594426
34	0xbe2c5241	-0.16828252
35	0x3e193d50	0.14964795
36	0xbe0cc909	-0.13748564
37	0xbe85af1e	-0.26110166
38	0xbdf46b14	-0.11934486
39	0xbd276d14	-0.04087551
40	0x3eaa21b6	0.33228844
41	0xbced5465	-0.028970907
42	0xbe73e1c8	-0.23816597
43	0x3e803d7c	0.2504691
44	0xbe756008	-0.23962414
45	0x3ded8875	0.11598293
46	0xbddc5fc6	-0.10760455
47	0x3e59bdea	0.21263853
48	0xbd0aae30	-0.033857524
49	0x3e948697	0.29008934
50	0xbdb95f91	-0.09051431
51	0x3dfed43b	0.124428235
52	0x3e019fc0	0.12658596
53	0xbbc2fdf2	-0.005950683
54	0xbe81e85d	-0.25372592
55	0x3ea28043	0.3173848
56	0x3e3adba3	0.18247847
57	0xbe78c75a	-0.24294797
58	0xbe5b5d57	-0.21422325
59	0xbdb95102	-0.09048654
60	0xbe8df2ad	-0.2772421
61	0x3da37242	0.07980777
62	0xbd4f74cd	-0.0506485
63	0xbea72937	-0.32648632
64	0xbea0c220	-0.31398106
65	0x3d429428	0.047504574
66	0x3ea6fc96	0.32614583
67	0x3da90df8	0.082546175
68	0x3e4f9bb2	0.20274237
69	0xbe563004	-0.20916754
70	0x3e8dba11	0.2768102
71	0xbd9759c4	-0.07390168
72	0xbd6a7ecc	-0.05724983
73	0x3e9279bc	0.286085
74	0xbe096855	-0.13418706
75	0xbcba4c50	-0.022741467
76	0x3dc842fa	0.097784
77	0x3de956b3	0.1139349
78	0xbdae937c	-0.08524224
79	0xbd244db3	-0.040113162
80	0x3e78e9c2	0.24307922
81	0xbe370d05	-0.1787606
82	0xbea614a4	-0.32437623
83	0xbe6039a0	-0.21896982
84	0x3dfe0650	0.12403548
85	0xbe2bb1f9	-0.1676711
86	0xbea11b45	-0.31466118
87	0x3de2ee2f	0.11080586
88	0xbe7e746f	-0.24849103
89	0x3e3759a2	0.17905286
90	0x3d16b0dc	0.03678976
91	0x3e4321f0	0.19055915
92	0xbd9d9dc3	-0.07696106
93	0xbe261875	-0.16220267
94	0x3e3916cf	0.18075107
95	0x3e4eec70	0.20207381
96	0xbdf50251	-0.119633324
97	0x3e4e6657	0.20156227
98	0xbe85c3e4	-0.26126015
99	0xbe16aeb0	-0.14715075
100	0x3e2ef1ec	0.17084473
101	0x3d1a1341	0.03761602
102	0x3e25a37c	0.16175646
103	0xbea68a1e	-0.3252725
104	0x3d9de996	0.077105686
105	0x3e123320	0.14277315
106	0xbcc0c6d9	-0.023532318
107	0x3e9d529d	0.3072709
108	0xbc81b903	-0.01583529
109	0xbe0a4551	-0.13503005
110	0x3df1659a	0.11786957
111	0xbe9e4e5c	-0.30919158
112	0x3e53d6a3	0.20687346
113	0xbd464946	-0.048409723
114	0xbd955127	-0.07290869
115	0xbd02dfc4	-0.03195168
116	0xbe85ec15	-0.2615668
117	0xbe10f4b4	-0.14155847
118	0xbe94d8dc	-0.290717
119	0xbe6c7dce	-0.23094866
120	0xbbdc40d7	-0.0067215967
121	0xbdb31ec8	-0.087461054
122	0xbcd934a5	-0.02651436
123	0x3ea49a0b	0.32148775
124	0xbea29acc	-0.31758726
125	0xbaf1e352	-0.0018454588
126	0x3c8d3101	0.017235281
127	0xbe86e6aa	-0.26347858
128	0x3e0a878b	0.13528268
129	0x3e4d6f06	0.20061883
130	0xbdf60795	-0.12013165
131	0xbdba1635	-0.09086267
132	0x3ea57447	0.32315275
133	0x3e423bef	0.18968175
134	0x3e2a2693	0.16616277
135	0xbc0c4a7a	-0.0085626785
136	0x3e851699	0.25993803
137	0x3e65d342	0.2244387
138	0x3e91c347	0.28469297
139	0xbe48905c	-0.19586319
140	0x3e5357f5	0.20639022
141	0x3d4b4197	0.0496231
142	0xbe128133	-0.14307098
143	0xbe1963ed	-0.14979525
144	0x3ea56824	0.32306015
145	0x3dde0a03	0.10841753
146	0xbe97ce78	-0.2964971
147	0xbddb1576	-0.10697453
148	0xbe9ac352	-0.30227143
149	0x3dffa015	0.12481705
150	0xbe072028	-0.1319586
151	0x3d656d2f	0.05601233
152	0x3e555663	0.20833735
153	0x3d75048e	0.059818797
154	0xbe222698	-0.15835035
155	0xbe91a46b	-0.28445753
156	0xbdb24d27	-0.08706122
157	0x3de27921	0.1105826
158	0x3e23eeed	0.16009112
159	0x3e920d0e	0.28525585
160	0x3d74bdf2	0.05975146
161	0xbcdc84d1	-0.0269188
162	0x3cb52889	0.022114055
163	0xbe5423fa	-0.20716849
164	0xbe7deeb4	-0.2479809
165	0x3e0765cb	0.13222425
166	0x3e5d6f42	0.21624473
167	0x3e998b17	0.2998893
168	0x3e48c69d	0.19607015
169	0xbbff8fcb	-0.007799124
170	0x3e3c6ab8	0.18400085
171	0x3da6f0bf	0.081513874
172	0x3e0de466	0.13856658
173	0xbe276683	-0.16347699
174	0xbe852c6a	-0.26010448
175	0xbaafd459	-0.0013414725
176	0xbce5ed85	-0.02806736
177	0x3e92bb7d	0.28658667
178	0xbdb93f2c	-0.09045252
179	0x3e614a2f	0.22000955
180	0xbd262e45	-0.04057147
181	0x3e7b5eab	0.24547832
182	0xbc03d64f	-0.008046701
183	0x3e58e5f7	0.21181475
184	0xbe6222c4	-0.22083575
185	0xbe93bef1	-0.28856614
186	0xbe1afd65	-0.15135725
187	0x3e6953a0	0.22785807
188	0xbe9d5c0d	-0.30734292
189	0x3e549660	0.20760489
190	0xbe74b11d	-0.23895688
191	0xbe2ed03b	-0.17071621
192	0x3e921a62	0.28535753
193	0x3b938633	0.004502082
194	0x3e80b327	0.25136682
195	0x3e68f759	0.22750606
196	0xbe94035c	-0.28908813
197	0x3db91eaf	0.090390556
198	0x3d95760e	0.07297908
199	0xbe507d4f	-0.20360301
200	0xbe28a826	-0.16470394
201	0xbe54ac73	-0.20768909
202	0x3e586a3d	0.21134277
203	0xbe93f25f	-0.28895852
204	0xbeab8088	-0.334965
205	0xbd064084	-0.03277637
206	0x3e0c009d	0.13672109
207	0x3e75ab17	0.23991047
208	0x3c3c5185	0.011494045
209	0xbd5ad769	-0.053428087
210	0x3d358391	0.044314925
211	0x3e517d7e	0.20458028
212	0x3e7d4f48	0.24737275
213	0xbdc9c253	-0.098515175
214	0x3e230ce3	0.15922885
215	0xba9b3f04	-0.0011844342
216	0xbe216ed5	-0.15764935
217	0x3d815857	0.063156776
218	0xbe7d87e7	-0.24758874
219	0x3dcce1f8	0.100040376
220	0x3d9a5088	0.07534891
221	0xbd61779f	-0.05504572
222	0x3ea0e0c4	0.31421483
223	0xbd6e1cac	-0.058132812
224	0x3e909b78	0.28243613
225	0x3e044a31	0.12918927
226	0x3e7551cc	0.23956984
227	0x3d30d757	0.043174114
228	0xbea81cd9	-0.3283451
229	0x3e9b4ce6	0.30332106
230	0xbe0f0c7d	-0.13969608
231	0x3d0164d2	0.03159029
232	0x3e22a6f9	0.15884008
233	0xbe5ffc5a	-0.21873608
234	0x3e831281	0.25600055
235	0x3bcf6e8d	0.0063303174
236	0x3e743657	0.23848854
237	0xbe038cff	-0.12846754
238	0x3e372a32	0.1788719
239	0x3e5bc130	0.21460414
240	0x3e4632e0	0.19355345
241	0xbd89298d	-0.06697378
242	0x3e230c0c	0.15922564
243	0x3dc834e7	0.09775715
244	0xbe3d8a11	-0.185097
245	0x3e8f391d	0.2797326
246	0x3e38547b	0.18000977
247	0x3da03280	0.07822132
248	0xbe810d8d	-0.2520565
249	0x3e87abf5	0.2649838
250	0xbeaba230	-0.33522177
251	0x3e3deef4	0.18548185
252	0xbce92ebe	-0.028464671
253	0xbe750741	-0.23928548
254	0x3e64e710	0.22353768
255	0xbe8cae7c	-0.2747687

block1.0.bias f4 [64]
0	0x3e823f79	0.2543905
1	0xbea0f24e	-0.31434864
2	0x3e072332	0.1319702
3	0x3e0b68a8	0.13614142
4	0xbe891952	-0.2677713
5	0xbc82c981	-0.015965225
6	0x3d74fde2	0.059812434
7	0xbe3f44cb	-0.18678586
8	0x3d85b3cb	0.065284334
9	0xbdb0bf49	-0.08630235
10	0xbe172f87	-0.14764224
11	0xbdf381bd	-0.1188998
12	0xbe640e58	-0.22271097
13	0xbe96d2b9	-0.29457644
14	0x3e6ecabe	0.23319528
15	0x3de28a0e	0.11061488
16	0x3d46a8c1	0.04850078
17	0x3e710865	0.23538359
18	0xbe1e7030	-0.15472484
19	0xbe7987a8	-0.24368155
20	0xbb1bffe0	-0.0023803636
21	0x3e1c9c24	0.15293938
22	0x3dd38d6e	0.1032971
23	0x3e8804e7	0.2656624
24	0xbbd9de83	-0.00664884
25	0x3e720b49	0.23637117
26	0xbd904342	-0.070440784
27	0x3df7f262	0.12106778
28	0x3dd560c1	0.10418845
29	0x3e9d467f	0.30717847
30	0xbc8829c8	-0.016621485
31	0x3e1bca65	0.15213926
32	0xbe5fcb4c	-0.21854895
33	0x3e98c0e7	0.29834673
34	0xbe441b5a	-0.19151059
35	0xbd9cb459	-0.07651586
36	0x3d38d2f3	0.04512305
37	0x3e570c1f	0.21000718
38	0xbe461ee9	-0.19347729
39	0x3e951d7a	0.2912405
40	0xbe88b882	-0.26703268
41	0xbe03667b	-0.12832062
42	0x3e8e3f59	0.27782705
43	0xbe1ba08f	-0.15197967
44	0x3d65a97e	0.056069843
45	0xbe8b8ef1	-0.27257493
46	0xbe8f5d45	-0.28000847
47	0xbe94db39	-0.29073504
48	0x3e1013ab	0.14070003
49	0x3e14caaf	0.14530443
50	0xbcecc190	-0.028900892
51	0x3d3f21ad	0.046662975
52	0x3ea5dff6	0.3239743
53	0x3b9bcf4c	0.0047549363
54	0xbe3e9e6c	-0.1861512
55	0x3d7cf5ea	0.06175796
56	0xbe82c0f6	-0.25537843
57	0xbe5f9d6e	-0.21837398
58	0xbd33da3c	-0.043909296
59	0xbe032a29	-0.12809052
60	0x3ea29a67	0.31758425
61	0xbdc67733	-0.09690704
62	0x3e27819a	0.16358033
63	0x3d477a77	0.048700776

block1.1.weight f4 [64]
0	0x3f7f226c	0.996619
1	0x3f801fb3	1.0009674
2	0x3f7f9e35	0.9985078
3	0x3f7f671a	0.99766695
4	0x3f7f9a31	0.9984465
5	0x3f7fbaf2	0.9989463
6	0x3f7e9261	0.99442106
7	0x3f80bc67	1.0057496
8	0x3f7f3a81	0.99698645
9	0x3f7f4847	0.9971966
10	0x3f800518	1.0001554
11	0x3f7f90e6	0.9983047
12	0x3f8002ba	1.0000832
13	0x3f7f5f5b	0.99754876
14	0x3f7f82c3	0.998089
15	0x3f7f4519	0.9971481
16	0x3f80c2da	1.0059464
17	0x3f802ea5	1.0014235
18	0x3f7f98ee	0.9984273
19	0x3f7f4b7b	0.9972455
20	0x3f7e4452	0.99323
21	0x3f7ff192	0.9997798
22	0x3f7fe6f1	0.99961764
23	0x3f7f7565	0.99788505
24	0x3f7f6070	0.99756527
25	0x3f7fa027	0.9985375
26	0x3f7e979e	0.994501
27	0x3f7ff596	0.9998411
28	0x3f7f8859	0.99817425
29	0x3f7f9444	0.9983561
30	0x3f7f3d81	0.9970322
31	0x3f7f3023	0.99682826
32	0x3f813416	1.009402
33	0x3f80bb56	1.005717
34	0x3f7eb175	0.9948953
35	0x3f7fd762	0.99938023
36	0x3f800dd8	1.0004225
37	0x3f7f8910	0.99818516
38	0x3f803f67	1.0019349
39	0x3f7f8eec	0.99827456
40	0x3f7fba39	0.9989353
41	0x3f7f7a4b	0.9979598
42	0x3f80b0d7	1.0053967
43	0x3f7f8fd1	0.9982882
44	0x3f809c78	1.004775
45	0x3f8001f4	1.0000596
46	0x3f7fd31b	0.99931496
47	0x3f7f6afa	0.9977261
48	0x3f7ff7b1	0.9998732
49	0x3f7fbed3	0.9990055
50	0x3f80542b	1.0025686
51	0x3f7fcd47	0.99922603
52	0x3f802128	1.0010118
53	0x3f800eb6	1.000449
54	0x3f7f38bc	0.99695945
55	0x3f7f49b6	0.9972185
56	0x3f7f4f89	0.99730736
57	0x3f7fb721	0.9988881
58	0x3f80b0a3	1.0053905
59	0x3f80215d	1.0010182
60	0x3f7f1e53	0.99655646
61	0x3f7fc765	0.99913627
62	0x3f7fdb53	0.9994404
63	0x3f805663	1.0026363

block1.1.bias f4 [64]
0	0xbb3ca1df	-0.0028783006
1	0xbb996a8e	-0.0046818918
2	0x387c78c4	6.0193954e-05
3	0x3a959a76	0.0011413831
4	0xbade69a6	-0.0016968742
5	0xb988e563	-0.00026110848
6	0xbb946f1a	-0.004529846
7	0x3bd538f5	0.006507034
8	0xbbaed677	-0.005335625
9	0xbbe7c60e	-0.0070731705
10	0x3b2c0266	0.0026246547
11	0xbaf31a07	-0.0018547185
12	0x3a39b882	0.0007084684
13	0x39cb4b98	0.000387755
14	0x3b50ef80	0.0031881034
15	0x3a778791	0.0009442503
16	0x3bd57663	0.006514357
17	0x3b7341b6	0.0037118024
18	0x3a9235b2	0.0011154918
19	0xb9dd311f	-0.00042189003
20	0xbba0dced	-0.004909149
21	0xbb35eaa4	-0.0027758265
22	0xbb144a52	-0.0022627306
23	0xba0b9b1b	-0.0005325542
24	0xb9fda8c6	-0.00048381666
25	0xbb9052a6	-0.0044043837
26	0xb826cf18	-3.9770355e-05
27	0xbb9f5551	-0.0048624654
28	0xbba88aa7	-0.005143482
29	0xbb0fedef	-0.0021961888
30	0xbbb01c48	-0.005374465
31	0x3a9ac497	0.0011807856
32	0x3c525fee	0.012840254
33	0x3b86f378	0.004118379
34	0x3b9597b9	0.004565206
35	0xba2a83de	-0.0006504635
36	0xbbed8061	-0.00724797
37	0xb82e8a54	-4.161366e-05
38	0xbc11cba0	-0.008898646
39	0xbb1037bb	-0.0022005874
40	0xbb0234b6	-0.0019867844
41	0x3a9c7b0e	0.0011938529
42	0x3c17bcf5	0.009261359
43	0xbb734ba1	-0.0037123936
44	0x3b60b3c7	0.0034286843
45	0xbad0e440	-0.0015937164
46	0x3997dfe0	0.00028967764
47	0xbb55b5ad	-0.0032609508
48	0xb9d3d51e	-0.0004040384
49	0x3b60ef3f	0.003432229
50	0xbad6134a	-0.0016332653
51	0xbb8b6a92	-0.0042546475
52	0x3b1b779b	0.0023722413
53	0x3adb3f73	0.0016727283
54	0xbb9003f3	-0.004395002
55	0xbb17888c	-0.002312216
56	0xbab21e5f	-0.0013589374
57	0xbb2b5ab1	-0.0026146586
58	0x3b74dce9	0.0037363118
59	0x39e48aeb	0.0004359105
60	0x3b0ce638	0.0021499526
61	0xbb13fecb	-0.0022582288
62	0xbae8e3d2	-0.0017768091
63	0x3b77469e	0.00377313

block1.1.running_mean f4 [64]
0	0x3d490c45	0.049083967
1	0xbe890195	-0.2675902
2	0x3e8ca679	0.2747076
3	0x3f02effd	0.51147443
4	0xbefb92a6	-0.4913532
5	0x3e8dfae2	0.2773047
6	0xbe48a4e5	-0.19594152
7	0xbe38a853	-0.1803296
8	0x3e81005a	0.2519558
9	0xbf11a64f	-0.5689439
10	0xbd6ca01f	-0.05776989
11	0x3d8a1004	0.06741336
12	0xbef4ed28	-0.47837186
13	0xbf282f19	-0.65696865
14	0x3efc30e4	0.4925605
15	0x3eb597f4	0.35467494
16	0x3d206ffa	0.03916929
17	0x3e94cf27	0.29064295
18	0x3df47e29	0.11938126
19	0xbe23efc2	-0.16009429
20	0xbe209cf6	-0.15684876
21	0x3ea5cbda	0.3238209
22	0xbe8bcf46	-0.27306575
23	0x3f1db285	0.61600524
24	0x3e111503	0.14168172
25	0x3ead81c2	0.3388806
26	0x3ed577f3	0.41693076
27	0x3e878a63	0.26472768
28	0xbdd01d96	-0.10161893
29	0xbde0f7a9	-0.109847374
30	0x3e8a3043	0.26989946
31	0xbd0e64ca	-0.03476409
32	0xbe60c12f	-0.21948694
33	0x3e8a7c3d	0.2704791
34	0x3ea666b3	0.32500228
35	0x3d4d1e8e	0.050077967
36	0xbce15e2f	-0.02751073
37	0x3f13081f	0.57434267
38	0xbe0fdab6	-0.14048275
39	0x3dde6d44	0.108606845
40	0xbd0f56cc	-0.034994885
41	0x3e783cd4	0.24241954
42	0x3e9caf0a	0.30602294
43	0xbe939169	-0.28821877
44	0x3c1ee74a	0.009698698
45	0xbeb9f02e	-0.36316055
46	0xbf01ac9b	-0.50654
47	0xbf09c1ad	-0.5381115
48	0x3e6f5150	0.23370862
49	0x3e028cf4	0.12749082
50	0x3d59fddd	0.05322062
51	0xbdcdfcd9	-0.100579925
52	0x3e32747d	0.17427249
53	0xbe72d674	-0.2371462
54	0xbc896391	-0.01677111
55	0x3eafcd26	0.34336203
56	0xbe1d4b98	-0.15360868
57	0xbf0ca826	-0.54944074
58	0xbe1e6b90	-0.1547072
59	0xbd843ad4	-0.06456533
60	0x3ee60b5a	0.44930536
61	0x3ecddcac	0.40207422
62	0x3f0faf2e	0.5612668
63	0x3db7f462	0.08982159

block1.1.running_var f4 [64]
0	0x3c94a002	0.018142704
1	0x3af1c632	0.0018445908
2	0x3c20636c	0.009789329
3	0x3d753779	0.059867356
4	0x3caf4e59	0.021399664
5	0x3d148cc5	0.03626706
6	0x3cea09fd	0.028569216
7	0x3a51fa7f	0.0008010044
8	0x3c753824	0.014966998
9	0x3dccd716	0.10001962
10	0x3b7fd2d1	0.0039035568
11	0x3c754828	0.014970817
12	0x3ce2ef74	0.02770207
13	0x3d6863ea	0.05673591
14	0x3cf14017	0.029449506
15	0x3cd87f06	0.026427757
16	0x39970a71	0.00028808744
17	0x3b0d1a98	0.0021530744
18	0x3d04c48b	0.032414
19	0x3b5d4c40	0.0033767372
20	0x3c302109	0.010750064
21	0x3c55d9e1	0.013052435
22	0x3d7503a7	0.059817936
23	0x3d55389c	0.05205594
24	0x3c2a8b3e	0.0104091745
25	0x3ba44dc6	0.005014154
26	0x3dcd9398	0.10037917
27	0x3c14a2be	0.009072004
28	0x3c94f620	0.018183768
29	0x3d963d5b	0.073359214
30	0x3d123ad2	0.035700627
31	0x3c79053f	0.015199005
32	0x3a96d77a	0.0011508309
33	0x3a69cc62	0.00089187
34	0x3de651e8	0.11246091
35	0x3c0399b7	0.008032254
36	0x3b5da1da	0.0033818395
37	0x3d672ab5	0.056437213
38	0x3b0954e5	0.0020955142
39	0x3c85da82	0.016339544
40	0x3cbc43b5	0.022981504
41	0x3d6f1bce	0.058376126
42	0x3b34f96c	0.0027614487
43	0x3c115c6f	0.008872136
44	0x3a8f6fe2	0.0010943378
45	0x3b9bf478	0.0047593676
46	0x3cb92d69	0.022604661
47	0x3cd4ac13	0.025960958
48	0x3b8699e3	0.0041077
49	0x3a8ec6e4	0.0010893014
50	0x3b50b464	0.0031845802
51	0x3c199e44	0.009376112
52	0x3c2572c1	0.01009816
53	0x3cd1f05b	0.025627306
54	0x3c565857	0.013082585
55	0x3d09c6c0	0.03363681
56	0x3bcfd981	0.006343067
57	0x3d40a72a	0.04703442
58	0x3bf13b63	0.007361816
59	0x3b87dc50	0.0041461363
60	0x3c0688b5	0.008211304
61	0x3dd7c7ce	0.105361566
62	0x3d88552b	0.066568695
63	0x3ac15c9b	0.001475233

block2.0.weight f4 [64, 64, 3, 3]
0	0x3cd207f9	0.025638567
1	0xbd1e457a	-0.038640477
2	0x3cfce879	0.03087257
3	0x3ca20808	0.01977922
4	0x3c891b11	0.01673654
5	0x3cdc861f	0.026919423
6	0xbc0c0bd6	-0.008547744
7	0xbc6d7e11	-0.014495389
8	0x3aa2da07	0.0012424596
9	0xbcaf6e2c	-0.021414839
10	0xbd35f86c	-0.044426367
11	0x3cd7bdac	0.02633556
12	0xb9ccc658	-0.0003905769
13	0xbca0eba9	-0.019643622
14	0xbccb02e2	-0.024781648
15	0xbd0a3ff1	-0.033752386
16	0x3bbf4138	0.005836632
17	0xbbba35fa	-0.005682704
18	0xbd1a9757	-0.037741985
19	0x3b48cb07	0.0030638592
20	0xbcc07bb9	-0.023496496
21	0xbcd65dfe	-0.026167866
22	0x3beeb909	0.0072852415
23	0xb9974a77	-0.00028856445
24	0xbcf63feb	-0.030059775
25	0xbbf6fb17	-0.0075372565
26	0xbca047c4	-0.01956547
27	0x3d0a7401	0.033802036
28	0xbd139acf	-0.03603631
29	0xbca538c8	-0.020168677
30	0xbcb0c608	-0.021578804
31	0x3cbb4630	0.022860616
32	0xbbfa5f02	-0.0076407203
33	0x3ae0efbd	0.0017161291
34	0xbd05f38c	-0.032702968
35	0x3d00798b	0.031365912
36	0xbd13ff25	-0.036131997
37	0xbcacaa8b	-0.021077415
38	0xbd13036d	-0.03589194
39	0xbcc4fd09	-0.024046438
40	0x3c8843d0	0.016633898
41	0x3c1feca6	0.009761011
42	0xbc527d25	-0.01284722
43	0x3c74c630	0.01493983
44	0x3c1b6136	0.009483626
45	0x3b659189	0.0035029373
46	0x3bd77b12	0.0065759504
47	0xbd246925	-0.040139336
48	0x3cd8b8ef	0.02645537
49	0x3d0b0b65	0.033946414
50	0x3d0bcfe7	0.034133818
51	0x3d000d04	0.031262413
52	0xbcde780d	-0.027156854
53	0xbb978b36	-0.0046247495
54	0x3c440983	0.011965158
55	0xbd220e9b	-0.03956471
56	0x3c49645b	0.012291993
57	0xbb56e328	-0.0032789204
58	0xbc35df91	-0.011100666
59	0xbc013d00	-0.007888079
60	0xbd1675ad	-0.036733318
61	0x3d163d05	0.036679287
62	0xbd1545f5	-0.03644367
63	0x3d1cdb80	0.03829527
64	0xbcfd8bbd	-0.030950421
65	0x3d1671cd	0.036729623
66	0x3c478334	0.012177277
67	0x3b8b77a1	0.0042562042
68	0x3be10d23	0.006868021
69	0x3bf01205	0.007326367
70	0x3b64df80	0.0034923255
71	0xba8709bd	-0.0010302585
72	0xbc497b77	-0.012297503
73	0xbc8b9f2e	-0.017043676
74	0x3d0de76c	0.03464453
75	0x3d16b404	0.03679277
76	0x3cedd622	0.02903277
77	0xbc000917	-0.007814667
78	0x3cc3f639	0.023921119
79	0x3c129c9b	0.0089484705
80	0x3d20f77e	0.039298527
81	0xbd2b9c6c	-0.041897222
82	0xbcc5d19c	-0.024147801
83	0x3c62dab1	0.013846085
84	0xbcaa9d4a	-0.020826954
85	0xbd19730a	-0.037463225
86	0x3cbd6b0e	0.023122337
87	0xbcaf6d44	-0.021414407
88	0xbbaa88c9	-0.0052042943
89	0xba93bda1	-0.0011271724
90	0xbd31c6a6	-0.043402337
91	0xbc329a1e	-0.010901002
92	0x3d1a4f3e	0.037673227
93	0x3b8ae3b5	0.0042385706
94	0x3d201872	0.039085813
95	0x3d22f116	0.0397807
96	0x3c2cc474	0.010544885
97	0x3cb33a21	0.021878304
98	0x3ce180bc	0.027527206
99	0x3c4420b4	0.011970688
100	0xbc2bc559	-0.010484063
101	0xbb2d6f99	-0.0026464222
102	0xbb850e6d	-0.0040605576
103	0xbc837106	-0.016045105
104	0x3b2d9098	0.002648389
105	0x3d22a9d9	0.03971276
106	0xbca9753e	-0.020685788
107	0x3cab31d2	0.02089778
108	0xbc5aa030	-0.013343856
109	0x3d1ec85d	0.0387653
110	0xbd086ba2	-0.03330577
111	0x3cb3d776	0.021953326
112	0x3d0158e2	0.031578906
113	0xbcc9cb57	-0.024633093
114	0xbc87dae6	-0.016583871
115	0x3cba4416	0.022737544
116	0x3c21369f	0.009839683
117	0xbca5ea8f	-0.020253448
118	0xbd0ee4da	-0.03488622
119	0x3b03df0c	0.002012196
120	0xb8f4fc42	-0.00011681813
121	0x3b1caada	0.0023905546
122	0xb9dd8721	-0.00042253084
123	0x3cce8677	0.025210602
124	0x3a9ec1cb	0.0012112198
125	0xbcbfa1f1	-0.02339265
126	0x3c83a3df	0.01606935
127	0x3d1050c4	0.035233274
128	0xbcf3cfbc	-0.029762141
129	0x3b1d2102	0.0023975973
130	0x3ca2c9eb	0.019871673
131	0xbce4bc52	-0.02792183
132	0xbb6cb17c	-0.003611653
133	0x3c9dd3e3	0.019266075
134	0x3c0ffb17	0.008787892
135	0xbd2d516e	-0.042313986
136	0xbb570d5f	-0.0032814366
137	0xbc17818f	-0.009247198
138	0xbb9a75bc	-0.004713742
139	0x3b961fd7	0.0045814323
140	0x3d0d9617	0.034566965
141	0xbd273f1b	-0.040831666
142	0x3cd3ac6a	0.02583905
143	0xbc70c2b4	-0.014694858
144	0x3c6cb7c5	0.014448111
145	0xbc1d779d	-0.009611038
146	0x3c7c6013	0.015403765
147	0xbcd1e6cb	-0.025622746
148	0xbd00ce77	-0.0314469
149	0x3a8bed8e	0.0010675655
150	0x3d23834a	0.03992013
151	0x3bb6b96c	0.005576303
152	0x3c333713	0.010938424
153	0x3cc48068	0.02398701
154	0xbd14c5f2	-0.036321588
155	0xba78afb5	-0.00094866316
156	0xbcd70f2e	-0.026252355
157	0x3cf1ca78	0.02951549
158	0x3b917c91	0.0044398983
159	0xbca0dc78	-0.019636378
160	0x3d1efb16	0.038813673
161	0xbce39b90	-0.027784139
162	0xbd00e3f5	-0.031467397
163	0x3d09a2a6	0.03360238
164	0xbce237dd	-0.027614528
165	0x3c384f3e	0.011249362
166	0x3b94ef3f	0.004545122
167	0x3d0db3db	0.03459535
168	0xbcdb79a3	-0.0267914
169	0x3cc52e4c	0.024069928
170	0x3c9629e1	0.018330516
171	0x3c9b5bdc	0.0189647
172	0xbc9ec3a1	-0.019380393
173	0xbcf29076	-0.0296099
174	0xbc4f6cee	-0.012660248
175	0xbc511daf	-0.012763425
176	0xbcf7d513	-0.030252969
177	0xbc65d387	-0.014027483
178	0xbcc66ed4	-0.024222769
179	0xbd0d0e01	-0.034437183
180	0xb923d691	-0.00015624824
181	0xbce08c7c	-0.027410738
182	0x3c2eede3	0.010676834
183	0xbb80a45c	-0.003925843
184	0xbcc4c3d6	-0.024019163
185	0x3c8b509c	0.017006211
186	0xbcdb34cc	-0.026758574
187	0x3c873ee2	0.016509477
188	0xbce0a562	-0.02742261
189	0xbd217621	-0.039419297
190	0xbcd510a1	-0.026008906
191	0x3d1615fa	0.036642052
192	0x3cb02440	0.02150166
193	0xbbbfbcc8	-0.005851362
194	0xbaea83f2	-0.0017892106
195	0x3cbc17fc	0.022960655
196	0x3cac9f2c	0.021071993
197	0xbc89811a	-0.016785193
198	0x3c75897e	0.014986394
199	0x3be7703b	0.0070629395
200	0x3cc872aa	0.024468739
201	0xbd2cdb91	-0.042201582
202	0xbd280495	-0.041019995
203	0x3ca5697a	0.020191897
204	0x3d11f84d	0.03563719
205	0xbd26319a	-0.040574647
206	0xbb5fb846	-0.0034136935
207	0x3cb28e2d	0.02179631
208	0x3d0300c1	0.03198314
209	0xbce6dc38	-0.02818118
210	0xbc8c90c8	-0.01715888
211	0x3c40dffc	0.011772152
212	0x3c838e07	0.016058935
213	0x3d01b275	0.03166433
214	0x3c53e2f2	0.012932526
215	0xbc047386	-0.008084184
216	0xbce8698c	-0.028370641
217	0x3c294a1c	0.01033261
218	0xbc816988	-0.015797392
219	0xbd1034ff	-0.03520679
220	0x3d161b4e	0.036647134
221	0x3b6f7112	0.00365359
222	0xbb5a58f7	-0.0033317187
223	0x3cec0277	0.02880977
224	0x3c6da856	0.014505466
225	0x3c8fd717	0.017558618
226	0x3c8a8ded	0.016913379
227	0x391670ee	0.00014347184
228	0x3cb14c4c	0.021642826
229	0xbd1c0717	-0.0380927
230	0xbc818d78	-0.015814528
231	0xbcf7ee86	-0.030265104
232	0xbd0e8d2f	-0.034802612
233	0xbd1e9746	-0.038718484
234	0xbcba11e2	-0.022713605
235	0xbcc364f1	-0.023851844
236	0x3c90a201	0.017655374
237	0x3cab22a1	0.020890536
238	0x3ce32974	0.027729727
239	0xbd1527fb	-0.03641508
240	0x3d1e8232	0.038698383
241	0xbc8cfe4f	-0.017211108
242	0xbca530d6	-0.020164888
243	0xbd0d9521	-0.03456605
244	0xbca2da26	-0.019879412
245	0x3d25817c	0.04040669
246	0xb9cfaccd	-0.00039610863
247	0x3d20e621	0.039281968
248	0x3cdaac4f	0.026693491
249	0x3d33976f	0.04384559
250	0x3c2a75b7	0.010404042
251	0x3b2f19c9	0.002671825
252	0xbcac80a2	-0.02105743
253	0xbba60935	-0.0050670155
254	0xbc65f2c8	-0.014034934
255	0xbcd6a2df	-0.02620071

block2.0.bias f4 [64]
0	0x3cd96628	0.02653797
1	0xbc821451	-0.015878828
2	0x3b7f931e	0.00389976
3	0xbcd32dc6	-0.025778662
4	0xbccd8b17	-0.025090737
5	0x3c912716	0.017718833
6	0xbcea5f24	-0.02860982
7	0x3c388e6b	0.011264424
8	0x3cd04319	0.02542262
9	0xbc6cce88	-0.014453538
10	0x3ce4fce0	0.027952611
11	0xbbaff9f2	-0.005370372
12	0x3c67fa5c	0.014158811
13	0x3c6d2ae9	0.014475563
14	0xbb724a35	-0.00369705
15	0x3cb1689a	0.021656323
16	0xbd0190bb	-0.031632166
17	0xbd157990	-0.036492884
18	0x3caebb0a	0.021329422
19	0xbc3a3309	-0.011364707
20	0xb977da55	-0.0002363709
21	0x3ccc1730	0.0249134
22	0x3d081d1b	0.033230882
23	0x3ce6c995	0.028172294
24	0xbcaa1e03	-0.020766264
25	0xbc34a504	-0.011025671
26	0x3c71e404	0.014763836
27	0xbc8909ac	-0.016728245
28	0xbc9942b0	-0.018708557
29	0xbbabd2d8	-0.0052436404
30	0x3ce7a69e	0.028277691
31	0xbc4161b0	-0.011803076
32	0xbce78403	-0.02826119
33	0x3c8d5f6c	0.017257415
34	0x3cbce915	0.02306036
35	0xbb9cbae0	-0.0047830194
36	0x3cea2d19	0.028585957
37	0xbcf0a644	-0.029376157
38	0xbc4ee39c	-0.0126275085
39	0xbd1f0006	-0.03881838
40	0x3b2bb81b	0.0026202265
41	0xbcb110bd	-0.021614427
42	0x3cdbe656	0.026843231
43	0x3cec8659	0.028872656
44	0x3cf656a7	0.030070616
45	0x3d0eb864	0.034843817
46	0x3d095c76	0.033535443
47	0xbd02d32e	-0.031939678
48	0xbc30bd1a	-0.010787273
49	0xbc9ab9b3	-0.018887376
50	0x3d162a72	0.036661573
51	0xbbc5552f	-0.0060221176
52	0xbc8d30e5	-0.017235229
53	0x3c8bc0ac	0.017059647
54	0xbcda632b	-0.026658615
55	0xbd204f03	-0.03913785
56	0x3d239816	0.039939962
57	0x3cec56e2	0.028850023
58	0xbd16447e	-0.036686413
59	0x3c5a7522	0.013333591
60	0x3b861f6d	0.0040931017
61	0x3c02e879	0.007989996
62	0x3cb300a3	0.02185089
63	0x3d160be9	0.036632452

block2.1.weight f4 [64]
0	0x3f802290	1.0010548
1	0x3f7f9969	0.9984346
2	0x3f8066da	1.0031388
3	0x3f802b7c	1.001327
4	0x3f7f4ee1	0.99729735
5	0x3f808360	1.0040092
6	0x3f7f00e5	0.9961074
7	0x3f7f45d9	0.99715954
8	0x3f7eaaf6	0.99479616
9	0x3f802e70	1.0014172
10	0x3f804fc8	1.0024347
11	0x3f7fcd06	0.99922216
12	0x3f80199a	1.0007813
13	0x3f7f9066	0.9982971
14	0x3f7e5e7d	0.9936293
15	0x3f800410	1.000124
16	0x3f7fa9c7	0.99868435
17	0x3f7fa67c	0.9986341
18	0x3f7f4132	0.99708855
19	0x3f7fb2c1	0.9988213
20	0x3f7f645b	0.99762505
21	0x3f7fbdbc	0.99898887
22	0x3f80188a	1.0007489
23	0x3f800f63	1.0004696
24	0x3f7eff50	0.99608326
25	0x3f7f84e4	0.9981215
26	0x3f80c0c8	1.0058832
27	0x3f80414c	1.0019927
28	0x3f7eccd9	0.9953132
29	0x3f7f0a70	0.996253
30	0x3f7f729b	0.9978425
31	0x3f8036b2	1.0016692
32	0x3f7e7d86	0.99410284
33	0x3f800f27	1.0004624
34	0x3f801191	1.0005361
35	0x3f7fcd6f	0.9992284
36	0x3f7fe47b	0.9995801
37	0x3f804197	1.0020016
38	0x3f80396f	1.0017527
39	0x3f800987	1.0002908
40	0x3f7f9d97	0.9984984
41	0x3f7fca18	0.99917746
42	0x3f7faa54	0.99869275
43	0x3f7ef977	0.99599403
44	0x3f808957	1.0041913
45	0x3f7ec220	0.9951496
46	0x3f7f6d46	0.99776113
47	0x3f7fe403	0.99957293
48	0x3f80dbdb	1.0067095
49	0x3f7ee2a1	0.9956456
50	0x3f80bf61	1.0058404
51	0x3f7f76fa	0.9979092
52	0x3f7fb13f	0.9987983
53	0x3f80b898	1.0056334
54	0x3f800f95	1.0004755
55	0x3f80f6d8	1.0075331
56	0x3f7f60e4	0.9975722
57	0x3f7f07a4	0.99621034
58	0x3f80b2f4	1.0054612
59	0x3f7ed7e6	0.99548185
60	0x3f802ae1	1.0013086
61	0x3f801645	1.0006796
62	0x3f7f4453	0.9971363
63	0x3f807bfe	1.003784

block2.1.bias f4 [64]
0	0xb9227ce5	-0.00015496051
1	0xbb8c1d12	-0.0042759264
2	0xbb90a463	-0.0044141277
3	0xbc127efe	-0.00894141
4	0xbbd37d8f	-0.0064541767
5	0xbaf34dd8	-0.0018562628
6	0xbb38ba70	-0.0028187297
7	0xbab8675b	-0.0014068888
8	0xbbdc400b	-0.0067215017
9	0xbbdc93a6	-0.0067314683
10	0xbbb925d6	-0.0056502623
11	0xbb5cb922	-0.0033679684
12	0xba6e9a64	-0.00091019855
13	0xbb940300	-0.004516959
14	0xbb6d424a	-0.0036202841
15	0xb922ff30	-0.00015544589
16	0xbb34e308	-0.0027601141
17	0xbbc01e36	-0.0058629764
18	0xbbdb7859	-0.006697696
19	0xbb42682d	-0.0029664144
20	0xbb22dac0	-0.0024849623
21	0xbb0583e8	-0.0020372812
22	0xbba28386	-0.0049595265
23	0xba499abb	-0.0007690598
24	0xbbbb91d8	-0.005724173
25	0xb75c241d	-1.312143e-05
26	0xbb9733e7	-0.0046143415
27	0xbbfc2f6b	-0.0076960823
28	0xbbaa90c5	-0.005205246
29	0xbbbf4dac	-0.0058381166
30	0xbb9c8144	-0.004776152
31	0xbb014582	-0.0019725268
32	0xbbd7988e	-0.006579465
33	0xbaed3f28	-0.0018100487
34	0xbb8a79a4	-0.0042259265
35	0xbbb68967	-0.005570579
36	0x3b57d689	0.003293427
37	0xb961ad26	-0.00021522175
38	0xb933c5bd	-0.00017144434
39	0xbbe6cf1c	-0.0070437323
40	0xbb9aab61	-0.004720137
41	0xbb35b648	-0.0027727056
42	0xbb3e2c33	-0.0029018044
43	0xbbf616bd	-0.007510035
44	0xbac413ad	-0.0014959477
45	0xbbab4f3e	-0.0052279523
46	0xbb6e0389	-0.0036318025
47	0x3999e965	0.00029356327
48	0x3aefce92	0.0018295816
49	0xbb391d87	-0.002824636
50	0xbba08eaf	-0.0048998217
51	0xbbba0f3d	-0.005678086
52	0xba929461	-0.0011183136
53	0x3a8bf92e	0.001067912
54	0xbab70983	-0.0013964627
55	0x3b3ce141	0.0028820785
56	0xbaef4215	-0.0018253947
57	0xbac9343d	-0.0015350651
58	0xbb47ef79	-0.0030507727
59	0xbba71060	-0.0050983876
60	0xbc1a28c6	-0.009409135
61	0xba961520	-0.0011450388
62	0xbba6f67f	-0.0050953026
63	0xbc0161dc	-0.007896867

block2.1.running_mean f4 [64]
0	0xbe855a8f	-0.26045653
1	0xbea49152	-0.3214212
2	0xbe66e16d	-0.2254693
3	0x3d9b4190	0.075808644
4	0x3db892ab	0.0901235
5	0xbedf894b	-0.43659434
6	0xbed4f4b7	-0.41592953
7	0x3eaed5c6	0.3414747
8	0x3ef7c0a6	0.48389167
9	0xbdd06c6c	-0.1017693
10	0xbe718c8b	-0.23588769
11	0xbd9b0cd7	-0.075708084
12	0xbe07dee0	-0.13268614
13	0xbe8adcb8	-0.2712152
14	0x3f2b30f7	0.6687159
15	0xbc7e9acb	-0.015539835
16	0xbecb2e1d	-0.3968362
17	0x3ea32a3e	0.31868166
18	0xbf1cc387	-0.6123585
19	0xbdc9f1f8	-0.09860605
20	0xbf7ff913	-0.9998943
21	0x3ceef29a	0.029168416
22	0xbeed80eb	-0.4638742
23	0x3db9b949	0.090685435
24	0xbe044ffe	-0.1292114
25	0xbf2109ac	-0.62905383
26	0x3e18d037	0.14923178
27	0xbec86257	-0.39137527
28	0xbcbdecf0	-0.02318427
29	0x3eeff44d	0.46866074
30	0xbb6f0b50	-0.0036475249
31	0xbe954b6b	-0.29159102
32	0x3ee9cc8a	0.45663863
33	0x3f380d75	0.71895534
34	0xbeba7e2f	-0.36424395
35	0x3ef57dfc	0.4794768
36	0xbb0449c1	-0.0020185562
37	0xbe8601e3	-0.26173314
38	0xbdc66348	-0.09686905
39	0x3bbf70fd	0.0058423267
40	0x3eb527aa	0.35381824
41	0x3ed9e442	0.4255696
42	0xbee92b15	-0.4554068
43	0xbe8902a5	-0.2675983
44	0x3e65f613	0.22457151
45	0xbea47d74	-0.32126963
46	0xbeee7e0a	-0.46580535
47	0xbe263a36	-0.16233143
48	0xbe0afa64	-0.13572079
49	0x3e5ed22e	0.21759865
50	0x3e87bdbd	0.26511946
51	0xbe31fd0e	-0.17381689
52	0xbe9bbc49	-0.30417088
53	0x3e0117f5	0.12606795
54	0xbe71ee39	-0.23626031
55	0x3dc84c3b	0.09780165
56	0xbf02f11f	-0.5114917
57	0xbeb9c249	-0.3628104
58	0xbd9a8b6a	-0.07546122
59	0xbcca6106	-0.024704468
60	0x3f227baf	0.63469976
61	0x3e7cf600	0.24703217
62	0x3ecb9b4a	0.39766914
63	0xbe2c5812	-0.16830471

block2.1.running_var f4 [64]
0	0x3daf4da3	0.0855973
1	0x3e5dfa58	0.2167753
2	0x3e29a536	0.16566929
3	0x3d55db01	0.05221081
4	0x3e463c2f	0.19358896
5	0x3e05c7b3	0.1306446
6	0x3f1b5b3d	0.60686094
7	0x3e78f6a5	0.24312837
8	0x3e1f7c4e	0.15574762
9	0x3ec316ec	0.38103426
10	0x3de03a20	0.109485865
11	0x3e80a5c0	0.25126457
12	0x3e66c8e8	0.22537577
13	0x3d9a11d8	0.07522935
14	0x3e46d848	0.19418442
15	0x3e637ef7	0.22216402
16	0x3ed204f1	0.41019395
17	0x3e329435	0.17439349
18	0x3e748f9f	0.23882912
19	0x3e8f8d25	0.28037372
20	0x3f2ea8af	0.6822614
21	0x3e944dee	0.28965706
22	0x3e057a2f	0.1303489
23	0x3d956d4c	0.07296237
24	0x3f0fb69d	0.5613802
25	0x3e312d4f	0.1730244
26	0x3d634b79	0.0554919
27	0x3e369099	0.17828597
28	0x3e8117c6	0.2521345
29	0x3e3eee9a	0.18645707
30	0x3e30ab00	0.17252731
31	0x3df3110f	0.11868488
32	0x3f28950d	0.65852433
33	0x3e7907ce	0.24319384
34	0x3e396322	0.18104222
35	0x3e2aebf3	0.1669157
36	0x3d879a81	0.06621266
37	0x3e228eda	0.15874806
38	0x3d2dc55a	0.042424537
39	0x3d9b5731	0.0758499
40	0x3e67d368	0.22639239
41	0x3ed0f37a	0.40810758
42	0x3ee548d2	0.4478212
43	0x3f053f26	0.5204948
44	0x3d99bcb5	0.07506696
45	0x3ec0bb94	0.3764311
46	0x3e6c5894	0.23080665
47	0x3ec45e2b	0.38353094
48	0x3d8ce718	0.06880015
49	0x3df471bd	0.11935756
50	0x3d7df581	0.06200171
51	0x3e3d9829	0.18515076
52	0x3e563778	0.20919597
53	0x3d8e3826	0.06944303
54	0x3dc67574	0.09690371
55	0x3da4e383	0.08051207
56	0x3e8a4458	0.27005267
57	0x3dcb4c3b	0.09926649
58	0x3d5b9175	0.053605516
59	0x3f1724e1	0.5904065
60	0x3ee67b11	0.45015767
61	0x3f6c9b3c	0.9242437
62	0x3ea964fe	0.33084863
63	0x3da656b5	0.08122007

block3.0.weight f4 [64, 64, 3, 3]
0	0xbcff0177	-0.031128628
1	0xbcf90076	-0.030395728
2	0xbc97c001	-0.018524172
3	0x3c87cda9	0.016577559
4	0x3d092dab	0.033490818
5	0x3d0663a2	0.03280986
6	0xbca0487d	-0.019565815
7	0x3d37f6d0	0.044913113
8	0xbd14b171	-0.036302034
9	0xbc76fab9	-0.015074425
10	0xbc9f4b15	-0.019444982
11	0x3b8cf668	0.004301835
12	0xbbce027c	-0.0062869173
13	0xbc60690e	-0.013696922
14	0x3cc0781b	0.02349477
15	0xbcfafcbb	-0.03063809
16	0x3c174f18	0.009235166
17	0xbbaddebd	-0.0053060935
18	0x3c961034	0.018318273
19	0x3c03b3c2	0.008038463
20	0xbb84f1e8	-0.004057158
21	0x38d72f9a	0.000102608654
22	0xbd2a69c5	-0.041604776
23	0xbb51f73c	-0.0032038232
24	0x3cd2992f	0.02570781
25	0xbd092e95	-0.03349169
26	0xbbcf1b83	-0.0063204183
27	0xbcdae439	-0.026720153
28	0xba1e3efe	-0.0006036608
29	0xbbe8a8d0	-0.007100202
30	0x3d0ead98	0.03483352
31	0xbcc45275	-0.0239651
32	0xbcdd124f	-0.02698627
33	0x3cae5d8e	0.021284845
34	0x3d2f5630	0.042806804
35	0x3ccf5ee1	0.025313796
36	0xbce3dc9a	-0.027815152
37	0xbd160262	-0.036623366
38	0xbc5ac74a	-0.013353178
39	0xbce46101	-0.027878286
40	0x3cbd4bca	0.023107428
41	0x3c8894c7	0.016672505
42	0x3cbe28e6	0.023212861
43	0x3c873099	0.016502665
44	0xbd28ee5b	-0.04124294
45	0xbcd73fa1	-0.026275458
46	0xbcacb67e	-0.021083113
47	0xbc4e8db5	-0.012607028
48	0x3871d292	5.7654986e-05
49	0xbbf72a2e	-0.00754287
50	0x3c97bb97	0.018522067
51	0x3c921928	0.017834261
52	0x3d0b73e9	0.034046087
53	0x3c935b5b	0.017987898
54	0xbcf291d3	-0.02961055
55	0x3ce55e7f	0.02799916
56	0xbc11556e	-0.008870466
57	0x3a44cb04	0.00075070583
58	0xbcdf80eb	-0.027283153
59	0xbcf765f7	-0.030199988
60	0x3d16c235	0.036806304
61	0x3ad63e2e	0.0016345435
62	0xbcc3fda7	-0.023924662
63	0xbcd72d37	-0.026266677
64	0xbc666a00	-0.014063358
65	0x3c9570d1	0.018242272
66	0x3cc6e95f	0.024281202
67	0xbcfcf5c2	-0.030878905
68	0x3b37c604	0.002804161
69	0x3c031b72	0.008002149
70	0xbd0c024e	-0.034181885
71	0xbcc215cf	-0.02369204
72	0xbc965e26	-0.01835544
73	0xbaa4ee40	-0.0012583211
74	0x3cc61ac8	0.024182692
75	0x3d0fced5	0.03510936
76	0xbd0a6dd3	-0.033796143
77	0x3d22a106	0.039704345
78	0xbc39c7ca	-0.011339137
79	0xbc003eda	-0.007827485
80	0x3d1987e2	0.037483104
81	0xbb57be6c	-0.0032919897
82	0x3ce31634	0.027720548
83	0xbc6f8708	-0.014619596
84	0xbd2d1b51	-0.04226238
85	0xbc963056	-0.018333595
86	0x3c968bb9	0.018377172
87	0xbca74a42	-0.020421151
88	0x3d033eb5	0.032042224
89	0xbc77ae0c	-0.01511718
90	0x3d0d3fb0	0.034484565
91	0xbc2604a8	-0.010132946
92	0x3cc3a38b	0.023881694
93	0x3c64417c	0.013931628
94	0x3c6c2d0a	0.014415035
95	0xba6685bd	-0.0008793732
96	0x3d2b4bc4	0.041820303
97	0x3cdb547b	0.026773682
98	0x3cf042e6	0.029328775
99	0xbbad6a26	-0.005292195
100	0xbd06d3b1	-0.03291673
101	0xbc6d98af	-0.014501735
102	0x3a3e7cf5	0.0007266545
103	0xbcd8362b	-0.026393017
104	0x3ca26c2c	0.019826971
105	0x3ca9f4a4	0.020746537
106	0x3cae0b5a	0.021245647
107	0xbc8f7b96	-0.017514985
108	0x3c9596f0	0.01826045
109	0x3d0501e0	0.03247249
110	0x3d02467f	0.03180551
111	0x3c9c49ee	0.019078221
112	0xbb5917bb	-0.0033125717
113	0xbc8fa7d2	-0.017536078
114	0x3d00d9e9	0.031457815
115	0x3c9bce4d	0.01901927
116	0xbcaedf9e	-0.021346863
117	0x3bb14f38	0.005411055
118	0xbccaacf4	-0.024740674
119	0xbc7cfeb3	-0.015441584
120	0x3c0d1fed	0.008613569
121	0xbcd5a586	-0.026079904
122	0xbd15193e	-0.036401026
123	0xbb915458	-0.0044351034
124	0x3cc66cdb	0.024221828
125	0xbcdeedd2	-0.027213011
126	0xbb8b29bb	-0.004246918
127	0xbcddc943	-0.027073508
128	0x3cda3c62	0.02664012
129	0xbcbfa87f	-0.023395775
130	0x3ce8fed1	0.028441818
131	0x3c18d90d	0.009329093
132	0x3ceab54f	0.028650908
133	0xbc964035	-0.018341163
134	0x3d017c0b	0.031612437
135	0x3c2eb625	0.010663544
136	0x3ba63ad3	0.0050729304
137	0x3ca08644	0.019595273
138	0xbb23c990	-0.0024991967
139	0x3cc84981	0.024449112
140	0x3c1d2ca8	0.009593166
141	0x3b1f334f	0.0024292057
142	0xbd208aa3	-0.039194714
143	0xbc0be86f	-0.008539303
144	0xbcbf4755	-0.023349443
145	0x3c59fbb8	0.013304643
146	0x3c99b609	0.018763559
147	0x3d0a1dae	0.03371971
148	0x39db9416	0.00041881268
149	0x3bbcca4c	0.0057614204
150	0x3cc188aa	0.023624737
151	0xbd2460bd	-0.04013132
152	0xbca61204	-0.020272262
153	0x3c3570d1	0.011074261
154	0x3ca80a2a	0.02051266
155	0x3c0e4ccb	0.008685301
156	0x3cf0d29b	0.0293973
157	0x3c94afa6	0.018150162
158	0x3ca45531	0.020060154
159	0x3b7d1d46	0.0038622185
160	0x3d319e00	0.04336357
161	0x3ceeb82d	0.029140556
162	0x3c87da9c	0.016583733
163	0xbce1ffb1	-0.027587743
164	0x3cd70ac6	0.026250254
165	0xbc6255ac	-0.013814371
166	0xbcbacdaa	-0.022803146
167	0xbd1f51f5	-0.03889652
168	0x3c8f669d	0.017504985
169	0x3c337e3c	0.01095539
170	0x3bf2ca1e	0.007409348
171	0xbce7c4e3	-0.028292125
172	0x3c894e5f	0.016761003
173	0x3c2bfba3	0.010497007
174	0x3cb1d3b9	0.021707403
175	0xbcd5b7d2	-0.026088629
176	0x3cb011c3	0.021492844
177	0x3c625829	0.013814964
178	0xb9d58003	-0.00040721902
179	0x3c24ab2c	0.010050576
180	0xbd2ea8dc	-0.042641506
181	0x3c695221	0.014240772
182	0xbc768c6b	-0.015048127
183	0xbbe44dd7	-0.006967287
184	0xbab2caff	-0.001364082
185	0xbc4a6630	-0.012353465
186	0xbd007730	-0.031363666
187	0xbc08c7e3	-0.008348438
188	0x3cf743a0	0.030183613
189	0xbd2dffa6	-0.042480133
190	0x3c88227c	0.016618006
191	0xbba6fb95	-0.005095909
192	0xbce5a53f	-0.028032897
193	0xbc9d966e	-0.01923677
194	0x3cdb711b	0.026787331
195	0xbd076ca4	-0.033062592
196	0xbcfcfef7	-0.030883295
197	0xbb49c497	-0.0030787343
198	0x3ce55cf5	0.027998427
199	0x3d0001fe	0.0312519
200	0x3cccc883	0.024997955
201	0x3ce74d16	0.028235
202	0x3b9c5c5c	0.0047717523
203	0x3bf2c481	0.007408679
204	0xbc3661fa	-0.011131758
205	0xbd23395f	-0.039849635
206	0xbc3aa968	-0.011392929
207	0x3d0b4010	0.03399664
208	0x3a887113	0.0010409675
209	0x3cfab8a5	0.030605623
210	0xbc28d717	-0.010305188
211	0xbc95c4ba	-0.018282283
212	0xbcff5508	-0.031168476
213	0x3d2dee83	0.04246379
214	0x3c1ac757	0.00944694
215	0xbc32dd2c	-0.010916989
216	0xbc25fdd2	-0.010131316
217	0x3ce7ed7a	0.02831148
218	0x3bf3f7d2	0.007445314
219	0x3ceff296	0.029290479
220	0x3c979cfb	0.018507471
221	0xbae531aa	-0.0017486115
222	0xbc858901	-0.01630068
223	0xbb9b5d06	-0.004741314
224	0xbc6d43c1	-0.014481486
225	0x3cd530cd	0.026024247
226	0x3c888f72	0.016669963
227	0xbb93b90e	-0.004508144
228	0x3c8489ec	0.016179048
229	0x3acc55d4	0.0015589544
230	0x3bc79e7c	0.006091891
231	0xbbfacfc1	-0.0076541607
232	0x3d29778d	0.041373778
233	0x3b83b077	0.004018839
234	0xbd08f1f3	-0.033433866
235	0x3d2dc6c8	0.0424259
236	0xbd1c8bdb	-0.038219314
237	0x3c25488f	0.0100881
238	0xbca23ce9	-0.019804435
239	0x3c7d4316	0.015457889
240	0x3c1c4dc7	0.009540028
241	0xbcd5961e	-0.026072558
242	0x3ce8a01d	0.02839666
243	0xbd2e8ba8	-0.042613655
244	0x3cbe9deb	0.02326866
245	0x3c167764	0.009183738
246	0x3a5e5236	0.00084808783
247	0xbb1fb2e0	-0.0024368092
248	0xbd0c5317	-0.03425893
249	0x3c7bb402	0.015362741
250	0xbd19a9e4	-0.037515536
251	0xbc86f0cd	-0.016472245
252	0xbc0ffae8	-0.008787848
253	0xbc17a73f	-0.009256183
254	0x3b910e91	0.0044267853
255	0xbcbf4115	-0.023346463

block3.0.bias f4 [64]
0	0x3bb7e4c4	0.005611988
1	0x3a21b51b	0.00061686494
2	0xbcf4802b	-0.029846271
3	0xbcb1c57e	-0.021700617
4	0x3d1380a1	0.036011342
5	0x3b943c03	0.0045237555
6	0xbd1d986c	-0.03847544
7	0xbd0bb8ae	-0.03411167
8	0xbd15fb46	-0.036616586
9	0xbd18991b	-0.037255388
10	0xbc8c8913	-0.017155206
11	0xbb71ebbe	-0.0036914195
12	0x3cc04ecb	0.023475071
13	0xbd0b1463	-0.03395499
14	0x3d0a2271	0.033724252
15	0xbd04cb45	-0.032420415
16	0x3c90ea8b	0.017689964
17	0xbc148f4e	-0.00906737
18	0xbb3ff6bf	-0.002929136
19	0xbd1a08eb	-0.03760616
20	0x3c794ba1	0.015215785
21	0xbcb4e646	-0.02208246
22	0xbd043c12	-0.03228385
23	0x3cfafd21	0.03063828
24	0xbb909540	-0.0044123232
25	0xbce8972d	-0.028392399
26	0x3c88370c	0.01662781
27	0xbc835b01	-0.016034605
28	0x3c15b0f2	0.009136425
29	0xbcff44b8	-0.031160697
30	0x3ccf7eb5	0.025328973
31	0xba62937b	-0.0008643192
32	0xb8118715	-3.46965e-05
33	0xbd23e15b	-0.040009838
34	0x3cb2e088	0.02183558
35	0xbbf54e12	-0.0074861133
36	0x3d14728e	0.03624206
37	0xba2059bf	-0.0006116889
38	0xbd030eb3	-0.03199644
39	0xbcbf6763	-0.023364728
40	0x3c07dd8e	0.008292569
41	0xbd134119	-0.035950754
42	0xbc95e158	-0.018295929
43	0xbc490b90	-0.012270823
44	0xbcba01bd	-0.022705907
45	0xbcadf16f	-0.021233289
46	0xbcf5b9e3	-0.029995864
47	0x3cc0fc4f	0.02355781
48	0x3b5111d0	0.0031901486
49	0xbca04c70	-0.019567698
50	0x3c147273	0.00906049
51	0xbd10d0fb	-0.03535555
52	0xbc5d0497	-0.013489864
53	0xbbea1f5b	-0.007144851
54	0xbcf2feec	-0.029662572
55	0xbc019886	-0.0079099
56	0x3d0fea1d	0.035135377
57	0x3b84d03c	0.004053144
58	0xbceaffd3	-0.02868644
59	0xbd0b088d	-0.0339437
60	0x3c028291	0.0079657
61	0xbbe13202	-0.0068724165
62	0x3cba3d49	0.022734301
63	0x3ad2f0bb	0.0016093472

block3.1.weight f4 [64]
0	0x3f805da9	1.0028583
1	0x3f7ee929	0.99574524
2	0x3f7ecb72	0.9952918
3	0x3f7ed363	0.995413
4	0x3f7ebdee	0.9950856
5	0x3f7ff85b	0.99988335
6	0x3f7faa24	0.9986899
7	0x3f7ff81d	0.99987966
8	0x3f806674	1.0031266
9	0x3f7f78bf	0.9979362
10	0x3f802ed0	1.0014286
11	0x3f7fcb7f	0.99919885
12	0x3f7fabaa	0.99871314
13	0x3f7f4a5c	0.9972284
14	0x3f7f483b	0.9971959
15	0x3f80a74a	1.0051053
16	0x3f7fde1f	0.99948305
17	0x3f7ecaf8	0.99528456
18	0x3f7eb802	0.99499524
19	0x3f800e61	1.0004388
20	0x3f7e27cc	0.99279475
21	0x3f7f8a37	0.99820274
22	0x3f804a2e	1.0022638
23	0x3f8009e7	1.0003022
24	0x3f7e9084	0.99439263
25	0x3f7e7013	0.9938976
26	0x3f80082d	1.0002495
27	0x3f807950	1.0037022
28	0x3f8020dd	1.0010029
29	0x3f8034fa	1.0016167
30	0x3f7fc847	0.99914974
31	0x3f7ebeb0	0.99509716
32	0x3f7f6be3	0.99774
33	0x3f7feeea	0.9997393
34	0x3f801f43	1.000954
35	0x3f7fe85a	0.99963915
36	0x3f80ffa1	1.0078012
37	0x3f809f3b	1.0048593
38	0x3f803fb3	1.001944
39	0x3f80325c	1.0015368
40	0x3f7fb387	0.9988331
41	0x3f7e6941	0.99379355
42	0x3f809421	1.0045205
43	0x3f80684e	1.0031831
44	0x3f7f7aa8	0.99796534
45	0x3f8154ff	1.0104064
46	0x3f806b0f	1.0032672
47	0x3f801b9a	1.0008423
48	0x3f7f162d	0.9964321
49	0x3f7ed1ce	0.99538887
50	0x3f809717	1.0046109
51	0x3f8085c4	1.0040822
52	0x3f808ef0	1.0043621
53	0x3f7d4304	0.9893038
54	0x3f7fb554	0.9988606
55	0x3f7fecbd	0.9997061
56	0x3f80bbfa	1.0057366
57	0x3f7fa923	0.9986746
58	0x3f7f51cf	0.99734205
59	0x3f7f820f	0.9980783
60	0x3f8066e1	1.0031396
61	0x3f80f26f	1.0073985
62	0x3f7e711b	0.99391335
63	0x3f7ef9ca	0.995999

block3.1.bias f4 [64]
0	0xbb994ccf	-0.0046783458
1	0xbb3b93d0	-0.0028622039
2	0xbbe8c52b	-0.0071035824
3	0xbc02a4a9	-0.007973828
4	0xbb883255	-0.0041563907
5	0xba6722e7	-0.00088171515
6	0xbc04ce48	-0.008105822
7	0xbad22f8c	-0.0016035899
8	0xbb7a7d61	-0.0038221704
9	0xbb8f5dd6	-0.0043752
10	0x3a77841b	0.00094419875
11	0xbb1f3fa4	-0.0024299407
12	0xbb809ad1	-0.0039247056
13	0xba87febc	-0.0010375599
14	0xbb01d45e	-0.0019810419
15	0xbc00765d	-0.00784072
16	0xbab84507	-0.0014058658
17	0xbbac22b9	-0.0052531627
18	0xba2735c8	-0.00063785585
19	0xbb4a44ad	-0.0030863688
20	0xbbfbe94d	-0.0076877237
21	0xbbb15cc4	-0.00541267
22	0xba683b80	-0.0008858964
23	0xbb1505a2	-0.0022738953
24	0xbbf75847	-0.0075483653
25	0xbbc979d5	-0.0061485567
26	0xbb9b35dd	-0.0047366456
27	0xbba5e3c9	-0.0050625545
28	0xb9f5f142	-0.00046909793
29	0xba94ad24	-0.0011343104
30	0xbbb00197	-0.0053712833
31	0xbb291a9c	-0.0025803214
32	0xbb80d199	-0.003931236
33	0xbb835a24	-0.0040085483
34	0xb9046ba4	-0.000126286
35	0xbb725ab4	-0.0036980333
36	0xbb94a756	-0.0045365496
37	0xbbca65bb	-0.006176678
38	0x3b2173e5	0.002463573
39	0xba861707	-0.0010230251
40	0xbb6befc9	-0.0036001077
41	0xbb55b320	-0.0032607988
42	0xbb88116d	-0.004152468
43	0xbc03c2d8	-0.00804206
44	0xbb9d0f81	-0.004793108
45	0x3b1f9bc1	0.0024354311
46	0xbaaa21ed	-0.0012980081
47	0xbb26dea6	-0.0025462299
48	0xba205535	-0.00061162125
49	0xbbcb4687	-0.006203476
50	0xb99393bb	-0.00028148093
51	0xbc1e5b94	-0.009665389
52	0x3b14c3e8	0.0022699777
53	0xbc17dc82	-0.009268882
54	0xbb61312f	-0.003436159
55	0xb93e3032	-0.00018137766
56	0xbb16b8c7	-0.002299832
57	0xbb36249f	-0.0027792824
58	0xbbbfe797	-0.005856465
59	0xbba8f39e	-0.0051559946
60	0xbbc4a2b4	-0.006000841
61	0xbba76539	-0.005108502
62	0xbc1daadc	-0.009623256
63	0xbbcf0a7c	-0.0063183885

block3.1.running_mean f4 [64]
0	0x3e3a6297	0.18201672
1	0xbe3398e1	-0.17538787
2	0x3c7af635	0.015317489
3	0xbf074680	-0.5284195
4	0xbd553ecb	-0.052061837
5	0x3e971d71	0.2951465
6	0x3ca144b7	0.019686086
7	0xbe164f2c	-0.14678639
8	0xbd1b684d	-0.037941266
9	0xbe8ba0da	-0.27271158
10	0xbdc7b080	-0.097504616
11	0x3d2da35f	0.04239213
12	0x3dc87dd5	0.097896256
13	0xbf3d4908	-0.7393956
14	0xbeb248c4	-0.3482114
15	0x3e69d460	0.22834921
16	0x3ca2a599	0.019854354
17	0x3ea44043	0.32080278
18	0x3d193133	0.037400436
19	0x3e3f93d3	0.18708734
20	0xbe23eb42	-0.16007712
21	0x3f03d7d2	0.5150119
22	0xbec0a764	-0.3762771
23	0x3dfb411e	0.122682795
24	0x3e2c5e01	0.16832735
25	0xbe737738	-0.23775947
26	0x3e142e6c	0.14470834
27	0x3df243fb	0.118293725
28	0x3e813289	0.25233868
29	0xbcee5306	-0.029092323
30	0xbdd9b42a	-0.10630067
31	0xbf45a8dc	-0.77210784
32	0xbef70740	-0.4824772
33	0x3eb781ee	0.35841316
34	0x3e84f581	0.25968555
35	0xbeb6d63e	-0.3571033
36	0x3e958377	0.29201862
37	0x3e77b748	0.2419101
38	0x3c883dc7	0.01663102
39	0xbe3eda0e	-0.18637869
40	0xbf4e8bd4	-0.8068211
41	0xbdb7785e	-0.08958505
42	0x3e893bb7	0.2680337
43	0xbd57d50b	-0.052693408
44	0x3e437676	0.19088158
45	0x3ec90bdc	0.3926686
46	0x3ec64122	0.38721567
47	0xbe89e87c	-0.26935184
48	0x3d1489a6	0.036264084
49	0x3e763c97	0.2404655
50	0x3e8793e8	0.2648003
51	0x3dac9212	0.08426298
52	0xbe05898a	-0.13040748
53	0x3cd10341	0.025514247
54	0x3eb6e582	0.35721976
55	0xbf689a83	-0.90860766
56	0x3def689a	0.11689873
57	0x3eb1fafc	0.34761798
58	0x3ebbf144	0.3670751
59	0x3cb38778	0.021915182
60	0x3e80cbae	0.25155395
61	0x3ea910fc	0.3302077
62	0x3ec7d843	0.39032182
63	0xbe536690	-0.20644593

block3.1.running_var f4 [64]
0	0x3e188020	0.14892626
1	0x3e87bbc0	0.2651043
2	0x3eaffd02	0.34372717
3	0x3e856da6	0.26060218
4	0x3ead4902	0.33844763
5	0x3e4fc5a6	0.2029024
6	0x3e9bb811	0.3041387
7	0x3e085c25	0.133164
8	0x3e203389	0.15644659
9	0x3e925a62	0.28584582
10	0x3e8cac34	0.2747513
11	0x3e2c0842	0.16800025
12	0x3ebf9ac7	0.37422773
13	0x3e92b6f6	0.28655213
14	0x3e893472	0.26797825
15	0x3e128890	0.14309907
16	0x3e441016	0.19146761
17	0x3ee02555	0.43778482
18	0x3e890519	0.26761702
19	0x3e129246	0.14313611
20	0x3e792d30	0.24333644
21	0x3e5b262e	0.21401283
22	0x3e66b38a	0.22529426
23	0x3e7f1052	0.2490857
24	0x3ea64410	0.32473803
25	0x3e2702b6	0.16309628
26	0x3ec725e0	0.38896084
27	0x3e004f78	0.12530315
28	0x3e0cd121	0.13751651
29	0x3eb7de37	0.35911724
30	0x3e216c91	0.15764071
31	0x3f0df8f9	0.5545803
32	0x3ef72051	0.48266843
33	0x3ec3a89b	0.38214573
34	0x3defb976	0.11705296
35	0x3ea46663	0.32109365
36	0x3e3b21bc	0.18274587
37	0x3ee73ed5	0.45165125
38	0x3e1647cc	0.14675826
39	0x3e42ca1f	0.19022416
40	0x3f3be459	0.73395306
41	0x3e52f154	0.20599872
42	0x3e0a5af3	0.13511257
43	0x3e90e7fc	0.2830199
44	0x3e78956f	0.24275754
45	0x3e939bc8	0.2882979
46	0x3f0cfaac	0.55069995
47	0x3ea61f3d	0.32445708
48	0x3e83fce3	0.25778875
49	0x3e336350	0.17518353
50	0x3e288f05	0.16460808
51	0x3e8cbf1f	0.27489564
52	0x3e1df251	0.15424468
53	0x3de5c58c	0.1121932
54	0x3e9eae46	0.30992335
55	0x3ec52d86	0.38511294
56	0x3e0708d2	0.13186958
57	0x3e8d8f30	0.27648306
58	0x3e49c29b	0.19703142
59	0x3e9840b6	0.2973687
60	0x3e88609d	0.2663621
61	0x3e087da4	0.13329178
62	0x3e959a6c	0.29219377
63	0x3e25bc05	0.16185005
