legacy/results/old/basic/basic_2.pth (torch, 961549 bytes, 26 tensors)

block1.0.weight f4 [64, 1, 3, 3]
0	0xbe181457	-0.14851509
1	0xbe2f3fb3	-0.17114143
2	0xbe75218e	-0.23938581
3	0x3dbb2e3b	0.09139677
4	0x3ea40e54	0.32042181
5	0xbde71148	-0.11282593
6	0xbd810d67	-0.063013844
7	0xbe8c77b3	-0.27435073
8	0x3e20f51d	0.15718503
9	0x3e1b8ad6	0.1518968
10	0xbe7f55e1	-0.24935104
11	0x3e7660fc	0.24060434
12	0x3e65ccac	0.22441357
13	0xbe405f1d	-0.18786283
14	0x3e90ccbd	0.28281203
15	0xbea03e55	-0.31297556
16	0x3d8a0939	0.0674004
17	0xbddaca79	-0.1068315
18	0x3e5aeef1	0.21380211
19	0x3ea8a705	0.32939926
20	0xbe880abe	-0.26570696
21	0x3e4c9bb4	0.19981271
22	0xbe16a468	-0.14711154
23	0x3ea94f9d	0.33068553
24	0xbd963593	-0.07334437
25	0xbea028d1	-0.3128114
26	0x3d91f90b	0.07127579
27	0x3e2f6278	0.17127407
28	0x3e9a4dd3	0.301375
29	0xbe7639c0	-0.24045467
30	0x3e50296d	0.20328303
31	0x3dec6074	0.115418345
32	0x3d808c11	0.062767155
33	0x3e5ffefd	0.21874614
34	0xbe2842ce	-0.16431734
35	0x3e1976b9	0.14986695
36	0xbe0faaa3	-0.14029936
37	0xbe868bd6	-0.2627856
38	0xbdfb280d	-0.122634985
39	0xbd37ca66	-0.044870757
40	0x3ea89755	0.32927957
41	0xbcfd29aa	-0.030903656
42	0xbe753c0a	-0.23948684
43	0x3e7ecada	0.24882069
44	0xbe75c3a1	-0.24000408
45	0x3deb4f75	0.114897646
46	0xbddc7cee	-0.10766016
47	0x3e57ab8a	0.2106153
48	0xbd0c1001	-0.03419495
49	0x3e97c8d6	0.29645413
50	0xbdb51610	-0.08842099
51	0x3dfb632c	0.12274775
52	0x3e01bead	0.12670393
53	0xbb9ff510	-0.0048815086
54	0xbe8133b3	-0.25234756
55	0x3ea290ca	0.3175109
56	0x3e3aafa0	0.18231058
57	0xbe78d000	-0.24298096
58	0xbe5bdf29	-0.21471848
59	0xbdbd598b	-0.092455946
60	0xbe8ccdbd	-0.27500716
61	0x3da71459	0.08158178
62	0xbd580f3c	-0.052748904
63	0xbea77463	-0.32705984
64	0xbea0ff46	-0.31444758
65	0x3d41ff2b	0.047362488
66	0x3ea66d35	0.32505193
67	0x3da7e562	0.08198048
68	0x3e4f5ffb	0.20251457
69	0xbe55e53e	-0.2088823
70	0x3e8dfec3	0.2773343
71	0xbd971b62	-0.0737827
72	0xbd6fadb5	-0.05851527
73	0x3e92b8db	0.2865666
74	0xbe078e3d	-0.13237853
75	0xbcc64e27	-0.024207188
76	0x3dc8e25a	0.09808798
77	0x3de8ce99	0.113675304
78	0xbdb1fd3f	-0.08690881
79	0xbd2cbfca	-0.04217509
80	0x3e76a158	0.24084985
81	0xbe345ad5	-0.17612775
82	0xbea73810	-0.3265996
83	0xbe5e1390	-0.2168715
84	0x3e000fc5	0.12506016
85	0xbe2d3037	-0.16912924
86	0xbea08c8b	-0.31357226
87	0x3de0bc8d	0.10973463
88	0xbe7fc0b8	-0.2497586
89	0x3e386cb4	0.18010217
90	0x3d197c5c	0.037472114
91	0x3e4402ff	0.19141768
92	0xbd958dd8	-0.07302445
93	0xbe241229	-0.16022553
94	0x3e3bf216	0.18354067
95	0x3e53f2d9	0.20698108
96	0xbdf1db74	-0.118094355
97	0x3e50e32b	0.20399158
98	0xbe83ef4f	-0.25768515
99	0xbe16d799	-0.14730681
100	0x3e30f988	0.17282689
101	0x3d242923	0.040078294
102	0x3e23fb9e	0.16013953
103	0xbea70015	-0.3261725
104	0x3d9b4c59	0.075829215
105	0x3e100238	0.14063346
106	0xbcda7785	-0.02666832
107	0x3e9c56eb	0.30535063
108	0xbc92129c	-0.01783114
109	0xbe0c1652	-0.1368039
110	0x3decff43	0.11572125
111	0xbe9f0fd3	-0.3106676
112	0x3e530a5f	0.20609425
113	0xbd476f51	-0.048690144
114	0xbd96cd98	-0.07363433
115	0xbd029005	-0.03187563
116	0xbe856929	-0.26056793
117	0xbe118860	-0.14212179
118	0xbe9609c7	-0.29304335
119	0xbe6cc7d8	-0.2312311
120	0xbbfaac27	-0.0076499167
121	0xbdb5c72a	-0.08875878
122	0xbccfa80f	-0.025348691
123	0x3ea3c5c4	0.3198682
124	0xbea307f6	-0.3184201
125	0xbb1e7232	-0.0024176952
126	0x3ca3a7f5	0.01997755
127	0xbe8633c1	-0.2621136
128	0x3e0d3dec	0.13793153
129	0x3e4dbb39	0.20090951
130	0xbdf641dd	-0.12024281
131	0xbdbb1f5d	-0.091368414
132	0x3ea5a1a6	0.3234989
133	0x3e3ff14b	0.1874439
134	0x3e29ec7f	0.16594122
135	0xbc1ed414	-0.009694118
136	0x3e857715	0.26067415
137	0x3e676f66	0.22601089
138	0x3e90a6dd	0.28252307
139	0xbe493cd2	-0.19652107
140	0x3e529ed6	0.20568404
141	0x3d4b6c15	0.049663622
142	0xbe1290bc	-0.14313024
143	0xbe1a1739	-0.15047921
144	0x3ea566f7	0.32305118
145	0x3ddd6faf	0.108123176
146	0xbe97db74	-0.29659617
147	0xbddc6569	-0.1076153
148	0xbe9aeb62	-0.30257708
149	0x3dff50fa	0.12466617
150	0xbe0815f9	-0.13289632
151	0x3d5fb135	0.054612357
152	0x3e544e59	0.20733012
153	0x3d8207d6	0.06349151
154	0xbe1ed634	-0.155114
155	0xbe904b19	-0.28182295
156	0xbda92d01	-0.08260537
157	0x3de99139	0.11404652
158	0x3e25f40d	0.16206379
159	0x3e93e2f2	0.28884083
160	0x3d7cdabd	0.061732043
161	0xbccca47d	-0.024980778
162	0x3cd76c8c	0.026296876
163	0xbe4e291f	-0.20132874
164	0xbe780cdd	-0.24223657
165	0x3e0d3d17	0.13792835
166	0x3e64865b	0.22316878
167	0x3e9ca4f5	0.30594602
168	0x3e4903d8	0.19630373
169	0xbb9deb84	-0.0048193354
170	0x3e3e19a7	0.18564473
171	0x3dab4ffb	0.083648644
172	0x3e0f3bfd	0.13987727
173	0xbe25f466	-0.16206512
174	0xbe85235d	-0.26003543
175	0xbadd3709	-0.0016877364
176	0xbcdcdc1d	-0.026960427
177	0x3e92d641	0.28679088
178	0xbdbd0337	-0.09229129
179	0x3e5f9c5d	0.21836992
180	0xbd288091	-0.041138235
181	0x3e7c3410	0.24629235
182	0xbbfb887d	-0.007676183
183	0x3e57b80b	0.210663
184	0xbe615aea	-0.22007337
185	0xbe93962e	-0.28825516
186	0xbe1b32b5	-0.15156062
187	0x3e6b03f3	0.22950725
188	0xbe9ce765	-0.3064529
189	0x3e561370	0.20905852
190	0xbe741d81	-0.2383938
191	0xbe2d14ac	-0.16902417
192	0x3e929e5c	0.28636444
193	0x3b9068cc	0.004407024
194	0x3e81049e	0.25198835
195	0x3e685436	0.22688374
196	0xbe94227c	-0.2893256
197	0x3db848cb	0.08998259
198	0x3d9ea2b5	0.07745878
199	0xbe52667a	-0.20546904
200	0xbe2c6227	-0.16834317
201	0xbe4e4253	-0.20142488
202	0x3e5a53db	0.21321051
203	0xbe94766f	-0.28996608
204	0xbeaa152d	-0.3321928
205	0xbd03c32b	-0.03216855
206	0x3e0b3a17	0.13596378
207	0x3e785b0e	0.24253485
208	0x3c56b94a	0.0131057
209	0xbd55f891	-0.052239005
210	0x3d2ba123	0.04190172
211	0x3e4ab959	0.19797267
212	0x3e7e5ce2	0.2484012
213	0xbdcc674b	-0.09980639
214	0x3e2141f7	0.1574782
215	0xb9ac841e	-0.00032904831
216	0xbe2053b2	-0.15656927
217	0x3d87288a	0.06599529
218	0xbe7b42d9	-0.24537219
219	0x3dd18a85	0.10231499
220	0x3d9f0658	0.07764882
221	0xbd56c616	-0.052435003
222	0x3ea18f52	0.31554657
223	0xbd66a9e7	-0.056314375
224	0x3e914666	0.28374022
225	0x3e05e0a3	0.13073973
226	0x3e767ea2	0.24071744
227	0x3d382e18	0.044965833
228	0xbea7d7a8	-0.3278172
229	0x3e9bfcdb	0.3046635
230	0xbe0ca021	-0.1373296
231	0x3d08067e	0.033209316
232	0x3e24d437	0.16096579
233	0xbe5d7f59	-0.2163061
234	0x3e82f9be	0.25581163
235	0x3bf10534	0.0073553566
236	0x3e76df63	0.24108653
237	0xbe05c6e5	-0.13064153
238	0x3e350a7d	0.17679782
239	0x3e5b39f5	0.21408828
240	0x3e4537f2	0.19259623
241	0xbd8f4373	-0.06995287
242	0x3e202500	0.15639114
243	0x3dc954ad	0.09830604
244	0xbe3c2b8b	-0.18375985
245	0x3e8fcebb	0.2808741
246	0x3e39ce49	0.18145098
247	0x3da25d13	0.07927909
248	0xbe803f36	-0.25048226
249	0x3e878f5e	0.26476568
250	0xbeab76c4	-0.33489048
251	0x3e3f052d	0.18654318
252	0xbce6bee6	-0.0281672
253	0xbe7315ad	-0.23738737
254	0x3e668b13	0.2251399
255	0xbe8bbd9d	-0.272931

block1.0.bias f4 [64]
0	0x3e82945a	0.25503808
1	0xbea2eea2	-0.31822687
2	0x3e061243	0.13092904
3	0x3e0b6bfe	0.13615415
4	0xbe895954	-0.26825964
5	0xbc88efe1	-0.016715946
6	0x3d7e6608	0.062109023
7	0xbe3eaa08	-0.1861955
8	0x3d85daa6	0.065358445
9	0xbdb40cdb	-0.087915145
10	0xbe13a83c	-0.14419645
11	0xbdfbf7aa	-0.123030975
12	0xbe6429f7	-0.22281633
13	0xbe9713c6	-0.29507273
14	0x3e6c5e9d	0.23082967
15	0x3ddc9782	0.10771085
16	0x3d394af3	0.045237493
17	0x3e70453c	0.23463911
18	0xbe2154ae	-0.15754959
19	0xbe7af90d	-0.24509068
20	0xbb289659	-0.002572438
21	0x3e1aee14	0.15129882
22	0x3dd0036a	0.10156901
23	0x3e8883e9	0.2666314
24	0xbc1eeb27	-0.009699619
25	0x3e72335b	0.23652403
26	0xbd94348c	-0.07236585
27	0x3df39027	0.11892729
28	0x3dd7f9bb	0.10545679
29	0x3e9ca6b4	0.30595934
30	0xbc776ceb	-0.015101652
31	0x3e1af402	0.15132144
32	0xbe6214a8	-0.22078192
33	0x3e9a1a75	0.3009831
34	0xbe42b0f7	-0.19012819
35	0xbd982e75	-0.07430736
36	0x3d276273	0.040865373
37	0x3e58afae	0.21160766
38	0xbe432b1b	-0.19059412
39	0x3e94aeb0	0.29039526
40	0xbe87a115	-0.26490083
41	0xbe065f69	-0.13122334
42	0x3e8ef045	0.27917686
43	0xbe1ca2e7	-0.15296517
44	0x3d7454da	0.059651233
45	0xbe8c4900	-0.27399445
46	0xbe8d8511	-0.27640584
47	0xbe934773	-0.2876545
48	0x3e0c7e5a	0.13720074
49	0x3e11623d	0.14197631
50	0xbcd099d2	-0.025463972
51	0x3d426ef4	0.047469094
52	0x3ea6a405	0.32547012
53	0x3bb5b630	0.0055454
54	0xbe3dce42	-0.18535712
55	0x3d7eaf46	0.062178873
56	0xbe83056d	-0.25590077
57	0xbe6455e4	-0.2229839
58	0xbd30f158	-0.043198913
59	0xbe030cbb	-0.12797825
60	0x3ea3f3f3	0.32022056
61	0xbdc10ac9	-0.09425885
62	0x3e2757dc	0.1634211
63	0x3d460487	0.04834416

block1.1.weight f4 [64]
0	0x3f7faa6f	0.99869436
1	0x3f7ffe32	0.99997246
2	0x3f7fd523	0.99934596
3	0x3f7feb42	0.9996835
4	0x3f7f8278	0.99808455
5	0x3f802782	1.0012057
6	0x3f7f283f	0.99670786
7	0x3f804726	1.0021713
8	0x3f7f52dc	0.9973581
9	0x3f7f95c4	0.998379
10	0x3f7ffda9	0.9999643
11	0x3f7fe272	0.99954903
12	0x3f8024a9	1.0011188
13	0x3f7ffb8d	0.9999321
14	0x3f7fe486	0.99958074
15	0x3f7fdfbb	0.9995076
16	0x3f80a015	1.0048853
17	0x3f80211c	1.0010104
18	0x3f801f3b	1.0009531
19	0x3f7fb038	0.99878263
20	0x3f7f08ae	0.9962262
21	0x3f801774	1.0007157
22	0x3f803d5c	1.0018725
23	0x3f7fa8b7	0.99866813
24	0x3f7fb02e	0.99878204
25	0x3f7f7b57	0.99797577
26	0x3f7f9ad8	0.9984565
27	0x3f800a6a	1.0003178
28	0x3f7f7dba	0.9980122
29	0x3f7fc153	0.99904364
30	0x3f7fa2ca	0.9985777
31	0x3f7f657d	0.99764234
32	0x3f801122	1.0005229
33	0x3f803e66	1.0019042
34	0x3f7f69bf	0.9977073
35	0x3f7f8a37	0.99820274
36	0x3f7f2248	0.99661684
37	0x3f801097	1.0005063
38	0x3f800c17	1.000369
39	0x3f7fd8df	0.99940294
40	0x3f7ff3bd	0.9998129
41	0x3f7fe5eb	0.999602
42	0x3f804f7e	1.0024259
43	0x3f7ffd88	0.99996233
44	0x3f803e23	1.0018963
45	0x3f7fd426	0.9993309
46	0x3f8028ab	1.0012411
47	0x3f7f8c18	0.9982314
48	0x3f80142f	1.000616
49	0x3f800ae8	1.0003328
50	0x3f803e4c	1.0019011
51	0x3f7f976c	0.99840426
52	0x3f802110	1.001009
53	0x3f802a88	1.001298
54	0x3f7fbab2	0.9989425
55	0x3f7f9155	0.99831134
56	0x3f7fe5ef	0.99960226
57	0x3f8023c5	1.0010916
58	0x3f807650	1.0036106
59	0x3f80126c	1.0005622
60	0x3f7fb7f8	0.9989009
61	0x3f801808	1.0007334
62	0x3f800e71	1.0004407
63	0x3f8051da	1.0024979

block1.1.bias f4 [64]
0	0xba50a80f	-0.0007959613
1	0xbb26527f	-0.0025378761
2	0x39042858	0.0001260353
3	0x3a5032f4	0.0007942163
4	0xb9a168b1	-0.00030786314
5	0x3aa08337	0.0012246136
6	0xbaf32ed1	-0.0018553381
7	0x3b45549b	0.0030110243
8	0xbb40a46c	-0.0029394878
9	0xbb8177f0	-0.0039510652
10	0x39a2da74	0.00031061808
11	0xba469993	-0.0007575985
12	0x3abb2fd2	0.0014281219
13	0x3a4d4709	0.00078307145
14	0x3b3ed2f2	0.0029117432
15	0x3a328cda	0.00068111497
16	0x3b581e69	0.003297711
17	0x3b769b78	0.0037629288
18	0x3ad3e8de	0.0016167422
19	0x3aa255d5	0.0012385199
20	0xbad86f3b	-0.0016512641
21	0x39809c6f	0.00024530615
22	0x39819ec0	0.00024723075
23	0xba2ed98e	-0.00066699914
24	0x3a1c9829	0.00059736014
25	0xbb3c4cbb	-0.0028732258
26	0x39d59d03	0.0004074351
27	0xbaca72e4	-0.0015445617
28	0xbb33ec5f	-0.002745412
29	0xbb353861	-0.0027652013
30	0xbb049fa8	-0.0020236764
31	0x385bd8b3	5.2415486e-05
32	0x3b7897dc	0.0037932312
33	0x3ae68e66	0.0017590045
34	0x3a197429	0.0005853796
35	0xba8df503	-0.0010830465
36	0xbb919bb7	-0.0044436115
37	0x3ac9b0cf	0.0015387776
38	0xbb8b846f	-0.0042577307
39	0xbae79c10	-0.0017670412
40	0xbaa4549b	-0.0012537421
41	0x3b055c8e	0.0020349356
42	0x3b50380e	0.0031771692
43	0xbab3ae89	-0.0013708632
44	0x3aaeebc4	0.001334541
45	0xbad0da76	-0.0015934247
46	0x3a801f8f	0.000977503
47	0xbb0b9248	-0.0021296907
48	0x39a8a14c	0.00032163633
49	0x3a05d861	0.00051057903
50	0x383feed7	4.5760386e-05
51	0xbb265e16	-0.002538567
52	0x3a2215c8	0.0006183055
53	0x3b3c7b2c	0.002875994
54	0xba9dde1c	-0.0012044343
55	0xbab92f71	-0.0014128519
56	0xba6ce7d1	-0.0009037229
57	0xb97e0d99	-0.00024228393
58	0x3b6a583e	0.0035758163
59	0xb9becd27	-0.00036392474
60	0x3b020c88	0.0019843895
61	0x3b081cab	0.002076904
62	0xb9f01dc5	-0.00045798547
63	0x3b0d606a	0.002157236

block1.1.running_mean f4 [64]
0	0x3d50e220	0.0509969
1	0xbe889189	-0.26673535
2	0x3e95795d	0.29194155
3	0x3f04aa76	0.518226
4	0xbf006703	-0.50157183
5	0x3e8faf38	0.2806337
6	0xbe472b31	-0.1945007
7	0xbe38c745	-0.18044765
8	0x3e801ce4	0.25022042
9	0xbf125253	-0.57156867
10	0xbd317de0	-0.043332934
11	0x3d79e197	0.061006155
12	0xbef7ba18	-0.48384166
13	0xbf29c1dd	-0.66311437
14	0x3efc9d80	0.49338913
15	0x3eb3f8b6	0.3515069
16	0x3d0bb887	0.034111526
17	0x3e9b4188	0.30323434
18	0x3e0bea1d	0.13663526
19	0xbe21c5a6	-0.15798053
20	0xbe209088	-0.15680134
21	0x3ea6684a	0.3250144
22	0xbe8bdd4d	-0.27317277
23	0x3f1dc723	0.61631984
24	0x3e172369	0.14759602
25	0x3eb0c907	0.34528372
26	0x3ed3f684	0.41399014
27	0x3e8972bd	0.2684535
28	0xbdc999b2	-0.09843768
29	0xbdeeffe8	-0.11669904
30	0x3e8dfc5c	0.27731597
31	0xbd61a692	-0.055090494
32	0xbe637ffa	-0.22216788
33	0x3e87447a	0.2641943
34	0x3ea7a18f	0.32740447
35	0x3d91827f	0.07104968
36	0xbd337f1e	-0.0438224
37	0x3f15ccff	0.58515924
38	0xbe0acc1e	-0.13554427
39	0x3dd8fa41	0.10594607
40	0xbce8662e	-0.028369036
41	0x3e74cb00	0.23905563
42	0x3ea180d9	0.31543615
43	0xbe9458a4	-0.28973877
44	0xbb9386ec	-0.004502168
45	0xbebbd5b9	-0.36686495
46	0xbf027f7d	-0.5097578
47	0xbf09aed7	-0.5378241
48	0x3e65d7d2	0.2244561
49	0x3dfaa998	0.12239379
50	0x3d82d24a	0.06387766
51	0xbde3aa78	-0.11116499
52	0x3e352471	0.17689683
53	0xbe7fb34c	-0.2497074
54	0xbc3d9061	-0.011570067
55	0x3eb0639f	0.34451005
56	0xbe1de38e	-0.15418836
57	0xbf0ec348	-0.55766726
58	0xbe2a3009	-0.16619886
59	0xbd7ce5c1	-0.061742548
60	0x3eea1488	0.4571879
61	0x3ecf1947	0.40448973
62	0x3f1120eb	0.56690854
63	0x3dcda783	0.10041716

block1.1.running_var f4 [64]
0	0x3c8f454b	0.017489096
1	0x3b0547ce	0.0020336988
2	0x3c435b90	0.011923686
3	0x3d78e2ca	0.060763158
4	0x3cbb9adb	0.02290099
5	0x3d1565d0	0.03647405
6	0x3ce6af58	0.028159782
7	0x3a595687	0.00082907866
8	0x3c6b3560	0.014355987
9	0x3dc98cda	0.098413184
10	0x3b9a5ded	0.004710904
11	0x3c6a886c	0.014314752
12	0x3ce7b930	0.028286546
13	0x3d6a58ba	0.057213522
14	0x3cf214b6	0.029550891
15	0x3cd44350	0.025911003
16	0x39a232e4	0.00030936964
17	0x3b38e9ce	0.002821553
18	0x3d155dcf	0.036466416
19	0x3b688548	0.0035479832
20	0x3c2cc1aa	0.01054422
21	0x3c58070f	0.013185277
22	0x3d6dee7b	0.05808876
23	0x3d5018e2	0.05080498
24	0x3c3a5e72	0.011375057
25	0x3bb3ac5d	0.005483194
26	0x3dc8c3a0	0.098029375
27	0x3c1c5edf	0.009544103
28	0x3c8f76bc	0.017512672
29	0x3d96dda9	0.07366497
30	0x3d1515d5	0.036397774
31	0x3c93e7e3	0.018054908
32	0x3a999228	0.0011716532
33	0x3a943b58	0.001130919
34	0x3de279c1	0.11058379
35	0x3c2457bb	0.010030682
36	0x3b87df44	0.0041464884
37	0x3d6de8ce	0.058083348
38	0x3b0fd52b	0.0021947126
39	0x3c865d35	0.016401866
40	0x3cbfd10c	0.023415111
41	0x3d697b33	0.057002258
42	0x3b45ac85	0.0030162644
43	0x3c1078be	0.00881785
44	0x3af9be85	0.0019053972
45	0x3b9fc00e	0.0048751896
46	0x3cc05053	0.023475802
47	0x3cd4b3c2	0.025964621
48	0x3b6d5b74	0.003621784
49	0x3a9339fa	0.0011232488
50	0x3b6e1edb	0.003633431
51	0x3c2ddb26	0.010611331
52	0x3c1f2336	0.009712985
53	0x3ce43b7a	0.027860392
54	0x3c5cb3ef	0.013470634
55	0x3d076d6d	0.03306334
56	0x3bcce98d	0.0062534274
57	0x3d40dfb9	0.04708836
58	0x3c09eb33	0.008417892
59	0x3b8c7b52	0.004287162
60	0x3c0ecff4	0.008716572
61	0x3dd2a0cf	0.10284578
62	0x3d89860c	0.067150205
63	0x3af7144b	0.0018850652

block2.0.weight f4 [64, 64, 3, 3]
0	0x3cd1d24e	0.025612976
1	0xbd1b5ad6	-0.037928425
2	0x3d027617	0.0318509
3	0x3caf0499	0.021364497
4	0x3c90bdd2	0.017668638
5	0x3ce6e079	0.028183209
6	0xbbf3a24e	-0.0074351197
7	0xbc6b0b9d	-0.014346031
8	0x3b0095ed	0.0019620613
9	0xbcb8bd8a	-0.022551317
10	0xbd31a66d	-0.043371607
11	0x3cdb7e72	0.026793692
12	0xbab2ee30	-0.0013651308
13	0xbc974d30	-0.018469423
14	0xbcdfab0d	-0.027303243
15	0xbd0b6474	-0.034031346
16	0x3bdee34c	0.0068019982
17	0xbbd146cb	-0.006386613
18	0xbd1c5fff	-0.038177487
19	0x3b869aa4	0.00410779
20	0xbcc0a735	-0.02351723
21	0xbce5cffa	-0.028053273
22	0x3be97d3d	0.0071255253
23	0x3a02e47f	0.0004993155
24	0xbcf9bb43	-0.030484801
25	0xbc03c985	-0.0080436515
26	0xbc97edc8	-0.018546
27	0x3d096bdd	0.033550132
28	0xbd11b1d2	-0.035569973
29	0xbca7a525	-0.02046449
30	0xbcb9be7f	-0.022673843
31	0x3cb55771	0.022136422
32	0xbbf8a7ad	-0.007588348
33	0x3a251f40	0.0006298907
34	0xbd0b613a	-0.03402827
35	0x3cfa5acc	0.030560873
36	0xbd106719	-0.03525457
37	0xbca934ae	-0.020655002
38	0xbd103dba	-0.035215117
39	0xbcb40de7	-0.021979285
40	0x3c90d34d	0.017678881
41	0x3c2e1af9	0.010626548
42	0xbc389349	-0.011265584
43	0x3c80be95	0.015715877
44	0x3c2c897d	0.010530827
45	0x3b780399	0.0037843941
46	0x3bda9ab7	0.0066712755
47	0xbd25553f	-0.0403645
48	0x3cd3f41d	0.025873238
49	0x3d07f786	0.03319504
50	0x3d0c16a3	0.034201276
51	0x3cf8406d	0.030304158
52	0xbce84492	-0.02835301
53	0xbbb59186	-0.0055410294
54	0x3c65e833	0.014032411
55	0xbd1f87b0	-0.03894776
56	0x3c53d871	0.012930022
57	0xbb0ddd6b	-0.0021646868
58	0xbc333265	-0.010937308
59	0xbc0c1790	-0.00855054
60	0xbd11a0ff	-0.03555393
61	0x3d18fed5	0.0373524
62	0xbd12ae3a	-0.035810687
63	0x3d14e801	0.03635407
64	0xbd0397e5	-0.03212728
65	0x3d1afa9e	0.037836663
66	0x3c63403d	0.013870296
67	0x3bb947ac	0.005654296
68	0x3bffdb91	0.007808157
69	0x3c03f468	0.008053876
70	0x3addb3aa	0.0016914506
71	0xbb9521b3	-0.0045511364
72	0xbc39722f	-0.011318727
73	0xbc8ecd8e	-0.017432
74	0x3d0de43d	0.034641493
75	0x3d13046f	0.0358929
76	0x3ce3f4cb	0.027826687
77	0xbc009c90	-0.007849827
78	0x3cbe5546	0.02323402
79	0x3bf46627	0.0074584666
80	0x3d1e96c3	0.038717996
81	0xbd2a3cff	-0.041562077
82	0xbcc45d77	-0.023970349
83	0x3c68f9cb	0.014219712
84	0xbca03541	-0.019556643
85	0xbd17c4d8	-0.03705296
86	0x3cc1cb32	0.023656461
87	0xbca6ca24	-0.02036006
88	0xbba37bdc	-0.0049891304
89	0xba4d438e	-0.0007830196
90	0xbd2563f6	-0.040378533
91	0xbc3c6e57	-0.011500916
92	0x3d1b2565	0.03787746
93	0x3ba67899	0.0050802943
94	0x3d1de66a	0.038549818
95	0x3d21d34b	0.039508145
96	0x3c31586c	0.010824304
97	0x3cad8c65	0.02118511
98	0x3cebae90	0.028769761
99	0x3c414c51	0.01179798
100	0xbc2f0172	-0.010681497
101	0xbb607080	-0.0034246743
102	0xbb9d8c44	-0.0048079807
103	0xbc87bdbe	-0.016569968
104	0x3b160d6f	0.002289619
105	0x3d1c58a6	0.03817048
106	0xbcb6cf47	-0.022315634
107	0x3ca58d08	0.02020885
108	0xbc3f945b	-0.011693086
109	0x3d212bb6	0.039348327
110	0xbd043597	-0.03227767
111	0x3cbb02af	0.022828428
112	0x3d0258ef	0.031823095
113	0xbcccd0ff	-0.025002
114	0xbc7568d4	-0.014978606
115	0x3cc934e3	0.024561351
116	0x3c40c44f	0.011765554
117	0xbca6f4bc	-0.02038037
118	0xbd0f643d	-0.035007704
119	0x3b1de882	0.0024094884
120	0x3aac2a00	0.0013135076
121	0x3b2a752e	0.0026009786
122	0xb8b8e2d2	-8.816052e-05
123	0x3cd46526	0.025927138
124	0x3ae1655a	0.0017196343
125	0xbcbd0c40	-0.02307713
126	0x3c70dc1c	0.014700916
127	0x3d0cff58	0.034423202
128	0xbcf68b7e	-0.030095812
129	0x3aa87990	0.0012853611
130	0x3c9ba9ed	0.019001925
131	0xbce6c75f	-0.02817124
132	0xbbaca09b	-0.005268169
133	0x3c924cb4	0.01785884
134	0x3bedd3ad	0.0072578997
135	0xbd2bd1bb	-0.04194806
136	0xbb5705e9	-0.003280992
137	0xbc1b9b3e	-0.009497462
138	0xbb9f7329	-0.004866023
139	0x3b887b42	0.004165084
140	0x3d0cc5aa	0.034368195
141	0xbd27cee0	-0.040968776
142	0x3cd249e7	0.025670005
143	0xbc66e5b8	-0.014092855
144	0x3c6cd1ad	0.0144542875
145	0xbbdbfd99	-0.006713581
146	0x3c759b8d	0.0149906995
147	0xbcf41262	-0.029793922
148	0xbcf42a29	-0.02980526
149	0x3b2ea1da	0.0026646764
150	0x3d253387	0.040332343
151	0x3ae39413	0.0017362855
152	0x3c294675	0.01033174
153	0x3cab8f79	0.020942437
154	0xbd1966e1	-0.03745163
155	0xbaa1932b	-0.0012327185
156	0xbcd95bfa	-0.026533116
157	0x3ce5ba40	0.028042912
158	0x3bab0cf9	0.0052200523
159	0xbca84843	-0.02054227
160	0x3d180a79	0.037119363
161	0xbcf979de	-0.030453619
162	0xbd0468b4	-0.032326415
163	0x3d0801f7	0.033205
164	0xbce90219	-0.028443383
165	0x3c3a0400	0.011353493
166	0x3b980db4	0.0046403054
167	0x3d122b77	0.035685983
168	0xbce6fddb	-0.02819722
169	0x3cb21fb2	0.02174363
170	0x3c876028	0.016525343
171	0x3c965fce	0.01835623
172	0xbc9b608f	-0.018966941
173	0xbcfafeb8	-0.030639037
174	0xbc54e1ea	-0.012993315
175	0xbc5abde3	-0.013350937
176	0xbcfba30f	-0.0307174
177	0xbc6d4a87	-0.014483101
178	0xbccc48c6	-0.024937045
179	0xbd1135e1	-0.035451774
180	0x3a6bf0f7	0.0009000445
181	0xbce3b6e8	-0.027797177
182	0x3c567096	0.013088366
183	0xbb64aefb	-0.0034894336
184	0xbcd178b1	-0.025570245
185	0x3c913dbd	0.017729634
186	0xbcd9f6c1	-0.02660692
187	0x3c8ca253	0.017167246
188	0xbcd03a8b	-0.02541854
189	0xbd258983	-0.040414345
190	0xbcce99bd	-0.025219793
191	0x3d13e1d0	0.036104023
192	0x3cb24746	0.021762501
193	0xbbaa8101	-0.0052033667
194	0xba384cbd	-0.0007030478
195	0x3cb29bce	0.02180281
196	0x3c9bb901	0.019009115
197	0xbc96a32e	-0.018388357
198	0x3c83424e	0.016022827
199	0x3bffd4d3	0.007807353
200	0x3cca8d6b	0.024725636
201	0xbd27f538	-0.041005343
202	0xbd25d54e	-0.040486626
203	0x3ca696fe	0.02033567
204	0x3d17b44c	0.03703718
205	0xbd240c2f	-0.04005068
206	0xbae8d257	-0.0017762881
207	0x3cb5db1a	0.022199202
208	0x3d01d79c	0.03169976
209	0xbceafa15	-0.028683702
210	0xbc94a18c	-0.018143438
211	0x3c35bf70	0.011093006
212	0x3c84b147	0.016197814
213	0x3cf8c700	0.030368328
214	0x3c3fffd7	0.011718712
215	0xbc0c194f	-0.008550956
216	0xbcf84258	-0.030305073
217	0x3c22ffbe	0.009948669
218	0xbc834179	-0.01602243
219	0xbd128710	-0.035773337
220	0x3d145df4	0.036222413
221	0x3b823e08	0.00397468
222	0xbb982d0d	-0.0046440423
223	0x3cdd4c28	0.027013853
224	0x3c48a907	0.0122473305
225	0x3ca66dd4	0.020316042
226	0x3c85517f	0.016274212
227	0x3ac99fa7	0.0015382663
228	0x3cc328cc	0.023823164
229	0xbd1d3822	-0.03838361
230	0xbc83ef7d	-0.016105408
231	0xbcfb6ab6	-0.030690532
232	0xbd129532	-0.035786815
233	0xbd19524f	-0.03743201
234	0xbcb62a3d	-0.022236938
235	0xbcc41d10	-0.02393964
236	0x3c8d12e2	0.017220918
237	0x3ca51b46	0.020154607
238	0x3cdf1a63	0.027234262
239	0xbd158aa5	-0.036509175
240	0x3d1abf09	0.03777984
241	0xbc95ca2f	-0.018284885
242	0xbca8a51e	-0.020586547
243	0xbd0e8661	-0.034796122
244	0xbc9ae1f7	-0.018906577
245	0x3d26c7db	0.04071794
246	0xba861287	-0.001022891
247	0x3d1f1e03	0.03884698
248	0x3cda404e	0.026641991
249	0x3d2f7352	0.042834587
250	0x3c1e97ea	0.009679774
251	0x3b2d516f	0.0026446243
252	0xbca26ffe	-0.019828793
253	0xbb94cc0b	-0.0045409254
254	0xbc53f08d	-0.01293577
255	0xbccf2a4e	-0.025288727

block2.0.bias f4 [64]
0	0x3cbf41a5	0.023346731
1	0xbc5fe038	-0.013664298
2	0x3b8eabda	0.0043539824
3	0xbcdf7330	-0.027276605
4	0xbcc958a3	-0.024578398
5	0x3c8fda6a	0.017560203
6	0xbcdf582c	-0.027263723
7	0x3c36cd92	0.01115741
8	0x3cd9a012	0.026565585
9	0xbc621b90	-0.013800517
10	0x3cef8fed	0.029243434
11	0xbc022387	-0.007943041
12	0x3c74b9a2	0.014936836
13	0x3c57a106	0.01316095
14	0xba67f87d	-0.00088489783
15	0x3cc0ebc7	0.023549927
16	0xbcf1c2ae	-0.029511776
17	0xbd19fa7e	-0.037592404
18	0x3cba15c4	0.022715457
19	0xbc45db46	-0.012076205
20	0xbb670bc8	-0.0035254825
21	0x3cd16d20	0.02556473
22	0x3d06228b	0.032747786
23	0x3d008eeb	0.031386297
24	0xbcb5cd6d	-0.022192681
25	0xbc553855	-0.013013919
26	0x3c8066ca	0.015674014
27	0xbc927764	-0.017879196
28	0xbc9573f9	-0.018243777
29	0xbbe3469e	-0.0069359085
30	0x3cf989b5	0.030461172
31	0xbc2fcc1c	-0.010729816
32	0xbcf307d5	-0.02966682
33	0x3ca0eb8a	0.019643564
34	0x3cc0298f	0.023457317
35	0xba99f885	-0.0011747038
36	0x3cd1e614	0.025622405
37	0xbcec9d1d	-0.028883511
38	0xbc5661e6	-0.013084864
39	0xbd1a9d0f	-0.03774744
40	0x3a5e96dc	0.0008491108
41	0xbcb8266e	-0.022479262
42	0x3ce12699	0.027484225
43	0x3cee112f	0.029060928
44	0x3cfdab85	0.030965576
45	0x3d0da31e	0.03457939
46	0x3d0707f0	0.032966554
47	0xbcfb9892	-0.0307124
48	0xbc2009b7	-0.009767941
49	0xbc994345	-0.018708834
50	0x3d133070	0.035934865
51	0xbbad5863	-0.0052900775
52	0xbc8fa66a	-0.017535407
53	0x3c9bfe9b	0.019042304
54	0xbcea6951	-0.028614672
55	0xbd0d12cc	-0.034441754
56	0x3d246617	0.040136423
57	0x3d028ca2	0.0318724
58	0xbd232632	-0.039831348
59	0x3c2fcecc	0.010730457
60	0x3b979a8b	0.0046265773
61	0x3bf16e9d	0.0073679225
62	0x3ca3a64a	0.019976754
63	0x3d1a029b	0.03760014

block2.1.weight f4 [64]
0	0x3f7f6a50	0.99771595
1	0x3f800c73	1.0003799
2	0x3f801ce1	1.0008813
3	0x3f802e4d	1.001413
4	0x3f800fa4	1.0004773
5	0x3f803145	1.0015036
6	0x3f7f60a8	0.9975686
7	0x3f7f790b	0.9979407
8	0x3f7f740d	0.99786454
9	0x3f801d71	1.0008985
10	0x3f8023d8	1.0010939
11	0x3f7ff6da	0.9998604
12	0x3f7fc955	0.99916583
13	0x3f801392	1.0005972
14	0x3f7f3593	0.9969112
15	0x3f8004cf	1.0001467
16	0x3f7f5002	0.9973146
17	0x3f7f3d9e	0.99703395
18	0x3f7f1fdb	0.9965798
19	0x3f800c8a	1.0003827
20	0x3f7f80f4	0.9980614
21	0x3f7fbe5b	0.99899834
22	0x3f802e2c	1.001409
23	0x3f80151a	1.000644
24	0x3f7f6e9e	0.99778163
25	0x3f7fb21c	0.9988115
26	0x3f806a8a	1.0032513
27	0x3f801500	1.0006409
28	0x3f7fa2b4	0.9985764
29	0x3f7f773b	0.99791306
30	0x3f7f918c	0.9983146
31	0x3f8022c8	1.0010614
32	0x3f7f9fef	0.99853414
33	0x3f80580f	1.0026873
34	0x3f7fc9b4	0.9991715
35	0x3f7fe7f3	0.999633
36	0x3f7ff8e7	0.9998917
37	0x3f800d4f	1.0004061
38	0x3f8027bc	1.0012126
39	0x3f800ccb	1.0003904
40	0x3f7fcd15	0.99922305
41	0x3f8027cb	1.0012144
42	0x3f7f76ee	0.9979085
43	0x3f7f4d60	0.9972744
44	0x3f806f22	1.0033915
45	0x3f7f3ab4	0.9969895
46	0x3f7f9c88	0.9984822
47	0x3f7fa2d3	0.99857825
48	0x3f8037f9	1.0017081
49	0x3f7fab34	0.9987061
50	0x3f806af9	1.0032645
51	0x3f7fc729	0.9991327
52	0x3f7ffb85	0.99993163
53	0x3f809cb1	1.0047818
54	0x3f7fa52f	0.99861425
55	0x3f80a63b	1.005073
56	0x3f7fc224	0.9990561
57	0x3f7f465c	0.99716735
58	0x3f806b14	1.0032678
59	0x3f7f5a0e	0.9974679
60	0x3f7fead4	0.99967694
61	0x3f804b99	1.002307
62	0x3f8025c3	1.0011524
63	0x3f7fe75d	0.9996241

block2.1.bias f4 [64]
0	0xba1e0ca7	-0.0006029107
1	0xba66b428	-0.0008800649
2	0xba83b45f	-0.0010048262
3	0xbb96a5e9	-0.0045974148
4	0xbb5a856d	-0.0033343688
5	0x3a9b9f47	0.001187303
6	0xba984632	-0.00116176
7	0x39aaa802	0.00032550102
8	0xbaf9e642	-0.0019065815
9	0xbacd0e07	-0.0015644439
10	0xbacc67ee	-0.0015594938
11	0xbaa16b11	-0.0012315233
12	0xba84fc95	-0.0010146076
13	0x3a77fa4b	0.0009459599
14	0xbb3f789c	-0.0029216176
15	0x39dd73c8	0.00042238669
16	0xbac571a0	-0.001506377
17	0xbb8e4c5b	-0.0043425984
18	0xbb3c7416	-0.0028755716
19	0xba5231f0	-0.00080183055
20	0xb9dd014d	-0.00042153374
21	0xba2a8b5e	-0.00065057527
22	0xb9ac7de9	-0.00032900207
23	0x3abe2315	0.0014506305
24	0xbb1a5907	-0.00235516
25	0x3b256e57	0.002524277
26	0xbb52f3da	-0.0032188804
27	0xb8888e21	-6.511459e-05
28	0xbb3c6623	-0.0028747402
29	0xbb151e70	-0.0022753738
30	0xbb18719e	-0.002326108
31	0x3acf576a	0.0015818898
32	0xbae03a3b	-0.0017107198
33	0xb8ba01cf	-8.869508e-05
34	0xbb06e73e	-0.0020584608
35	0xba9e0bba	-0.0012057938
36	0x3a257d99	0.0006312966
37	0x39871f22	0.00025772402
38	0x3a241855	0.0006259729
39	0xbadad47f	-0.0016695409
40	0xbaab001d	-0.0013046298
41	0xb9d0b23d	-0.0003980565
42	0xbadfea9e	-0.0017083471
43	0xbb63ab78	-0.0034739655
44	0x3ae52aa3	0.001748402
45	0xbb59f813	-0.0033259436
46	0xba558e19	-0.00081464794
47	0x3a09d390	0.00052576605
48	0x3a273da2	0.00063797284
49	0xba5bcad0	-0.00083844084
50	0xbaaef754	-0.0013348856
51	0xbb3fde5d	-0.0029276826
52	0x3a8da85f	0.0010807625
53	0x3b0ed249	0.002179282
54	0xbaf33cca	-0.0018557545
55	0x3b8ff979	0.004393753
56	0x39ec1edf	0.00045036428
57	0xbac97ab7	-0.0015371655
58	0x3a6dbde8	0.0009069131
59	0xbb025a76	-0.0019890345
60	0xbb3e662b	-0.0029052596
61	0x3acce60a	0.0015632522
62	0x3a076520	0.000516491
63	0xbb2e6509	-0.0026610515

block2.1.running_mean f4 [64]
0	0xbe903a81	-0.28169635
1	0xbe5a37d4	-0.21310359
2	0xbea83f16	-0.3286063
3	0x3e4cb10b	0.19989412
4	0x3d958722	0.07301165
5	0xbea87d64	-0.32908165
6	0xbd8b6078	-0.06805509
7	0x3eb3d48d	0.351231
8	0x3ef526ac	0.47881067
9	0xbd959ea9	-0.07305653
10	0xbe678be9	-0.22611965
11	0xbcfe6b7c	-0.031057112
12	0x3ceb398b	0.028713962
13	0xbe22f511	-0.15913798
14	0x3f1089aa	0.5646006
15	0xbe067adc	-0.13132805
16	0xbf0621eb	-0.52395505
17	0x3e9fce40	0.31212044
18	0xbedcb984	-0.43110287
19	0x3cce77bd	0.02520358
20	0xbf633f25	-0.88768226
21	0x3e860b09	0.26180294
22	0xbe99df51	-0.3005319
23	0x3d9ccbc6	0.07656054
24	0xbe5b2e58	-0.21404397
25	0xbf239e81	-0.6391373
26	0x3e2a9a94	0.1666053
27	0xbebd6126	-0.3698818
28	0x3ce7be08	0.028288856
29	0x3ecda482	0.40164572
30	0xbc5db6d1	-0.013532356
31	0xbdee983e	-0.11650132
32	0x3ea85ee0	0.32884884
33	0x3f3065f0	0.68905544
34	0xbe6e1b04	-0.23252493
35	0x3ed83577	0.4222829
36	0x3e08c4a5	0.13356264
37	0xbeae4d5c	-0.34043396
38	0x3d1bbf52	0.038024254
39	0xbcbae961	-0.022816362
40	0x3e89a9f2	0.2688747
41	0x3eec9cbb	0.46213326
42	0xbee2a905	-0.44269577
43	0xbe6490d1	-0.22320868
44	0x3e5fac43	0.21843056
45	0xbeaf5f55	-0.3425242
46	0xbeeced57	-0.46274826
47	0xbe1fcc25	-0.15605219
48	0xbe1cc126	-0.15308055
49	0x3e8b72e3	0.2723609
50	0x3e3150fa	0.17316046
51	0xbe015fb3	-0.12634163
52	0xbe944d54	-0.28965247
53	0x3e0341a8	0.12818015
54	0xbe1e1297	-0.15436779
55	0x3e012bf7	0.12614428
56	0xbeea4638	-0.45756698
57	0xbe94663a	-0.28984243
58	0xbd4d3fce	-0.050109677
59	0x3d6bacd7	0.05753788
60	0x3f0aadb7	0.5417132
61	0x3ed0ccc7	0.40781233
62	0x3ef628d4	0.48078024
63	0xbe683c7c	-0.22679323

block2.1.running_var f4 [64]
0	0x3db79890	0.08964646
1	0x3df6da92	0.12053408
2	0x3e3d69fb	0.1849746
3	0x3d75611c	0.059907064
4	0x3dd4e085	0.10394386
5	0x3df6e476	0.12055294
6	0x3f5fe2a8	0.87455225
7	0x3ea7baf0	0.3275981
8	0x3dbaa0a2	0.091126695
9	0x3e7ddede	0.24792048
10	0x3dd3b8d1	0.10337985
11	0x3ecc1bcb	0.39864954
12	0x3e6492e2	0.22321656
13	0x3d6dbebe	0.058043234
14	0x3e48e9cd	0.19620438
15	0x3e799fd8	0.24377382
16	0x3f26e93f	0.65199655
17	0x3e6baf5e	0.23016116
18	0x3e2d45b6	0.16921124
19	0x3e2a89a9	0.16654076
20	0x3f448bcc	0.76775813
21	0x3ece04bd	0.4023799
22	0x3dc57466	0.09641342
23	0x3dd2d8c1	0.10295249
24	0x3f04396b	0.5165011
25	0x3e3ee968	0.18643725
26	0x3d38c447	0.04510906
27	0x3dafee5b	0.085903846
28	0x3e5126be	0.20424935
29	0x3def7e50	0.11694014
30	0x3dd45292	0.103673115
31	0x3da6c23e	0.081425175
32	0x3f188c2e	0.595889
33	0x3e80e32a	0.25173312
34	0x3de29cbd	0.11065052
35	0x3e3dfb88	0.18552983
36	0x3d51150c	0.051045462
37	0x3d9bd83c	0.07609603
38	0x3d330d7e	0.04371404
39	0x3d903240	0.070408344
40	0x3e8bbef6	0.2729413
41	0x3e9c183a	0.30487233
42	0x3ef84cce	0.48496097
43	0x3ecff208	0.40614343
44	0x3dd2e4d0	0.10297549
45	0x3ee10e13	0.4395605
46	0x3e8ef95c	0.2792462
47	0x3eaf9deb	0.3430017
48	0x3d986fb1	0.074431784
49	0x3e08436f	0.13306974
50	0x3db7c20c	0.089725584
51	0x3dd0b4a1	0.10190702
52	0x3e423915	0.18967088
53	0x3dce37c5	0.10069231
54	0x3de63977	0.11241429
55	0x3d824ebd	0.063626744
56	0x3e88d83d	0.26727477
57	0x3da9cff0	0.08291614
58	0x3d42522c	0.047441646
59	0x3f1b7909	0.6073156
60	0x3ec9cc2c	0.39413583
61	0x3f52cd85	0.8234485
62	0x3e98848b	0.29788622
63	0x3d90c06c	0.070679516

block3.0.weight f4 [64, 64, 3, 3]
0	0xbcfc80b0	-0.030823082
1	0xbceaf22d	-0.028679932
2	0xbcac09d6	-0.021000784
3	0x3c81170a	0.015758056
4	0x3d14db23	0.036341798
5	0x3d0625b9	0.03275082
6	0xbca06c5f	-0.019582925
7	0x3d31dc8f	0.04342323
8	0xbd16eca6	-0.03684678
9	0xbc7bce3b	-0.015368993
10	0xbc9c0ad1	-0.019048126
11	0x3bd622a3	0.0065348907
12	0xbbbb586c	-0.005717328
13	0xbc60b8b9	-0.013715916
14	0x3cdc1a9a	0.026868153
15	0xbcfec735	-0.031100849
16	0x3c1dde3c	0.009635504
17	0xbb3ee015	-0.0029125263
18	0x3c94f966	0.018185329
19	0x3c22fe6e	0.009948356
20	0xbb96bbda	-0.0046000304
21	0x3764aef6	1.3630595e-05
22	0xbd18a5f3	-0.037267637
23	0xbb4f02d1	-0.0031587372
24	0x3cd7f587	0.026362194
25	0xbd029ca0	-0.03188765
26	0xbbf47c64	-0.0074611176
27	0xbccccdef	-0.02500054
28	0x3a88ad8e	0.00104277
29	0xbb61c36a	-0.0034448751
30	0x3d12a5f2	0.03580279
31	0xbcc23be2	-0.023710195
32	0xbcd83483	-0.026392227
33	0x3ca1b047	0.019737376
34	0x3d2f0ccb	0.04273681
35	0x3cc4a2b6	0.024003368
36	0xbce28897	-0.027653022
37	0xbd12f62b	-0.035879295
38	0xbc24e3bb	-0.010064061
39	0xbcdfd6c4	-0.027324088
40	0x3cb8265d	0.02247923
41	0x3c9a0319	0.018800305
42	0x3cd4ac73	0.025961136
43	0x3c8d7d85	0.017271766
44	0xbd1dd5a6	-0.03853383
45	0xbcd33eed	-0.025786841
46	0xbcbe72a5	-0.023248026
47	0xbc40e750	-0.011773899
48	0x3a4d8f55	0.00078414875
49	0xbc0429d4	-0.008066613
50	0x3c94e442	0.018175248
51	0x3c9dca72	0.019261573
52	0x3d0d6b4c	0.034526154
53	0x3c92ec25	0.017934868
54	0xbcf12ab2	-0.029439304
55	0x3ce5bcf9	0.02804421
56	0xbc132fbb	-0.008983548
57	0xb9435dc8	-0.00018631585
58	0xbce7abc1	-0.02828014
59	0xbcf5d758	-0.03000991
60	0x3d137edd	0.036009658
61	0x3b182837	0.002321733
62	0xbcb8a6a3	-0.022540396
63	0xbccf36f2	-0.025294755
64	0xbc516c40	-0.0127821565
65	0x3c9f0367	0.019410802
66	0x3cc3f1a4	0.023918934
67	0xbd0003a8	-0.031253487
68	0x3ae222a6	0.0017252758
69	0x3bfba21f	0.0076792384
70	0xbd0ba4d7	-0.03409275
71	0xbcc198ba	-0.023632396
72	0xbc98cfa6	-0.018653702
73	0xba271c44	-0.00063747563
74	0x3ccbf0e5	0.02489514
75	0x3d100d9e	0.035169236
76	0xbd09c5c4	-0.03363587
77	0x3d1ce161	0.038300876
78	0xbc298b60	-0.010348171
79	0xbbeee2ae	-0.007290206
80	0x3d127172	0.03575272
81	0xbb144529	-0.002262423
82	0x3cec9c53	0.028883135
83	0xbc6bc91e	-0.014391212
84	0xbd26ae1e	-0.040693395
85	0xbc95f9b7	-0.01830755
86	0x3c9c5340	0.019082665
87	0xbcaec02d	-0.02133187
88	0x3cf82d92	0.030295167
89	0xbc803149	-0.015648501
90	0x3d132998	0.03592834
91	0xbc203c5a	-0.009780014
92	0x3cd9de17	0.026595159
93	0x3c7120c9	0.014717289
94	0x3c84cf2a	0.016212065
95	0x3a9d89b6	0.001201919
96	0x3d2c670d	0.042090464
97	0x3cdca537	0.02693425
98	0x3cfce09e	0.030868825
99	0xbb6b8be5	-0.0035941538
100	0xbcfa1c62	-0.030531112
101	0xbc5878bc	-0.013212379
102	0xb86fa57d	-5.7136163e-05
103	0xbce58965	-0.028019616
104	0x3c8f60dc	0.01750224
105	0x3ca23406	0.019800197
106	0x3ca509dc	0.020146303
107	0xbc7e585f	-0.015523999
108	0x3c905cff	0.017622469
109	0x3d04e974	0.0324492
110	0x3d054675	0.032537896
111	0x3c8a8e6f	0.01691362
112	0xbba86ebd	-0.005140154
113	0xbc7092d1	-0.014683441
114	0x3d028893	0.03186853
115	0x3c9d1b06	0.019177925
116	0xbca0f865	-0.019649694
117	0x3b8644a1	0.0040975367
118	0xbcdc4505	-0.02688838
119	0xbc83dc08	-0.01609613
120	0x3bf8f32e	0.0075973487
121	0xbcde99cb	-0.027172944
122	0xbd1774b7	-0.036976542
123	0xba75057f	-0.0009346827
124	0x3cb5fcb7	0.02221523
125	0xbcece8c0	-0.028919578
126	0xbb3ef54a	-0.0029137903
127	0xbcd7c877	-0.026340706
128	0x3ce5f50d	0.02807095
129	0xbcab4253	-0.02090565
130	0x3cedb230	0.02901563
131	0x3c2b811e	0.010467796
132	0x3ceebcd0	0.029142767
133	0xbc9398ec	-0.018017255
134	0x3d0a24d7	0.03372654
135	0x3c39d8b1	0.011343167
136	0x3b6c631c	0.0036069816
137	0x3c924c21	0.017858567
138	0xbb0f9b63	-0.0021912686
139	0x3ccb7bb4	0.02483926
140	0x3c08ba56	0.008345207
141	0x3bbe9e9d	0.005817248
142	0xbd1901d1	-0.037355248
143	0xbbd91e4d	-0.0066259266
144	0xbcbdcfb4	-0.02317033
145	0x3c71a698	0.014749192
146	0x3ca27b80	0.01983428
147	0x3d04d709	0.032431636
148	0xb9124ad0	-0.00013951515
149	0x3bc1202d	0.005893728
150	0x3cbc2bfa	0.022970188
151	0xbd1ec64d	-0.038763333
152	0xbc9abfda	-0.01889031
153	0x3c36928f	0.011143341
154	0x3cb12908	0.02162601
155	0x3c20d7e8	0.009817101
156	0x3cdea8a4	0.027180023
157	0x3c8c6237	0.017136676
158	0x3c9f03f7	0.01941107
159	0x3b0d7c28	0.0021588895
160	0x3d2d8b39	0.0423691
161	0x3ceb8905	0.02875186
162	0x3c71ba53	0.014753896
163	0xbcec0418	-0.028810546
164	0x3cbaccf8	0.022802815
165	0xbc64b9f5	-0.013960351
166	0xbcb9e4e5	-0.022692153
167	0xbd1d8f1b	-0.038466554
168	0x3c8cbf66	0.01718111
169	0x3c27b885	0.010236864
170	0x3b93c603	0.004509689
171	0xbcda4e9a	-0.026648808
172	0x3c919743	0.017772323
173	0x3c2abeb1	0.010421441
174	0x3cac5e2d	0.021041
175	0xbcdb55b3	-0.026774263
176	0x3ca8ea38	0.020619497
177	0x3c639664	0.013890836
178	0xbb514b64	-0.0031935805
179	0x3c18d1ef	0.009327396
180	0xbd28e296	-0.041231714
181	0x3c8d046c	0.017214023
182	0xbc54bb8d	-0.012984169
183	0xbbe5833b	-0.0070041693
184	0xbadfe0e4	-0.0017080572
185	0xbc352f01	-0.01105857
186	0xbcfd3c4d	-0.030912543
187	0xbbe44e0d	-0.006967312
188	0x3d0708d3	0.0329674
189	0xbd282fe5	-0.0410613
190	0x3c8eb2ee	0.017419305
191	0xbbc85d08	-0.006114606
192	0xbcdb98e7	-0.026806308
193	0xbc96f68b	-0.018428108
194	0x3cd4fdbc	0.025999896
195	0xbd04464a	-0.032293595
196	0xbcef6e0a	-0.029227275
197	0xbb9c687f	-0.004773199
198	0x3cde20ac	0.027115189
199	0x3d0f11a5	0.034928937
200	0x3ce8145b	0.028330019
201	0x3cdc0a3d	0.02686035
202	0x3b8f9e1a	0.004382861
203	0x3c06467c	0.008195516
204	0xbc1d9d9c	-0.009620097
205	0xbd205b66	-0.039149664
206	0xbc331873	-0.010931122
207	0x3d164d57	0.03669485
208	0x3a0adfe5	0.0005297645
209	0x3cfc4b83	0.030797726
210	0xbc024e61	-0.007953257
211	0xbc8ff87f	-0.017574547
212	0xbd05aeb6	-0.03263732
213	0x3d307710	0.043082297
214	0x3c43e455	0.011956294
215	0xbc5d3382	-0.01350105
216	0xbc1a3316	-0.009411594
217	0x3ce61546	0.028086316
218	0x3bcc0384	0.006226005
219	0x3ce79284	0.028268106
220	0x3c93c0e7	0.018036319
221	0xbb456e8d	-0.0030125708
222	0xbc8585d7	-0.016299171
223	0xbb94546c	-0.0045266654
224	0xbc6cfd28	-0.014464654
225	0x3ceaebb6	0.028676849
226	0x3c91c35b	0.017793348
227	0xbbe51258	-0.006990712
228	0x3c97366f	0.018458573
229	0x3b0e0456	0.0021670065
230	0x3bbff33c	0.005857853
231	0xbbd5ccf8	-0.0065246783
232	0x3d2a716c	0.041612074
233	0x3b7bfa32	0.0038448689
234	0xbd09ebce	-0.033672146
235	0x3d27b741	0.04094625
236	0xbd1cfa30	-0.038324535
237	0x3c325a5e	0.010885803
238	0xbc9586d5	-0.01825277
239	0x3c6f41d0	0.014603093
240	0x3c20f5a3	0.009824189
241	0xbcea5205	-0.028603563
242	0x3cf07459	0.029352354
243	0xbd22e480	-0.039768696
244	0x3cbf39f1	0.023343058
245	0x3c07661c	0.008264091
246	0x3b40be45	0.0029410284
247	0xbb4413f4	-0.002991912
248	0xbd125023	-0.035720956
249	0x3c7bf9ad	0.015379352
250	0xbd1e9e00	-0.0387249
251	0xbca279f2	-0.019833539
252	0xbc174727	-0.009233273
253	0xbc49bf29	-0.012313643
254	0x3b3a210f	0.0028401052
255	0xbcbfedd9	-0.023428844

block3.0.bias f4 [64]
0	0x3b834d06	0.0040069846
1	0x3909d930	0.00013146247
2	0xbd006f4d	-0.031356145
3	0xbca956e3	-0.020671314
4	0x3d1035d6	0.035207592
5	0x3b9d2a54	0.0047963057
6	0xbd150683	-0.036383163
7	0xbd0881f2	-0.03332705
8	0xbd0ce421	-0.03439725
9	0xbd15d5a8	-0.03658071
10	0xbc8c891f	-0.017155228
11	0xbb660778	-0.0035099667
12	0x3cd03c7e	0.02541947
13	0xbd08c8e1	-0.033394698
14	0x3d0da788	0.0345836
15	0xbd003826	-0.031303547
16	0x3c8f79f0	0.017514199
17	0xbc06f698	-0.0082375035
18	0xbb93f059	-0.0045147357
19	0xbd170a8e	-0.0368753
20	0x3c8d4df3	0.017249083
21	0xbccc11a7	-0.024910761
22	0xbd165bdf	-0.03670871
23	0x3cf6b9e4	0.030117936
24	0xbb42b973	-0.0029712587
25	0xbcf1539d	-0.029458815
26	0x3c8c7ba4	0.0171488
27	0xbc92b0e1	-0.017906608
28	0x3c2ce641	0.010552944
29	0xbd0091c3	-0.03138901
30	0x3cbc09f6	0.022953968
31	0xbadf1a17	-0.0017021325
32	0xba5792ac	-0.0008223455
33	0xbd237d76	-0.03991457
34	0x3cb5e812	0.022205386
35	0xbc02072d	-0.007936281
36	0x3d1bf670	0.038076818
37	0xba528940	-0.0008031316
38	0xbd0801e8	-0.033204943
39	0xbcc494b0	-0.023996681
40	0x3c0fdbc2	0.008780422
41	0xbd13027a	-0.035891034
42	0xbca72e21	-0.020407738
43	0xbc3d8c10	-0.011569038
44	0xbca57f09	-0.020202177
45	0xbcaec0b8	-0.02133213
46	0xbcfc5293	-0.030801093
47	0x3cbacfb5	0.02280412
48	0x3b06b016	0.0020551733
49	0xbc94ff93	-0.018188274
50	0x3c0d0b83	0.008608702
51	0xbd184d81	-0.03718329
52	0xbc7db374	-0.0154846795
53	0xbc09bdc4	-0.00840706
54	0xbd00d191	-0.031449858
55	0xbc091d0c	-0.008368742
56	0x3d13fae6	0.036127947
57	0x3b00dfc4	0.0019664625
58	0xbceff8d4	-0.029293455
59	0xbd0c001e	-0.0341798
60	0x3c152260	0.009102434
61	0xbbeaa287	-0.007160488
62	0x3cb9d52f	0.022684662
63	0x3b3b32bf	0.0028564183

block3.1.weight f4 [64]
0	0x3f803da2	1.0018809
1	0x3f804f4d	1.0024201
2	0x3f7edfa0	0.99559975
3	0x3f7f66fe	0.9976653
4	0x3f7fec05	0.9996951
5	0x3f7ff2e5	0.9998
6	0x3f7fb951	0.99892145
7	0x3f7f43b9	0.9971271
8	0x3f803d6e	1.0018747
9	0x3f7f4da1	0.9972783
10	0x3f804f41	1.0024186
11	0x3f7fcfe9	0.9992662
12	0x3f804dab	1.0023702
13	0x3f7fcfa4	0.9992621
14	0x3f7fcc6a	0.99921286
15	0x3f805b2d	1.0027825
16	0x3f802dd9	1.0013992
17	0x3f7f6c49	0.99774605
18	0x3f7f7de2	0.99801457
19	0x3f800066	1.0000122
20	0x3f7ffc76	0.999946
21	0x3f7ffb77	0.9999308
22	0x3f802499	1.0011169
23	0x3f80021a	1.0000641
24	0x3f7fe904	0.9996493
25	0x3f7f0144	0.99611306
26	0x3f8034d7	1.0016125
27	0x3f800138	1.0000372
28	0x3f801025	1.0004927
29	0x3f8053e3	1.00256
30	0x3f7f07c8	0.9962125
31	0x3f7f606c	0.99756503
32	0x3f7f862d	0.9981411
33	0x3f7fc512	0.9991008
34	0x3f7f7dab	0.9980113
35	0x3f7f7d2f	0.9980039
36	0x3f809c4b	1.0047697
37	0x3f8055ef	1.0026225
38	0x3f7fe77b	0.99962586
39	0x3f8024e3	1.0011257
40	0x3f7f87a6	0.9981636
41	0x3f7f05db	0.9961831
42	0x3f802cd9	1.0013686
43	0x3f80250a	1.0011303
44	0x3f7ec2fa	0.9951626
45	0x3f810939	1.008094
46	0x3f809b4d	1.0047394
47	0x3f7fd3fd	0.99932843
48	0x3f7f47db	0.9971902
49	0x3f803b7a	1.0018151
50	0x3f802f2e	1.0014398
51	0x3f80553a	1.0026009
52	0x3f806525	1.0030867
53	0x3f7e0cad	0.9923809
54	0x3f7f7515	0.9978803
55	0x3f7f1388	0.9963918
56	0x3f8005ea	1.0001805
57	0x3f7fd136	0.99928606
58	0x3f800a5b	1.000316
59	0x3f7f6d37	0.99776024
60	0x3f8055d6	1.0026195
61	0x3f80c812	1.0061057
62	0x3f7fb765	0.9988921
63	0x3f7f66c1	0.99766165

block3.1.bias f4 [64]
0	0x38ec15d6	0.00011257424
1	0x3b484449	0.003055828
2	0xbb5866d0	-0.0033020265
3	0xbb73fd05	-0.0037229669
4	0x3ab98c0d	0.0014156118
5	0x3b170766	0.0023045181
6	0xbb4e97ad	-0.0031523511
7	0xba929da9	-0.0011185902
8	0x3a871e8f	0.001030879
9	0xba502ced	-0.0007941265
10	0x3b199660	0.0023435578
11	0xbabd40af	-0.0014438833
12	0x3b0e106c	0.0021677269
13	0x395ac55f	0.00020863627
14	0x3a3279bc	0.0006808301
15	0x399b6c09	0.00029644396
16	0x3aa772c5	0.0012775293
17	0xba783acd	-0.0009469211
18	0x3a7399fa	0.00092926587
19	0x3a0e6a8b	0.0005432746
20	0xb99c3edf	-0.0002980148
21	0xb9abd6eb	-0.00032775788
22	0xb9fab5d5	-0.0004781919
23	0x3a7e8a75	0.0009709963
24	0xba95abfe	-0.0011419056
25	0xbbab3909	-0.005225305
26	0x3a88fc98	0.0010451255
27	0xbb3c830f	-0.002876464
28	0xba93bae9	-0.0011270914
29	0x3b38139d	0.0028087862
30	0xbb82a21b	-0.0039866096
31	0xbb1fbae0	-0.002437286
32	0xbb7ba15c	-0.0038395738
33	0xbb108012	-0.0022048992
34	0xb7c40616	-2.3367855e-05
35	0xba9f9ae9	-0.0012176904
36	0xba064377	-0.00051217474
37	0xb9b41d6a	-0.0003435419
38	0x3b8223b5	0.0039715418
39	0x3a80f11f	0.0009837485
40	0xbb1d1c3f	-0.0023973135
41	0x390095a4	0.00012262777
42	0xbb1a9f5b	-0.0023593518
43	0xbb3e6daf	-0.0029057076
44	0xbbcd2c08	-0.0062613524
45	0x3bc5cb81	0.0060362224
46	0x3ba32b1a	0.0049795033
47	0x395824bd	0.00020613051
48	0x3a9a855a	0.001178901
49	0x3ac5091a	0.001503262
50	0x3a84c733	0.0010130167
51	0xbb6dfe81	-0.0036315026
52	0x3b9e9d02	0.004840494
53	0xbbc903bf	-0.00613448
54	0xba8c6c49	-0.0010713424
55	0xbb06017c	-0.0020447662
56	0xbaa666fa	-0.0012695484
57	0x3a1c311b	0.0005958245
58	0xbb122a32	-0.0022302982
59	0x391726bf	0.00014414916
60	0xba6e1007	-0.0009081368
61	0x38b9eb5c	8.8653265e-05
62	0xbae764fe	-0.0017653999
63	0xbb40448d	-0.0029337734

block3.1.running_mean f4 [64]
0	0x3e75bcfb	0.23997872
1	0xbe6a896f	-0.2290399
2	0x3da4817c	0.0803251
3	0xbf060a3f	-0.52359384
4	0xbe1bc059	-0.15210094
5	0x3ebe25a8	0.37138104
6	0x3d813871	0.063095935
7	0xbdcdaf8a	-0.10043247
8	0xbdf765c6	-0.120799586
9	0xbed07664	-0.40715325
10	0xbe0e19e7	-0.13877068
11	0x3c7748b9	0.015093022
12	0x3e86d5a7	0.2633488
13	0xbf2a0896	-0.6641935
14	0xbec6fb0d	-0.38863412
15	0x3e9ace16	0.30235356
16	0x3d70e3ab	0.05881087
17	0x3e98e8e8	0.29865193
18	0xbd10610c	-0.0352488
19	0x3e2f5012	0.17120388
20	0x3c92b6a4	0.017909355
21	0x3ef729d4	0.482741
22	0xbebbff18	-0.3671806
23	0x3e208296	0.15674815
24	0x3ea2b4d9	0.317786
25	0xbe4c672c	-0.19961232
26	0x3eb77c30	0.35836935
27	0x3e41baf2	0.1891897
28	0x3ed2f703	0.4120408
29	0x3bdaf2b1	0.006681763
30	0xbd522694	-0.051306322
31	0xbf3f6126	-0.7475761
32	0xbed9d521	-0.42545417
33	0x3ec12a3c	0.37727535
34	0x3dee6ce5	0.11641864
35	0xbef0d7e7	-0.4703972
36	0x3ed30ab4	0.41219103
37	0x3ec18c66	0.37802428
38	0xbcef333a	-0.029199231
39	0xbdf20b8c	-0.11818609
40	0xbf14f408	-0.5818486
41	0xbe4c54ba	-0.19954196
42	0x3e61def0	0.220577
43	0x3c73f2bf	0.014889418
44	0x3e4374f6	0.19087586
45	0x3eb46778	0.3523519
46	0x3ed137e9	0.4086297
47	0xbece5be7	-0.4030449
48	0x3df21737	0.11820834
49	0x3e383189	0.17987646
50	0x3ec1d9df	0.37861535
51	0x3e800686	0.25004977
52	0xbe42c7b6	-0.19021496
53	0xbd6d1624	-0.057882443
54	0x3e98b7a9	0.29827622
55	0xbf4e4ad3	-0.8058292
56	0x3e38f8d1	0.18063666
57	0x3eb3f2ec	0.35146272
58	0x3e3232f5	0.17402251
59	0xbd0a9b1c	-0.03383933
60	0x3ddb72c4	0.10715249
61	0x3f0b7129	0.54469544
62	0x3e9e48fb	0.30915055
63	0xbe3900c1	-0.18066694

block3.1.running_var f4 [64]
0	0x3e136c84	0.14396864
1	0x3ebad796	0.36492604
2	0x3eab2705	0.33428207
3	0x3e81f6a8	0.25383496
4	0x3ec8028d	0.39064446
5	0x3e87a59b	0.26493534
6	0x3e41b651	0.18917204
7	0x3e2ebb61	0.17063667
8	0x3e120d0b	0.14262788
9	0x3e952682	0.29130942
10	0x3ea96707	0.33086416
11	0x3e875e4f	0.2643914
12	0x3f050b2e	0.51970184
13	0x3ea662b3	0.32497177
14	0x3ea07383	0.31338128
15	0x3e1e3a81	0.15452005
16	0x3e042087	0.12903033
17	0x3ee57836	0.44818276
18	0x3e822b2c	0.25423563
19	0x3e16c14c	0.14722174
20	0x3e8a45ec	0.2700647
21	0x3ea9ac59	0.33139303
22	0x3e6009cd	0.21878739
23	0x3e8b0cd6	0.2715823
24	0x3ec1d300	0.37856293
25	0x3e212a05	0.15738685
26	0x3eba5e76	0.36400193
27	0x3db73f42	0.08947612
28	0x3e1ff5fc	0.1562118
29	0x3e773895	0.24142678
30	0x3dec7d37	0.1154732
31	0x3f1f505f	0.6223201
32	0x3e892c52	0.26791626
33	0x3ea255dc	0.3170613
34	0x3e58931a	0.21149865
35	0x3e8332d1	0.25624707
36	0x3e654279	0.22388639
37	0x3ec9d7f2	0.39422566
38	0x3e09557b	0.13411514
39	0x3e3b8d85	0.18315704
40	0x3ed8fec3	0.42381868
41	0x3e242e1b	0.16033213
42	0x3e418d88	0.18901646
43	0x3eac92cf	0.33705756
44	0x3eadbed4	0.33934653
45	0x3e3f35de	0.18672892
46	0x3edcf850	0.43158197
47	0x3eac85ea	0.33695918
48	0x3e7acd4e	0.2449238
49	0x3e99cd4d	0.30039445
50	0x3e4ae28c	0.19812983
51	0x3e4088b6	0.18802151
52	0x3e13aec9	0.14422144
53	0x3df7385e	0.12071298
54	0x3e88785c	0.26654327
55	0x3eb3330a	0.34999877
56	0x3df27a42	0.11839725
57	0x3e745f0b	0.23864381
58	0x3e2ab5c6	0.16670904
59	0x3eca1f5b	0.39477047
60	0x3e581b39	0.21104135
61	0x3e49a319	0.19691123
62	0x3e80d2b5	0.25160757
63	0x3e5a759a	0.21333924
