results/basic_cosine/basic_cosine_55.pth (torch, 961228 bytes, 25 tensors)

block1.0.weight f4 [64, 1, 3, 3]
-0.26058182 -0.07934329 -0.020525798 0.180627 -0.20030229 0.2695193 -0.18773945 0.068115585
0.17776431 -0.01755701 0.20046878 -0.014915214 0.31946495 -0.015187097 -0.25510576 0.18151723
-0.27626103 -0.12712592 0.2768231 -0.34478843 -0.0338406 -0.2758673 0.051207997 -0.12714987
0.13530661 -0.17335437 0.0887253 -0.25895455 -0.06253348 -0.2496127 -0.013847269 0.10822268
-0.2441277 -0.20485868 0.11805116 0.16862507 0.026470225 0.22465396 -0.058837228 0.0673211
-0.055772644 0.046638265 0.16475676 0.036661986 -0.20272097 0.2745839 0.17563027 0.074893296
0.09749419 0.05725002 -0.266631 -0.31641653 -0.04147208 -0.008373345 -0.10052639 0.18996029
0.22344407 0.24435627 0.19159073 -0.2188177 0.18237178 0.083296746 -0.36188877 -0.14939947
0.3356439 -0.113139026 0.27933338 -0.07882525 -0.13600193 -0.27776116 0.04018098 0.070791766
-0.18436667 -0.01876969 0.29927367 0.17841248 0.027479216 -0.07321487 -0.21890922 -0.05089569
0.20859796 -0.26982147 0.2854056 -0.022197017 0.2799436 -0.103860624 -0.1591445 -0.071791865
-0.027194625 0.13759547 -0.37330484 0.27927467 -0.010495856 -0.09976842 0.0033230893 0.25875372
0.13691084 -0.39511755 0.27856457 0.25211138 -0.10339656 0.10117606 -0.18109702 0.20845206
-0.06650187 0.010899412 0.07070798 -0.03484986 0.21042609 0.2908701 -0.2364579 0.08278021
-0.14681135 -0.25977507 0.020457895 0.004146248 0.10224071 0.037327196 -0.30491385 -0.18616417
-0.27342176 -0.18395993 0.31721646 0.25073248 0.24896573 0.054433595 0.2540156 0.27705076
0.02822113 -0.1645765 0.16738394 -0.010186391 0.28185746 0.0026577527 -0.33105928 0.13588732
0.12381714 -0.17428192 -0.28970954 -0.11030458 -0.26103753 0.27280354 0.14380611 0.20591669
-0.054407872 0.0607133 -0.15547873 0.22724317 -0.29456708 0.087324455 0.004856988 -0.026043117
0.16668895 -0.13541323 -0.26732317 0.16988562 0.10647873 -0.15350766 0.18225938 0.11527603
0.13991565 -0.14219578 0.20427778 -0.1827047 -0.06755111 -0.26061568 0.023482354 0.07474416
-0.19331677 -0.30071545 -0.09518979 0.032081746 -0.01684066 0.08752903 0.22980891 -0.09880257
-0.24641846 -0.029712563 -0.2818034 -0.25162095 -0.03182102 -0.22501256 -0.28151062 0.14572702
-0.16360746 -0.0044181026 0.24617958 0.35202897 -0.05232943 0.24665153 0.003524983 -0.24840963
0.04356236 0.3316699 -0.29186127 -0.21699154 0.1107016 -0.16476953 0.08410693 -0.10498735
-0.14636333 -0.034337647 0.21744782 0.19100013 -0.15785882 0.089303 0.28467172 -0.23661448
0.10978138 -0.11679068 -0.29765952 0.24106121 -0.10057266 0.075743094 0.09331139 -0.1499622
0.10922687 0.24452625 0.21858276 -0.3389381 0.14702159 0.01441204 0.012573029 -0.20178163
-0.15097383 0.022672506 -0.22176643 -0.047794126 -0.067878686 0.26437372 0.0725739 0.08716089
-0.02745607 -0.103690706 -0.0820574 0.17537189 -0.25419533 0.20590949 -0.29869613 -0.10900402
-0.16689342 0.11829526 0.23226674 -0.2651589 0.28127566 -0.31989264 0.1182355 0.113977134
0.27259865 0.23408802 -0.3018016 0.2827266 0.24002455 -0.053543307 0.09806067 -0.076748505
00000000: fb6a 85be bc7e a2bd b825 a8bc 49f6 383e
00000010: 0b1c 4dbe 6ffe 893e c53e 40be 2f80 8b3d
00000020: d907 363e b8d3 8fbc b047 4d3e f15e 74bc
00000030: e990 a33e 4dd3 78bc 399d 82be a7df 393e
00000040: 1672 8dbe 4c2d 02be c2bb 8d3e 1c88 b0be
00000050: 719c 0abd 7b3e 8dbe 7abf 513d 9333 02be
00000060: d18d 0a3e cf83 31be 9cb5 b53d b195 84be
00000070: 8e11 80bd 799a 7fbe a8df 62bc daa3 dd3d
00000080: 9dfc 79be 79c6 51be cec4 f13d 0dac 2c3e
00000090: 16d8 d83c b00b 663e 4eff 70bd a5df 893d
000000a0: db71 64bd c407 3f3d ffb5 283e e12a 163d
000000b0: 1696 4fbe 4396 8c3e 6cd8 333e a861 993d
000000c0: 09ab c73d ff7e 6a3d dc83 88be 5901 a2be
000000d0: a1de 29bd 5b30 09bc c8e0 cdbd f384 423e
000000e0: 86ce 643e 8838 7a3e 5c30 443e bf11 60be
000000f0: abbf 3a3e 7c97 aa3d 7c49 b9be 2dfc 18be
00000100: 84d9 ab3e 6fb5 e7bd c904 8f3e 226f a1bd
00000110: 1744 0bbe b636 8ebe d094 243d 46fb 903d
00000120: 9eca 3cbe e5c2 99bc 663a 993e c3b1 363e
00000130: 181c e13c aef1 95bd bd29 60be 0078 50bd
00000140: b49a 553e 0a26 8abe af20 923e 85d6 b5bc
00000150: c454 8f3e e1b4 d4bd c7f6 22be 9d07 93bd
00000160: 43c7 debc d4e5 0c3e d021 bfbe 17fd 8e3e
00000170: d0f6 2bbc 6353 ccbd 30c8 593b 5e7b 843e
00000180: 5b32 0c3e d94c cabe 04a0 8e3e be14 813e
00000190: 93c1 d3bd 6535 cf3d 7f71 39be 7574 553e
000001a0: 2232 88bd 7393 323c 58cf 903d babe 0ebd
000001b0: f079 573e edec 943e 0522 72be ac88 a93d
000001c0: b755 16be 3d01 85be 5197 a73c 40dd 873b
000001d0: 9463 d13d 67e4 183d ab1d 9cbe d2a1 3ebe
000001e0: f0fd 8bbe fe5f 3cbe 326a a23e 0260 803e
000001f0: dff0 7e3e c3f5 5e3d 550e 823e 99d9 8d3e
00000200: 0030 e73c be86 28be b266 2b3e d2e4 26bc
00000210: 9f4f 903e b12d 2e3b 9a80 a9be 0c26 0b3e
00000220: d793 fd3d f676 32be cf54 94be 5ee7 e1bd
00000230: b6a6 85be e8ac 8b3e e941 133e d3db 523e
00000240: cada 5ebd 82ae 783d d135 1fbe 6fb2 683e
00000250: 7fd1 96be 2ad7 b23d 5e27 9f3b 6058 d5bc
00000260: 82b0 2a3e c4a9 0abe 95de 88be 7ff6 2d3e
00000270: 8511 da3d 1d31 1dbe 34a2 3a3e d715 ec3d
00000280: 0c46 0f3e c59b 11be 322e 513e f116 3bbe
00000290: 3d58 8abd 6b6f 85be 115e c03c 7713 993d
000002a0: d5f4 45be 60f7 99be ddf2 c2bd 2668 033d
000002b0: 6cf5 89bc 6c42 b33d 0753 6b3e 0059 cabd
000002c0: 1f55 7cbe c367 f3bc 8948 90be 76d4 80be
000002d0: c256 02bd b169 66be 2922 90be 7739 153e
000002e0: b788 27be bbc5 90bb 8016 7c3e 243d b43e
000002f0: 6257 56bd 3892 7c3e 6703 673b 185f 7ebe
00000300: 726e 323d a3d0 a93e d76e 95be 0833 5ebe
00000310: 85b7 e23d 58b9 28be 4140 ac3d 9c03 d7bd
00000320: 45e0 15be a2a5 0cbd a4aa 5e3e 8a95 433e
00000330: bea5 21be 7ee4 b63d 7ec0 913e 114b 72be
00000340: 0fd5 e03d f42f efbd d466 98be c0d8 763e
00000350: 0af9 cdbd 321f 9b3d 0b1a bf3d b18f 19be
00000360: 56b2 df3d 1765 7a3e 29d4 5f3e 4b89 adbe
00000370: d48c 163e 7a20 6c3c 1bff 4d3c d89f 4ebe
00000380: e298 1abe b1bb b93c bd16 63be c6c3 43bd
00000390: fb03 8bbd fe5b 873e a0a1 943d 6981 b23d
000003a0: 8deb e0bc cb5b d4bd b60d a8bd b094 333e
000003b0: e425 82be f0d9 523e b3ee 98be 803d dfbd
000003c0: 1ce6 2abe c944 f23d 55d7 6d3e e8c2 87be
000003d0: 5d03 903e f8c8 a3be 7425 f23d d86c e93d
000003e0: 0d92 8b3e c5b4 6f3e bd85 9abe 8ac1 903e
000003f0: ffc8 753e 3a50 5bbd 08d4 c83d 522e 9dbd

block1.0.bias f4 [64]
0.2629306 -0.259068 0.1908106 -0.15956223 -0.11437441 0.27716836 -0.13417369 0.19270436
-0.22384691 -0.17806709 0.27426904 -0.28326955 -0.12746555 -0.049445678 0.31796727 -0.05573843
0.07455174 0.26067287 0.17426236 0.25444618 0.03837152 -0.19830248 0.18022305 -0.09788063
0.16785249 -0.2329996 0.3084394 -0.027072813 0.20533219 0.16557682 -0.042296436 -0.19587754
0.2621369 -0.28752682 0.28360397 0.25435135 0.061748806 -0.24334455 0.19419685 0.18564685
0.101186894 -0.06144777 0.24076568 -0.22057231 -0.19616166 0.0803406 -0.0558452 0.15526702
0.16739404 -0.078476705 0.19460872 -0.08046135 0.1596189 0.3185437 0.039173882 -0.0020909258
0.06208235 0.03831472 0.0107745165 -0.2270989 0.10508928 -0.23070638 -0.33657247 0.043873753
00000000: d79e 863e 90a4 84be db63 433e 4864 23be
00000010: 213d eabd 03e9 8d3e d464 09be 4b54 453e
00000020: 2038 65be 3857 36be fe6c 8c3e b508 91be
00000030: 5486 02be 8d87 4abd 9bcc a23e fb4d 64bd
00000040: 95ae 983d ea76 853e d571 323e c546 823e
00000050: 742b 1d3d ce0f 4bbe 648c 383e a475 c8bd
00000060: 86e1 2b3e 7297 6ebe c5eb 9d3e cec7 ddbc
00000070: 9a42 523e f88c 293e 073f 2dbd 1f94 48be
00000080: cf36 863e b736 93be 8a34 913e 573a 823e
00000090: 51ec 7c3d 502f 79be 8adb 463e 351a 3e3e
000000a0: 133b cf3d a8b0 7bbd 478b 763e b5dd 61be
000000b0: 9ade 48be 9d89 a43d f0bd 64bd 51fe 1e3e
000000c0: 5869 2b3e 65b8 a0bd 8247 473e ecc8 a4bd
000000d0: 2373 233e 2918 a33e cb74 203d ea07 09bb
000000e0: 104a 7e3d e5ef 1c3d 9987 303c 9d8c 68be
000000f0: 0c39 d73d 4b3e 6cbe 3a53 acbe f7b4 333d

block1.1.weight f4 [64]
1.0219065 1.0720825 0.93856525 0.9609869 0.9638714 1.0184252 0.9342538 1.0057858
0.9549895 0.9899858 0.9990485 0.95304316 1.0149873 1.0348804 0.96551955 1.0290586
1.0364103 1.042862 0.9337662 0.9470502 1.0593095 0.980934 0.95511967 0.96907747
1.0163057 1.0098864 0.9603565 0.9372244 0.9764236 1.0341488 0.9862527 0.9630392
1.0240426 0.9622351 0.9433031 0.95825315 1.0465442 0.97622263 1.0231667 0.9291796
0.9547423 0.9816092 1.0809348 0.96024436 0.95835465 0.9765118 0.963982 1.0300447
1.0274897 0.9782427 0.99336135 0.96875864 0.94555026 0.9847018 1.0043446 0.95006186
1.0113049 0.95823115 0.9498355 0.9725556 0.94935364 0.95741314 0.9220512 0.95922637
00000000: d5cd 823f 003a 893f d045 703f 3d03 763f
00000010: 47c0 763f c25b 823f 422b 6f3f 97bd 803f
00000020: 317a 743f b66f 7d3f a4c1 7f3f a3fa 733f
00000030: 1beb 813f f676 843f 4a2c 773f 31b8 833f
00000040: 18a9 843f 817c 853f 4d0b 6f3f e271 723f
00000050: 7497 873f 7e1e 7b3f b982 743f 7615 783f
00000060: 4e16 823f f543 813f ecd9 753f f0ed 6f3f
00000070: e6f6 793f fd5e 843f 0f7b 7c3f bd89 763f
00000080: d413 833f 0a55 763f 507c 713f 1450 753f
00000090: 29f5 853f bae9 793f 20f7 823f b7de 6d3f
000000a0: fe69 743f be4a 7b3f 125c 8a3f 93d2 753f
000000b0: bb56 753f adfc 793f 86c7 763f 81d8 833f
000000c0: c884 833f 1d6e 7a3f ee4c 7e3f 9100 783f
000000d0: 950f 723f 6b15 7c3f 5d8e 803f 4137 733f
000000e0: 7072 813f a34e 753f 6b28 733f 67f9 783f
000000f0: d708 733f 0719 753f 8c0b 6c3f dc8f 753f

block1.1.bias f4 [64]
-0.036421902 0.073915996 -0.08341749 -0.03404197 -0.01012026 0.14660251 0.006762215 -0.019496214
-0.03817429 -0.010376343 0.011725892 -0.006728026 0.059337612 -0.0098240245 0.006160412 0.04189864
-0.0025424156 0.06910605 -0.09773563 -0.049274787 0.032894414 -0.04188961 0.0355918 -0.059839644
0.10890734 -0.017980434 -0.06656551 -0.015153368 -0.05157756 0.09139634 -0.02850918 -0.008537708
0.027390009 -0.044304695 -0.024013178 -0.00708662 0.037343077 -0.0068283007 0.037868194 -0.0052192183
-0.018243534 -0.07194573 0.061178107 -0.00420385 -0.044860117 -0.032851744 -0.025868608 0.019550709
-0.051117007 -0.018939998 0.00063978496 -0.053248584 -0.025672724 -0.029291693 0.018766347 -0.04089882
-0.023673424 -0.10237576 -0.071169086 -0.0212863 -0.012180498 -0.014731234 -0.02333607 -0.034302384
00000000: 222f 15bd 4561 973d cad6 aabd 986f 0bbd
00000010: 72cf 25bc f81e 163e 9295 dd3b 86b6 9fbc
00000020: a55c 1cbd 8901 2abc f51d 403c c676 dcbb
00000030: ff0b 733d f2f4 20bc 48dd c93b e99d 2b3d
00000040: a89e 26bb 7987 8d3d 9e29 c8bd 5cd4 49bd
00000050: 4bbc 063d 7194 2bbd b5c8 113d 6a1a 75bd
00000060: d00a df3d b44b 93bc 8053 88bd d545 78bc
00000070: fe42 53bd 012e bb3d 158c e9bc bee1 0bbc
00000080: 0361 e03c d778 35bd 49b7 c4bc e136 e8bb
00000090: 0ef5 183d f0bf dfbb ae1b 1b3d fa05 abbb
000000a0: 7773 95bc 4858 93bd e595 7a3d 73c0 89bb
000000b0: 3ebf 37bd 8d8f 06bd 67ea d3bc cf28 a03c
000000c0: 1160 51bd 0e28 9bbc 3eb7 273a 301b 5abd
000000d0: 9b4f d2bc 22f5 efbc e2bb 993c 8585 27bd
000000e0: c5ee c1bc 62aa d1bd 19c1 91bd 9b60 aebc
000000f0: b690 47bc 465b 71bc 492b bfbc a880 0cbd

block1.1.running_mean f4 [64]
0.23903418 -0.26226944 0.0011284725 -0.45652947 0.0031938166 0.29836023 0.06946239 0.1785303
-0.14574349 -0.15549186 0.31079438 -0.1633753 -0.09669334 -0.06767583 0.5536551 -0.034517325
0.082127646 0.2678541 -0.19902642 -0.0141741065 0.03340785 -0.28401583 0.3778596 -0.27541557
0.19290148 -0.24223237 0.22507727 0.16758782 0.14170611 0.1721177 -0.11897358 -0.5066643
0.2680686 0.2042867 0.34542617 0.3475187 0.05484527 -0.09059221 0.2146913 0.29987538
0.26176324 -0.09935005 0.24161 0.17932154 -0.4373251 -0.43802378 -0.5557811 0.13817035
0.15257996 -0.7245988 0.26469415 -0.20786662 -0.35171488 0.22536209 0.0708775 0.10325998
0.040430732 -0.010474902 -0.26746118 -0.441564 0.25775033 -0.0902296 0.22187805 0.27918229
00000000: 60c5 743e 2e48 86be 41e9 933a 3bbe e9be
00000010: 5a4f 513b acc2 983e 4c42 8e3d a6d0 363e
00000020: c83d 15be 4239 1fbe 7120 9f3e db4b 27be
00000030: 2807 c6bd a099 8abd 57bc 0d3f 0a62 0dbd
00000040: 8a32 a83d 2c24 893e 95cd 4bbe 833a 68bc
00000050: abd6 083d 866a 91be d076 c13e 4503 8dbe
00000060: f787 453e c30b 78be a87a 663e 249c 2b3e
00000070: 681b 113e 9f3f 303e 6ca8 f3bd c0b4 01bf
00000080: 4a40 893e 8830 513e b3db b03e f9ed b13e
00000090: 6fa5 603d 6988 b9bd 09d8 5b3e 4489 993e
000000a0: d505 863e 0a78 cbbd 9d68 773e 11a0 373e
000000b0: 13e9 dfbe a744 e0be ac47 0ebf 877c 0d3e
000000c0: ec3d 1c3e 4f7f 39bf fe85 873e fdda 54be
000000d0: f913 b4be 52c5 663e 3928 913d f879 d33d
000000e0: b29a 253d ec9e 2bbc acf0 88be ad14 e2be
000000f0: daf7 833e 4cca b8bd 0034 633e fbf0 8e3e

block1.1.running_var f4 [64]
0.0010558866 0.0012212895 0.015215239 0.037539456 0.006074463 0.001588412 0.018339105 0.00030782697
0.00309216 0.00026917373 0.0014853103 0.006061057 0.001124112 0.0021795533 0.024289977 0.0016488342
0.00023524153 0.00033011654 0.057970703 0.030920753 0.0025971676 0.004067324 0.01664507 0.013419473
0.0017132655 0.00016295882 0.00327982 0.016070465 0.002453727 0.0003420136 0.0030755303 0.04058242
0.001532817 0.10032325 0.0017460466 0.00480477 0.0013198301 0.011569244 0.0010219767 0.0058452557
0.010940256 0.0013089309 0.00069554587 0.06655542 0.024467193 0.11123359 0.1037506 0.0011597323
0.0013068478 0.17288685 0.0036120992 0.007838421 0.10982019 0.0038112146 0.0011806694 0.005249412
0.00079491513 0.0014601266 0.033105955 0.019552983 0.011866815 0.008343503 0.12902857 0.023646535
00000000: ad65 8a3a ad13 a03a 5649 793c f9c2 193d
00000010: 4a0c c73b 4332 d03a e43b 963c d663 a139
00000020: d6a5 4a3b e31f 8d39 beae c23a d59b c63b
00000030: f156 933a d6d6 0e3b c6fb c63c b21d d83a
00000040: 2bab 7639 7e13 ad39 b072 6d3d 854d fd3c
00000050: 3e35 2a3b 3047 853b 3e5b 883c 59dd 5b3c
00000060: a78f e03a eddf 2a39 40f2 563b 35a6 833c
00000070: b5ce 203b 4a50 b339 d68e 493b c039 263d
00000080: cee8 c83a 4776 cd3d 9adb e43a 5571 9d3b
00000090: 26fe ac3a ed8c 3d3c d9f3 853a 8f89 bf3b
000000a0: c23e 333c 6f90 ab3a 4b55 363a 354e 883d
000000b0: 6c6f c83c 70ce e33d 327b d43d 2902 983a
000000c0: 894a ab3a 4009 313e f8b8 6c3b b86c 003c
000000d0: 68e9 e03d 92c5 793b b1c0 9a3a 4203 ac3b
000000e0: da61 503a b861 bf3a 1c9a 073d 942d a03c
000000f0: 086d 423c 30b3 083c 1120 043e 61b6 c13c

block2.0.weight f4 [64, 64, 3, 3]
-0.013707909 0.034014836 -0.016727341 -0.0068083545 0.04118747 0.0052852505 -0.03441011 0.02078012
-0.00019871276 0.011536212 0.024417369 0.037608035 -0.007434467 0.045100655 -0.0003170094 -0.015377298
0.01770133 -0.024914967 -0.04129316 -0.019158307 0.04909991 0.020911744 -0.0041055297 -0.015113273
-0.041312378 -0.041477986 0.00837428 -0.006975618 -0.03806685 -0.03515372 0.027568428 0.0302354
-0.040005323 -0.048504125 0.014201349 0.022945778 -0.015276095 0.031596743 0.0046954174 -0.026188286
0.038595553 0.011968157 -0.015898846 0.0020159034 0.024219317 -0.0073943096 0.017331045 -0.04329889
-0.0018543894 0.018022576 0.013650385 -0.015150346 0.0051122834 -0.038231354 0.0028868245 -0.012407939
0.03338174 0.0009095541 0.03857592 0.01958352 0.0033226635 0.027777802 0.024477627 -0.065160595
0.00040040736 -0.026230203 -0.044382475 0.0048200116 0.027570257 -0.06335758 0.043767095 -0.011031084
0.0326476 -0.036635518 -0.036002208 0.015133104 0.01865442 0.025714189 0.019768395 -0.024003847
-0.0061301677 -0.013669028 -0.009333362 -0.019712502 0.0014265929 -0.04005133 0.03329659 0.012852061
0.055687875 0.0048406553 0.014488188 -0.03157454 0.016453838 0.029835228 0.04602572 -0.0119143855
0.057212442 0.020773774 0.0077247135 0.006871897 0.0045122625 -0.016812751 0.034928493 0.04004243
0.007030469 0.010009752 0.007080767 0.0346848 -0.031061267 0.020126753 0.013668292 -0.048863854
0.025475677 -0.020541606 -0.06271235 -0.023678813 0.03759971 0.030438876 0.016478736 -0.004175818
-0.02440008 0.026790408 -0.0063304855 0.0029535352 0.033988886 0.0038423531 -0.024788624 0.047186572
-0.026266735 0.031635884 -0.00779978 0.035071068 -0.0017531924 0.023798661 0.039887503 0.016627194
-0.00084741664 0.01488591 0.00018336611 0.045304246 0.017126262 -0.0040686377 -0.03583069 0.018853823
0.022385444 0.005796618 0.032629196 -0.04157514 -0.0014591487 0.03734509 -0.06482713 0.01566964
-0.053022563 -0.006901902 0.011845264 -0.031735957 0.016372636 0.0048045106 0.0066543324 -0.048899963
-0.038408007 -0.02957095 0.00729177 -0.03507678 0.0184083 -0.036270656 -0.049217656 -0.022010455
-0.036175504 -0.030499127 -0.035360876 -0.046824828 -0.007352749 0.01964217 -0.016252143 -0.00016215195
0.017534973 0.004376001 0.017302765 -0.038727935 0.024419429 0.015510386 0.01057183 0.016977422
0.029537931 0.0141002815 -0.032025103 0.04252216 0.039188825 -0.045237303 -0.002482099 -0.023270305
-0.006469892 0.026645446 -0.018275628 0.007965877 -0.02718406 -0.0043985383 0.03245653 -0.030044006
-0.012033115 0.012703979 0.024650646 -0.0014276822 -0.030199114 0.016828632 0.027029706 0.027201874
0.0009470979 -0.034195323 0.018951416 -0.04299073 0.032871835 -0.03765421 -0.034810085 0.022462906
0.052509554 0.01540293 -0.055831566 -0.025771502 0.010832397 0.008800149 0.056434322 0.057719603
-0.0001573612 -0.008330508 0.004058052 -0.017923012 0.0068599153 0.02527111 0.022723276 -0.0052444213
-0.01800803 0.054985944 0.0007022804 -0.041580766 -0.02781707 0.020191424 0.0107506355 -0.021190925
0.0063636596 -0.03731336 -0.041230474 0.0075382986 0.028307224 -0.037151523 0.012239249 0.02045358
0.0003495179 -0.02529446 -0.00553077 0.036748655 -0.003990345 0.020971583 0.021592187 0.012441725
00000000: 2397 60bc 2453 0b3d c707 89bc 9e18 dfbb
00000010: 31b4 283d e52f ad3b 9ef1 0cbd 123b aa3c
00000020: 8d5d 50b9 6102 3d3c ef06 c83c e20a 1a3d
00000030: d49c f3bb 77bb 383d 4834 a6b9 10f1 7bbc
00000040: 6102 913c 791a ccbc 0423 29bd e2f1 9cbc
00000050: fd1c 493d 1b4f ab3c ae87 86bb a99d 77bc
00000060: 2b37 29bd d2e4 29bd 4734 093c ba93 e4bb
00000070: fceb 1bbd 59fd 0fbd 2fd7 e13c 3bb0 f73c
00000080: 9fdc 23bd 43ac 46bd c6ac 683c c9f8 bb3c
00000090: 9648 7abc 966b 013d 04dc 993b d188 d6bc
000000a0: 5f16 1e3d 1716 443c 4c3e 82bc 3f1d 043b
000000b0: 9767 c63c f74b f2bb d6f9 8d3c 2d5a 31bd
000000c0: fc0e f3ba 15a4 933c dda5 5f3c 2839 78bc
000000d0: f184 a73b 7b98 1cbd e130 3d3b ab4a 4bbc
000000e0: 4bbb 083d 246f 6e3a c901 1e3d 9e6d a03c
000000f0: 0bc1 593b 468e e33c 4e85 c83c eb72 85bd
00000100: c4ed d139 b9e0 d6bc 66ca 35bd 30f1 9d3b
00000110: 05db e13c 9ec1 81bd 2045 333d b8bb 34bc
00000120: 7db9 053d 200f 16bd 0d77 13bd d7f0 773c
00000130: 27d1 983c 90a6 d23c 54f1 a13c b7a3 c4bc
00000140: 93df c8bb 0ff4 5fbc f5ea 18bc 1d7c a1bc
00000150: 84fc ba3a dd0c 24bd 0162 083d 7391 523c
00000160: f818 643d 5c9e 9e3b dd5f 6d3c 4e54 01bd
00000170: 33ca 863c 0269 f43c 7785 3c3d 8e34 43bc
00000180: 9857 6a3d c32d aa3c 981f fd3b a62d e13b
00000190: 9adb 933b e5ba 89bc 2e11 0f3d 8803 243d
000001a0: d95f e63b f1ff 233c c705 e83b a611 0e3d
000001b0: 3374 febc dce0 a43c f9f0 5f3c 7725 48bd
000001c0: 5eb2 d03c df46 a8bc 556f 80bd 12fa c1bc
000001d0: 2702 1a3d f35a f93c 6afe 863c 4dd5 88bb
000001e0: ade2 c7bc 8f77 db3c f66f cfbb 1990 413b
000001f0: ee37 0b3d fdcf 7b3b 8311 cbbc b546 413d
00000200: 562d d7bc a194 013d 4c95 ffbb aea6 0f3d
00000210: 60cb e5ba 69f5 c23c 1461 233d c135 883c
00000220: 2b25 5eba 08e4 733c f745 4039 f290 393d
00000230: 604c 8c3c 3552 85bb 34c3 12bd 5573 9a3c
00000240: ae61 b73c 8ef1 bd3b 31a6 053d b24a 2abd
00000250: e840 bfba 2af7 183d 16c4 84bd 9e5d 803c
00000260: 302e 59bd 5a29 e2bb a312 423c 90fd 01bd
00000270: e81f 863c 286f 9d3b 960c da3b 544b 48bd
00000280: b751 1dbd c73e f2bc cdef ee3b abac 0fbd
00000290: 01cd 963c 8a90 14bd 7498 49bd 454f b4bc
000002a0: c42c 14bd 4ed9 f9bc 91d6 10bd 64cb 3fbd
000002b0: 54ef f0bb 9ee8 a03c 3723 85bc 5507 2ab9
000002c0: 81a5 8f3c 8f64 8f3b 87be 8d3c 2fa1 1ebd
000002d0: 410b c83c 461f 7e3c 7835 2d3c 3c14 8b3c
000002e0: 88f9 f13c de04 673c c12c 03bd b72b 2e3d
000002f0: 7684 203d c04a 39bd b6aa 22bb 5ea1 bebc
00000300: 6301 d4bb 8d47 da3c c5b6 95bc 4f83 023c
00000310: 1bb1 debc 9d21 90bb 23f1 043d d91e f6bc
00000320: 8b26 45bc 5a24 503c 27f0 c93c 1121 bbba
00000330: 2264 f7bc 33dc 893c 676d dd3c 77d6 de3c
00000340: aa46 783a 6510 0cbd 0040 9b3c 0c17 30bd
00000350: 9ea4 063d 4d3b 1abd 0595 0ebd 2104 b83c
00000360: 4214 573d 925c 7c3c a4af 64bd c21e d3bc
00000370: 5e7a 313c 802e 103c ad27 673d 646b 6c3d
00000380: 5301 25b9 af7c 08bc 68f9 843b 48d3 92bc
00000390: 24c9 e03b 5c05 cf3c 2a26 ba3c 65d9 abbb
000003a0: 9385 93bc f138 613d 3d19 383a 9850 2abd
000003b0: a0e0 e3bc 7c68 a53c 6f23 303c 9798 adbc
000003c0: 3f86 d03b e5d5 18bd 49e1 28bd d503 f73b
000003d0: 8de4 e73c 322c 18bd 2287 483c 448e a73c
000003e0: 803f b739 5436 cfbc 763b b5bb c285 163d
000003f0: 71c1 82bb 99cc ab3c 19e2 b03c 60d8 4b3c

block2.0.bias f4 [64]
0.013530996 0.006706688 -0.022729559 -0.016778646 -0.004171398 -0.040041603 0.025532562 0.007864791
-0.012371692 0.03156462 0.026298398 -0.010694152 0.0037753836 -0.017098395 0.01315203 -0.012818731
-0.02371857 -0.01657834 0.019703908 -0.016531697 0.022080721 -0.03413761 -0.010874722 -0.040977012
-0.0138655165 0.033800468 0.012646757 0.009056552 0.03946247 -0.017932422 0.031465534 0.027949888
0.020003675 0.030667694 0.020524906 -0.0045061335 -0.029474536 -0.02562551 0.041564845 -0.0046195993
-0.041322768 0.034434866 0.02776989 -0.017460983 0.023656882 0.01145709 0.0043731825 -0.0035709788
-0.010540922 0.033423744 -0.0044807876 0.0007412459 -7.009359e-05 -0.020322744 0.024733212 0.010762414
0.029851494 0.0014708752 0.0021191447 -0.030927522 -0.010915125 0.016993979 -0.02144296 -0.008567304
00000000: 1cb1 5d3c c7c3 db3b 5733 babc 5f73 89bc
00000010: 39b0 88bb aa02 24bd aa29 d13c 53db 003c
00000020: a3b2 4abc e749 013d bd6f d73c 8636 2fbc
00000030: 6d6c 773b ef11 8cbc 9d7b 573c a805 52bc
00000040: 724d c2bc 4dcf 87bc 176a a13c 7b6d 87bc
00000050: a1e2 b43c e1d3 0bbd e42b 32bc 83d7 27bd
00000060: 312c 63bc 5c72 0a3d 5834 4f3c ef61 143c
00000070: 66a3 213d 04e7 92bc 01e2 003d 2af7 e43c
00000080: bfde a33c d13a fb3c d923 a83c 30a8 93bb
00000090: 9574 f1bc 97ec d1bc e63f 2a3d 0260 97bb
000000a0: 1042 29bd 930b 0d3d ae7d e33c 560a 8fbc
000000b0: 14cc c13c 85b6 3b3c ea4c 8f3b 1507 6abb
000000c0: d5b3 2cbc 56e7 083d 92d3 92bb 2c50 423a
000000d0: 36ff 92b8 e27b a6bc 4e9d ca3c d654 303c
000000e0: 1f8b f43c 62ca c03a 59e1 0a3b b75b fdbc
000000f0: 5ad5 32bc f536 8b3c 25a9 afbc e15d 0cbc

block2.1.weight f4 [64]
0.98815024 1.0032703 0.9928877 0.97164774 1.025829 1.0028793 0.99157876 0.9943886
0.9841796 1.0191836 0.9999951 0.9864596 1.0045668 1.0149292 0.9872826 1.0063655
0.96686846 0.996942 0.9751735 0.9909785 0.99833673 1.0099177 0.9952906 0.9864392
0.9572418 0.98667437 1.002915 0.984665 0.9591799 1.0389534 0.97899926 1.0060033
1.0251606 0.970565 0.96568495 1.0329219 0.9909752 1.0088955 1.002396 0.99231654
1.0303077 1.0373656 0.97837555 0.9876219 0.991856 1.0120722 1.0302173 1.0068555
0.9793344 0.97358733 1.0306178 1.0121043 1.0048584 1.010648 1.0120236 1.0315684
0.98164207 0.95136195 0.98943776 0.9856049 0.9846144 0.9800216 1.017519 1.0016224
00000000: 6af7 7c3f 296b 803f e32d 7e3f e8bd 783f
00000010: 5d4e 833f 595e 803f 1bd8 7d3f 4090 7e3f
00000020: 32f3 7b3f 9c74 823f aeff 7f3f 9e88 7c3f
00000030: a595 803f 33e9 813f 8dbe 7c3f 96d0 803f
00000040: b184 773f 9737 7f3f f8a4 793f c4b0 7d3f
00000050: ff92 7f3f fc44 813f 5dcb 7e3f 4887 7c3f
00000060: cc0d 753f b196 7c3f 855f 803f 0113 7c3f
00000070: d08c 753f 6dfc 843f b29f 7a3f b7c4 803f
00000080: 7638 833f f376 783f 2137 773f c936 843f
00000090: 8db0 7d3f 7d23 813f 834e 803f 7508 7e3f
000000a0: 1fe1 833f 65c8 843f d276 7a3f cad4 7c3f
000000b0: 46ea 7d3f 958b 813f 29de 833f a4e0 803f
000000c0: a9b5 7a3f 053d 793f 49eb 833f a28c 813f
000000d0: 339f 803f ea5c 813f fd89 813f 6f0a 843f
000000e0: e54c 7b3f 758c 733f cb4b 7d3f 9a50 7c3f
000000f0: b00f 7c3f b2e2 7a3f 103e 823f 2a35 803f

block2.1.bias f4 [64]
-0.03374195 -0.03708428 -0.044260956 -0.04421442 -0.009100074 -0.07556352 -0.05149925 -0.041952685
-0.027243052 -0.029754033 -0.02896742 -0.039203204 0.012903391 0.0034431934 -0.0346528 -0.0021545289
-0.046018086 -0.06294727 -0.060850702 -0.025279019 -0.06822924 -0.0023879583 -0.10106578 -0.044224165
-0.07918492 -0.051192034 -0.027684547 -0.052947227 -0.087192416 -0.035615575 -0.04812981 -0.035751626
-0.038275726 -0.06319869 -0.111982495 -0.010705607 -0.0425917 -0.03164055 -0.004829904 -0.04161232
-0.01356102 -0.072720416 -0.04658545 -0.058983244 -0.06320846 -0.024815261 -0.018954506 -0.060811866
-0.05625883 -0.0988005 -0.058733102 -0.033065338 -0.029696092 -0.026297247 0.007822235 -0.12604126
-0.04746968 -0.06475387 -0.051153373 -0.079295725 -0.019940065 -0.06817052 -0.02481647 -0.04598223
00000000: 0035 0abd b0e5 17bd fa4a 35bd 2e1a 35bd
00000010: 7a18 15bc 0cc1 9abd e1f0 52bd 94d6 2bbd
00000020: d22c dfbc bbbe f3bc 154d edbc 8a93 20bd
00000030: bf68 533c 33a7 613b 18f0 0dbd ff32 0dbb
00000040: 767d 3cbd 80ea 80bd 963e 79bd f215 cfbc
00000050: c6bb 8bbd 4b7f 1cbb 93fb cebd 6624 35bd
00000060: b42b a2bd bdae 51bd b4ca e2bc 31df 58bd
00000070: f091 b2bd a3e1 11bd c323 45bd 4c70 12bd
00000080: 02c7 1cbd 516e 81bd 1457 e5bd 9266 2fbc
00000090: a274 2ebd 8599 01bd 2c44 9ebb ae71 2abd
000000a0: 0a2f 5ebc 71ee 94bd 63d0 3ebd 6a98 71bd
000000b0: 7073 81bd 6049 cbbc 7b46 9bbc dd15 79bd
000000c0: a96f 66bd eb57 cabd 1f92 70bd 856f 07bd
000000d0: 3845 f3bc 536d d7bc d528 003c f610 01be
000000e0: 916f 42bd ad9d 84bd 3386 51bd cc65 a2bd
000000f0: 5959 a3bc fc9c 8bbd e94b cbbc dd57 3cbd

block2.1.running_mean f4 [64]
0.03154844 -0.16650394 -0.64783096 1.4945571 -1.6336336 -0.021440819 -0.55341804 -0.33849424
-0.53729165 -0.41894034 0.09603911 -0.48961395 -0.8253207 -0.5644398 0.5105005 -0.79860264
-0.55555207 -0.45598006 1.3836619 -0.6053472 -0.5297728 -1.607284 -0.34265655 0.6392484
0.7403433 0.15184253 -0.66799223 -0.48239335 -0.34306505 -0.5034664 -0.32323104 0.14692475
-0.941985 1.8507164 2.0368612 -0.705954 -0.7546796 -0.5153318 -0.78839743 0.5869571
-0.95991564 -0.043828413 -0.24290784 -0.35944605 -0.4551708 -1.2070168 -0.4304122 -0.7504092
-0.4772166 -0.16427968 -0.40197235 -0.8740331 -0.40705144 -0.5486042 -1.4064292 -0.459475
-1.4692194 1.4150538 0.0013164448 1.3190627 -0.5313325 0.00038620582 -0.6202988 -0.5243381
00000000: f038 013d 0280 2abe 40d8 25bf a64d bf3f
00000010: e81a d1bf a8a4 afbc ceac 0dbf 1e4f adbe
00000020: f28b 09bf 597f d6be 27b0 c43d aeae fabe
00000030: 3848 53bf 207f 10bf 29b0 023f 3971 4cbf
00000040: a938 0ebf 3876 e9be d51b b13f 09f8 1abf
00000050: 319f 07bf 7bbb cdbf ae70 afbe c8a5 233f
00000060: 2387 3d3f 9c7c 1b3e 8a01 2bbf 43fc f6be
00000070: 39a6 afbe 2de3 00bf 8a7e a5be 7173 163e
00000080: ee25 71bf 46e4 ec3f ef5b 0240 67b9 34bf
00000090: af32 41bf c9ec 03bf 6ad4 49bf d242 163f
000000a0: 08bd 75bf 6c85 33bd d5bc 78be 5009 b8be
000000b0: 260c e9be 877f 9abf fd5e dcbe d11a 40bf
000000c0: bc55 f4be ef38 28be 52cf cdbe a2c0 5fbf
000000d0: 0c69 d0be 5371 0cbf df05 b4bf 4f40 ebbe
000000e0: 620f bcbf 7c20 b53f 8f8c ac3a 0cd7 a83f
000000f0: 6805 08bf ab7b ca39 e7cb 1ebf 063b 06bf

block2.1.running_var f4 [64]
1.7613854 0.62820756 0.36667776 1.5141522 1.3031968 0.65909034 0.25734073 0.19501434
0.61841726 0.23649089 0.37897763 0.31973654 0.8509191 0.38853028 0.6867736 0.7700937
0.76787716 0.3027645 0.8806542 0.36624807 0.33704123 3.3749127 0.23886515 0.60741717
0.45103657 0.2976243 0.620973 0.53584325 0.5811501 0.24926916 0.5053032 1.1447746
0.7707742 1.5704364 1.2615049 1.1838913 1.2033606 0.29919147 0.68546903 0.5442288
0.72932017 0.6334422 0.928519 0.32168943 0.32895666 1.5243168 0.26409754 0.5082477
0.3036764 0.7474005 0.23369241 1.3533596 0.14109345 0.5582471 1.925871 0.8287728
2.663593 1.6777519 0.3002691 0.86770165 0.28788394 0.33968946 0.32717177 0.26399612
00000000: 1475 e13f 36d2 203f 30bd bb3e bdcf c13f
00000010: 27cf a63f 25ba 283f 2ac2 833e d7b1 473e
00000020: 9850 1e3f ab2a 723e 5b09 c23e 82b4 a33e
00000030: d6d5 593f 71ed c63e 65d0 2f3f dc24 453f
00000040: 9993 443f f303 9b3e 8e72 613f de84 bb3e
00000050: ab90 ac3e 92fe 5740 1199 743e b17f 1b3f
00000060: 44ee e63e 3662 983e 16f8 1e3f 062d 093f
00000070: 41c6 143f 6a40 7f3e 8d5b 013f f987 923f
00000080: 7551 453f 0f04 c93f fe78 a13f c089 973f
00000090: b807 9a3f a02f 993e e67a 2f3f 9452 0b3f
000000a0: bab4 3a3f 4529 223f 6cb3 6d3f 7ab4 a43e
000000b0: 026d a83e d01c c33f cb37 873e 851c 023f
000000c0: 797b 9b3e a455 3f3f 104d 6f3e e33a ad3f
000000d0: cd7a 103e 48e9 0e3f f182 f63f 742a 543f
000000e0: 4f78 2a40 93c0 d63f dfbc 993e b221 5e3f
000000f0: 8665 933e c7eb ad3e 0f83 a73e 802a 873e

block3.0.weight f4 [64, 64, 3, 3]
0.023473464 0.0015828401 0.013043103 0.04536143 -0.013424205 0.010308365 -0.019939672 -0.012697056
-0.01029742 0.037479475 -0.032717086 -0.0025508497 0.036519375 -0.04932675 0.008469954 0.021882163
-0.0135907065 0.014247059 -0.029035542 -0.044213507 -0.033525698 0.055714097 -0.00046100578 0.015469809
-0.054230854 -0.05017251 0.03839567 -0.019250281 -0.0015682059 -0.010813915 -0.026740903 -0.015161557
0.0264384 -0.01119907 -0.01801623 -0.0029385053 0.04401992 -0.012862613 -0.033993483 0.0029997765
-0.017877055 -0.022766419 0.042472158 -0.00857919 -0.023416327 0.006274756 -0.02424868 0.023886533
0.03285404 -0.027391417 -0.04164119 0.026656289 0.0064348076 -0.04314031 -0.054554973 0.02824126
-0.021805339 0.010759957 0.01929213 -0.0017009448 -0.039317764 0.025682973 -0.049013663 -0.039580192
-0.031615805 -0.03051016 -0.047816455 0.008200579 -0.03102836 -0.018366847 -0.03415089 -0.014892869
0.023103448 -0.022613775 -0.021510143 0.040120173 0.00053678785 0.017921299 0.024445878 0.061269924
0.016870178 -0.010266567 0.009827859 0.015569333 -0.016624093 0.0004152396 -0.022636006 -0.030116575
-0.02269738 -0.0012142448 0.009303285 0.031739205 -0.00979928 -0.045501374 0.029062368 0.0174232
0.05216853 0.013506467 -0.01017465 -0.0671383 -0.027300287 -0.038498823 0.0262537 0.0027488589
-0.046621863 -0.02519868 -0.008159011 -0.08483549 -0.020311587 -0.019395377 -0.008819359 -0.018178724
0.044190075 0.028973771 -0.02653674 0.002143164 -0.0014284707 0.04315237 0.017046323 -0.01000777
0.00555535 -0.041203298 -0.04190654 -0.00394738 -0.011720971 -0.06353489 0.019604938 7.457527e-05
0.0033093537 -0.0022162686 -0.010433115 -0.028713588 0.013903248 0.03972145 -0.04027059 -0.029016973
-0.01733238 -0.023437375 -0.034757573 0.017499896 -0.033172313 -0.004715117 0.027310306 -0.014340784
-0.0042773415 -0.0064069615 0.03165226 0.009387712 0.005831225 0.03690136 -0.017250285 0.00961093
-0.023301693 -0.00447429 -0.04927274 -0.03729763 -0.043457508 -0.04097743 -0.002638108 0.007210124
-0.013711581 -0.03629379 0.030595051 0.05432618 -0.011683668 0.016919216 0.031189438 -0.03380615
-0.026345646 -0.03475182 0.035255015 -0.0053190263 -0.009905175 0.009890805 0.030608414 0.041730087
-0.020918269 0.0143078035 -0.009426281 -0.027970428 0.01372338 -0.033915248 -0.040106714 -0.016548367
-0.04689291 0.013480786 -0.047610074 0.0010393225 -0.019334776 0.04425722 0.0432273 0.031065382
0.013253336 0.0561338 -0.0336931 0.0005429668 0.0013362303 0.025414748 0.008732489 -0.0139203435
0.009342666 -0.021064237 0.019717973 0.02162489 0.019074744 -0.008200121 -0.014888557 0.016544145
0.038082514 0.019700442 -0.028771888 -0.044951502 0.009683365 -0.0046264557 0.02123937 0.023881415
0.03344051 -0.019632865 0.03744947 0.039654087 -0.021899711 -0.031236187 -0.026841933 -0.013327838
-0.014961258 0.02577533 -0.021313371 0.05086506 -0.017665846 -0.027063314 0.024005588 -0.029533384
-0.01398393 0.036098734 -0.018724551 -0.02082553 0.020120831 -0.023645446 -0.015142306 0.041415982
-0.0021869 -0.023104753 0.02803486 -0.047325216 -0.011203055 -0.03243363 -0.047289833 -0.027672088
0.02533949 -0.036969315 -0.0555319 -0.012437889 0.00081027875 0.003346545 -0.021642065 -0.014703725
00000000: 6c4b c03c 4d77 cf3a bdb2 553c e8cc 393d
00000010: 32f1 5bbc 6be4 283c 8658 a3bc 5007 50bc
00000020: 83b6 28bc 1484 193d 5a02 06bd 282c 27bb
00000030: 5795 153d d90a 4abd 90c5 0a3c 3942 b33c
00000040: 8eab 5ebc 7f6c 693c f2db edbc 3919 35bd
00000050: 3e52 09bd 7734 643d 26b3 f1b9 1575 7d3c
00000060: 2c21 5ebd b181 4dbd c744 1d3d c4b2 9dbc
00000070: 428c cdba d92c 31bc bd0f dbbc 2e68 78bc
00000080: 5895 d83c 4e7c 37bc c696 93bc f093 40bb
00000090: 3b4e 343d b6bd 52bc c03c 0bbd e697 443b
000000a0: e772 92bc a480 babc 49f7 2d3d bb8f 0cbc
000000b0: 99d3 bfbc 789c cd3b 2ba5 c6bc b1ad c33c
000000c0: f591 063d f763 e0bc f48f 2abd 4a5e da3c
000000d0: 14db d23b e5b3 30bd 0975 5fbd 375a e73c
000000e0: 1ca1 b2bc 884a 303c 870a 9e3c 3df2 deba
000000f0: aa0b 21bd 1965 d23c 8dc2 48bd d71e 22bd
00000100: 937f 01bd 71f0 f9bc 30db 43bd b95b 063c
00000110: 302f febc 1276 96bc cee1 0bbd 3801 74bc
00000120: 7143 bd3c 8640 b9bc 0a36 b0bc 0d55 243d
00000130: 39b7 0c3a b0cf 923c b942 c83c 2cf6 7a3d
00000140: 5433 8a3c 1a35 28bc 0705 213c 8416 7f3c
00000150: 402f 88bc 84b4 d939 256f b9bc 09b7 f6bc
00000160: dbef b9bc 4b27 9fba ce6c 183c f800 023d
00000170: 298d 20bc a65f 3abd 3414 ee3c 19bb 8e3c
00000180: abae 553d 3b4a 5d3c 93b3 26bc ce7f 89bd
00000190: daa4 dfbc f1b0 1dbd 0012 d73c 3326 343b
000001a0: 91f6 3ebd 766d cebc 5fad 05bc 3bbe adbd
000001b0: 7c64 a6bc 0ee3 9ebc 137f 10bc 8ceb 94bc
000001c0: a700 353d 675a ed3c 9463 d9bc 5374 0c3b
000001d0: 863b bbba 8ac0 303d bba4 8b3c a1f7 23bc
000001e0: a709 b63b cac4 28bd 31a6 2bbd 0659 81bb
000001f0: 5109 40bc 951e 82bd 899a a03c 4b65 9c38
00000200: bee1 583b d13e 11bb a8ef 2abc c238 ebbc
00000210: 73ca 633c f6b2 223d c6f2 24bd 01b5 edbc
00000220: a3fc 8dbc bdff bfbc f55d 0ebd f15b 8f3c
00000230: b1df 07bd 4581 9abb ddb9 df3c 9cf5 6abc
00000240: f128 8cbb 7df1 d1bb cda5 013d ebce 193c
00000250: dc13 bf3b e125 173d 7850 8dbc 2a77 1d3c
00000260: 31e3 bebc 119d 92bb 36d2 49bd 66c5 18bd
00000270: 8000 32bd f3d7 27bd 1ce4 2cbb e742 ec3b
00000280: 8aa6 60bc cca8 14bd 79a2 fa3c 2185 5e3d
00000290: db6c 3fbc 2b9a 8a3c fe80 ff3c 5178 0abd
000002a0: d3d2 d7bc ed57 0ebd 9067 103d 3a4b aebb
000002b0: 5149 22bc 0b0d 223c 7fbe fa3c 2bed 2a3d
000002c0: ca5c abbc 476b 6a3c b070 1abc 3d22 e5bc
000002d0: 07d8 603c b7ea 0abd f046 24bd 7190 87bc
000002e0: c812 40bd 84de 5c3c c802 43bd e039 883a
000002f0: f763 9ebc 0f47 353d 1c0f 313d d47c fe3c
00000300: 8524 593c 8eec 653d c701 0abd e355 0e3a
00000310: 7324 af3a 9732 d03c b712 0f3c 2712 64bc
00000320: fb11 193c e88e acbc 9687 a13c ae26 b13c
00000330: a342 9c3c cd59 06bc 22ef 73bc 9687 873c
00000340: 69fc 1b3d d262 a13c 06b3 ebbc 111f 38bd
00000350: faa6 1e3c 8699 97bb 30fe ad3c f5a2 c33c
00000360: ebf8 083d 1ad5 a0bc 9e64 193d 536c 223d
00000370: 0667 b3bc 08e3 ffbc 9de3 dbbc 015d 5abc
00000380: 1020 75bc c926 d33c 6199 aebc e257 503d
00000390: f7b7 90bc e2b3 ddbc 5ea7 c43c ffef f1bc
000003a0: db1c 65bc 44dc 133d 3b64 99bc 4d9a aabc
000003b0: 71d4 a43c 18b4 c1bc 6f17 78bc cea3 293d
000003c0: 1852 0fbb 2e46 bdbc 5da9 e53c 16d8 41bd
000003d0: 058d 37bc 20d9 04bd fcb2 41bd 93b0 e2bc
000003e0: c394 cf3c 236d 17bd 6b75 63bd 4ac8 4bbc
000003f0: e368 543a b551 5b3b b34a b1bc e5e7 70bc

block3.0.bias f4 [64]
0.012674086 -0.034446537 -0.03503471 0.02849637 0.0029015061 0.039541487 -0.02978809 0.032903098
0.011166696 -0.030065302 -0.033331405 0.015955724 -0.018016798 0.0025693052 0.041321438 -0.020296248
-0.031035552 0.010384534 -0.013867924 -0.03305337 -0.03549006 -0.020530364 -0.036809042 -0.041640095
-0.035844903 -0.025336688 -0.02380508 0.01295132 -0.02604133 0.031115055 0.008345937 0.0053521483
0.021455808 0.024865685 0.018549923 0.040445425 0.0030078772 0.024931198 -0.0030427868 -0.025370374
-0.03774592 -0.0027461255 -0.038347013 -0.0065561486 0.0034288322 0.0070573436 -0.014595671 -0.018323822
0.020329205 0.016064325 -0.01649922 0.040890798 -0.032461137 0.030651253 -0.009067284 -0.024608169
0.012109431 -0.023971511 0.012286897 -0.035087142 0.024843879 -0.031521194 -0.020401727 -0.032204363
00000000: f8a6 4f3c d017 0dbd 8e80 0fbd 3871 e93c
00000010: 3227 3e3b 41f6 213d 2706 f4bc 66c5 063d
00000020: 85f4 363c 824b f6bc 8386 08bd 94b5 823c
00000030: f797 93bc ca61 283b ab40 293d 5144 a6bc
00000040: 453e febc e423 2a3c 4a36 63bc f862 07bd
00000050: 065e 11bd 4b2f a8bc 14c5 16bd ce8e 2abd
00000060: 1bd2 12bd e38e cfbc df02 c3bc c631 543c
00000070: a154 d5bc 00e5 fe3c 66bd 083c 1361 af3b
00000080: 17c4 af3c 1fb3 cb3c 02f6 973c 1aaa 253d
00000090: ce1f 453b 833c cc3c 7e69 47bb 88d5 cfbc
000000a0: 779b 1abd 57f8 33bb c211 1dbd f6d4 d6bb
000000b0: 42b6 603b 4a41 e73b ae22 6fbc d71b 96bc
000000c0: 6f89 a63c 5599 833c 5f29 87bc 1c7d 273d
000000d0: f8f5 04bd 5618 fb3c f28e 14bc 1297 c9bc
000000e0: a366 463c e75f c4bc fb4e 493c 89b7 0fbd
000000f0: 6485 cb3c 5e1c 01bd 8621 a7bc b9e8 03bd

block3.1.weight f4 [64]
0.9638082 0.9978201 1.0173973 1.0038892 0.95679575 0.98955536 1.0158204 1.0005023
1.038213 0.9799664 0.9812718 0.9599979 0.9983006 0.992332 0.94305533 0.97782296
0.9677324 1.0037041 0.98758864 0.96444476 0.9617805 0.95421016 0.95034826 1.0288287
0.9616776 0.99546444 1.0140749 0.96115714 0.9864352 0.999336 1.0319386 1.017788
0.95302296 0.94268143 0.99751127 0.9672245 0.97221524 0.98637503 1.0324293 0.9306988
1.0098852 0.99115914 1.0171396 0.98247033 0.99630547 0.97766864 1.0175271 0.99274975
1.0169553 0.97728187 1.0091709 0.96823025 1.0043262 0.99010843 0.95285285 0.9889624
0.9811559 0.98361963 0.95982 1.0158889 0.9767362 1.0128444 1.0234251 1.009542
00000000: 22bc 763f 2371 7f3f 133a 823f 717f 803f
00000010: 91f0 743f 8053 7d3f 6706 823f 7610 803f
00000020: 2ae4 843f 14df 7a3f a134 7b3f 6cc2 753f
00000030: a190 7f3f 7809 7e3f 136c 713f 9b52 7a3f
00000040: 50bd 773f 6079 803f 9cd2 7c3f dae5 763f
00000050: 3f37 763f 1e47 743f 064a 733f a9b0 833f
00000060: 8130 763f c2d6 7e3f 35cd 813f 650e 763f
00000070: 0487 7c3f 7cd4 7f3f 9016 843f e146 823f
00000080: 50f9 733f 9253 713f e65c 7f3f 069c 773f
00000090: 19e3 783f 1383 7c3f a526 843f 4742 6e3f
000000a0: eb43 813f 9bbc 7d3f a131 823f 2d83 7b3f
000000b0: e00d 7f3f 7e48 7a3f 543e 823f d924 7e3f
000000c0: 972b 823f 252f 7a3f 832c 813f f0dd 773f
000000d0: c38d 803f bf77 7d3f 2aee 733f a42c 7d3f
000000e0: 082d 7b3f 7fce 7b3f c3b6 753f a608 823f
000000f0: 620b 7a3f e3a4 813f 98ff 823f ac38 813f

block3.1.bias f4 [64]
-0.04426561 -0.052770354 -0.11812031 -0.11696569 -0.093190394 -0.068102114 -0.025248088 -0.01445165
-0.0765558 -0.013726245 -0.031025898 -0.07176161 -0.057113655 -0.067056686 -0.06139645 -0.03004542
-0.054182746 -0.08458025 -0.039950345 -0.068163425 -0.06862221 -0.07179745 -0.09207126 -0.01552913
-0.10638234 -0.053359386 -0.13403742 -0.05099108 -0.0630948 -0.10630799 -0.06913117 -0.046534527
-0.043362375 -0.041454785 -0.0675591 -0.03573956 -0.16212624 -0.04833611 -0.11496974 -0.034292392
-0.074678674 -0.014723886 -0.033624806 -0.01724684 -0.02275379 -0.050527446 -0.09210625 -0.0053148195
0.012965178 -0.06513835 -0.07738459 -0.032167 -0.061203938 -0.0871907 -0.039654423 -0.052666385
-0.024068793 -0.0657688 -0.032640506 -0.044073634 -0.051208373 -0.07284434 -0.037676763 -0.13538131
00000000: db4f 35bd ba25 58bd 10e9 f1bd b58b efbd
00000010: 9bda bebd 1f79 8bbd 14d5 cebc 9dc6 6cbc
00000020: 4ac9 9cbd 0be4 60bc 062a febc c0f7 92bd
00000030: 02f0 69bd 0455 89bd d87a 7bbd d021 f6bc
00000040: baee 5dbd 6938 adbd f9a2 23bd 4499 8bbd
00000050: cd89 8cbd 8b0a 93bd db8f bcbd e46d 7ebc
00000060: fcde d9bd 5f8f 5abd 1b41 09be 06dc 50bd
00000070: d937 81bd 01b8 d9bd a594 8dbd fd9a 3ebd
00000080: bf9c 31bd 7ecc 29bd 6d5c 8abd a563 12bd
00000090: 6c04 26be 16fc 45bd 4175 ebbd 2e76 0cbd
000000a0: 22f1 98bd 743c 71bc 2aba 09bd 3f49 8dbc
000000b0: 2866 babc def5 4ebd 34a2 bcbd f027 aebb
000000c0: e66b 543c 4167 85bd d07b 9ebd 8bc1 03bd
000000d0: fbb0 7abd 0a91 b2bd ad6c 22bd b5b8 57bd
000000e0: eb2b c5bc cbb1 86bd 0db2 05bd 8e86 34bd
000000f0: dfbf 51bd 6a2f 95bd f352 1abd 66a1 0abe

block3.1.running_mean f4 [64]
-0.7281215 -1.0158583 -0.013081642 -0.92291373 -0.34251598 -0.67101365 -0.5202271 -0.8384727
0.5965447 0.49201527 0.019602522 -0.81233376 -0.09832407 -0.9641107 -0.6452183 -0.09033206
-0.5731012 -1.3308271 -0.39381814 -0.1612041 -0.39726338 -0.7025797 -0.5530882 -1.1572735
-0.4343137 -0.7338351 -0.45780078 -1.021818 0.090652555 -0.48613158 -0.43050572 -0.12679353
-0.36485913 -0.19336163 0.02176912 -1.0201578 -0.26508218 -1.5060741 -0.36235917 -0.9504209
0.122158095 -0.8135926 -1.3269945 0.7324338 -0.1868922 -0.6382399 -0.71025944 -0.651386
0.67450947 0.09269941 -0.24623068 -0.11389576 -0.3940267 -0.24385372 -0.25782996 -0.29462138
-0.5682945 -0.12648852 -0.7062272 -1.4038291 -1.1323942 -0.8796233 -0.7821961 -0.7031027
00000000: 2c66 3abf a507 82bf 6254 56bc 1344 6cbf
00000010: 415e afbe 8dc7 2bbf 9a2d 05bf 26a6 56bf
00000020: 27b7 183f 6de9 fb3e 7895 a03c 1bf5 4fbf
00000030: 215e c9bd f5cf 76bf 072d 25bf 0400 b9bd
00000040: c3b6 12bf 8b58 aabf 88a2 c9be b012 25be
00000050: 1b66 cbbe 43dc 33bf 3097 0dbf 8a21 94bf
00000060: 5e5e debe 9edc 3bbf dd64 eabe efca 82bf
00000070: 0ca8 b93d 3de6 f8be 3f6b dcbe 2ad6 01be
00000080: d1ce babe 9700 46be 2755 b23c 8894 82bf
00000090: dab8 87be 09c7 c0bf 2487 b9be c94e 73bf
000000a0: 062e fa3d 9b47 50bf f5da a9bf c880 3b3f
000000b0: ab60 3fbe b163 23bf 90d3 35bf 3cc1 26bf
000000c0: a7ac 2c3f 30d9 bd3d e523 7cbe 2e42 e9bd
000000d0: debd c9be cab4 79be 4a02 84be 9dd8 96be
000000e0: c07b 11bf 3586 01be 4ecb 34bf acb0 b3bf
000000f0: 4bf2 90bf fe2e 61bf 013e 48bf 8afe 33bf

block3.1.running_var f4 [64]
0.680762 0.47683737 0.17472045 0.20885223 0.36856312 0.40311822 0.22528231 0.42441472
0.1997289 0.40039882 0.28365424 0.5533098 0.26077896 0.7770456 0.50984836 0.469159
1.7096776 0.3989881 0.22711073 0.2058551 0.44337335 0.7877487 0.47161406 0.50306463
0.40123427 0.29632613 0.29985794 0.7061236 0.28153732 0.29445046 0.19134039 0.16443601
0.9564657 0.9301738 0.4147117 0.47395986 0.2912537 0.56873375 0.14062768 0.74747586
0.23271628 0.30013987 0.49413955 0.1969788 0.46076292 0.47675478 0.43506426 0.33559242
0.16185738 1.5568414 0.2905307 0.8659206 0.42349306 0.23548765 0.3475423 0.5830071
0.56239325 0.20713344 0.6381356 0.48565215 0.3047992 0.38184702 0.22568695 0.25017875
00000000: 6b46 2e3f 0724 f43e ebe9 323e 5cdd 553e
00000010: 4eb4 bc3e 8365 ce3e 68b0 663e e34c d93e
00000020: bc85 4c3e 1301 cd3e 213b 913e b6a5 0d3f
00000030: d284 853e 76ec 463f 6c85 023f 9c35 f03e
00000040: b7d6 da3f 2b48 cc3e b78f 683e aecb 523e
00000050: d501 e33e e6a9 493f 6677 f13e d8c8 003f
00000060: 946e cd3e 0fb8 973e fb86 993e 84c4 343f
00000070: a925 903e 36c2 963e bcee 433e ea61 283e
00000080: f0da 743f df1f 6e3f 1855 d43e deaa f23e
00000090: 341f 953e 8998 113f b400 103e 945a 3f3f
000000a0: 2d4d 6e3e efab 993e dcff fc3e d0b4 493e
000000b0: 1ee9 eb3e 3419 f43e bec0 de3e c5d2 ab3e
000000c0: f1bd 253e 9446 c73f 71c0 943e f9ac 5d3f
000000d0: 15d4 d83e ad23 713e 10f1 b13e f43f 153f
000000e0: 01f9 0f3f ca1a 543e db5c 233f 66a7 f83e
000000f0: a40e 9c3e 7481 c33e 7b1a 673e 6e17 803e

block4.0.weight f4 [64, 64, 3, 3]
-0.005892635 0.009023285 -0.01464155 -0.004186701 0.01755146 0.02254391 0.036647808 0.032259345
0.0019526306 -0.05152305 -0.010254262 -0.06414661 -0.0029774103 0.0017102818 -0.016077379 -0.050059117
-0.016937923 -0.04471658 0.056431476 0.03029093 0.027112678 0.032255553 0.031167662 0.04009297
0.044647284 0.028352987 0.029285679 0.022062287 0.008493501 -0.005548591 0.029952522 0.031001
-0.0011372453 0.0040634256 0.027673388 0.007154042 -0.0161227 -0.0067793424 -0.015128605 0.026862161
-0.0053739073 0.010671963 0.021716177 0.028690431 -0.0015752752 0.0027890343 0.037902743 0.05802751
0.019955885 0.011914177 0.029866857 -0.031533465 0.035625007 0.028595896 -0.010778618 -0.0017523189
-0.0075892373 -0.016590854 0.00023710579 0.0013635601 -0.014133822 0.011047101 -0.034947082 0.022140972
-0.009377961 0.015581513 0.035102498 0.014386585 -0.0134284645 0.0005559108 0.012747728 0.01358896
0.0028562527 -0.00680319 -0.015342789 0.010326386 -0.03686555 -0.017195905 0.0140412245 -0.012240577
0.014710147 -0.022549517 -0.006600031 -0.01863943 -0.0076913997 -0.017642966 -0.006480859 -0.0269243
0.005207585 -0.055171896 -0.0050166557 -0.0029759258 0.017738363 -0.033299748 0.0055422774 0.0036446266
-0.022249484 -0.0081536835 -0.0054770536 0.010087689 0.017884472 0.008192946 0.0265573 0.017699055
0.042624444 0.04853877 0.011453323 0.03422058 0.009172024 0.0034865297 0.024743542 -0.0011515851
0.018748479 -0.0001412323 0.018491754 0.016853934 0.019180905 0.018882329 0.0041116537 -0.021033736
0.029381573 -0.010648779 -0.02370928 -0.028564285 0.025300922 0.040694147 -0.031307586 0.0402881
0.036970034 -0.016808191 0.015513803 0.0047240406 0.002123743 0.045672003 0.02135161 -0.034921326
-0.037621625 -0.03116974 -0.039711382 -0.008982733 -0.022325132 -0.008115228 -0.04846882 -0.012498429
0.003914474 0.010746784 0.0007863735 -0.0052451985 -0.017125722 0.026896844 -0.059976336 -0.039482705
0.032352798 0.0142833665 -0.016966332 -0.021337472 -0.02040593 0.02280432 -0.01705128 -0.020506738
-0.02706498 -0.019781727 0.03385091 0.030265532 0.02964558 0.0036713094 0.024417214 0.020443652
0.0050841756 0.028779514 0.0227069 0.014202475 0.0028777046 -0.018632445 0.009132345 -0.023057608
-0.0124576995 0.026448747 -0.018536394 0.003252646 0.026198056 0.027282627 0.06118811 0.000920257
-0.012687431 0.008816863 0.03247366 0.02432742 0.026633874 0.003145649 0.045070853 0.03352324
0.031109339 0.021545952 0.010658877 -0.005634417 -0.0059855375 0.06050498 -0.021434167 -0.016051667
0.04058627 -0.02138309 -0.018143767 0.032138947 -0.0043787537 0.0042613703 0.04292873 -0.050423495
-0.017346174 0.0054441877 -0.017423084 0.020227382 -0.015449873 -0.03458806 0.019823384 -0.031262953
0.069162495 0.03506475 0.0327708 0.0011160515 0.016345171 0.044291414 0.045095224 0.008739911
0.017366154 -0.060194734 -0.042322353 -0.05889818 -0.007245848 0.01006829 -0.020035233 -0.0007994518
0.0088339355 -0.017286433 -0.013712211 -0.00087791425 -0.011318041 0.0042306706 -0.02542028 -0.004530172
-0.021898752 0.0011942113 0.010413957 -0.022268852 -0.011502335 -0.053049035 -0.04514661 0.0113235945
0.0043781456 -0.044822622 0.0027491222 -0.028861973 0.06417921 0.01714059 0.034571193 0.05693016
00000000: 0117 c1bb 66d6 133c 1de3 6fbc 9830 89bb
00000010: 14c8 8f3c 02ae b83c 031c 163d 6022 043d
00000020: 69ef ff3a d509 53bd 7e01 28bc 4c5f 83bd
00000030: a820 43bb 892b e03a b5b4 83bc ca0a 4dbd
00000040: 66c1 8abc bc28 37bd b124 673d af24 f83c
00000050: 681b de3c 661e 043d 5353 ff3c 8738 243d
00000060: 12e0 363d 8644 e83c 85e8 ef3c f8bb b43c
00000070: 5328 0b3c f4d0 b5bb fe5e f53c cff5 fd3c
00000080: 9f0f 95ba 7c26 853b 4db3 e23c 746c ea3b
00000090: c113 84bc 3f25 debb f8dd 77bc 090e dc3c
000000a0: 9a17 b0bb 75d9 2e3c 20e6 b13c 3208 eb3c
000000b0: 7779 ceba 3bc8 363b e83f 1b3d 41ae 6d3d
000000c0: 867a a33c ae33 433c 57ab f43c 3c29 01bd
000000d0: 87eb 113d f141 ea3c cd98 30bc 11ae e5ba
000000e0: 23af f8bb 8be9 87bc 9a9f 7839 7cb9 b23a
000000f0: 8c91 67bc e6fe 343c ac24 0fbd fc60 b53c
00000100: 05a6 19bc 9a49 7f3c a3c7 0f3d b6b5 6b3c
00000110: 1003 5cbc 8bba 113a d9db 503c 3ba4 5e3c
00000120: f82f 3b3b 4bed debb 5260 7bbc 0130 293c
00000130: 5500 17bd 6dde 8cbc 2a0d 663c b38c 48bc
00000140: d402 713c c4b9 b8bc 1345 d8bb b8b1 98bc
00000150: 2308 fcbb fb87 90bc 635d d4bb 5990 dcbc
00000160: 64a4 aa3b edfb 61bd c262 a4bb c007 43bb
00000170: 0b50 913c 5165 08bd fe9b b53b b0da 6e3b
00000180: 8d44 b6bc 0797 05bc db78 b3bb d646 253c
00000190: 7582 923c b53b 063c b28e d93c 9cfd 903c
000001a0: f896 2e3d 97d0 463d b8a6 3b3c e12a 0c3d
000001b0: 4246 163c 437e 643b f8b2 ca3c c9f0 96ba
000001c0: 6996 993c c217 14b9 057c 973c 4311 8a3c
000001d0: 4621 9d3c 1daf 9a3c 0dbb 863b f14e acbc
000001e0: a0b1 f03c 3778 2ebc f739 c2bc a6ff e9bc
000001f0: e143 cf3c e8ae 263d 623c 00bd 2205 253d
00000200: e46d 173d 55b1 89bc 9b2d 7e3c 20cc 9a3b
00000210: 7f2e 0b3b 9112 3b3d 92e9 ae3c aa09 0fbd
00000220: 2219 1abd af57 ffbc 67a8 22bd 502c 13bc
00000230: 32e3 b6bc bcf5 04bc 3e87 46bd 36c6 4cbc
00000240: fd44 803b 4713 303c a224 4e3a eadf abbb
00000250: 3e4b 8cbc c556 dc3c bfa9 75bd 9eb8 21bd
00000260: 5e84 043d c804 6a3c fafc 8abc eccb aebc
00000270: 562a a7bc 20d0 ba3c 20af 8bbc bffd a7bc
00000280: 60b7 ddbc 4a0d a2bc 40a7 0a3d 6cef f73c
00000290: 4adb f23c 5a9a 703b 9c06 c83c 7279 a73c
000002a0: 2899 a63b 04c3 eb3c d203 ba3c 7fb1 683c
000002b0: df97 3c3b 12a3 98bc d59f 153c 4fe3 bcbc
000002c0: 611b 4cbc 0bab d83c a3d9 97bc 582a 553b
000002d0: 4e9d d63c d17f df3c 62a0 7a3d 673d 713a
000002e0: f1de 4fbc 9b74 103c 1a03 053d 4c4a c73c
000002f0: 482f da3c 3c27 4e3b 379c 383d aa4f 093d
00000300: 03d9 fe3c 2381 b03c 92a2 2e3c eaa0 b8bb
00000310: 5422 c4bb 12d4 773d b596 afbc c97e 83bc
00000320: ca3d 263d 972b afbc 3da2 94bc 21a4 033d
00000330: a67b 8fbb f7a2 8b3b 09d6 2f3d de88 4ebd
00000340: 9019 8ebc 2865 b23b dbba 8ebc e5b3 a53c
00000350: 7721 7dbc 36ac 0dbd a664 a23c 950d 00bd
00000360: 11a5 8d3d 0ea0 0f3d ad3a 063d 7948 923a
00000370: 4fe6 853c ea6a 353d c5b5 383d d831 0f3c
00000380: 7743 8e3c c18e 76bd 345a 2dbd 383f 71bd
00000390: 946e edbb 78f5 243c ee20 a4bc 4d92 51ba
000003a0: 36bc 103c 479c 8dbc 2ea9 60bc d423 66ba
000003b0: 4e6f 39bc 70a1 8a3b 313e d0bc d671 94bb
000003c0: 0365 b3bc 1587 9c3a 4d9f 2a3c 2b6d b6bc
000003d0: 4a74 3cbc f249 59bd a7eb 38bd 9986 393c
000003e0: 8c76 8f3b ed97 37bd 9e2a 343b f26f ecbc
000003f0: 6470 833d 6c6a 8c3c 869a 0d3d 992f 693d

block4.0.bias f4 [64]
0.027912444 0.02455116 0.00440523 0.0304003 -0.0019011542 -0.0038741939 0.03499848 0.024744002
-0.029618142 0.008804537 -0.035370305 -0.04269996 -0.019901343 0.007779226 0.0012132105 0.0062154485
-0.035152905 0.028715767 0.030389175 -0.00937372 0.007379409 0.033332855 0.0067712003 0.035952
0.029457113 0.03900117 -0.016339954 -0.033297446 0.011610249 -0.011186234 -0.036103614 -0.019667368
0.035228338 -0.0043944954 0.020076463 -0.038769424 -0.0081116585 0.020833155 -0.0022138022 -0.018336803
0.003636561 -0.005383982 -0.004163227 0.01933959 0.0215759 0.022178171 0.023556417 0.027960343
0.010337564 0.037254725 0.0005912522 -0.013184687 0.030498704 0.03604132 0.0050425534 -0.01911385
0.011081903 0.01866933 0.019955128 0.035367765 -0.005247113 -0.026423786 -0.018665677 0.027352693
00000000: a3a8 e43c 841f c93c bf59 903b 0d0a f93c
00000010: 2630 f9ba 30e6 7dbb 915a 0f3d efb3 ca3c
00000020: bfa1 f2bc e840 103c 74e0 10bd 27e6 2ebd
00000030: 2408 a3bc e1e8 fe3b 9704 9f3a f6aa cb3b
00000040: 7efc 0fbd 543d eb3c b8f2 f83c 3b94 19bc
00000050: f8ce f13b 0888 083d f2e0 dd3b 6842 133d
00000060: 0b50 f13c b1bf 1f3d 5edb 85bc e762 08bd
00000070: ea38 3e3c 7746 37bc 62e1 13bd 761d a1bc
00000080: 974b 103d b3ff 8fbb 6577 a43c b0cc 1ebd
00000090: c3e6 04bc 4baa aa3c 7015 11bb 1037 96bc
000000a0: 5f53 6e3b 1d6c b0bb ae6b 88bb 0f6e 9e3c
000000b0: f1bf b03c ffae b53c 63f9 c03c 170d e53c
000000c0: e35e 293c 6998 183d 43fe 1a3a 9604 58bc
000000d0: 6bd8 f93c 10a0 133d 013c a53b a694 9cbc
000000e0: df90 353c 6cf0 983c f078 a33c cadd 103d
000000f0: f9ef abbb b276 d8bc c3e8 98bc c112 e03c
