results/old/basic/basic_1.pth (torch, 961549 bytes, 26 tensors)

block1.0.weight f4 [64, 1, 3, 3]
0	0xbe17b44e	-0.14814875
1	0xbe2f0a63	-0.17093806
2	0xbe74d8ed	-0.23910876
3	0x3dbcc092	0.09216417
4	0x3ea3d883	0.32001123
5	0xbde68b3c	-0.112570256
6	0xbd82f980	-0.063952446
7	0xbe8d04ce	-0.27542728
8	0x3e1fd968	0.15610278
9	0x3e1c0a17	0.15238224
10	0xbe7ea50e	-0.24867651
11	0x3e76bbce	0.2409508
12	0x3e669ce1	0.22520782
13	0xbe3fa235	-0.18714221
14	0x3e90e368	0.28298497
15	0xbea00f94	-0.31261885
16	0x3d8acbf9	0.06777186
17	0xbddb1747	-0.10697799
18	0x3e5b9d37	0.21446691
19	0x3ea99b4d	0.33126298
20	0xbe878e25	-0.26475635
21	0x3e4cad78	0.19988048
22	0xbe14eccc	-0.14543456
23	0x3ea9df75	0.33178297
24	0xbd95641b	-0.07294484
25	0xbe9faabe	-0.31184953
26	0x3d9295f7	0.0715751
27	0x3e3082b8	0.17237365
28	0x3e99dacb	0.30049738
29	0xbe7793c2	-0.24177459
30	0x3e519578	0.20467174
31	0x3deca72a	0.115553215
32	0x3d78f012	0.060775824
33	0x3e6044f9	0.21901311
34	0xbe27cf5d	-0.16387697
35	0x3e17bee2	0.1481891
36	0xbe0fcfe5	-0.14044149
37	0xbe865ce1	-0.26242736
38	0xbdf992e0	-0.12186217
39	0xbd376e70	-0.044783056
40	0x3ea8fe2a	0.33006412
41	0xbcf547fd	-0.029941553
42	0xbe741530	-0.23836207
43	0x3e7f9700	0.24959946
44	0xbe756ba3	-0.23966841
45	0x3deac880	0.114640236
46	0xbdda3b8f	-0.10655891
47	0x3e57986c	0.21054238
48	0xbd0e0429	-0.034671936
49	0x3e977a93	0.29585704
50	0xbdb45d5f	-0.088068716
51	0x3dfe1974	0.124071985
52	0x3e02c76e	0.12771389
53	0xbb95d7af	-0.0045728306
54	0xbe7fde99	-0.24987258
55	0x3ea3d6aa	0.31999713
56	0x3e3bf86e	0.18356487
57	0xbe768c51	-0.24076964
58	0xbe59ef92	-0.21282795
59	0xbdbc0aa2	-0.091817155
60	0xbe8c2b8e	-0.2737698
61	0x3da89d76	0.08233158
62	0xbd5b57e2	-0.05355061
63	0xbea6c8ed	-0.3257517
64	0xbea01de4	-0.31272805
65	0x3d494775	0.049140412
66	0x3ea705c0	0.32621574
67	0x3dab455b	0.08362838
68	0x3e515aa0	0.20444727
69	0xbe548cd4	-0.20756847
70	0x3e8ec408	0.27883935
71	0xbd93254c	-0.07184848
72	0xbd73ea48	-0.0595496
73	0x3e921446	0.28531092
74	0xbe061676	-0.13094506
75	0xbcd0e51f	-0.025499878
76	0x3dc916aa	0.09818776
77	0x3deac5c7	0.11463504
78	0xbdb3de29	-0.08782608
79	0xbd297277	-0.041368928
80	0x3e7797a7	0.24178945
81	0xbe33b6b8	-0.1755017
82	0xbea82187	-0.3283808
83	0xbe5d7cb0	-0.21629596
84	0x3e010954	0.12601215
85	0xbe2d1133	-0.16901092
86	0xbe9f26c6	-0.3108427
87	0x3de346d2	0.11097492
88	0xbe7eb3a0	-0.24873209
89	0x3e3ad6ef	0.18246053
90	0x3d172f5e	0.036910407
91	0x3e43fcf5	0.19139464
92	0xbd947f9f	-0.07250904
93	0xbe243e43	-0.16039376
94	0x3e3b2c65	0.18278654
95	0x3e544cec	0.20732468
96	0xbdf3439a	-0.11878128
97	0x3e4f94b4	0.2027157
98	0xbe845343	-0.25844774
99	0xbe1523d2	-0.14564446
100	0x3e321a94	0.17392951
101	0x3d240a6c	0.040049
102	0x3e25a5fa	0.16176596
103	0xbea67593	-0.32511577
104	0x3d99c33a	0.0750794
105	0x3e114671	0.14187028
106	0xbcd069a7	-0.025441004
107	0x3e9c759d	0.30558482
108	0xbc93ba5e	-0.018033203
109	0xbe0c6e0f	-0.13713859
110	0x3debb2b8	0.11508697
111	0xbe9f1c73	-0.31076393
112	0x3e52bbf9	0.20579518
113	0xbd48e2f3	-0.04904456
114	0xbd9908fa	-0.07472415
115	0xbd05bd5b	-0.032651287
116	0xbe856389	-0.26052502
117	0xbe112378	-0.14173687
118	0xbe96d6d5	-0.2946078
119	0xbe6dd8cc	-0.23227233
120	0xbbd5b8d8	-0.006522279
121	0xbdb30240	-0.087406635
122	0xbcd2c0a4	-0.025726624
123	0x3ea46893	0.32111034
124	0xbea1dffc	-0.316162
125	0xbac8c826	-0.0015318438
126	0x3caa54b1	0.020792337
127	0xbe85811a	-0.2607506
128	0x3e0e752b	0.13911884
129	0x3e4ee947	0.20206176
130	0xbdf1fa72	-0.11815347
131	0xbdb9cd4e	-0.09072362
132	0x3ea61a52	0.32441956
133	0x3e416f9a	0.18890229
134	0x3e2a91ce	0.16657183
135	0xbc223604	-0.009900574
136	0x3e85cd5b	0.26133236
137	0x3e6744ba	0.22584811
138	0x3e901c35	0.2814652
139	0xbe4989ba	-0.19681445
140	0x3e5222cd	0.20521088
141	0x3d4b404c	0.049621865
142	0xbe12c7e3	-0.14334063
143	0xbe1abba9	-0.15110649
144	0x3ea46e29	0.32115296
145	0x3dd94bef	0.10610186
146	0xbe98ad3a	-0.2981966
147	0xbde0eff2	-0.10983266
148	0xbe9bfa48	-0.30464387
149	0x3dfbd8a7	0.122971825
150	0xbe0ad775	-0.13558753
151	0x3d54eb43	0.051982176
152	0x3e5216e2	0.20516542
153	0x3d8720d1	0.06598056
154	0xbe1cb535	-0.153035
155	0xbe8f73e1	-0.28018096
156	0xbda42eb5	-0.08016721
157	0x3ded7c93	0.11596026
158	0x3e2747cf	0.16335987
159	0x3e94f5eb	0.2909387
160	0x3d80d655	0.062908806
161	0xbcc26887	-0.023731483
162	0x3cf315d0	0.029673487
163	0xbe4a14cf	-0.197345
164	0xbe7362ba	-0.2376813
165	0x3e103d70	0.14085937
166	0x3e675b62	0.22593454
167	0x3e9e8acf	0.30965278
168	0x3e4c3ddd	0.19945474
169	0xba8623f2	-0.0010234101
170	0x3e412b83	0.18864255
171	0x3db04459	0.08606786
172	0x3e111a56	0.14170203
173	0xbe23f512	-0.16011456
174	0xbe847c3b	-0.2587603
175	0xba0a7e11	-0.00052830676
176	0xbccee564	-0.025255866
177	0x3e9353a2	0.28774744
178	0xbdbb43da	-0.09143801
179	0x3e606ddd	0.2191691
180	0xbd26cf3a	-0.04072497
181	0x3e7d6468	0.24745333
182	0xbbd9f724	-0.006651776
183	0x3e57e949	0.21085085
184	0xbe60b6e4	-0.21944767
185	0xbe932da6	-0.28745764
186	0xbe1a689d	-0.1507897
187	0x3e6bdb13	0.23032789
188	0xbe9c78bb	-0.3056086
189	0x3e58b93c	0.21164411
190	0xbe71d177	-0.23615061
191	0xbe2a3bd5	-0.16624387
192	0x3e93a358	0.2883556
193	0x3bd7f6c6	0.006590697
194	0x3e823aaa	0.25435382
195	0x3e68f39b	0.22749178
196	0xbe9346f0	-0.2876506
197	0x3dbc6394	0.091986805
198	0x3d9e88e4	0.077409536
199	0xbe539417	-0.2066196
200	0xbe2bec7c	-0.1678943
201	0xbe4dfa31	-0.20114972
202	0x3e593533	0.212117
203	0xbe949b58	-0.29024768
204	0xbea9c5c0	-0.33158684
205	0xbd00f13a	-0.03148005
206	0x3e0c7a41	0.13718511
207	0x3e78edfc	0.24309534
208	0x3c5e3467	0.013562298
209	0xbd58f771	-0.052970354
210	0x3d271afa	0.04079721
211	0x3e4968a4	0.19668823
212	0x3e7e2441	0.24818517
213	0xbdcdbfc1	-0.1004634
214	0x3e20b6fd	0.15694804
215	0xb931675b	-0.00016918538
216	0xbe1f487e	-0.15554997
217	0x3d8a9b56	0.06767909
218	0xbe7a79f4	-0.24460584
219	0x3dd3f6a6	0.10349779
220	0x3da2bee2	0.07946564
221	0xbd542252	-0.051790543
222	0x3ea1c31d	0.31594172
223	0xbd6019aa	-0.054711975
224	0x3e917b8f	0.2841458
225	0x3e05f951	0.13083388
226	0x3e76b11f	0.24091004
227	0x3d390e68	0.045179754
228	0xbea7e851	-0.3279443
229	0x3e9c0470	0.30472136
230	0xbe0c7a51	-0.13718535
231	0x3d065545	0.032796163
232	0x3e249234	0.16071397
233	0xbe5d5baa	-0.21616998
234	0x3e83c750	0.25738
235	0x3c2b18d7	0.010442934
236	0x3e7919ba	0.2432622
237	0xbe060ec1	-0.13091566
238	0x3e359e3d	0.17736144
239	0x3e5ad134	0.21368867
240	0x3e42bbe5	0.19016989
241	0xbd94beab	-0.072629295
242	0x3e1d02f8	0.15333164
243	0x3dca8218	0.09888095
244	0xbe3afa20	-0.18259478
245	0x3e8ff0bd	0.28113356
246	0x3e3b639e	0.1829972
247	0x3da4a050	0.0803839
248	0xbe7fdd53	-0.24986772
249	0x3e879411	0.26480153
250	0xbeab43c4	-0.3345014
251	0x3e3fcbe9	0.1873013
252	0xbce80309	-0.02832176
253	0xbe72d64e	-0.23714563
254	0x3e66f7a1	0.225554
255	0xbe8b1829	-0.2716687

block1.0.bias f4 [64]
0	0x3e8396f1	0.25701097
1	0xbea19a1b	-0.31562886
2	0x3e04bf0f	0.12963508
3	0x3e0ca4bb	0.13734715
4	0xbe8984b1	-0.26859048
5	0xbc75f4c1	-0.015011967
6	0x3d7b8206	0.061403297
7	0xbe3f085c	-0.18655533
8	0x3d84062e	0.06446491
9	0xbdb4338a	-0.08798893
10	0xbe118c61	-0.14213707
11	0xbdf8eb49	-0.12154252
12	0xbe643490	-0.22285676
13	0xbe97596f	-0.2956042
14	0x3e6b912f	0.23004602
15	0x3ddb196c	0.10698208
16	0x3d2a14fc	0.04152392
17	0x3e71f84c	0.23629874
18	0xbe22a6a3	-0.1588388
19	0xbe7982a0	-0.24366236
20	0xbab205fb	-0.0013582105
21	0x3e1ac6fc	0.15114969
22	0x3dc7086c	0.09718403
23	0x3e88f38f	0.2674832
24	0xbc33c578	-0.010972373
25	0x3e710195	0.2353576
26	0xbd97e931	-0.074175246
27	0x3deeaa4e	0.11653577
28	0x3ddc156d	0.10746274
29	0x3e9d780d	0.30755654
30	0xbc4084f3	-0.011750448
31	0x3e197030	0.14984202
32	0xbe61e40b	-0.22059648
33	0x3e9ad9c6	0.30244273
34	0xbe3f9145	-0.1870776
35	0xbd9793bb	-0.07401224
36	0x3d1f6c73	0.038921785
37	0x3e5a621f	0.21326493
38	0xbe436c27	-0.19084226
39	0x3e9477cd	0.2899765
40	0xbe86e59e	-0.2634706
41	0xbe056f56	-0.13030753
42	0x3e8f24a8	0.27957654
43	0xbe1d7f95	-0.153807
44	0x3d79874f	0.060920056
45	0xbe8ca630	-0.2747054
46	0xbe8cb198	-0.27479243
47	0xbe931274	-0.28725016
48	0x3e0c2086	0.13684282
49	0x3e11cadf	0.14237545
50	0xbccb9deb	-0.024855575
51	0x3d4895f3	0.048971128
52	0x3ea6a8c9	0.32550648
53	0x3babb092	0.0052395547
54	0xbe3e8155	-0.18604024
55	0x3d7e2297	0.062044706
56	0xbe82476b	-0.25445113
57	0xbe6593dc	-0.22419685
58	0xbd30a5a9	-0.043126736
59	0xbe01c3db	-0.12672369
60	0x3ea3d843	0.32000932
61	0xbdb7cd03	-0.0897465
62	0x3e2818d3	0.1641572
63	0x3d43e6f2	0.04782767

block1.1.weight f4 [64]
0	0x3f7fd54b	0.99934834
1	0x3f7fb6bb	0.998882
2	0x3f7fa22e	0.9985684
3	0x3f8004bb	1.0001444
4	0x3f7fb754	0.9988911
5	0x3f801c2c	1.0008597
6	0x3f7fbd39	0.99898106
7	0x3f800590	1.0001698
8	0x3f7f8780	0.9981613
9	0x3f7fad9a	0.9987427
10	0x3f801d8a	1.0009015
11	0x3f800fb3	1.0004791
12	0x3f805671	1.002638
13	0x3f801f23	1.0009502
14	0x3f7feb34	0.99968266
15	0x3f800e6a	1.0004399
16	0x3f805d55	1.0028483
17	0x3f800301	1.0000917
18	0x3f7ffc45	0.9999431
19	0x3f7fcea6	0.99924695
20	0x3f7f6d32	0.99775994
21	0x3f7ff5e3	0.9998457
22	0x3f802348	1.0010767
23	0x3f7feef4	0.9997399
24	0x3f7f9ec5	0.9985164
25	0x3f7f89b0	0.9981947
26	0x3f7f9347	0.998341
27	0x3f803110	1.0014973
28	0x3f800d3c	1.0004039
29	0x3f7fe5aa	0.99959815
30	0x3f7fb0a7	0.99878925
31	0x3f7fdf18	0.9994979
32	0x3f7f91fa	0.9983212
33	0x3f802888	1.0012369
34	0x3f7f9f9b	0.99852914
35	0x3f7fca86	0.999184
36	0x3f7f2b78	0.99675703
37	0x3f802231	1.0010434
38	0x3f7ffbf2	0.99993813
39	0x3f7fbd12	0.99897873
40	0x3f8017bd	1.0007244
41	0x3f801475	1.0006243
42	0x3f80207b	1.0009912
43	0x3f8020cd	1.001001
44	0x3f8044fd	1.0021054
45	0x3f7fdf18	0.9994979
46	0x3f803e5a	1.0019028
47	0x3f7f9051	0.99829584
48	0x3f801a6b	1.0008062
49	0x3f8023ba	1.0010903
50	0x3f80406d	1.0019661
51	0x3f7f8f29	0.9982782
52	0x3f803ec3	1.0019153
53	0x3f8014c0	1.0006332
54	0x3f7fc35d	0.99907476
55	0x3f7fed64	0.99971604
56	0x3f7fe590	0.9995966
57	0x3f803855	1.0017191
58	0x3f801e1e	1.0009191
59	0x3f800da6	1.0004165
60	0x3f7fc166	0.9990448
61	0x3f802b07	1.0013131
62	0x3f8014a4	1.0006299
63	0x3f7ffde2	0.9999677

block1.1.bias f4 [64]
0	0x398a2b7b	0.00026353807
1	0xba95f106	-0.0011439628
2	0xb9025a82	-0.00012431483
3	0x3a350038	0.00069046346
4	0xb9f38aae	-0.00046451896
5	0x3a7dd520	0.0009682942
6	0xba145f30	-0.0005659936
7	0x3a6bc513	0.0008993905
8	0xbb39225e	-0.0028249244
9	0xbb375b39	-0.0027977957
10	0x3a8281c4	0.0009956886
11	0xba06a530	-0.0005136309
12	0x3b583c8c	0.0032995073
13	0x3b0039eb	0.0019565772
14	0x3af96f8d	0.0019030437
15	0x3ab5ea53	0.0013879038
16	0x3ab26abe	0.0013612134
17	0x3b5dd364	0.0033847922
18	0x39ef5295	0.0004564716
19	0x3a5e84fd	0.0008488445
20	0xbae05c59	-0.0017117365
21	0x39fc5845	0.00048130951
22	0x39e128c9	0.00042945732
23	0xb92dc3f6	-0.00016571567
24	0xb9f66618	-0.00046996842
25	0xbaf16061	-0.0018415564
26	0x39d6f601	0.00041000548
27	0xb980ee3f	-0.0002459157
28	0xb92f98ce	-0.00016746225
29	0xba361ba9	-0.00069468707
30	0xbb05aa84	-0.0020395825
31	0x3a829ce3	0.0009964969
32	0x3a924167	0.0011158407
33	0x3a9e7219	0.0012088447
34	0xba114ef0	-0.00055430736
35	0x38283305	4.0101837e-05
36	0xbb354595	-0.0027659882
37	0x3ab84b1d	0.0014060471
38	0xbac3f4b2	-0.0014950244
39	0xbadddfef	-0.0016927699
40	0xb886a05b	-6.4194865e-05
41	0x3af2918c	0.0018506511
42	0x3a6c0368	0.0009003193
43	0x3a0130fa	0.00049282575
44	0x3af60ae6	0.0018771559
45	0xb913b69a	-0.00014087037
46	0x3a92dcb4	0.0011204691
47	0xbb01fb81	-0.0019833746
48	0x399c0833	0.00029760748
49	0x3a33f093	0.00068641565
50	0x3a88688e	0.0010407136
51	0xba94fbdf	-0.0011366567
52	0x3ad57d54	0.0016287961
53	0x39f69039	0.0004702823
54	0x3a16d8f5	0.0005754375
55	0x3a1f4a86	0.00060764735
56	0xbb0e2450	-0.0021689124
57	0x3aaa8be8	0.0013011666
58	0x3b517c0f	0.0031964814
59	0xba4e1fa0	-0.0007862989
60	0x399d2693	0.00029974114
61	0x3b155e63	0.0022791855
62	0x390c5868	0.00013384374
63	0x395d72cb	0.00021118966

block1.1.running_mean f4 [64]
0	0x3d590cb4	0.05299063
1	0xbe872825	-0.26397815
2	0x3e96e591	0.2947202
3	0x3f044699	0.51670223
4	0xbeff535f	-0.49868295
5	0x3e90709b	0.2821091
6	0xbe417afc	-0.18894571
7	0xbe31d089	-0.17364706
8	0x3e7da468	0.24769747
9	0xbf10e594	-0.5660031
10	0xbd320db9	-0.04347012
11	0x3d84cc28	0.06484252
12	0xbef814b2	-0.4845329
13	0xbf28f5df	-0.6600017
14	0x3efe8847	0.49713346
15	0x3eb2ee7a	0.34947568
16	0x3cb8b08d	0.022545123
17	0x3ea0143f	0.31265447
18	0x3e1858e9	0.14877667
19	0xbe1aa0b1	-0.15100361
20	0xbe1aff8f	-0.1513655
21	0x3eaa89cf	0.33308265
22	0xbe8d16c8	-0.27556443
23	0x3f1d4e3e	0.61447513
24	0x3e19e9ef	0.15030645
25	0x3eafa573	0.34305915
26	0x3ed1bc37	0.4096391
27	0x3e89a6c0	0.26885033
28	0xbdc05139	-0.09390492
29	0xbdeac9b9	-0.11464257
30	0x3e924133	0.28565368
31	0xbd5e0f6c	-0.054213926
32	0xbe634c0b	-0.22196977
33	0x3e85730a	0.2606433
34	0x3ea77caa	0.327123
35	0x3d96ea14	0.073688656
36	0xbd349d9f	-0.04409563
37	0x3f16144c	0.5862472
38	0xbe09373b	-0.13399975
39	0x3dcff31c	0.10153791
40	0xbcd8b171	-0.026451798
41	0x3e76b6c3	0.24093156
42	0x3ea5655e	0.323039
43	0xbe95742b	-0.29190192
44	0xbb64472f	-0.0034832468
45	0xbebea6f4	-0.3723675
46	0xbf029647	-0.51010555
47	0xbf0963aa	-0.536677
48	0x3e6d1b3a	0.23154917
49	0x3df951be	0.12173794
50	0x3d86ca31	0.06581534
51	0xbde8c1be	-0.113650784
52	0x3e2d9907	0.16952907
53	0xbe81b288	-0.2533152
54	0xbc1ec1ac	-0.00968973
55	0x3eae6847	0.34063932
56	0xbe2172da	-0.15766469
57	0xbf0f32a9	-0.55936676
58	0xbe34bf86	-0.17651185
59	0xbd6b9241	-0.057512525
60	0x3eeb18c8	0.45917344
61	0x3ed0c40b	0.4077457
62	0x3f10cd2e	0.5656308
63	0x3de05528	0.10953742

block1.1.running_var f4 [64]
0	0x3c9130a1	0.017723383
1	0x3b0803fb	0.0020754326
2	0x3c4ed6ea	0.012624482
3	0x3d78be00	0.060728073
4	0x3cb84aae	0.022496548
5	0x3d172ac2	0.03690601
6	0x3cdf513c	0.027260415
7	0x3a70f0b0	0.00091911387
8	0x3c6a2c0f	0.014292731
9	0x3dc74a9b	0.09731027
10	0x3b966818	0.0045900457
11	0x3c72fbe9	0.014830568
12	0x3ceb6482	0.02873445
13	0x3d6892ca	0.056780614
14	0x3cfcc5cc	0.030856036
15	0x3cd44a29	0.025914269
16	0x39dd8c78	0.00042257062
17	0x3b59d58b	0.0033238854
18	0x3d24ef21	0.040267114
19	0x3b82fd82	0.0039975056
20	0x3c25d7d1	0.010122255
21	0x3c6f0a3b	0.0145898415
22	0x3d6e4e2a	0.05818001
23	0x3d4f60f6	0.05062958
24	0x3c458bf4	0.012057293
25	0x3bb38298	0.0054782145
26	0x3dc8e124	0.09808567
27	0x3c2445cf	0.010026409
28	0x3c8dfe79	0.017333256
29	0x3d984fd2	0.074370995
30	0x3d1bf370	0.038073957
31	0x3c92bd17	0.01791243
32	0x3a9e3fe0	0.001207348
33	0x3aac83d4	0.0013161846
34	0x3de284a3	0.11060455
35	0x3c2b1855	0.010442813
36	0x3b86c700	0.004113078
37	0x3d7023c5	0.058627862
38	0x3b177260	0.0023108944
39	0x3c8d0ce8	0.017218068
40	0x3cc313b5	0.023813108
41	0x3d6d6033	0.05795307
42	0x3b5adf32	0.0033397195
43	0x3c14cf48	0.009082623
44	0x3aff5369	0.0019479814
45	0x3baee421	0.0053372537
46	0x3cc594eb	0.024118861
47	0x3cd632c7	0.02614726
48	0x3b8a07f2	0.004212373
49	0x3a975259	0.0011544927
50	0x3b78777b	0.0037913013
51	0x3c383e33	0.011245298
52	0x3c303b16	0.010756275
53	0x3ced6dce	0.028983023
54	0x3c652151	0.013984994
55	0x3d05a3d0	0.032626927
56	0x3bc2c974	0.0059444252
57	0x3d441bcd	0.047878075
58	0x3c1eb52b	0.0096867485
59	0x3b949a46	0.0045349924
60	0x3c145e28	0.009055652
61	0x3dd3ecb9	0.10347886
62	0x3d89cf1a	0.067289546
63	0x3b1c51ae	0.0023852396

block2.0.weight f4 [64, 64, 3, 3]
0	0x3cba6791	0.022754462
1	0xbd25ecdb	-0.040509086
2	0x3cf4f18a	0.029900331
3	0x3ca677a8	0.020320728
4	0x3c89c433	0.016817188
5	0x3cdb6a0f	0.026783971
6	0xbc12411d	-0.008926657
7	0xbc80b8ed	-0.01571318
8	0x39d4befc	0.00040578085
9	0xbc9ef3d6	-0.01940338
10	0xbd241ba3	-0.04006542
11	0x3cf0d976	0.029400568
12	0x39589887	0.00020656186
13	0xbc8d9730	-0.017284006
14	0xbcd9a2fd	-0.026566977
15	0xbd0c69c4	-0.034280553
16	0x3bed764c	0.007246768
17	0xbbcebd64	-0.006309198
18	0xbd14c174	-0.036317304
19	0x3bda405e	0.006660505
20	0xbcaac437	-0.020845516
21	0xbcdf04e0	-0.027224004
22	0x3c09ff3e	0.008422671
23	0x3ad3447b	0.0016118431
24	0xbcf2ca77	-0.029637558
25	0xbbeabe41	-0.0071637933
26	0xbc8de443	-0.017320758
27	0x3d110d6c	0.03541319
28	0xbd08fdca	-0.033445157
29	0xbc98d4d7	-0.018656177
30	0xbcb1becd	-0.021697426
31	0x3cbe4ff1	0.023231478
32	0xbbdee66b	-0.0068023703
33	0x3ae339ff	0.001733601
34	0xbd0690be	-0.03285288
35	0x3d01c149	0.03167847
36	0xbd190d69	-0.037366305
37	0xbcbdbc6c	-0.023161136
38	0xbd1a2986	-0.037637256
39	0xbcbaf959	-0.022823976
40	0x3c885113	0.016640222
41	0x3c13f801	0.009031297
42	0xbc48260d	-0.012216103
43	0x3c6a74dd	0.014310089
44	0x3c130a53	0.008974629
45	0x3bbc10b3	0.0057392954
46	0x3c10e05f	0.008842557
47	0xbd1dcd93	-0.03852613
48	0x3cde1472	0.027109358
49	0x3d0b98f3	0.03408141
50	0x3d0fb178	0.035081357
51	0x3d0185ac	0.03162162
52	0xbcdf9285	-0.027291546
53	0xbb956938	-0.004559662
54	0x3c5b1986	0.0133727845
55	0xbd24cc5f	-0.040233966
56	0x3c384b86	0.011248475
57	0xbb3fd06d	-0.0029268519
58	0xbc49fcee	-0.01232837
59	0xbc24962a	-0.0100455675
60	0xbd1287f5	-0.03577419
61	0x3d164775	0.03668924
62	0xbd1684d1	-0.036747757
63	0x3d050f5e	0.03248536
64	0xbd14e08c	-0.036346957
65	0x3d0f0948	0.03492096
66	0x3c615f90	0.013755694
67	0x3ba17041	0.004926712
68	0x3bef06c2	0.0072945068
69	0x3c0ec0a8	0.008712925
70	0x3a7c777e	0.0009630843
71	0xbb9fcc80	-0.004876673
72	0xbc144a48	-0.009050913
73	0xbc812218	-0.015763327
74	0x3d13dba6	0.036098145
75	0x3d16bfb2	0.03680391
76	0x3ce9280d	0.02846148
77	0xbbe7b67e	-0.0070713153
78	0x3ccb34f7	0.024805529
79	0x3c083f62	0.008315893
80	0x3d220341	0.039553884
81	0xbd34978f	-0.04408985
82	0xbcd6d396	-0.026223939
83	0x3c457384	0.012051467
84	0xbcaaf74d	-0.020869875
85	0xbd1b7b81	-0.03795958
86	0x3cb5de3a	0.022200692
87	0xbcb14071	-0.021637173
88	0xbbca527a	-0.0061743828
89	0xbb276d2c	-0.002554725
90	0xbd198182	-0.037477024
91	0xbc18a62e	-0.009316964
92	0x3d21e6c3	0.039526712
93	0x3bdcfd4a	0.0067440616
94	0x3d21ae3a	0.039472796
95	0x3d258b58	0.04041609
96	0x3c4d4160	0.012527794
97	0x3cb1d21f	0.021706639
98	0x3cefc8bc	0.029270522
99	0x3c59ae43	0.013286176
100	0xbc2097f8	-0.009801857
101	0xbb24317f	-0.0025053916
102	0xbb7a4d72	-0.0038193134
103	0xbc814d79	-0.015784012
104	0x3b6018ff	0.0034194586
105	0x3d214799	0.03937492
106	0xbcaf30c2	-0.021385554
107	0x3cb1402e	0.021637049
108	0xbc5382b1	-0.012909577
109	0x3d1bdb40	0.03805089
110	0xbd0a9395	-0.03383215
111	0x3cb12c46	0.021627557
112	0x3cf937c9	0.030422108
113	0xbcdb7b90	-0.026792318
114	0xbc805faf	-0.015670625
115	0x3cc40448	0.023927823
116	0x3c321f14	0.010871667
117	0xbcbd34be	-0.023096438
118	0xbd18ec29	-0.037334595
119	0x38788801	5.925447e-05
120	0x37073a4a	8.0601985e-06
121	0x3ad9eb96	0.0016625996
122	0xbace4e33	-0.0015739858
123	0x3cc90120	0.02453667
124	0x3a13c816	0.000563742
125	0xbccb7f4d	-0.024840975
126	0x3c7d8927	0.015474594
127	0x3d103ead	0.035216022
128	0xbcf2788e	-0.0295985
129	0x3b1a4798	0.0023541208
130	0x3ca10d6c	0.01965972
131	0xbcdd1191	-0.026985915
132	0xbb850623	-0.0040595694
133	0x3c9d3666	0.019190978
134	0x3c12428b	0.008926998
135	0xbd21c0bb	-0.039490443
136	0xba6a53b0	-0.0008938862
137	0xbbe284ac	-0.0069127884
138	0xbb744bc8	-0.0037276614
139	0x3baad303	0.005213143
140	0x3d10ecab	0.035381954
141	0xbd23cb4d	-0.039988805
142	0x3cd866cf	0.02641621
143	0xbc514e63	-0.0127750365
144	0x3c3e6f7b	0.011623259
145	0xbc1113d8	-0.008854829
146	0x3c76486a	0.015031913
147	0xbd0572ed	-0.032580305
148	0xbcf5cd31	-0.03000507
149	0x3b28a941	0.0025735649
150	0x3d2316dc	0.039816722
151	0x39a5d7cb	0.0003163203
152	0x3c00d4b3	0.007863211
153	0x3c9a6f4e	0.018851902
154	0xbd204291	-0.039125983
155	0xbb3d3b3b	-0.0028874415
156	0xbcd42422	-0.025896136
157	0x3ce7b26f	0.028283326
158	0x3bb3e841	0.0054903333
159	0xbc9ee069	-0.019394116
160	0x3d1eea5b	0.038797718
161	0xbcf3dfff	-0.029769896
162	0xbd01ad39	-0.03165934
163	0x3d0a340e	0.03374105
164	0xbce5df1a	-0.028060485
165	0x3c4c032e	0.01245193
166	0x3bb7a649	0.0056045395
167	0x3d162491	0.036655966
168	0xbcdcdb41	-0.026960017
169	0x3cbb68f3	0.022877192
170	0x3c9144f1	0.01773307
171	0x3c9bbc63	0.019010728
172	0xbc9ab8a9	-0.018886881
173	0xbcfcb241	-0.030846717
174	0xbc4061f4	-0.011742104
175	0xbc46dffb	-0.012138362
176	0xbcf37cf9	-0.029722678
177	0xbc5b69eb	-0.013391952
178	0xbcc09001	-0.023506166
179	0xbd0cb6fd	-0.0343542
180	0xb9a5f6a1	-0.00031655005
181	0xbcf151db	-0.029457977
182	0x3c416086	0.011802798
183	0xbba2f6db	-0.004973275
184	0xbce0a2bf	-0.027421353
185	0x3c816203	0.015793806
186	0xbce1b0c2	-0.027550105
187	0x3c830973	0.015995717
188	0xbcdc25b1	-0.026873441
189	0xbd222fba	-0.039596297
190	0xbcc2600c	-0.02372744
191	0x3d18a9e8	0.03727141
192	0x3cb9a94e	0.022663739
193	0xbb7128ab	-0.0036797922
194	0x3a12ed26	0.0005604796
195	0x3cb6ba75	0.022305707
196	0x3ca5bba8	0.020231083
197	0xbc8afe06	-0.016966831
198	0x3c69249f	0.014229923
199	0x3bc584fa	0.006027815
200	0x3cbc5ac2	0.022992495
201	0xbd2d4688	-0.042303592
202	0xbd2a27e7	-0.04154196
203	0x3c9a0077	0.01879905
204	0x3d14804c	0.036255166
205	0xbd284585	-0.041081924
206	0xbb4743f3	-0.003040549
207	0x3cc81172	0.024422381
208	0x3d0a06f8	0.033698052
209	0xbcdb5edd	-0.026778633
210	0xbc8ae701	-0.016955854
211	0x3c452f78	0.012035243
212	0x3c8b7a9a	0.017026234
213	0x3d01739e	0.0316044
214	0x3c515a0d	0.012777817
215	0xbbf7a31f	-0.0075572873
216	0xbcfbdde2	-0.03074545
217	0x3c193700	0.009351492
218	0xbc875336	-0.01651917
219	0xbd0eadb2	-0.034833618
220	0x3d18662e	0.03720682
221	0x3b9e3ac0	0.004828781
222	0xbb5ab06c	-0.0033369316
223	0x3ce9b257	0.028527422
224	0x3c601c5f	0.013678639
225	0x3cbc6c36	0.023000818
226	0x3c9149c6	0.017735373
227	0x3b7a8f7b	0.0038232494
228	0x3cd208a2	0.025638882
229	0xbd19bf8d	-0.037536193
230	0xbc7d83b4	-0.015473295
231	0xbcf0b09c	-0.029381089
232	0xbd11a960	-0.03556192
233	0xbd17cb91	-0.03705937
234	0xbca3f831	-0.020015808
235	0xbcb32e44	-0.021872647
236	0x3c9dfc4f	0.01928535
237	0x3caed60e	0.021342304
238	0x3ce693a4	0.028146572
239	0xbd118bfb	-0.035533886
240	0x3d1ffafd	0.03905772
241	0xbc8d6256	-0.017258804
242	0xbc9f0a3b	-0.019414058
243	0xbd06c12b	-0.032899063
244	0xbc874c4c	-0.016515873
245	0x3d2f45aa	0.042791046
246	0xb96137ef	-0.00021478509
247	0x3d23d9b3	0.040002536
248	0x3ce3ac2d	0.02779206
249	0x3d31a5c6	0.043370984
250	0x3c2d9447	0.010594434
251	0x3b897f57	0.0041960883
252	0xbcaa83c6	-0.020814788
253	0xbbc62dd1	-0.006047942
254	0xbc6ba2a3	-0.014382037
255	0xbcd5a72a	-0.026080687

block2.0.bias f4 [64]
0	0x3cc80a1d	0.024418885
1	0xbc594879	-0.013261908
2	0x3b79d0fd	0.0038118951
3	0xbceb0386	-0.028688204
4	0xbcd43a24	-0.02590663
5	0x3c90eb84	0.017690428
6	0xbcdb9e8e	-0.026809003
7	0x3c373c81	0.011183859
8	0x3cded9ab	0.027203402
9	0xbc749884	-0.014928941
10	0x3cf6ee24	0.030142851
11	0xbc102832	-0.008798646
12	0x3c723184	0.014782313
13	0x3c4dc9f1	0.012560354
14	0xbab47144	-0.0013766666
15	0x3cc8c2f1	0.024507018
16	0xbcf60d4d	-0.03003564
17	0xbd175c8c	-0.036953494
18	0x3ca8c108	0.020599857
19	0xbc459122	-0.012058528
20	0xbba29a6a	-0.0049622552
21	0x3cdd9462	0.027048294
22	0x3d0cf431	0.034412567
23	0x3d033534	0.03203316
24	0xbcbd1d1e	-0.023085173
25	0xbc6bcea5	-0.01439253
26	0x3c5f3cb4	0.013625313
27	0xbc83e90f	-0.016102342
28	0xbc840bc0	-0.016118884
29	0xbc080129	-0.008301058
30	0x3cf2edfb	0.029654494
31	0xbc3e4892	-0.011613982
32	0xbcf05c86	-0.029340994
33	0x3ca3f634	0.02001486
34	0x3cb53855	0.022121588
35	0xbae0b0e2	-0.0017142559
36	0x3ccdcf9c	0.02512341
37	0xbce896c8	-0.02839221
38	0xbc37729d	-0.0111967595
39	0xbd28aed4	-0.041182354
40	0xba37eb66	-0.0007015973
41	0xbcb6aba3	-0.02229864
42	0x3ce3a267	0.0277874
43	0x3cec3684	0.028834589
44	0x3d00219c	0.031282052
45	0x3d09ae5f	0.03361356
46	0x3cfdc01b	0.030975392
47	0xbd052313	-0.032504153
48	0xbc13e5e7	-0.009026981
49	0xbc8dbca2	-0.017301861
50	0x3d10ec08	0.035381347
51	0xbbbb965e	-0.0057247123
52	0xbc8aa6bc	-0.016925208
53	0x3c9240d9	0.017853187
54	0xbce72efa	-0.028220642
55	0xbd0c54ad	-0.03426044
56	0x3d291d37	0.041287627
57	0x3d00c6bd	0.03143953
58	0xbd1b9b89	-0.037990127
59	0x3c38202d	0.01123814
60	0x3b748b56	0.0037314496
61	0x3bd4d9b9	0.006495681
62	0x3c9e6c7c	0.019338839
63	0x3d19c379	0.037539933

block2.1.weight f4 [64]
0	0x3f7f9e17	0.998506
1	0x3f7faab5	0.99869853
2	0x3f801fe0	1.0009727
3	0x3f800fef	1.0004863
4	0x3f800ed1	1.0004522
5	0x3f801f26	1.0009506
6	0x3f7f6f15	0.9977887
7	0x3f7f78cf	0.99793714
8	0x3f7fec53	0.9996998
9	0x3f801916	1.0007656
10	0x3f8005d5	1.000178
11	0x3f80267c	1.0011744
12	0x3f7fa38a	0.99858916
13	0x3f7fd8e0	0.999403
14	0x3f7fbe8d	0.9990013
15	0x3f800415	1.0001246
16	0x3f7fb8cf	0.9989137
17	0x3f7f9166	0.99831235
18	0x3f7f7086	0.9978107
19	0x3f801298	1.0005674
20	0x3f7fcc44	0.9992106
21	0x3f7fcfc6	0.9992641
22	0x3f801147	1.0005273
23	0x3f800dc1	1.0004197
24	0x3f7fc118	0.9990401
25	0x3f7fb2c4	0.9988215
26	0x3f800aed	1.0003334
27	0x3f800956	1.0002849
28	0x3f7f801e	0.99804866
29	0x3f7fb702	0.9988862
30	0x3f7fa342	0.99858487
31	0x3f800bff	1.0003661
32	0x3f7fc264	0.9990599
33	0x3f805868	1.002698
34	0x3f7fa601	0.99862677
35	0x3f7fa396	0.9985899
36	0x3f7fc278	0.9990611
37	0x3f80363e	1.0016553
38	0x3f7fe0e9	0.9995256
39	0x3f7fa1cb	0.9985625
40	0x3f800818	1.000247
41	0x3f803d0e	1.0018632
42	0x3f7fa6ab	0.9986369
43	0x3f7fd7c3	0.999386
44	0x3f805cba	1.0028298
45	0x3f7f7f0b	0.9980323
46	0x3f7fd676	0.99936616
47	0x3f7fea8d	0.9996727
48	0x3f802cdb	1.0013689
49	0x3f7ff278	0.9997935
50	0x3f80456a	1.0021183
51	0x3f7ff6b4	0.99985814
52	0x3f8022f6	1.0010669
53	0x3f808277	1.0039815
54	0x3f7f90e5	0.99830467
55	0x3f805dd3	1.0028633
56	0x3f800eed	1.0004555
57	0x3f7f861a	0.99814
58	0x3f803ea1	1.0019113
59	0x3f7fa940	0.9986763
60	0x3f7fee37	0.9997286
61	0x3f807154	1.0034585
62	0x3f804e07	1.0023812
63	0x3f7fa5ce	0.9986237

block2.1.bias f4 [64]
0	0x39c448b2	0.00037438195
1	0xbac17325	-0.0014759047
2	0x39f1855b	0.0004606646
3	0xbb550595	-0.0032504548
4	0xbafbcca3	-0.0019210767
5	0x3b04a0ce	0.0020237449
6	0xb9cfab94	-0.00039609952
7	0xba12266a	-0.0005575182
8	0xba55b21f	-0.0008151847
9	0x3a876364	0.0010329303
10	0xbad0fbb0	-0.0015944149
11	0x37ce7899	2.4613271e-05
12	0xb9e2ff67	-0.0004329637
13	0x3ade7f5d	0.0016975213
14	0xb92fb8a5	-0.00016758086
15	0x3877f907	5.9121314e-05
16	0x39a6334e	0.00031700212
17	0xbafd9508	-0.0019346783
18	0xba57fe87	-0.00082395267
19	0x3a67ef85	0.0008847642
20	0x3a0bcf61	0.0005333331
21	0x3860ee49	5.3627682e-05
22	0x38e31681	0.00010828395
23	0x3aa49399	0.0012556195
24	0xba1966fc	-0.00058518327
25	0x3b09068b	0.002090844
26	0xbb596a70	-0.0033175014
27	0x398174ff	0.00024691966
28	0xbab4bd95	-0.001378941
29	0x395623e6	0.00020422004
30	0xba842823	-0.0010082762
31	0x39265a06	0.0001586453
32	0xbabd1ac8	-0.0014427537
33	0x3a9cf0a4	0.0011973572
34	0xbabaff7f	-0.0014266818
35	0xb9bfd7df	-0.00036591195
36	0x3932ef31	0.00017064509
37	0x3b18c000	0.00233078
38	0xb9d53657	-0.00040667012
39	0xbb05303e	-0.0020322944
40	0xb93ba50f	-0.00017895199
41	0x3ada754f	0.0016667041
42	0xba8d355a	-0.0010773346
43	0x38cfedca	9.914821e-05
44	0x3af75d97	0.0018872496
45	0xbb0126f2	-0.001970705
46	0xb91a88be	-0.00014737525
47	0x3a9348eb	0.0011236941
48	0x3ac55488	0.00150551
49	0xb995c35a	-0.00028565043
50	0xba7f6b73	-0.0009743489
51	0xbaf55b79	-0.0018719278
52	0x3af10d7b	0.0018390858
53	0x3b3ed768	0.0029120091
54	0xbaa8bd37	-0.0012873773
55	0x3b191765	0.0023359891
56	0x3abf2449	0.0014582957
57	0xbac239ba	-0.0014818229
58	0x3abc90da	0.0014386431
59	0xb94a82ce	-0.0001931295
60	0xbaf58e06	-0.0018734343
61	0x3b4706f3	0.0030369132
62	0x3b0d30ab	0.00215439
63	0xba3e49be	-0.0007258913

block2.1.running_mean f4 [64]
0	0xbe886836	-0.26642007
1	0xbe909b2c	-0.28243387
2	0xbe7818d7	-0.24228226
3	0x3d484cdf	0.048901435
4	0xbd717a3a	-0.058954455
5	0xbeac9cb6	-0.3371331
6	0xbd4c2d3c	-0.049847826
7	0x3ed5e3ba	0.41775304
8	0x3ed864da	0.42264444
9	0xbe277ee5	-0.16357
10	0xbea2259c	-0.3166932
11	0xbbf4971a	-0.007464302
12	0xbd82a0bb	-0.06378313
13	0xbeba58e2	-0.36395937
14	0x3f0a6e9c	0.54075027
15	0xbd5bc00e	-0.053649954
16	0xbf070cad	-0.52753717
17	0x3e959845	0.29217735
18	0xbea60acb	-0.3243011
19	0xbdc133f6	-0.09433739
20	0xbf72b257	-0.94803375
21	0x3e8b21ba	0.2717417
22	0xbeb3389d	-0.3500413
23	0x3e0c78f6	0.13718018
24	0xbe2c172b	-0.16805713
25	0xbf392415	-0.7232068
26	0x3df071ae	0.11740433
27	0xbef82b41	-0.484705
28	0xbc9cda3b	-0.01914703
29	0x3e90e246	0.28297633
30	0xbdb30166	-0.08740501
31	0xbe92cb1d	-0.28670588
32	0x3e9cad07	0.3060076
33	0x3f2bfe13	0.6718456
34	0xbe9345f5	-0.2876431
35	0x3ea21fd7	0.31664917
36	0xbbba1a6b	-0.005679419
37	0xbe6d69f7	-0.23184954
38	0x3d8f3e3e	0.06994294
39	0x3bc74754	0.006081501
40	0x3eabd97c	0.33564365
41	0x3ec90956	0.39264935
42	0xbec1ef18	-0.37877727
43	0xbe2dce48	-0.16973221
44	0x3e846850	0.25860834
45	0xbec9d2d3	-0.3941866
46	0xbec88840	-0.3916645
47	0xbe325c39	-0.17417993
48	0xbd912ccf	-0.07088625
49	0x3e354d74	0.17705327
50	0x3e86bf42	0.26317793
51	0xbe04a5b3	-0.12953834
52	0xbe143a22	-0.14475301
53	0x3e2a444a	0.16627613
54	0xbe247177	-0.16058908
55	0x3e140ee2	0.14458802
56	0xbeb8094c	-0.35944593
57	0xbeaf15ec	-0.34196413
58	0xbd4e27a5	-0.050330777
59	0x3daea9a7	0.08528452
60	0x3f0726b2	0.5279342
61	0x3efa90bc	0.4893855
62	0x3eecdefe	0.4626388
63	0xbe515a8e	-0.204447

block2.1.running_var f4 [64]
0	0x3dccdce9	0.10003073
1	0x3e6cb9cb	0.2311775
2	0x3e2181b6	0.15772137
3	0x3d45fd63	0.04833735
4	0x3e176ca7	0.14787541
5	0x3d82a46f	0.063790195
6	0x3f3a6b28	0.7281976
7	0x3e8cc07d	0.27490607
8	0x3dc1cbfe	0.094627365
9	0x3ea87333	0.3290039
10	0x3dc83481	0.09775639
11	0x3e943de4	0.2895347
12	0x3e875838	0.26434493
13	0x3dde2a22	0.1084788
14	0x3e336ca9	0.1752192
15	0x3e929a17	0.28633186
16	0x3f0cda28	0.5502038
17	0x3e24dfeb	0.16101043
18	0x3e3915ed	0.1807477
19	0x3eba0679	0.36333063
20	0x3f2f1d5a	0.6840416
21	0x3f120839	0.57043797
22	0x3d99af61	0.07504154
23	0x3dea1fda	0.114318565
24	0x3ebf8c91	0.3741193
25	0x3e8212e5	0.2540504
26	0x3d35c51d	0.044377435
27	0x3dd861c7	0.105655245
28	0x3e35f1e6	0.17768058
29	0x3e1908fe	0.14944836
30	0x3e32dfc4	0.17468172
31	0x3dbc1e73	0.09185495
32	0x3f00422f	0.5010099
33	0x3e6825c3	0.22670655
34	0x3e436ea5	0.19085176
35	0x3e5df8ac	0.21676892
36	0x3dd660bf	0.104676716
37	0x3db20845	0.086929835
38	0x3d8bca4e	0.06825696
39	0x3d894061	0.067017324
40	0x3e1827b1	0.14858891
41	0x3eb061a7	0.34449503
42	0x3ed61782	0.4181481
43	0x3e7626e8	0.24038279
44	0x3d94c430	0.07263982
45	0x3ec729a9	0.38898972
46	0x3e6d0572	0.23146608
47	0x3e4823d4	0.19544917
48	0x3d3a0ba1	0.045421246
49	0x3e0fdca0	0.14049006
50	0x3d5b1144	0.053483263
51	0x3e0ca78f	0.13735794
52	0x3e489d46	0.19591245
53	0x3d576d50	0.052594483
54	0x3e109c98	0.14122236
55	0x3d80691b	0.06270047
56	0x3e610f41	0.21978475
57	0x3d98ed04	0.07467082
58	0x3d405e8a	0.04696516
59	0x3f06fa06	0.52725255
60	0x3e8a66da	0.27031595
61	0x3f57bade	0.8426951
62	0x3e8f60a1	0.2800341
63	0x3d8b4a5f	0.068012945

block3.0.weight f4 [64, 64, 3, 3]
0	0xbcfe35be	-0.031031486
1	0xbcf00149	-0.029297488
2	0xbcbe6aad	-0.023244226
3	0x3c72453f	0.014787017
4	0x3d179f81	0.03701735
5	0x3d04b31d	0.03239738
6	0xbcac53a4	-0.021035977
7	0x3d2df477	0.042469468
8	0xbd17c072	-0.037048765
9	0xbc5dc222	-0.013535054
10	0xbc8be0f6	-0.017075043
11	0x3bf2a5dd	0.0074050264
12	0xbb9f4ae7	-0.004861224
13	0xbc4c51e7	-0.012470699
14	0x3cdbfe68	0.026854709
15	0xbcf2fdf3	-0.029662108
16	0x3c407edb	0.011748995
17	0xbb04d450	-0.002026815
18	0x3ca22374	0.019792296
19	0x3c35006e	0.011047466
20	0xbb9fbc5a	-0.004874748
21	0x3aa33dc9	0.0012454326
22	0xbd15ce8c	-0.03657393
23	0xbb904551	-0.0044027944
24	0x3ce37105	0.027763853
25	0xbcfcd510	-0.030863315
26	0xbc09f20a	-0.008419523
27	0xbcbffc05	-0.023435602
28	0x3b146d1b	0.002264804
29	0xbac760db	-0.001521136
30	0x3d16b63f	0.036794897
31	0xbcbda93b	-0.023151984
32	0xbcd8dda7	-0.02647288
33	0x3cac44ea	0.021028955
34	0x3d2de015	0.04245003
35	0x3cbbabb1	0.022909017
36	0xbce0ede3	-0.027457183
37	0xbd149998	-0.03627929
38	0xbc17b48b	-0.009259353
39	0xbcd7a790	-0.026325017
40	0x3cb936de	0.02260917
41	0x3ca37012	0.0199509
42	0x3cd79713	0.026317155
43	0x3c8e2724	0.017352648
44	0xbd1c0deb	-0.03809921
45	0xbccc87bb	-0.024967065
46	0xbcc0bf52	-0.023528729
47	0xbc36c3b1	-0.011155055
48	0x3868c238	5.549399e-05
49	0xbc05469f	-0.008134513
50	0x3c96f4f2	0.018427346
51	0x3c9a2f98	0.018821523
52	0x3d111747	0.03542259
53	0x3c8fc7e0	0.017551363
54	0xbce7cc66	-0.028295707
55	0x3cecf9fa	0.028927792
56	0xbc0d5661	-0.008626551
57	0x39c54b20	0.0003763074
58	0xbce7461d	-0.028231675
59	0xbcf0801e	-0.029357966
60	0x3d18a5ac	0.037267372
61	0x3b395143	0.0028277196
62	0xbcb380ed	-0.021912063
63	0xbcc2e6e8	-0.023791745
64	0xbc48aa81	-0.012247683
65	0x3ca9b8dd	0.020718032
66	0x3cccbb74	0.024991728
67	0xbd005095	-0.03132685
68	0x3b173fce	0.0023078802
69	0x3c0ba78a	0.008523831
70	0xbd0ac8f2	-0.033883043
71	0xbcbcf817	-0.023067517
72	0xbc8d5b78	-0.01725553
73	0x398cdf4b	0.00026869247
74	0x3cd2d12d	0.025734508
75	0x3d170649	0.03687123
76	0xbd06e5e5	-0.03293409
77	0x3d1c75ad	0.038198162
78	0xbc074181	-0.008255363
79	0xbbad0c07	-0.005280975
80	0x3d11f800	0.0356369
81	0xb93796a4	-0.00017508358
82	0x3cf079f1	0.029355021
83	0xbc56db82	-0.013113858
84	0xbd1db0d6	-0.038498722
85	0xbc952350	-0.018205315
86	0x3c9afc4a	0.018919129
87	0xbca60811	-0.020267518
88	0x3cff6ae3	0.031178897
89	0xbc81ca29	-0.015843468
90	0x3d1543c2	0.036441572
91	0xbc4d6e54	-0.012538511
92	0x3ce1d35c	0.027566604
93	0x3c7b67ed	0.015344602
94	0x3c6e4210	0.014542118
95	0x3b17addc	0.00231444
96	0x3d2ac315	0.04168995
97	0x3cd43762	0.025905315
98	0x3cfb7682	0.030696157
99	0xbad8ccd0	-0.0016540531
100	0xbced3fb4	-0.02896104
101	0xbc415658	-0.011800371
102	0x3a4194b0	0.0007384522
103	0xbce212a1	-0.027596774
104	0x3c8d8e84	0.01727987
105	0x3ca9729c	0.020684533
106	0x3ca5a609	0.020220773
107	0xbc7a8827	-0.01529125
108	0x3c9669b2	0.018360946
109	0x3d06e2fb	0.03293131
110	0x3d083407	0.033252742
111	0x3c8f4d2b	0.017492851
112	0xbbbab0e8	-0.0056973584
113	0xbc5d3bb0	-0.013503
114	0x3d064752	0.03278286
115	0x3ca00232	0.019532297
116	0xbc99e260	-0.018784702
117	0x3bc52fa2	0.006017641
118	0xbccc3231	-0.024926277
119	0xbc7f352c	-0.015576642
120	0x3bfecf02	0.007776142
121	0xbcd6756d	-0.02617904
122	0xbd16404b	-0.03668241
123	0x3aa02001	0.0012216569
124	0x3cb63680	0.022242785
125	0xbce49a81	-0.027905704
126	0xbaefa333	-0.001828289
127	0xbcd20bbe	-0.025640365
128	0x3cf32b8b	0.029683849
129	0xbca1adfa	-0.019736279
130	0x3cf1eb56	0.029531162
131	0x3c31de80	0.010856271
132	0x3cf67f32	0.030089948
133	0xbc8f5054	-0.017494358
134	0x3d0e7119	0.034775827
135	0x3c4d1e47	0.012519426
136	0x3baa5e64	0.0051992405
137	0x3c93b056	0.01802842
138	0xb9f56faa	-0.00046813238
139	0x3cd51223	0.026009625
140	0x3bfaad89	0.0076500815
141	0x3be91852	0.007113495
142	0xbd14170f	-0.036154803
143	0xbbce6adf	-0.006299361
144	0xbcaf19ea	-0.021374661
145	0x3c8612fa	0.01636647
146	0x3cadd249	0.021218436
147	0x3d0a0b32	0.033702083
148	0x3a4f82e3	0.0007915927
149	0x3bd9d7f1	0.0066480567
150	0x3ccb0f69	0.024787622
151	0xbd1870c2	-0.03721691
152	0xbc95acb4	-0.018270828
153	0x3c4d2d9f	0.012523084
154	0x3cb9ec52	0.022695694
155	0x3c372a26	0.011179483
156	0x3ce3f981	0.027828934
157	0x3c916520	0.017748415
158	0x3ca3fe9e	0.020018872
159	0x3b5685ed	0.0032733635
160	0x3d2bc168	0.041932493
161	0x3cedc8b1	0.029026361
162	0x3c65aa33	0.014017629
163	0xbceef005	-0.029167185
164	0x3cb754d9	0.022379326
165	0xbc6cbb5c	-0.014448967
166	0xbcb9b5a3	-0.022669619
167	0xbd1c45d9	-0.03815255
168	0x3c903d43	0.017607337
169	0x3c33e5ed	0.010980112
170	0x3b94bbb4	0.0045389775
171	0xbccd4ec3	-0.02506197
172	0x3c988324	0.01861722
173	0x3c2b0d84	0.010440234
174	0x3cab7050	0.020927578
175	0xbcd8d6e6	-0.026469659
176	0x3ca0edc1	0.01964462
177	0x3c6848c1	0.014177502
178	0xbb71cb93	-0.0036895021
179	0x3c0b8942	0.0085166115
180	0xbd1ee846	-0.038795732
181	0x3c9e8e1a	0.019354869
182	0xbc3c96fd	-0.011510608
183	0xbbb6ae63	-0.0055749877
184	0xba6ee53f	-0.000911314
185	0xbc2f6586	-0.010705357
186	0xbcee37e0	-0.029079378
187	0xbbc04e61	-0.0058687185
188	0x3d08203a	0.03323386
189	0xbd2a01bf	-0.04150557
190	0x3c8b69a6	0.01701815
191	0xbbd83a89	-0.006598775
192	0xbcde4972	-0.02713463
193	0xbc96aa50	-0.018391758
194	0x3cd1d78a	0.025615472
195	0xbd076863	-0.033058535
196	0xbceff5db	-0.029292038
197	0xbbba4cd8	-0.00568543
198	0x3cebb773	0.028773999
199	0x3d142227	0.036165383
200	0x3cf0c5ea	0.029391248
201	0x3ce9d6f4	0.02854488
202	0x3b931fc0	0.004489869
203	0x3c2d089d	0.010561136
204	0xbbde6786	-0.0067872433
205	0xbd1d1b0e	-0.03835588
206	0xbc1d4c8b	-0.009600769
207	0x3d19b132	0.037522502
208	0xba3db2ca	-0.00072364195
209	0x3cf935dc	0.03042119
210	0xbbec843e	-0.007217913
211	0xbc8e2edf	-0.017356334
212	0xbd048191	-0.032350127
213	0x3d2d7f50	0.042357743
214	0x3c4ff725	0.012693201
215	0xbc6404bd	-0.013917145
216	0xbc02ec04	-0.007990841
217	0x3cf29f14	0.02961687
218	0x3bce14e9	0.006289114
219	0x3cece991	0.028919967
220	0x3c9a2f0f	0.018821267
221	0xbb613cb0	-0.0034368448
222	0xbc800f5c	-0.015632324
223	0xbb927092	-0.004468986
224	0xbc6cfb3d	-0.014464197
225	0x3cf0c258	0.029389545
226	0x3c966e16	0.01836304
227	0xbc06eeb1	-0.008235619
228	0x3c97cb17	0.018529458
229	0x3b32b73d	0.0027269863
230	0x3bb79296	0.005602191
231	0xbbe0db39	-0.006862071
232	0x3d2db372	0.04240746
233	0x3b9fddd6	0.00487874
234	0xbd03d006	-0.03218081
235	0x3d282a8c	0.0410562
236	0xbd1af968	-0.03783551
237	0x3c3efbe1	0.011656732
238	0xbc895a65	-0.016766736
239	0x3c70dcc9	0.014701077
240	0x3c2892be	0.010288892
241	0xbce42f7c	-0.027854674
242	0x3cfcca3b	0.03085815
243	0xbd1eb2fa	-0.038744904
244	0x3cb1d3bc	0.021707408
245	0x3c137c12	0.009001749
246	0x3b838071	0.004013114
247	0xbb3396b5	-0.002740306
248	0xbd12637c	-0.035739407
249	0x3c70d218	0.014698528
250	0xbd211c60	-0.0393337
251	0xbcb06b0f	-0.021535425
252	0xbc2ae52c	-0.010430615
253	0xbc664860	-0.0140553415
254	0x3b07715c	0.0020666933
255	0xbcc81832	-0.0244256

block3.0.bias f4 [64]
0	0x3b89452e	0.004189155
1	0x38ed31e9	0.00011310337
2	0xbcff1e0b	-0.031142255
3	0xbca48b17	-0.020085854
4	0x3d112396	0.035434328
5	0x3ba71453	0.0050988584
6	0xbd15c719	-0.036566827
7	0xbd0c985e	-0.034324996
8	0xbd0948e2	-0.033516772
9	0xbd15b43d	-0.03654884
10	0xbc8616fa	-0.016368378
11	0xbb6ef2ca	-0.0036460632
12	0x3ccbd139	0.024880039
13	0xbd03a43d	-0.03213905
14	0x3d141b82	0.036159046
15	0xbd020f91	-0.031753127
16	0x3c882280	0.016618013
17	0xbbee6b51	-0.0072759767
18	0xbb85f497	-0.0040879953
19	0xbd17a759	-0.03702483
20	0x3c81a94d	0.0158278
21	0xbcd1ce56	-0.025611084
22	0xbd1a4ac5	-0.037668962
23	0x3cff5552	0.031168614
24	0xbb05fc2f	-0.0020444503
25	0xbcff1340	-0.031137109
26	0x3c9b4982	0.01895595
27	0xbc953675	-0.018214444
28	0x3c2a665c	0.010400381
29	0xbcfac8fc	-0.030613415
30	0x3cbae1bd	0.022812719
31	0xba8a34bb	-0.0010544279
32	0xba6ccfb5	-0.00090336363
33	0xbd24fff8	-0.040283173
34	0x3cba38bd	0.022732133
35	0xbbf36212	-0.0074274624
36	0x3d1c1698	0.038107485
37	0xbaac0b28	-0.0013125883
38	0xbd0503b2	-0.032474227
39	0xbcc899df	-0.024487434
40	0x3c131d3e	0.00897914
41	0xbd11274b	-0.035437863
42	0xbc998a9c	-0.018742852
43	0xbc3d8315	-0.011566897
44	0xbca1167a	-0.019664038
45	0xbca803ec	-0.020509683
46	0xbcfa5d8d	-0.030562187
47	0x3cc47cd4	0.023985304
48	0x3b3836f9	0.0028108938
49	0xbc9a14f8	-0.018808827
50	0x3c19bade	0.0093829315
51	0xbd1713ec	-0.036884233
52	0xbc84b4c8	-0.016199484
53	0xbc1dabf0	-0.009623513
54	0xbcefd641	-0.029276969
55	0xbc0f2acc	-0.008738231
56	0x3d13a94d	0.03605013
57	0x3b4080d6	0.0029373667
58	0xbcf415cb	-0.029795548
59	0xbd029132	-0.03187675
60	0x3c1e3a79	0.009657496
61	0xbbeb8e07	-0.007188562
62	0x3ca853dd	0.020547802
63	0x3b12232f	0.0022298803

block3.1.weight f4 [64]
0	0x3f80284a	1.0012295
1	0x3f8087ab	1.0041403
2	0x3f7f4f11	0.9973002
3	0x3f7fffd5	0.99999744
4	0x3f801f2d	1.0009514
5	0x3f800ea8	1.0004473
6	0x3f7fc6dc	0.9991281
7	0x3f7f4461	0.9971371
8	0x3f8032c7	1.0015496
9	0x3f7f6e2a	0.9977747
10	0x3f805658	1.002635
11	0x3f801195	1.0005366
12	0x3f806964	1.0032163
13	0x3f7fed14	0.9997113
14	0x3f803674	1.0016618
15	0x3f802bd1	1.0013372
16	0x3f8023cb	1.0010923
17	0x3f7f8c57	0.99823517
18	0x3f7faa7b	0.9986951
19	0x3f800741	1.0002214
20	0x3f80221d	1.001041
21	0x3f801d26	1.0008895
22	0x3f80048a	1.0001385
23	0x3f801f03	1.0009464
24	0x3f80064e	1.0001924
25	0x3f7f4196	0.9970945
26	0x3f803639	1.0016547
27	0x3f7f3dfb	0.9970395
28	0x3f7fb95b	0.99892205
29	0x3f80544a	1.0025723
30	0x3f7f3b99	0.99700314
31	0x3f7ff82c	0.99988055
32	0x3f7ffadc	0.99992156
33	0x3f7fbc22	0.9989644
34	0x3f7f56be	0.99741733
35	0x3f7f9add	0.9984568
36	0x3f805969	1.0027286
37	0x3f80427b	1.0020288
38	0x3f80056f	1.0001658
39	0x3f80163f	1.0006789
40	0x3f7fc01f	0.9990253
41	0x3f7f8b22	0.99821675
42	0x3f7fccbe	0.99921787
43	0x3f803dfd	1.0018917
44	0x3f7f21f1	0.99661165
45	0x3f809b74	1.004744
46	0x3f809c40	1.0047684
47	0x3f7feb4d	0.99968415
48	0x3f8006c6	1.0002067
49	0x3f806019	1.0029327
50	0x3f7fd093	0.99927634
51	0x3f80179c	1.0007205
52	0x3f803529	1.0016223
53	0x3f7e95e7	0.9944748
54	0x3f7fbbd7	0.99895996
55	0x3f7f4e0e	0.99728477
56	0x3f7f9e2c	0.99850726
57	0x3f7fc386	0.9990772
58	0x3f80213e	1.0010145
59	0x3f7f36b3	0.9969284
60	0x3f801b36	1.0008304
61	0x3f8071bd	1.003471
62	0x3f80048f	1.0001391
63	0x3f7f9dea	0.9985033

block3.1.bias f4 [64]
0	0xb97057c6	-0.00022920882
1	0x3b4e9f77	0.0031528154
2	0xbb19d68a	-0.0023473823
3	0xbacaabd6	-0.0015462588
4	0x3b34a8ec	0.0027566506
5	0x3ae3df4b	0.0017385272
6	0xbaaffaf4	-0.001342623
7	0xba420b9e	-0.0007402244
8	0x3b2a59a4	0.0025993371
9	0x3943e828	0.00018683134
10	0x3b5c6b72	0.0033633378
11	0x399a24b0	0.00029400503
12	0x3b5256a4	0.00320951
13	0xbaee7338	-0.0018192297
14	0x3b28ab07	0.0025736706
15	0x39c4282c	0.00037413964
16	0x3b31fb16	0.0027157716
17	0xb92a7878	-0.00016257341
18	0x3ab6e985	0.0013955092
19	0x3a6e978e	0.0009101563
20	0x3af12d2c	0.0018400303
21	0x3a87a928	0.0010350095
22	0xba81098d	-0.0009844765
23	0x3af24457	0.0018483502
24	0x37fe50f3	3.0316854e-05
25	0xbb84cef8	-0.004052993
26	0x3a9122d1	0.0011072998
27	0xbb00c611	-0.0019649307
28	0xba89b54e	-0.0010506304
29	0x3b45e5f5	0.003019688
30	0xbb3347c2	-0.0027356003
31	0xb8cd160b	-9.7792676e-05
32	0xba247cb3	-0.0006274685
33	0xbb0de3e0	-0.0021650717
34	0xba7e8aa1	-0.00097099884
35	0xb91c2907	-0.00014892603
36	0xb7be58ff	-2.2691207e-05
37	0x3acc6929	0.0015595305
38	0x3b150728	0.002273986
39	0x3a3e3429	0.0007255697
40	0xbad66f59	-0.0016360088
41	0x3a4cc6d5	0.00078116107
42	0xbac3926d	-0.0014920958
43	0x3a20470f	0.0006114104
44	0xbb9914f5	-0.0046716877
45	0x3b8983b0	0.0041966066
46	0x3bcc37ad	0.006232223
47	0x3a04f2f4	0.0005071603
48	0x3b4dfec4	0.003143237
49	0x3ae1cce4	0.00172272
50	0x3a30c2dd	0.0006742904
51	0xbb2fc68f	-0.002682123
52	0x3b1bec69	0.0023792034
53	0xbb91897b	-0.004441438
54	0x38f2ce3a	0.00011577872
55	0xbb06e6c9	-0.0020584336
56	0xbb189dfd	-0.0023287528
57	0x3a950c0e	0.001137139
58	0xba92b36f	-0.0011192391
59	0xba60697b	-0.00085606397
60	0x3926aa23	0.00015894375
61	0x3a155def	0.0005697896
62	0xb82746f3	-3.988198e-05
63	0xbaf00337	-0.0018311505

block3.1.running_mean f4 [64]
0	0x3eb086bc	0.34477794
1	0xbe9c898c	-0.3057369
2	0x3db8cd1b	0.09023496
3	0xbf045423	-0.5169088
4	0xbe594f62	-0.21221688
5	0x3e8fa061	0.28052047
6	0x3d5a6690	0.053320467
7	0xbe046553	-0.12929277
8	0xbe49ac9f	-0.19694756
9	0xbeccdb94	-0.40011275
10	0xbe4b4aee	-0.19852802
11	0xba5d90d7	-0.0008452064
12	0x3e910e8c	0.2833141
13	0xbf1ad7f7	-0.60485786
14	0xbed77bb5	-0.42086568
15	0x3e57f1de	0.21088359
16	0x3b170fc0	0.002305016
17	0x3e2fb046	0.17157087
18	0xbdf9cd18	-0.12197322
19	0x3d966f2b	0.07345422
20	0xbda3c0db	-0.07995769
21	0x3ecb7dde	0.39744467
22	0xbee76ef9	-0.45201853
23	0x3e76bbc1	0.2409506
24	0x3eb2f6d9	0.34953955
25	0xbdbbedb5	-0.091761984
26	0x3e8b8473	0.27249488
27	0x3ea75d79	0.326885
28	0x3f010227	0.5039391
29	0x3d7c7ed9	0.06164441
30	0xbdd3ae4a	-0.103359774
31	0xbf1d9bcd	-0.6156586
32	0xbea69f74	-0.32543528
33	0x3ea494e3	0.32144842
34	0x3d269451	0.04066879
35	0xbee9546d	-0.45572224
36	0x3ec1e8ae	0.37872833
37	0x3ebd9d60	0.3703413
38	0xbe18d00b	-0.14923112
39	0xbe43e07f	-0.19128607
40	0xbf08f6c6	-0.53501546
41	0xbe28b15f	-0.16473912
42	0x3defda58	0.11711568
43	0xbda484ea	-0.08033164
44	0x3e0993f3	0.13435344
45	0x3e938ad5	0.28816858
46	0x3eaac04f	0.33349845
47	0xbec602d4	-0.38674033
48	0x3d852ede	0.0650308
49	0x3c96f38c	0.01842668
50	0x3ed6946b	0.4191011
51	0x3e42b514	0.19014388
52	0xbe62722d	-0.22113867
53	0xbd524763	-0.05133761
54	0x3e576573	0.21034794
55	0xbf54f8f5	-0.8319238
56	0x3dddc163	0.10827901
57	0x3ea3f04b	0.32019266
58	0x3dfd22af	0.12360131
59	0x3d4fee9d	0.05076467
60	0x3de221ab	0.11041578
61	0x3f0ad982	0.5423814
62	0x3dac398a	0.08409412
63	0xbe160a7a	-0.14652434

block3.1.running_var f4 [64]
0	0x3e159369	0.14607014
1	0x3ee212b8	0.44154906
2	0x3ee22cb5	0.44174734
3	0x3e83ccf0	0.25742292
4	0x3ef2fa72	0.474567
5	0x3e7e96cd	0.24862213
6	0x3e9cc7bf	0.30621144
7	0x3e270f09	0.16314329
8	0x3e20068e	0.156275
9	0x3ead57df	0.33856103
10	0x3eb53690	0.3539319
11	0x3e157225	0.14594324
12	0x3ee36b88	0.44417977
13	0x3e9ba06c	0.3039583
14	0x3e52ef7a	0.20599166
15	0x3e06ade8	0.13152277
16	0x3e156431	0.14589001
17	0x3ecca7ab	0.3997167
18	0x3e90e0b5	0.28296438
19	0x3dd4629b	0.1037037
20	0x3e73297d	0.23746295
21	0x3e6aef18	0.2294277
22	0x3eb20020	0.3476572
23	0x3e5f2989	0.21793188
24	0x3f00e596	0.5035032
25	0x3e08ffbd	0.13378806
26	0x3ee389a8	0.4444096
27	0x3e12b1d8	0.14325655
28	0x3e31188a	0.17294517
29	0x3e9e6d41	0.3094273
30	0x3dc10724	0.0942519
31	0x3ecb76ce	0.39739078
32	0x3e87788b	0.26459154
33	0x3e7fccf9	0.24980535
34	0x3e80b06f	0.25134608
35	0x3e89c984	0.26911557
36	0x3e33ca3e	0.17557618
37	0x3ed75283	0.4205514
38	0x3e1a8655	0.15090306
39	0x3e432faf	0.19061159
40	0x3ebd1443	0.3692952
41	0x3e20c4de	0.15700099
42	0x3e167925	0.1469465
43	0x3eaa3a30	0.3324752
44	0x3eb08ce4	0.3448249
45	0x3e1e7662	0.15474847
46	0x3ed1d890	0.40985537
47	0x3e92da52	0.2868219
48	0x3eb55a7c	0.35420597
49	0x3e8b49b5	0.27204672
50	0x3e328d62	0.17436746
51	0x3e520fd9	0.20513858
52	0x3dbb4746	0.09144454
53	0x3dc67d62	0.096918836
54	0x3e4b32c6	0.19843587
55	0x3e96157a	0.2931326
56	0x3decaa08	0.115558684
57	0x3e443e04	0.19164282
58	0x3e890a73	0.26765785
59	0x3ebb7206	0.3661043
60	0x3e3f931d	0.18708463
61	0x3e5d4cb5	0.21611293
62	0x3eb19f4b	0.34691843
63	0x3e3bdbd0	0.1834557
