results/old/basic/basic_8.pth (torch, 961549 bytes, 26 tensors)

block1.0.weight f4 [64, 1, 3, 3]
00000000: 4717 14be 538b 2ebe 913e 77be f20a b93d
00000010: 6f03 a63e f96a d8bd 273d 6fbd 178e 87be
00000020: 4d67 303e eb7b 173e 6789 82be 4dbe 743e
00000030: f8dd 5f3e 5466 45be 0e1d 903e 5608 a1be
00000040: 8406 873d ed92 d9bd e08f 593e c320 a33e
00000050: 9972 8ebe fd1c 4f3e 464e 1dbe 8928 a43e
00000060: 372b 96bd 6f53 a2be 6bd6 873d f95c 313e
00000070: aa9b 9c3e c24d 74be 5e69 563e 6292 db3d
00000080: 70a6 6e3d 6ea8 573e aa14 37be 3b33 143e
00000090: 69a4 03be c03b 83be 3398 edbd ab55 06bd
000000a0: a009 ae3e c250 c3bc ebf8 70be e943 823e
000000b0: 2c90 72be 082c e33d 6e55 e8bd c5a7 573e
000000c0: b9ad 05bd 569f 8f3e 31a9 c4bd 470b 053e
000000d0: 2f91 093e 70b1 ffbb 985c 7cbe 5d56 a53e
000000e0: b06b 3f3e 5c48 70be 754b 57be d42d b2bd
000000f0: 36eb 90be d384 9a3d 7018 4ebd dd40 a7be
00000100: d946 a1be 72c1 3e3d 9092 a73e 5a8d a83d
00000110: d8cc 4d3e e20c 57be ea8f 8c3e 6255 9dbd
00000120: 0b2d 6dbd 8215 913e 2da4 0dbe 9cff b2bc
00000130: 2bc5 cb3d 6a55 e83d 64fb b1bd b29c 2bbd
00000140: 7464 773e ebad 3ebe e6ff a5be b6d2 5bbe
00000150: 86c7 f03d adfe 2dbe 1f07 a4be 11a9 e33d
00000160: 330d 7ebe 1e24 313e ae29 033d 94aa 3c3e
00000170: 378c b0bd 43b3 2bbe b205 363e 4308 493e
00000180: 8774 f8bd e746 4e3e 32e0 86be 1491 14be
00000190: cca9 2e3e 1b59 173d c0f7 283e bc2a a6be
000001a0: 78a8 9d3d c9f9 143e 71e2 afbc ce80 9c3e
000001b0: 3744 6fbc 535f 08be 01b1 ef3d 642c 9dbe
000001c0: f9fd 563e 8d4a 42bd 8fc8 9bbd 0feb 04bd
000001d0: 1195 86be 9ea4 0cbe e146 94be 7250 6cbe
000001e0: e1d1 a5bb f230 b4bd 6e1d d7bc 4cdc a63e
000001f0: 7f80 a0be 1b45 463a 4c87 3d3c 4857 88be
00000200: 4e3f 083e da79 4a3e b5fa f7bd 8865 b8bd
00000210: e868 a63e 228e 423e 3b1c 283e 4ae0 e1bb
00000220: b115 883e 435c 653e d893 933e 584b 45be
00000230: cdba 543e e6a6 573d 407a 0fbe 33f5 15be
00000240: e70a a63e 0150 e13d d706 97be 004f d9bd
00000250: 5601 9abe 40be 003e 0d12 08be bed6 6a3d
00000260: 7b74 563e 0882 6b3d 834b 25be 82b3 92be
00000270: c42c b8bd d08c dd3d 5e9c 233e 9023 903e
00000280: 98d8 713d dfb0 d8bc a7db a33c 3dfe 55be
00000290: 730f 81be 134f 063e 2a75 5d3e 7138 963e
000002a0: f343 493e ae7a 3dbb 682b 3b3e 8638 a13d
000002b0: a513 0b3e 6575 2dbe 117d 87be 8c98 6cbb
000002c0: 866d 0cbd e7c1 8e3e dbcb bcbd 89a4 5e3e
000002d0: ee6a 12bd e172 803e 65fd 29bb 3273 5f3e
000002e0: 409e 5dbe 6e80 91be c913 15be edbf 6e3e
000002f0: 1521 99be 7aec 513e c765 78be eee3 32be
00000300: ec02 8e3e a91d 8dbb 096f 7c3e 60ab 5f3e
00000310: c211 99be 828b b13d 8e9a 963d 76d3 49be
00000320: ad50 26be 044f 59be af18 5a3e 7360 93be
00000330: a65d acbe 4071 02bd cc6a 0e3e df9a 6b3e
00000340: 5924 903b 6e5e 3cbd 4474 303d 98d9 563e
00000350: 8a12 833e 6e32 c4bd 2b5e 283e 1b4a e73a
00000360: 464c 22be 8e3a 773d 13a8 80be 7fe5 c43d
00000370: f95a 943d 121c 71bd 9fda 9e3e c213 6cbd
00000380: e295 903e 9851 ff3d ebb4 753e a478 2e3d
00000390: c3c1 a8be 256e 9a3e 471a 11be 4c9b fe3c
000003a0: 9678 223e b0f8 60be 5138 823e 9976 8d3b
000003b0: 6e13 733e d667 03be 4101 393e 984a 5f3e
000003c0: 2152 423e 3881 85bd c83c 2a3e 2b5a c73d
000003d0: 7018 40be 05c4 8c3e 0509 353e d16b 9a3d
000003e0: 83de 83be a6b4 873e 970b adbe 87ff 383e
000003f0: 1a58 e5bc 6f02 75be 4e0b 663e 35dd 8cbe
-0.14462005 -0.17045335 -0.24144961 0.09035291 0.32424495 -0.105672784 -0.05840793 -0.26475593
0.17226906 0.14793365 -0.25495455 0.23900719 0.21862018 -0.19277316 0.28147167 -0.31451672
0.0659304 -0.10623727 0.2124629 0.31860933 -0.27821806 0.20225902 -0.1536189 0.32062176
-0.07332461 -0.3170428 0.06632694 0.17320623 0.30587512 -0.23857787 0.20938632 0.1072128
0.058264196 0.21060345 -0.17878976 0.14472668 -0.12855686 -0.25631523 -0.11601295 -0.032796543
0.33991718 -0.02384222 -0.23532455 0.25442436 -0.2368781 0.11092383 -0.113444194 0.21060093
-0.032636378 0.2805125 -0.09602583 0.12992583 0.1343429 -0.0078031346 -0.24644697 0.32292452
0.18693423 -0.23465103 -0.21024878 -0.08700147 -0.28304452 0.075448655 -0.050316274 -0.32666674
-0.31499365 0.046571203 0.32729006 0.08230086 0.20097673 -0.21001008 0.27453548 -0.07682301
-0.057904284 0.28336722 -0.1383216 -0.0218504 0.09949716 0.113444164 -0.08690527 -0.041897483
0.24159414 -0.18621032 -0.32421798 -0.21467099 0.11756806 -0.16991682 -0.32036683 0.11116231
-0.24809723 0.17298934 0.03202217 0.18424445 -0.08620494 -0.16767602 0.1777561 0.19632058
-0.12131601 0.20144235 -0.26342922 -0.14508468 0.1705696 0.036950212 0.16500759 -0.3245448
0.076981485 0.1454841 -0.02147028 0.3056702 -0.014603666 -0.13317613 0.11703683 -0.3069793
0.2099532 -0.04743438 -0.07606613 -0.03245073 -0.26285604 -0.13734671 -0.28960326 -0.23077562
-0.00506042 -0.08798398 -0.02625915 0.32589948 -0.31348035 0.0007563398 0.011567902 -0.2662909
0.13305399 0.19773045 -0.121083654 -0.090037405 0.32501912 0.18999532 0.16417019 -0.0068931924
0.2657905 0.22398476 0.28823733 -0.19267023 0.20774384 0.0526494 -0.14011478 -0.14644317
0.32430193 0.11001588 -0.29497406 -0.10610771 -0.30079144 0.12572575 -0.13288136 0.0573337
0.20942871 0.057497054 -0.16142087 -0.2865258 -0.08992913 0.108178735 0.15977618 0.28152132
0.05904445 -0.026451526 0.0200022 -0.20897765 -0.252071 0.13116102 0.21626726 0.29339936
0.19654827 -0.0028912234 0.18278277 0.07872109 0.13581713 -0.16939314 -0.26462606 -0.0036101667
-0.034284137 0.2788231 -0.0921857 0.21742453 -0.035746507 0.25087646 -0.0025938388 0.21821287
-0.21642399 -0.28418297 -0.14558329 0.23315401 -0.29908052 0.20500365 -0.24257575 -0.17469761
0.27736604 -0.0043065143 0.24651732 0.21842718 -0.2989636 0.08669187 0.07353698 -0.19709572
-0.16241713 -0.21221548 0.21298479 -0.28784522 -0.33665198 -0.031846285 0.13907927 0.23008297
0.004398864 -0.045988493 0.04307963 0.20981443 0.25600082 -0.09579931 0.16442172 0.0017645987
-0.15849409 0.060358576 -0.2512823 0.096140854 0.07243914 -0.05886466 0.3102617 -0.05763603
0.28239352 0.12466735 0.23994796 0.04259552 -0.32960328 0.3016216 -0.1417018 0.03107991
0.15866312 -0.21969867 0.2543359 0.0043171165 0.2373788 -0.12832579 0.18066885 0.21805799
0.18976642 -0.06518787 0.16624749 0.09733995 -0.18759322 0.274933 0.17679222 0.075400956
-0.257557 0.2650501 -0.33797905 0.18066226 -0.027996112 -0.2392671 0.2246525 -0.27512518

block1.0.bias f4 [64]
00000000: b688 853e 0b73 a0be a81d 073e 90b2 0c3e
00000010: 72fe 89be afb2 a6bc 569a 743d 8080 3fbe
00000020: 15bb 843d 7e33 b4bd 2105 1bbe fd88 e7bd
00000030: 8ebe 67be 58e6 96be 2bc4 6c3e 8486 d73d
00000040: d97a 4a3d 7d03 753e a80c 20be 2278 7cbe
00000050: c4d4 153c 54c0 1a3e d4ed dc3d bffc 883e
00000060: 4b09 3aba e9e9 713e 03d3 84bd 1ad8 f53d
00000070: c378 d73d 0b59 993e bb26 aebc a61b 203e
00000080: d2be 5fbe 762f 993e 4224 4abe 290f 9dbd
00000090: 1446 493d 550c 4f3e c4f0 4abe 9643 963e
000000a0: 411c 8bbe 2aa3 04be 43ed 8c3e 8c51 1bbe
000000b0: 00a4 793d 818a 8ebe 14ac 8ebe 4693 93be
000000c0: 3a9d 133e 5096 133e 5ec0 0abd a203 2c3d
000000d0: b75d a13e 74b3 0d3c d32d 3fbe 30f7 833d
000000e0: b40d 82be 940b 5bbe 0e7a 35bd 3919 fdbd
000000f0: 46f0 a23e b4b1 c3bd 29c6 2a3e fd56 5e3d
0.26080865 -0.3133777 0.13194907 0.13739991 -0.2695194 -0.020348875 0.0597175 -0.18701363
0.064809956 -0.08798884 -0.15138675 -0.11305425 -0.22631285 -0.29472613 0.23121707 0.10523704
0.049433563 0.23927112 -0.15629828 -0.24655202 0.009144966 0.1511243 0.107875496 0.2675533
-0.00070967217 0.23624386 -0.0648556 0.12004109 0.1052108 0.29950747 -0.021258703 0.15635547
-0.21850136 0.29919022 -0.19740394 -0.07668907 0.049139097 0.20219548 -0.19818407 0.2934844
-0.27169994 -0.12952867 0.27524766 -0.15167826 0.06094742 -0.27840045 -0.2786566 -0.28823298
0.14415446 0.14412808 -0.033874862 0.041995652 0.3151681 0.008648742 -0.18669824 0.06443632
-0.2540108 -0.21391135 -0.044305854 -0.123583265 0.3182394 -0.095553786 0.16677155 0.054282177

block1.1.weight f4 [64]
00000000: c6f7 7d3f 8846 803f 375d 7e3f 44c0 7d3f
00000010: 6cc3 7e3f 1a94 7e3f 5f4d 7d3f 2596 823f
00000020: 9197 7e3f 3a3a 7e3f 2c01 803f 29c0 7e3f
00000030: c486 7e3f e095 7e3f c47d 7e3f 3eac 7d3f
00000040: 55de 823f ccda 803f 524a 7e3f 6d67 7f3f
00000050: f0c0 7d3f c807 7f3f 47c9 7e3f 2293 7e3f
00000060: 4ca7 7e3f 2e6b 7f3f 6ab5 7c3f 9bd2 7e3f
00000070: 82e4 7e3f 4e21 7e3f 8c77 7e3f 1e10 7e3f
00000080: d8af 823f 8848 813f 1e05 7d3f ff3a 7f3f
00000090: 31b6 803f e785 7e3f 7f6a 803f 2e65 7f3f
000000a0: eab5 7e3f c620 7e3f 7694 813f b83a 7f3f
000000b0: e4d1 803f 643c 803f df5a 7f3f cf1a 7e3f
000000c0: 547f 7f3f 04bd 803f b295 803f 5de0 7e3f
000000d0: 6e39 7f3f 501a 7f3f 7535 7e3f 7f0f 7e3f
000000e0: 9900 7f3f da03 7e3f fa04 813f c471 803f
000000f0: e447 7e3f d25b 7e3f ae96 7e3f 6ad9 803f
0.992062 1.0021524 0.99360985 0.991215 0.9951694 0.99444735 0.98946184 1.020207
0.9945002 0.99307597 1.0000358 0.99511963 0.99424386 0.9944744 0.99410653 0.99090946
1.02241 1.0066772 0.99332154 0.9976719 0.99122524 0.9962125 0.99525875 0.99443257
0.99474025 0.9977292 0.98714316 0.9954011 0.99567425 0.9926957 0.99401164 0.9924334
1.0209913 1.010026 0.98835933 0.99699396 1.00556 0.9942307 1.00325 0.9976376
0.9949633 0.9926876 1.0123432 0.9969897 1.0064054 1.001843 0.99748033 0.99259657
0.9980366 1.0057683 1.0045683 0.995611 0.99697006 0.99649525 0.9930032 0.99242395
0.99610287 0.99224627 1.0079644 1.0034719 0.99328446 0.99358857 0.9944867 1.006635

block1.1.bias f4 [64]
00000000: 41c8 afbb 2e57 ffbb 7438 d1ba d40e 4bbb
00000010: bb9a 0ebc 167e 4dbb 7df7 32bc 51c7 423c
00000020: 82ac c2bb c459 78bc 92fc 9a3b f7e9 f0ba
00000030: c9be dabb c323 bbba b12c a73a 0403 73bb
00000040: 4b75 233c d850 e63a 41cb 153b 844a 87bb
00000050: d8e0 4bbc 8ccf cbbb 58be 34bb 8154 75bb
00000060: 625b 3abb 7f85 1abc 2b30 e6bb 6b4a 1abc
00000070: efc1 52bc 3df3 a1bb 95a0 febb 1daa 833b
00000080: 0fae f13c 69bb 0b3c fc87 883b 9a57 5dbb
00000090: c351 80bc 2f97 5cbb a446 90bc 4df9 96bb
000000a0: c420 a4bb ab7d af39 e2cb 753c ebb8 cdbb
000000b0: 9f7d 663b b2e5 96ba 0a13 5ebb 4ba7 25bc
000000c0: 88d9 8f3a 1307 3a3c 99a4 67bb 0158 37bc
000000d0: b1aa 733a 7b92 aa3a 673e 02bc 380e abbb
000000e0: b22c 903a 6992 3fbc 72cc 903b 8420 aa3b
000000f0: ffda 983b d1c4 0abc ef78 f0bb 19f7 233c
-0.0053644483 -0.007792375 -0.0015962259 -0.003098418 -0.008703883 -0.003135567 -0.010923264 0.011888341
-0.0059409747 -0.015158121 0.0047298158 -0.0018380274 -0.0066755754 -0.0014277626 0.0012754408 -0.0037080655
0.009976695 0.0017571701 0.0022856744 -0.004128756 -0.012443744 -0.00621981 -0.0027579274 -0.0037434401
-0.0028435816 -0.009431242 -0.007024785 -0.009417157 -0.01286362 -0.0049423263 -0.0077706077 0.004018082
0.029501943 0.008528569 0.004166601 -0.0033774138 -0.015663987 -0.0033659448 -0.01761181 -0.0046073557
-0.005008789 0.0003347223 0.015002223 -0.0062781475 0.003517009 -0.0011512546 -0.003388586 -0.0101106865
0.0010974864 0.011354226 -0.003534591 -0.011190415 0.00092951494 0.0013013625 -0.007949448 -0.005220201
0.0010999648 -0.011692622 0.004418903 0.0051918644 0.0046647782 -0.008469776 -0.007338635 0.010007643

block1.1.running_mean f4 [64]
00000000: 9198 9b3d 4a72 8cbe ec85 8a3e f1bf 013f
00000010: da7f f0be a1ad 883e 4c8f 3ebe 76f6 3bbe
00000020: 5f75 7e3e ba0d 15bf 0c5f a3bd 597f 9e3d
00000030: d511 f6be ba2f 26bf 2d69 f83e 2072 b93e
00000040: bf3f 343d 6acc 933e f3e5 e73d 9682 36be
00000050: 2c6f fdbd 4dd1 973e aade 87be 8031 203f
00000060: c9b3 0d3e 2d4f aa3e 9f84 da3e 4bda 813e
00000070: 01d6 bcbd b5cd f4bd b471 863e e6a9 53bc
00000080: f187 63be 0c21 8e3e e707 a33e dc90 353d
00000090: db9f 48bc 36a0 0d3f e325 1bbe 3946 023e
000000a0: f7b9 45bd f5c1 813e fffb 993e bd24 8bbe
000000b0: fea2 aa3c 4060 b7be 09d8 f6be 2644 09bf
000000c0: a4e5 673e 7cfa 073e 829b f83c d3c2 9bbd
000000d0: 84fa 393e 4315 64be 5b72 b4bc 2781 ae3e
000000e0: ea53 1ebe 985b 0bbf 76f0 0bbe 8c54 95bd
000000f0: 91fa e33e c640 cf3e b921 103f 9936 b63d
0.07597459 -0.27430946 0.270553 0.50683504 -0.46972543 0.26694968 -0.18609351 -0.18355736
0.24849461 -0.5822407 -0.07977113 0.077391334 -0.4806048 -0.64916575 0.48517743 0.36219883
0.044006106 0.28866893 0.11323156 -0.17823252 -0.1237472 0.2965187 -0.26537067 0.6257553
0.13838114 0.3326353 0.42679307 0.25361857 -0.092205055 -0.11953298 0.26258624 -0.012918925
-0.22219826 0.27759588 0.31841967 0.0443276 -0.012245144 0.5532259 -0.15151171 0.127221
-0.048273053 0.2534329 0.3007507 -0.27176467 0.020829674 -0.3581562 -0.48211697 -0.5361961
0.22646195 0.13279146 0.03034759 -0.07605519 0.1816197 -0.22273736 -0.022027185 0.3408291
-0.15461698 -0.54436636 -0.13665947 -0.07291517 0.44527104 0.40479106 0.56301457 0.088971324

block1.1.running_var f4 [64]
00000000: 4ec6 6e3c 0886 ca3a 1f44 163c 31ce 6a3d
00000010: 08ae 8b3c 66f2 0c3d 336c d63c c20b 513a
00000020: fce7 683c d40e d43d b5dd 2a3b f96e 7d3c
00000030: 6220 de3c 67c2 5b3d 5a83 e53c ade4 eb3c
00000040: 61c7 8939 570f f83a 6007 fe3c 3a5a 1c3b
00000050: dc0b 043c 25e3 1b3c 8986 6e3d ac12 5c3d
00000060: e4dc 173c 9480 913b 2bdb ce3d 8679 fe3b
00000070: 0a40 883c 7da9 953d 4c3f 0e3d 76bf 4b3c
00000080: 8dfb 973a 7c25 463a cce0 e23d d99b f13b
00000090: 42f7 333b 8359 543d 72e0 eb3a a455 633c
000000a0: ba44 ad3c 3321 7c3d ce78 323b 092c e83b
000000b0: 3f9d 613a 827e 813b 6c5f 953c 5d59 d33c
000000c0: 4e31 553b 8448 853a 8746 063b f5fd c33b
000000d0: 45ad 033c 1319 be3c 76dd 483c 61da 023d
000000e0: 7519 c83b 7755 3d3d 64a1 ba3b a7b2 653b
000000f0: b933 fb3b 6b02 d63d f0ea 853d 3a4b a73a
0.014573647 0.0015451321 0.009171515 0.057325546 0.017050758 0.034410857 0.02617464 0.00079744693
0.014215466 0.10354391 0.002607209 0.0154683525 0.02711505 0.053652193 0.028016735 0.028795565
0.00026279225 0.001892547 0.031009376 0.002385749 0.008059468 0.009514605 0.05823377 0.053728744
0.009268973 0.0044403765 0.10100397 0.0077659516 0.016632099 0.07307718 0.034728333 0.012435785
0.0011595354 0.0007558686 0.11078033 0.007373315 0.002746061 0.051843178 0.0017995967 0.013875399
0.021150935 0.0615551 0.002723265 0.0070853275 0.00086065003 0.0039518485 0.018233977 0.025799448
0.0032530609 0.0010168706 0.0020488815 0.005981202 0.008036916 0.023205316 0.012259832 0.031946544
0.0061065503 0.046224084 0.005695509 0.0035049112 0.007666078 0.1044968 0.065389514 0.0012763508

block2.0.weight f4 [64, 64, 3, 3]
00000000: dff1 d73c 1882 21bd 5d2d f33c f85a a23c
00000010: b049 873c 3f37 d23c 7182 16bc 655a 7dbc
00000020: dd13 8238 311b 90bc 8d72 42bd 2489 d43c
00000030: 04af 803a f542 91bc a59b c2bc 9328 0abd
00000040: cd75 a93b d5ab 3fbb b811 1fbd 457a 853b
00000050: 6760 bcbc 32fa ccbc 1d88 193c ea33 1aba
00000060: 00d2 f7bc ee53 bdbb 982d 96bc 249f 043d
00000070: e23d 16bd 64b7 a3bc b2e8 a4bc 3d0a c53c
00000080: 793a d5bb bc22 293b 7613 00bd 7baa 053d
00000090: 9da8 13bd cb2c b0bc 351f 15bd e7aa d3bc
000000a0: aa00 833c 6617 0a3c 8fe2 66bc ae05 653c
000000b0: 2963 193c 123c 103b 8d4d c93b d98c 23bd
000000c0: 6842 e03c 496a 103d ac87 0f3d 79dc 053d
000000d0: d6bf d7bc 5c50 73bb f5a5 4a3c d407 1abd
000000e0: 0ce6 633c 24a0 69bb 8438 30bc 1c4e ecbb
000000f0: 2005 1fbd 82de 123d c6cc 0fbd 7363 2d3d
00000100: a2b6 02bd 3132 153d 8635 4b3c b691 c53b
00000110: f2e1 f53b 97e3 873b 8461 bb3a e782 faba
00000120: 867a 6abc 9e74 83bc 57a2 093d bcb9 1d3d
00000130: b940 fa3c 1889 cebb 9663 c93c 873e 263c
00000140: a83c 293d 3619 27bd 61dc c0bc d279 5f3c
00000150: 8582 aabc c27e 17bd 03cd c13c fbc5 b0bc
00000160: cc31 96bb 8893 96ba 4684 45bd 103b 35bc
00000170: c249 1a3d 70cb 883b 3d10 1a3d 29ce 253d
00000180: 7643 413c 6dd6 b53c 9cc5 f23c 6bc3 513c
00000190: c168 1cbc 7bf3 00bb 7df4 57bb dc1c 72bc
000001a0: ccc6 323b 4ee1 233d d087 a8bc f986 aa3c
000001b0: 36dc 43bc 0882 223d 8f4c 09bd 178b b23c
000001c0: 76ae 043d 5c99 c5bc c46e 9abc dee1 b13c
000001d0: 4bfa 093c 50ed 95bc 4f81 0cbd 7a8e 023b
000001e0: afdf 6bba e101 3c3b fa4c 4eb9 a52f cb3c
000001f0: a787 da3a d1f8 bebc 6c5b 973c 5f6a 163d
00000200: ace8 eabc ac81 813b af54 b73c 18fb d8bc
00000210: 5934 8cbb 4223 9f3c d69c 073c 66d8 2fbd
00000220: 3bd6 17bb 367d 17bc fbf3 94bb ecfe bf3b
00000230: 84ed 0a3d a2ee 23bd 74ef e23c e6b7 71bc
00000240: 0157 7a3c c539 10bb 4ea8 a83c e4f7 a8bc
00000250: f410 1dbd 2142 f638 8d8e 1f3d f55c 0f3c
00000260: a95d 4c3c 3732 e53c 6f4a 1abd 0e10 1bba
00000270: 7d6c d6bc 1b01 fe3c 8eab a63b 499d b3bc
00000280: c464 1e3d f86c d6bc 4256 f9bc 4e1c 0f3d
00000290: 5d9e d6bc ed3a 403c b96f bc3b 75ed 0b3d
000002a0: b2e9 debc baaa d23c b16e 9e3c b07c ab3c
000002b0: de85 95bc 088a debc 02d3 56bc b66d 51bc
000002c0: 9a72 e8bc 60ee 7fbc bc3a ddbc 504c 13bd
000002d0: 0a8e db39 906e e0bc 39bb 283c 8864 97bb
000002e0: 54fe c5bc 526a 843c a7d3 d2bc c043 603c
000002f0: 3406 ebbc 0d90 28bd cd26 debc 1dee 1d3d
00000300: a6c8 a43c e961 c4bb 088b 0ebb 99a1 b13c
00000310: d4c7 bf3c 1374 85bc 8d50 833c 8c1e ff3b
00000320: 7b80 c83c f40c 29bd aef4 24bd 814b aa3c
00000330: 45ec 0d3d 95fa 26bd 0679 9bbb 81c5 9f3c
00000340: 9d27 043d efef e7bc 96d6 77bc 080d 513c
00000350: ae22 8b3c d81b 093d 0029 693c 1496 ebbb
00000360: c18b cfbc e3a1 363c f6b8 74bc ff25 0abd
00000370: 58da 1d3d d294 963b 4a5a 8fbb f825 ec3c
00000380: 7feb 833c 6c33 633c 3695 8f3c bad8 093b
00000390: 305c a03c 36cc 26bd 29bc 83bc 2a4e e7bc
000003a0: b840 0bbd 0b6b 1abd fa5f c6bc 7c50 c6bc
000003b0: adb3 883c c6bb b33c c748 eb3c 24e2 14bd
000003c0: 2595 223d f526 86bc d501 a2bc 97f6 11bd
000003d0: a91a abbc 22cc 273d a484 84ba b254 233d
000003e0: 23c7 db3c 9c44 393d c211 5e3c e02c 233b
000003f0: a907 9ebc 8119 87bb 2096 5dbc 0c72 dbbc
0.02636045 -0.039430708 0.029684717 0.019818768 0.01651463 0.025661109 -0.009186373 -0.015463446
6.202583e-05 -0.01759109 -0.047472525 0.0259443 0.0009817784 -0.017732123 -0.023755858 -0.0337301
0.0051715137 -0.0029246707 -0.038835257 0.0040734136 -0.022995187 -0.025021646 0.009370831 -0.00058823696
-0.030251503 -0.0057778275 -0.018332288 0.03237833 -0.03668011 -0.019984908 -0.020130489 0.024052734
-0.0065072146 0.0025808057 -0.03126856 0.032633286 -0.036049474 -0.021505734 -0.036406714 -0.025838329
0.015991528 0.00842843 -0.014092102 0.013978405 0.0093620205 0.002200846 0.006143278 -0.039929245
0.027375415 0.03525761 0.035041496 0.032680962 -0.026336592 -0.0037126755 0.012368669 -0.03760512
0.013909828 -0.003564843 -0.010755662 -0.00721146 -0.038823247 0.03585673 -0.035107397 0.04233117
-0.031912453 0.03642482 0.012402898 0.006029333 0.0075037414 0.004147004 0.001429603 -0.0019112498
-0.014311438 -0.016046818 0.033602085 0.03850721 0.03054844 -0.006302964 0.02458362 0.010146744
0.041317612 -0.040795527 -0.023542585 0.013639884 -0.02081419 -0.03698612 0.023657328 -0.02157878
-0.004583573 -0.001148806 -0.04822185 -0.011061445 0.037667997 0.0041746423 0.037613142 0.040479813
0.011795869 0.022196973 0.029635243 0.012802939 -0.00954646 -0.0019676376 -0.0032952123 -0.014777388
0.0027279137 0.04000979 -0.020572573 0.020816313 -0.011954358 0.03967479 -0.033520278 0.021794839
0.03239294 -0.024120979 -0.018851645 0.021714147 0.008421491 -0.018301636 -0.034303006 0.0019921348
-0.000899787 0.0028687643 -0.00019674367 0.024802992 0.0016672508 -0.023312004 0.01847621 0.036722537
-0.0286754 0.0039522257 0.022379247 -0.026486918 -0.0042787013 0.019425992 0.008277139 -0.042930983
-0.0023168463 -0.009246161 -0.0045456863 0.0058592465 0.03391792 -0.0400225 0.02770207 -0.014753317
0.015279532 -0.002200709 0.020588066 -0.020626016 -0.038346246 0.000117425116 0.038954306 0.00875019
0.012473502 0.027978046 -0.03766864 -0.0005915173 -0.026174778 0.031006387 0.005086369 -0.021925585
0.038670316 -0.026175007 -0.030436639 0.034939103 -0.02619856 0.011732799 0.005750623 0.034162004
-0.027211044 0.025716174 0.019339891 0.02093348 -0.01825231 -0.027165428 -0.013111832 -0.012782505
-0.028374959 -0.015620798 -0.027005546 -0.03596145 0.00041876762 -0.02739647 0.010298544 -0.0046201386
-0.024169125 0.016163979 -0.02573569 0.013688028 -0.028689481 -0.041153003 -0.027118111 0.03855716
0.020115208 -0.005993117 -0.002175035 0.021683501 0.023410715 -0.0162907 0.01602962 0.007785624
0.024475327 -0.04127212 -0.040272407 0.020787956 0.034649152 -0.040766317 -0.0047446517 0.019503357
0.03226434 -0.028312651 -0.015126845 0.012759455 0.01698431 0.03347382 0.014230967 -0.0071895216
-0.025335195 0.011146995 -0.014936676 -0.033727642 0.038538307 0.0045953775 -0.004374777 0.028826699
0.016103504 0.01386724 0.017527204 0.002103372 0.019575208 -0.040722094 -0.016080933 -0.028235514
-0.033997267 -0.03769974 -0.024215687 -0.0242083 0.016687239 0.021940123 0.028721226 -0.036348477
0.039693017 -0.016375998 -0.019776264 -0.035635557 -0.020886736 0.04096616 -0.0010110331 0.039875694
0.026828354 0.045231447 0.0135540385 0.0024898574 -0.019290762 -0.0041229133 -0.013524562 -0.02678778

block2.0.bias f4 [64]
00000000: 0ccb c43c d70e 58bc ec79 a83b 7893 d4bc
00000010: 5382 babc 35a4 533c 280e e0bc c691 593c
00000020: 915d e43c a0cc 53bc 0bd0 f03c bc7c 28ba
00000030: faa6 913c 7a0d 5c3c ceed 45bb bf0b a93c
00000040: 1acd 21bd f103 07bd 5e55 7e3c 1c0f 0cbc
00000050: 3eb0 b33a ed3a d73c d949 123d f0fb cb3c
00000060: 2ce7 a9bc ca9a 21bc 33be 9f3c 7ea7 9abc
00000070: 14d9 a1bc 5765 ecbb 63a6 f33c 6a26 61bc
00000080: 2722 d2bc db55 7b3c 2040 c13c 3a12 fabb
00000090: ac15 e03c d62e fbbc 6106 43bc 2d68 14bd
000000a0: b5a5 cfba 741d debc 4c34 d73c 3232 f73c
000000b0: 94f2 eb3c 3530 1d3d 3873 0d3d de1f 0ebd
000000c0: 9761 8abb 8ccb b5bc 038d 033d 7012 c9ba
000000d0: ffe7 9bbc 778e 863c a655 cdbc 6a59 21bd
000000e0: 9c96 1c3d 7d83 c23c 9df2 1dbd cef0 753c
000000f0: 5dcd 4f3b b673 9f3b 6c95 e23c db9d 123d
0.024022602 -0.013187132 0.0051414873 -0.025949225 -0.022767222 0.012917568 -0.0273505 0.013279384
0.027876647 -0.012927204 0.029396078 -0.0006427278 0.017779816 0.013430947 -0.0030201557 0.020635484
-0.03950224 -0.032962743 0.015523283 -0.008548524 0.001370914 0.026273215 0.035714958 0.024900407
-0.020740114 -0.009863565 0.019499874 -0.018878695 -0.019756831 -0.007214229 0.029742425 -0.013742069
-0.02565105 0.015340294 0.023590147 -0.0076315673 0.027354084 -0.030661982 -0.011903376 -0.036232162
-0.0015842231 -0.027113654 0.026270054 0.030175302 0.028802194 0.038376052 0.03453371 -0.03469836
-0.0042230594 -0.022191785 0.0321169 -0.0015340578 -0.019031523 0.016425354 -0.025065254 -0.039391913
0.03822957 0.02374434 -0.038561452 0.015011026 0.00317081 0.0048660887 0.02765914 0.035795074

block2.1.weight f4 [64]
00000000: 01ad 803f cd58 7f3f 1897 803f 064a 803f
00000010: 90b1 7e3f c3e6 803f 08c2 7d3f c0c1 7d3f
00000020: 0e99 7d3f 0945 803f 5b2a 803f faa9 7e3f
00000030: 27bf 803f 810a 803f ca7a 7c3f f555 7f3f
00000040: 852c 7f3f 6ccb 7e3f d46a 7f3f 0b82 7e3f
00000050: dcc4 7f3f 0053 803f 4b29 803f e71a 803f
00000060: a340 7d3f 9ae5 7f3f dd78 813f 2709 813f
00000070: 4329 7e3f 4c98 7e3f 043b 7f3f 84cf 803f
00000080: 63b4 7d3f 860e 7f3f cea2 803f ed7c 7f3f
00000090: 6300 803f f38d 803f 6132 813f ff83 803f
000000a0: f6e7 7e3f c997 7e3f 387c 7e3f 9be0 7d3f
000000b0: 104b 803f b458 7e3f e53f 7f3f 1a09 7f3f
000000c0: bf56 813f 2f14 7d3f c045 813f 3a72 7f3f
000000d0: 6f78 7f3f 82e2 803f fca4 803f 0af1 803f
000000e0: d0bc 7e3f 5b12 7f3f 5ffa 813f 2729 7d3f
000000f0: 6a2b 803f 824d 7f3f ef96 7e3f e8e4 803f
1.0052797 0.99744874 1.004611 1.002259 0.9948969 1.0070423 0.99124193 0.99123764
0.9906167 1.0021068 1.0012926 0.99478114 1.0058335 1.0003206 0.9862486 0.99740535
0.99677306 0.9952915 0.9977238 0.9941718 0.9990976 1.002533 1.0012602 1.000821
0.9892675 0.9995972 1.011501 1.0080918 0.9928171 0.99451137 0.99699426 1.0063329
0.99103373 0.99631536 1.0049684 0.99799997 1.0000118 1.004332 1.00935 1.0040282
0.99572694 0.99450356 0.9940829 0.99170846 1.0022907 0.993541 0.9970687 0.9962326
1.0104598 0.9885892 1.0099411 0.9978367 0.9979314 1.0069125 1.0050349 1.0073559
0.99506855 0.99637383 1.0154532 0.9889092 1.0013249 0.9972764 0.99449056 1.0069857

block2.1.bias f4 [64]
00000000: 6923 47bb 9f18 5cbc d52a 19bc 9238 a4bc
00000010: cb2a 3cbc 59e7 70bc 8814 29bc f5f6 ffbb
00000020: 0f8f 6bbc 3577 60bc 1673 5cbc 950b 5dbc
00000030: 3c03 05ba e9bc 8ebc 2dc3 80bc cbac 0fbc
00000040: 91f6 10bc 027b 49bc 7c7f 5ebc daeb 14bc
00000050: b5cf 96bb 3d3c afbb 00c3 3fbc a688 1cbc
00000060: 84d4 8abc 4833 93bb ea09 06bc 5697 73bc
00000070: c814 0fbc 6605 4ebc d291 3abc 8797 d8bb
00000080: a821 88bc 5855 1fbc 308f 4cbc f4fb 4bbc
00000090: 1e13 aa3b 2e6a 8ebb 0a7b 273b 9f88 8cbc
000000a0: 9ba5 acbb baa2 21bc 096f 50bc 8e7a 98bc
000000b0: 4446 d4bb 5bd2 44bc af3f 29bc 78a3 fabb
000000c0: e78b 403b 9b2c 1dbc 7ab7 46bc bf88 33bc
000000d0: 4b8e 21bc af27 2abb df27 27bb 3e7c 9cbb
000000e0: fb57 f7bb ee92 4fbc d2e4 85bb 0b0e 6abc
000000f0: f716 a0bc e5c7 30bc f068 50bc 5b0f 9cbc
-0.0030386096 -0.0134336045 -0.009348591 -0.020046506 -0.011484812 -0.014703595 -0.010319836 -0.007811422
-0.01437737 -0.013700296 -0.013455173 -0.013491531 -0.00050740293 -0.017424064 -0.015718067 -0.008769224
-0.0088478485 -0.012297394 -0.013580199 -0.0090894345 -0.0046023973 -0.005347757 -0.0117042065 -0.009554064
-0.016947038 -0.004492197 -0.008181075 -0.014867624 -0.008732982 -0.012574529 -0.011387305 -0.0066098603
-0.016617611 -0.009724937 -0.01248531 -0.012450207 0.005190267 -0.0043461537 0.0025555515 -0.01715499
-0.005268765 -0.009865457 -0.012721785 -0.018613126 -0.006478103 -0.012013043 -0.010330125 -0.0076488815
0.0029380263 -0.009593154 -0.012128705 -0.010957896 -0.009860585 -0.0025963595 -0.0025505943 -0.004775553
-0.00754833 -0.012669308 -0.0040861154 -0.014285575 -0.0195422 -0.010789846 -0.012720332 -0.01905029

block2.1.running_mean f4 [64]
00000000: 658d 3ebe aa30 ebbe 379b b0be b3c9 6d3c
00000010: a7c6 2abd 229e 09bf 3700 efbe 859c 8c3e
00000020: f442 013f 4630 3bbe 5a25 87be 51bf 4c3d
00000030: 2d5d b3be b777 a5be c235 153f ab7b c3bd
00000040: 6526 05bf 5874 b73e 42d8 33bf 6a41 60bd
00000050: ef35 8cbf a364 bb3d aaec 0fbf 2b79 0dbd
00000060: d643 1fbe a04a 3cbf 88c7 0b3e f7af e6be
00000070: d862 7abd 7bb2 e93e 060c c6bd 9d6d a4be
00000080: 7e90 e63e acc6 393f 5fad 9bbe 5341 223f
00000090: 6fad e23c 29cc d0be 1fad 98bd 3951 3cbd
000000a0: 0741 e13e a4ec ee3e b835 16bf bdae d1be
000000b0: 3c7e 473e 3b32 f5be 8b98 17bf 3b99 7fbe
000000c0: d4f6 d4bd a1f6 013e 49ee bb3d 5df0 b9bd
000000d0: 26d1 b4be 11cf 9b3d 56ff 39be 08dc d03c
000000e0: 2c69 10bf 9b43 0abf 5993 4ebd 662b 70bd
000000f0: d16d 3b3f 8690 8c3e 3852 4f3e 3cbe 88be
-0.18608625 -0.45935565 -0.3449342 0.014513421 -0.041693356 -0.53756917 -0.4667985 0.27463165
0.5049279 -0.18280134 -0.26395684 0.04998714 -0.35032025 -0.32317898 0.5828515 -0.09545072
-0.5201171 0.3583095 -0.7025186 -0.054749884 -1.0953959 0.09150054 -0.56220496 -0.034539383
-0.15553221 -0.7355137 0.13650334 -0.45056126 -0.06112942 0.45643982 -0.09670262 -0.32114878
0.45032114 0.72568774 -0.3040571 0.63380927 0.02767059 -0.40780762 -0.07454895 -0.045975897
0.43994924 0.46664917 -0.5867572 -0.40953627 0.19481748 -0.47889885 -0.5921714 -0.24960797
-0.10398641 0.12691738 0.09176309 -0.09079049 -0.35315818 0.07607854 -0.18163809 0.025495544
-0.5641048 -0.5400941 -0.05043349 -0.058635138 0.7321444 0.27454013 0.20246208 -0.26707637

block2.1.running_var f4 [64]
00000000: b37c c03d 9ba4 893e 55a9 7d3e cab5 6d3d
00000010: b0cc 593e 1ca1 263e 17fc 583f b3c3 ca3e
00000020: 1bf2 193e b553 213f ce2e dc3d eb6f 403e
00000030: 3e5e 6f3e 6134 bf3d 00bb 3d3e 8563 a13e
00000040: e594 db3e c8b6 343e 427c 5f3e 63ac 683e
00000050: 918a 573f 211f 1f3e 5e73 3e3e 4479 1a3e
00000060: fcef 1b3f fa19 793e f8ae 6c3d 832a 1a3e
00000070: fb66 c63e 8144 323e ce77 153e d786 0e3e
00000080: 1e42 6c3f 8112 863e 05f0 ad3d bb50 2d3e
00000090: 1d06 b13d c23b 2e3e 4f6b 5c3d f3eb aa3d
000000a0: c5a5 813e 8efb a93e 91cc 173f 0710 443f
000000b0: 4eea 003e 5bec d03e 6451 743e 511e 953e
000000c0: e702 a43d 3e47 543e 2e98 a23d a923 063e
000000d0: 2aff 853e ba41 ab3d c8d7 ba3d 429c c83d
000000e0: 9610 b33e 2c48 2d3e b6b9 803d eff5 403f
000000f0: 3a79 003f dfd2 6d3f 5cd4 773e f0bf cc3d
0.093987845 0.26883397 0.24771626 0.058034696 0.21269488 0.16272396 0.8475966 0.39602432
0.15033762 0.6301835 0.10751115 0.18792693 0.23375794 0.09336162 0.18528366 0.3152124
0.42887035 0.1764785 0.21824744 0.2272201 0.8419581 0.15539218 0.18598697 0.15085322
0.6091306 0.24326316 0.05778405 0.1505528 0.38750443 0.17408945 0.14596483 0.13918625
0.92288387 0.26185992 0.08493046 0.16925327 0.08643744 0.17014983 0.053813275 0.08345785
0.25321785 0.33199733 0.5929652 0.76586956 0.1258938 0.40805325 0.23859173 0.29124692
0.08008366 0.20730302 0.07939182 0.13099541 0.26171237 0.08362146 0.09123188 0.09795429
0.34973592 0.16922063 0.062854216 0.75375265 0.5018498 0.9289989 0.24202102 0.09997547

block3.0.weight f4 [64, 64, 3, 3]
00000000: 0c54 01bd 5f28 dcbc 3ad1 98bc 8527 a33c
00000010: 52b9 f83c 69f9 213d a583 97bc 65a7 4f3d
00000020: 2ed0 16bd 59b6 82bc 1646 adbc 330e 073a
00000030: abf4 efbb e607 55bc 0718 b63c 1d5e 10bd
00000040: c49a 193c 26d8 0fbc a78f 8d3c 5753 b43b
00000050: a6a2 46bb 2130 1cba 0f0f 24bd ac11 c138
00000060: 0cb1 d53c ff0e fcbc 2968 6c39 f673 ccbc
00000070: 5d8b 4abb 076f 5ebc 708d 113d fd78 bdbc
00000080: 6e94 0abd e23f d63c 3635 1d3d 7123 d23c
00000090: 9604 05bd 7001 24bd 53a0 8bbc b360 ddbc
000000a0: 765f d33c b25f 973c a639 ae3c da7d 813c
000000b0: c811 2abd c670 f7bc a684 abbc 1ee8 58bc
000000c0: 944c 0a3a e4a5 c7bb b506 963c 4681 963c
000000d0: 8a53 123d eb2f 703c 43bb ecbc 2e09 e53c
000000e0: 2cfa 02bc ffd9 003b f7bd d2bc 8469 01bd
000000f0: 60a3 1e3d efa0 1b3a a3d2 cebc 4154 debc
00000100: b236 75bc d015 943c 8be9 d33c e08c 02bd
00000110: 229d 573b 952f 013c 753b 0fbd 34dc c7bc
00000120: 5e18 9fbc 137f 39bb 888f aa3c 5d1f 033d
00000130: 1d64 0ebd 428a 1f3d b108 67bc a053 39bc
00000140: b526 1c3d 4138 25bb fa36 e43c 01e0 8abc
00000150: 4387 34bd b949 64bc 9d09 863c 4112 a7bc
00000160: aa36 0a3d 9282 73bc 597c ff3c b222 5dbc
00000170: 1415 a53c e4f5 743c 9797 323c 0c17 07bc
00000180: 344b 343d 6d18 cb3c d1ee b63c e776 eebb
00000190: 6e52 0ebd bd5f 85bc 1a06 e3b9 a8b7 c2bc
000001a0: 9158 b03c bc3d bd3c 5f65 c63c 5d91 9cbc
000001b0: 5b37 993c 26e4 f63c 913c f93c 8d6a a93c
000001c0: a12c 02bc 4bd3 aebc 8aa5 003d 26de 8d3c
000001d0: b404 c4bc 75e5 9a39 4012 babc 27b5 7fbc
000001e0: b3cb 2d3c 90de dabc c316 0bbd f0fd 05bc
000001f0: 31cf ca3c cdc4 d4bc 7932 9abb 172e e0bc
00000200: 555b c33c 6bbd dcbc fc41 dc3c cfd8 0b3c
00000210: 14df f33c a2a1 8bbc 555d 063d 9fb6 483c
00000220: 2642 a93b d8a0 9d3c a57d 3abb 5d94 ce3c
00000230: d09e 453c e8f1 78bb 279b 2ebd fe53 26bc
00000240: 2790 c4bc a051 443c dc5c 903c 5f5c 073d
00000250: 2423 0abb 9b39 7b3b 54b6 bb3c dce7 35bd
00000260: a97c bdbc fab3 533c a41d 983c 5eeb c43b
00000270: 6071 063d 6b57 8c3c f7ca 9b3c 1ee9 163b
00000280: 35b8 233d 09d5 e13c c989 8d3c 48e1 efbc
00000290: 457b e03c 90dd 47bc 7c13 c0bc 3070 30bd
000002a0: db85 7f3c 11f3 193c 43bc da3b b910 f6bc
000002b0: 6a29 853c 78ac ff3b eb09 c73c f356 e4bc
000002c0: d634 a03c ceb5 6b3c 34a0 1a3a fac6 2d3c
000002d0: 21f2 3fbd faa8 223c a14f 79bc ae0c 28bc
000002e0: 7ce5 de38 64ec 3cbc 8b87 10bd ff36 09bc
000002f0: 9235 f53c 2807 2cbd 4174 803c ce7f 47bb
00000300: e8ec d5bc 7eeb ccbc b282 e23c a3ae 02bd
00000310: d595 0ebd c751 ceb9 d94f d43c 4f9b cb3c
00000320: 9f43 b53c 5e2a e53c 2c7e 683b e369 f63b
00000330: 1567 79bc 72f4 29bd 0a89 e7bb 33dc ed3c
00000340: 1575 d738 349b df3c 8a35 0dbc e485 90bc
00000350: 8cc5 15bd 5733 373d e4d0 983b 7ada 6dbc
00000360: 04bb 29bc 6b6b dc3c ec3b 053c d7f3 013d
00000370: 5c06 a23c 7a78 c0ba 1b6e 7bbc 0b3e a8bb
00000380: 9715 76bc cbfa b93c 4e7d 8d3c 26d6 b3bb
00000390: 8855 803c 819e 873a 8cbe 913b bf89 16bc
000003a0: bf5f 383d 90e5 de3b 6651 17bd 78d7 453d
000003b0: 0d66 21bd 361e db3b c0a5 b0bc 7319 993c
000003c0: d1f4 013c b5af bebc 7964 c73c 34d1 33bd
000003d0: 2a7c cc3c 4853 393c a32d 67ba 1897 d3ba
000003e0: a4c4 0bbd 326f a33c 6e3d 1bbd 3e86 4abc
000003f0: 66ec c0bb 481d aabb 10e4 8b3b a3cf a5bc
-0.031574294 -0.02687472 -0.018654454 0.019916305 0.030361805 0.039544497 -0.01849539 0.05069675
-0.03681963 -0.01595609 -0.021151584 0.0005151957 -0.007322868 -0.013002371 0.022228254 -0.035246003
0.009375278 -0.008779561 0.017280413 0.005503099 -0.0030309348 -0.00059580995 -0.040053423 9.206249e-05
0.0260854 -0.03076887 0.00022545517 -0.024957638 -0.003090582 -0.013576276 0.035535276 -0.02312898
-0.03383296 0.026153509 0.038380824 0.025651665 -0.032475077 -0.040040433 -0.017044222 -0.027023649
0.025802355 0.018478248 0.021267723 0.015807081 -0.041520864 -0.030205142 -0.020937275 -0.013238935
0.0005275693 -0.0060927738 0.018313745 0.01837219 0.0357242 0.014659862 -0.028897887 0.027958479
-0.007994216 0.0019661186 -0.025725348 -0.03159477 0.038730025 0.0005936762 -0.025246924 -0.027139785
-0.014966654 0.018076807 0.025868198 -0.03187263 0.0032900055 0.00788488 -0.034968812 -0.024396993
-0.019420799 -0.0028304502 0.020820394 0.032012332 -0.034763444 0.038950212 -0.014101193 -0.011311442
0.03812285 -0.0025210532 0.027858246 -0.016952517 -0.044074308 -0.0139335925 0.016362006 -0.020394446
0.033743538 -0.014862673 0.031187223 -0.013497042 0.020151652 0.014951203 0.0109004 -0.008245241
0.04401703 0.02479192 0.022330673 -0.007277358 -0.03474658 -0.016281003 -0.0004330136 -0.023769215
0.021526607 0.023100726 0.02421826 -0.019112283 0.018703153 0.030138087 0.030424388 0.02068069
-0.007945211 -0.021340987 0.03140787 0.017317843 -0.023928024 0.00029544128 -0.02271378 -0.015607155
0.010607648 -0.026717454 -0.033957254 -0.008178219 0.024757 -0.025972748 -0.004705724 -0.027365727
0.023847261 -0.02694579 0.026886933 0.008535578 0.029769458 -0.017044846 0.032803852 0.0122505715
0.005165356 0.019241735 -0.0028456238 0.02521723 0.01206179 -0.0037985984 -0.042628434 -0.010151861
-0.023994518 0.011982352 0.017622404 0.033047076 -0.0021078074 0.0038333896 0.02291409 -0.04441057
-0.023130732 0.012921328 0.018568821 0.0060095033 0.032822967 0.017131528 0.01901768 0.0023027132
0.039970595 0.027567403 0.017277615 -0.029282227 0.02740253 -0.012198821 -0.02344679 -0.04307574
0.0155958785 0.00939633 0.0066752746 -0.03003727 0.0162551 0.0078025423 0.024296721 -0.027873492
0.019556444 0.014386607 0.0005898506 0.010606522 -0.04686177 0.009927982 -0.015216739 -0.010256929
0.0001062853 -0.011530969 -0.035285514 -0.0083749285 0.02993277 -0.041999012 0.015680434 -0.0030441168
-0.026113942 -0.025014635 0.027650211 -0.031904828 -0.03481086 -0.0003935231 0.02591698 0.02485433
0.02212697 0.027974304 0.0035475595 0.007519947 -0.015222331 -0.041492887 -0.007065897 0.029035663
0.00010273807 0.027295686 -0.008618722 -0.017641969 -0.03656535 0.044726696 0.0046635736 -0.014517421
-0.010359529 0.02690669 0.008131962 0.031726684 0.019778423 -0.0014684342 -0.015346075 -0.005134349
-0.015019796 0.022702595 0.017271664 -0.005488175 0.015665784 0.001034692 0.004447764 -0.009188115
0.045013186 0.0068022683 -0.036942862 0.04830119 -0.039403964 0.006686951 -0.02156341 0.018688893
0.007931904 -0.023277143 0.024339901 -0.043900684 0.02496155 0.01131136 -0.0008818751 -0.0016143052
-0.034123078 0.019950483 -0.03790038 -0.012361107 -0.005887556 -0.005191479 0.0042691305 -0.02024061

block3.0.bias f4 [64]
00000000: 9329 943b 09c6 88bb d18a e6bc 7a39 a5bc
00000010: 8a8a 203d bda9 a33b d246 0cbd e86d 13bd
00000020: 4100 1dbd bdc8 19bd 9dda 86bc 8be6 cebb
00000030: 7a84 ad3c 2da6 15bd 05d3 f43c 21c6 15bd
00000040: 5dc2 aa3c ad71 1bbc f64e 1fbb 7b9c 25bd
00000050: e6c8 523c 3469 afbc 119c 0cbd e5b8 083d
00000060: 7a28 b2bb 1635 dcbc 4bec 9b3c 1c19 58bc
00000070: 25d6 033c 71e2 01bd e183 e93c e9a6 65bb
00000080: 9bb2 8bba c9c1 30bd ef69 b83c 5b30 dfbb
00000090: 86e7 123d 9ac1 a4b8 3279 0cbd ca7a 98bc
000000a0: 330b 073c f645 19bd fad3 8dbc aff2 63bc
000000b0: c205 99bc 7e11 d9bc 86b3 06bd 58b9 ee3c
000000c0: bf4d f83a 8c13 a4bc 0f7e d23b 0131 17bd
000000d0: 60b9 74bc 6cb2 91bb 1d0f 02bd 52f2 19bc
000000e0: 94f8 0e3d d154 433b 27f4 d0bc 5649 05bd
000000f0: 510c 163c fb72 18bc d44c b03c 7668 b63a
0.0045215576 -0.0041739983 -0.028142365 -0.020169009 0.03919462 0.0049945996 -0.034247227 -0.035993487
-0.03833032 -0.037544955 -0.016461665 -0.006314104 0.021181334 -0.03653543 0.029885778 -0.036565904
0.020844633 -0.009487552 -0.002430854 -0.040432435 0.012865281 -0.02141247 -0.034328524 0.033379454
-0.005436954 -0.026880782 0.019033572 -0.01318958 0.0080466615 -0.031710092 0.028505268 -0.0035042113
-0.0010658087 -0.043153558 0.02251145 -0.0068111843 0.03586533 -7.8561905e-05 -0.03429527 -0.018613238
0.008242416 -0.037420236 -0.017312992 -0.013912841 -0.018679503 -0.026497599 -0.03288605 0.029141113
0.0018944069 -0.020028852 0.0064237188 -0.03691197 -0.014936775 -0.0044463184 -0.031752694 -0.009396153
0.03490503 0.0029805193 -0.025507046 -0.03254064 0.00915821 -0.009304757 0.02152101 0.001391663

block3.1.weight f4 [64]
00000000: ccaf 803f b589 7d3f 9bc6 7e3f d704 7f3f
00000010: 890d 7f3f c390 7f3f 8926 7e3f ae00 803f
00000020: 9f5a 803f ad83 7f3f 672c 803f 8081 7f3f
00000030: ab11 7f3f 5bac 803f cc99 7d3f ddb9 803f
00000040: 5415 7f3f 2d09 7e3f 2287 7f3f 5f68 803f
00000050: 0ee5 7c3f 05a7 7e3f 5cd2 803f 9e21 803f
00000060: 188f 7c3f f896 7d3f f0f9 7f3f 772f 813f
00000070: 92ce 7e3f d578 803f 026a 813f 21d4 7e3f
00000080: de2c 803f a4ee 7f3f 9129 803f f634 803f
00000090: f9b2 803f 0259 803f 521c 803f 2153 803f
000000a0: 3471 7e3f f7cb 7d3f 40da 803f e3ba 7f3f
000000b0: 8e6d 7f3f 026e 813f f322 803f 7ecd 803f
000000c0: d11d 7f3f 1bde 7c3f 94f0 803f 9680 803f
000000d0: 8516 813f 9f15 7f3f 5c24 803f 7326 813f
000000e0: 7af2 813f ef6d 7f3f 7c17 7e3f a134 803f
000000f0: 064d 803f 0ac5 803f 06ef 7c3f a756 7e3f
1.0053649 0.9903825 0.995218 0.9961676 0.9963003 0.99830264 0.9927755 1.0000207
1.0027655 0.99810296 1.001355 0.99806976 0.99636334 1.0052599 0.990628 1.0056721
0.9964192 0.9923275 0.9981557 1.0031852 0.9878701 0.994736 1.0064197 1.0010259
0.98655844 0.99058485 0.9999075 1.009261 0.9953395 1.0036875 1.0110476 0.99542433
1.0013692 0.9997351 1.0012685 1.0016162 1.0054618 1.0027163 1.0008643 1.0025369
0.99391484 0.9913935 1.0066605 0.9989454 0.9977654 1.0111697 1.0010666 1.0062711
0.9965487 0.98776406 1.0073419 1.0039241 1.0084997 0.99642366 1.0011096 1.0089859
1.0152123 0.9977712 0.99254584 1.0016061 1.0023506 1.0060132 0.9880222 0.9935097

block3.1.bias f4 [64]
00000000: d669 3dbc f006 6abc bd17 4dbc aa3b 80bc
00000010: 8317 c9bb 7291 5bbc ead2 d0bc 25f5 8dbb
00000020: 1f7f 71bc 5c83 62bc 97ea f0bb 3295 4abc
00000030: fb0f 35bc 8240 1a3b b2c6 5cbc 9da1 d0bc
00000040: 9ae4 42bc 583c 23bc d7ac 07bc 26e4 5ebc
00000050: d51e 8bbc c5e4 8bbc 7130 a0bb 7187 72bc
00000060: 7c51 a8bc 775f cebb 14f9 c1bc 1acb 69bc
00000070: b8cc edbb 6e75 f8bb 74a0 d0bb da7a e8bb
00000080: 9ac6 9fbb 09aa d8bb 1341 00bc b109 cabb
00000090: 4029 7ebc 6342 b5bc ba96 3fbc 73e0 0abc
000000a0: 32e0 31bc 9df7 5bbb 5283 8bbc dbf6 a8bc
000000b0: 77bb 39bc b4c3 c9bb 2c67 2abc 3dd8 3abc
000000c0: cd22 d4bb 62cf 8bbc ae48 32bc cef5 95bc
000000d0: f54f f0bb bfe9 8dbc b1e6 52bc 529c b1bb
000000e0: 65ad 18bc 8de8 5dbc 8ab7 76bc 0bc7 5fbc
000000f0: b45e 80bc b471 58bc 876b b2bc 1cac 7dbc
-0.011560878 -0.014283881 -0.012517867 -0.01565345 -0.006136836 -0.013401376 -0.025491197 -0.004332202
-0.014739781 -0.013825264 -0.007352184 -0.0123646725 -0.011051173 0.0023536985 -0.013475107 -0.025467688
-0.011895323 -0.009963118 -0.008280954 -0.0136041995 -0.016982475 -0.01707686 -0.004888587 -0.0148028
-0.020546667 -0.0062980014 -0.02367834 -0.014269615 -0.0072570704 -0.007582358 -0.0063667838 -0.007094723
-0.00487597 -0.0066120666 -0.007828015 -0.006165706 -0.015512764 -0.022126382 -0.011693651 -0.008476364
-0.010856675 -0.0033564337 -0.017030392 -0.020625522 -0.011336199 -0.006157363 -0.010400575 -0.011404094
-0.006473875 -0.017066661 -0.010881586 -0.018305685 -0.0073337504 -0.017323373 -0.012872384 -0.005420246
-0.009318684 -0.013544214 -0.015058408 -0.013658295 -0.015670158 -0.013210703 -0.021779789 -0.015482929

block3.1.running_mean f4 [64]
00000000: de30 33bc 625f 25be 692f 97bd 5996 edbe
00000010: de3e 2dbe 9b15 4e3e 47c7 693b 4244 69be
00000020: b7b6 3dbc 10db a9be 0aa1 dbbd 1dc7 f23c
00000030: 3add f63b 3d32 57bf b234 1bbe 48dc 843e
00000040: 5587 debd 4479 983e f6e9 013e cfd2 113d
00000050: 1529 09bd 8b8e c23e 8a15 cfbe f30d f63d
00000060: 3b8b 983d 962e 79be 416b c33d 596c 2c3e
00000070: 4843 6f3e 1918 c63d 22dd 65be 47e8 7fbf
00000080: 2f13 07bf d7ae 853e 8570 433e 3a66 ccbe
00000090: f268 ca3d 706d 9d3e 72ae e53d e8e9 38be
000000a0: 1bd5 72bf 0ec7 8abe e37c a23e c94f 96be
000000b0: e726 f83d a0bb b43e dd8f 593e 1d0e 8cbe
000000c0: b98d 2f3c 795a 093e eb54 b53e f836 103d
000000d0: 5ab9 81bd c4c7 bf3d 097b 763e 2409 68bf
000000e0: f1b3 ca3d aa92 9d3e 5616 503e 3117 d5bd
000000f0: 5055 d63e be17 c03e a0ad b13e b1c7 b5be
-0.010936944 -0.16149667 -0.0738209 -0.4640377 -0.16918513 0.2012543 0.0035671757 -0.22779945
-0.011579207 -0.33174944 -0.10724075 0.02963596 0.0075336965 -0.8406103 -0.1515682 0.2594931
-0.10865656 0.29780018 0.12686905 0.035601433 -0.033486445 0.37999377 -0.4044612 0.12014379
0.07448431 -0.24334177 0.095419414 0.16838206 0.2336551 0.09672565 -0.22447637 -0.999638
-0.52763647 0.26109955 0.19085892 -0.39921743 0.09883298 0.30747557 0.112149134 -0.18057978
-0.94856423 -0.27104992 0.31735906 -0.29357746 0.12116795 0.35299397 0.21246286 -0.27354518
0.010714942 0.13413419 0.3541635 0.035208672 -0.06334181 0.09364274 0.24070372 -0.9063895
0.09897602 0.30775958 0.2032102 -0.10404814 0.41861963 0.37518114 0.34702778 -0.35503915

block3.1.running_var f4 [64]
00000000: 6510 143e bb7c 703e 2559 433e 3e39 6a3e
00000010: 4749 8e3e 4619 083e d285 543e 361e 183e
00000020: 3fbc 153e c40e 7f3e 1900 893e 2422 263e
00000030: a9c8 9b3e f973 973e 79cf a43e 533f 333e
00000040: 12a9 413e 3ad8 e13e 59db 6e3e 8ae0 c13d
00000050: 44b5 873e c779 443e 9a21 5b3e 864b 7a3e
00000060: 85a2 8d3e 72f9 6e3e d1e6 b63e f3b8 fd3d
00000070: 7fb9 343e 413e 813e 22d3 463e fe29 1e3f
00000080: 12f6 d63e 224e a93e 6255 423e 3dda 973e
00000090: 1c41 313e 76d1 ca3e d990 ec3d be6b 433e
000000a0: efe4 3d3f 77f6 703e bfb4 293e 340d 6b3e
000000b0: 3eee 6c3e 23b4 743e fe4f a73e e21a af3e
000000c0: 2380 623e 540b 3d3e 88bb 343e d91b 823e
000000d0: d27d f33d bfae ef3d 8013 953e 8f4a fa3e
000000e0: 15cc 0b3e 0014 493e 1631 433e 1bba 513e
000000f0: 3266 6c3e 413e 163e 2841 9c3e e15d 463e
0.14459379 0.23485081 0.19076975 0.22873399 0.2779028 0.13290891 0.20754173 0.14855275
0.14622591 0.24907976 0.26757887 0.16223961 0.3042653 0.29580668 0.3218954 0.17504625
0.18912151 0.4411028 0.23325862 0.094666556 0.26505482 0.1918708 0.21399537 0.24442872
0.27663055 0.23337343 0.35722974 0.12388792 0.17648886 0.25242808 0.19416478 0.61782825
0.41984612 0.33067423 0.18977883 0.2965869 0.17309994 0.3961293 0.11551065 0.19084069
0.7417745 0.23531519 0.16572855 0.22954255 0.23137757 0.23896842 0.32678217 0.34200197
0.22119193 0.18461353 0.17649662 0.2541187 0.11889233 0.11703252 0.2911644 0.4888501
0.1365207 0.19636536 0.19061694 0.2048115 0.2308586 0.14672185 0.3051846 0.1937175

block4.0.weight f4 [64, 64, 3, 3]
00000000: d231 123c 5c97 00bd ffc2 d83c 6acd 213c
00000010: 1c65 c93c af88 093d fc5c ea3c 052c 0ebd
00000020: de47 1e3c 2f80 ae3c 95af e8bc dff4 7d3c
00000030: 5aee 133c e508 053d 1562 33bd d4f2 14bd
00000040: 6789 28bd 2f90 f93c 845f 25bc 95bf 1b3d
00000050: 6f41 11bc 3f33 cf3c acb5 a23c 8cfc 1ebd
00000060: 0f15 eb3c 1314 d33c 7f9c e6bc 9337 12bd
00000070: 1b0a 893c d88a 263d af53 febc 74fe a13c
00000080: ba25 403c 1e4a 92bc d2cb 213c 4785 973c
00000090: 2488 e2bc e310 1cbd e4aa f8bb 5e41 5ebc
000000a0: 9fac 75bc 8752 513c 8bed 333c 38b5 dd3c
000000b0: 6e29 c8bc 486f 17bd 5470 cd3c a088 2dbc
000000c0: 160e 1bbc e1ec b63c 4b1a 8cbb d8dc b63c
000000d0: 3b7c 013d 9c73 bd3c 106e 45bd b52d ea3c
000000e0: 6138 0b3c aaff c43c 0b26 713c 2666 b3bc
000000f0: d7b6 d53c b0ef 213d 05c2 da3c 9eeb 9a3b
00000100: d19f aa3c d522 c93c c0c1 7f3c 5bab 2cbd
00000110: b4d4 843c 5183 5d3c b3cd 12bd 026f 1e3d
00000120: d279 473c 2e0e 08bd cf89 0b3d a3d0 293b
00000130: 1ca1 a6bc 2098 f0ba 6534 a23c c46e 23bd
00000140: f630 fabb 669f 973a 0d44 56bc 747a 973c
00000150: 3277 943b 0711 9c3c d5bf f7bc a5db 283d
00000160: 62fc 97bc b382 203b cd0b bb3c bc39 f4bc
00000170: ec34 c7bc 898d 113d 9d42 a83c a834 413c
00000180: 663f 273c d72a 273d 1f5d 05bd d4a5 193d
00000190: c2fd cdbb 5b96 bb3c da8b 2ebd 586f 85bc
000001a0: 46ee ca3a d29b ee3c f6bb 7d3c 0958 263d
000001b0: 836f 00bd 4493 3cbc 7f51 383d 7f98 df3b
000001c0: 919b c0bc 4f48 023d bcbe 2b3c 6267 1d39
000001d0: 21ec 0dbc 2f5d e63c 61b6 93bc d048 843c
000001e0: f454 363d e19c fbbc 1a24 e33c 9ea9 a1bb
000001f0: 0201 03bc a390 dd3c 2277 31bb 6196 aa3c
00000200: 84eb 243d 4a67 bf3c 2e2b 09bd 948b a4bb
00000210: 9849 e33b 2b90 15bd 1dfb e73c 6fb1 afbc
00000220: 952f 573c b20d d7bc 613b a43b 8ddc 883c
00000230: e971 acbc ca05 29bd 1e1d 17bc c1a3 c1bc
00000240: c881 ad3c 02c8 fe3c 790e ac3c 3cc6 1ebd
00000250: 79dc 18bd cf19 1bbd 6d65 c63c 88fb d33c
00000260: 09c4 dcbc ac0f 02bd dd2e 0fbc 5744 583c
00000270: a119 143c 3528 e83c 17c4 dd3b 280a c33b
00000280: ae59 acbc ce1f bcbc d628 383d c835 e3bc
00000290: 8efd 5a3c df7b 2abd d95a 27bd 376f 10bc
000002a0: 1269 14bd b625 2f3c e063 273b 4936 96bc
000002b0: b89a 12bd f7e4 39bc 2a22 9bbc 8d10 d93c
000002c0: d6b0 31bd dc96 91bc 0352 dc3c 36b6 1abd
000002d0: b372 fabc fa9b d0bc 4b31 753c b947 593c
000002e0: 3b12 f43c de48 9bbb 5d2e 223d 6099 7ebc
000002f0: a293 ef3c 758f eb3c 740b 0dbd f8a1 e83b
00000300: 2d94 55bc c6c2 18bd a1a1 f2bc 5f0c 183d
00000310: 56b4 263c 7506 023d 3312 3cbc fb06 1fbd
00000320: 3c61 803b 7cd7 38bc 16ad f8bc 0020 cc3c
00000330: 80fc eabb 3ced 85bc 3a46 0a3c d677 fc3c
00000340: 857c 923c d439 a5bc 1720 bfbc d742 8b3a
00000350: af5a c03c d58c 71bc e4da 013d 2664 f4bb
00000360: 0b80 14bd 7a17 b13b f78f 623b 4014 e5bc
00000370: 84c6 2dbd 75a4 bbbc f8e2 a93c 1dba adbc
00000380: f966 033d 9c16 623c 9b2c b33c bd6d 14bd
00000390: 7ae2 3f3c 09bc adbc 55f4 d33c 932d 76bc
000003a0: 74d8 91bc d915 2e3d 3c95 b0bb b010 1b3d
000003b0: 0bdc 3f3d bb19 c0bc 941b 0a3d 4d5f 0fbc
000003c0: da9f 08bd a3f9 23bb 6ab9 da3c 0f4d 02bb
000003d0: 8e9c 73bc 28eb 833c 9b3d 26bc f9e2 3dbd
000003e0: 339e 13bd 0a93 8b3c d395 58bc 0634 e5bc
000003f0: c13b c3bc 3ad5 1c3c 0cb9 a1bc ecff 6b3b
0.008923011 -0.031394348 0.026460169 0.009875635 0.024584346 0.033577617 0.028608792 -0.03470995
0.009660689 0.021301357 -0.028404037 0.015500276 0.009028995 0.032479186 -0.04379471 -0.03636439
-0.041146662 0.03046426 -0.0100935735 0.038024504 -0.008865698 0.02529299 0.019862019 -0.038815066
0.028696565 0.025766408 -0.028150795 -0.03569753 0.016728451 0.040659755 -0.031045763 0.019774653
0.011727745 -0.017857607 0.009875255 0.018496169 -0.027652808 -0.038102042 -0.007588731 -0.013565389
-0.014994769 0.012776024 0.010981928 0.02706395 -0.024433818 -0.03697136 0.025077976 -0.010591656
-0.009463808 0.02232975 -0.0042755953 0.022322103 0.031612616 0.023126416 -0.048200667 0.028586248
0.0084973285 0.024047691 0.014718543 -0.021899294 0.026088161 0.039535224 0.026703844 0.004727795
0.02082816 0.024552742 0.015610158 -0.042155605 0.016214706 0.013520078 -0.0358407 0.038680084
0.01217504 -0.033216648 0.03406697 0.002591171 -0.020340495 -0.0018355884 0.019800374 -0.039900556
-0.007635231 0.001156789 -0.013077748 0.018491007 0.0045308108 0.019051088 -0.03024284 0.041225094
-0.018552963 0.0024491965 0.022832775 -0.029812686 -0.024317227 0.03553537 0.020539576 0.011792339
0.010207986 0.04081234 -0.03255951 0.03751166 -0.006286354 0.022898844 -0.04261384 -0.016288444
0.0015482388 0.029127035 0.015486708 0.0406113 -0.031356346 -0.01150972 0.044999596 0.006823599
-0.02351168 0.03180724 0.010482486 0.000150112 -0.008662255 0.028120605 -0.018031301 0.016148001
0.04451461 -0.030714454 0.027727176 -0.00493355 -0.007995846 0.027046507 -0.0027079065 0.02082366
0.040263668 0.023364682 -0.033488445 -0.005021522 0.0069362633 -0.036514442 0.028317982 -0.021446912
0.013133903 -0.026251648 0.0050119613 0.01670673 -0.02105041 -0.041265287 -0.009223251 -0.023637654
0.021180049 0.03110123 0.021002995 -0.03876327 -0.037319634 -0.03786641 0.024218285 0.025876775
-0.026948946 -0.031753227 -0.0087392 0.013199887 0.0090393135 0.028339485 0.0067677605 0.0059521385
-0.021038856 -0.022964384 0.04496082 -0.027735606 0.013366116 -0.04162204 -0.040858123 -0.008815578
-0.036233015 0.010690143 0.0025541708 -0.018336432 -0.035792083 -0.011346093 -0.01893719 0.02649715
-0.043381535 -0.01777213 0.026894575 -0.037771426 -0.030572271 -0.025465 0.014965366 0.013261729
0.02979385 -0.004738911 0.039594997 -0.015539497 0.029245201 0.02875493 -0.03443475 0.0070993863
-0.013035816 -0.037295125 -0.029618086 0.037121173 0.010174831 0.03174444 -0.011478948 -0.038825016
0.0039178412 -0.011281844 -0.030355971 0.024917603 -0.0071712136 -0.016348474 0.008439595 0.030818861
0.017881641 -0.020169176 -0.023330731 0.0010624778 0.023480741 -0.01474305 0.03170289 -0.0074582277
-0.036254924 0.00540441 0.0034570673 -0.027963758 -0.042425647 -0.022905568 0.02073811 -0.02120691
0.032080624 0.013799336 0.021871855 -0.036237467 0.011711711 -0.021207826 0.025873343 -0.015025514
-0.017803408 0.042501304 -0.005388884 0.03785771 0.04684071 -0.02344977 0.033717707 -0.008750749
-0.03335557 -0.0025020621 0.02669974 -0.0019882356 -0.0148688685 0.016103342 -0.010146524 -0.046359036
-0.036039542 0.017037887 -0.013219315 -0.027978908 -0.023832204 0.009572322 -0.019741558 0.0036010696
