results/old/basic/basic_14.pth (torch, 961549 bytes, 26 tensors)

block1.0.weight f4 [64, 1, 3, 3]
-0.14072795 -0.16584319 -0.23534057 0.09323629 0.33229166 -0.09866563 -0.052279394 -0.25697717
0.18128163 0.1448765 -0.2610153 0.23560365 0.21632922 -0.19660166 0.28010184 -0.3139508
0.0665709 -0.10590426 0.2082598 0.3109586 -0.28537828 0.20427041 -0.15671766 0.31769863
-0.0725063 -0.31938043 0.06339802 0.17260818 0.30602908 -0.23787925 0.2052971 0.10578173
0.059643287 0.20867339 -0.18312162 0.14624391 -0.11672363 -0.24916463 -0.11045901 -0.026892792
0.34771496 -0.017078929 -0.2319359 0.26276797 -0.23086672 0.1112308 -0.11310688 0.21730529
-0.03812532 0.258469 -0.10554431 0.13332912 0.13432619 -0.014094554 -0.2468818 0.32345295
0.18807863 -0.23143454 -0.20784885 -0.08449455 -0.29007483 0.0707392 -0.04983302 -0.32596377
-0.31428322 0.047913417 0.33018047 0.08262256 0.20022464 -0.20859762 0.27421373 -0.07789117
-0.0594496 0.28292227 -0.13920106 -0.023866827 0.10068159 0.11099556 -0.08959575 -0.04243362
0.23908453 -0.19326226 -0.31920266 -0.20707543 0.10843554 -0.18039262 -0.32350186 0.11337961
-0.24892403 0.16880406 0.025931304 0.17760558 -0.090301834 -0.17148058 0.17706609 0.1956568
-0.12186271 0.2008319 -0.2650286 -0.14725225 0.16898385 0.034035496 0.16093336 -0.32906193
0.07582723 0.14557342 -0.024243416 0.30002624 -0.012938392 -0.13128541 0.120797336 -0.30610678
0.21239375 -0.041863836 -0.072583556 -0.031726994 -0.26252672 -0.14300339 -0.2947318 -0.22815382
-0.0067644566 -0.0847715 -0.0211651 0.327453 -0.30954185 0.0028212874 0.00741808 -0.26795584
0.13384567 0.19275965 -0.12912655 -0.08714074 0.32660645 0.1829303 0.16434191 -0.009938925
0.2758652 0.2213167 0.29200915 -0.18346086 0.20958848 0.05870758 -0.1369964 -0.14392796
0.3253399 0.11136232 -0.29449412 -0.1055983 -0.29894593 0.12770443 -0.13457514 0.057179343
0.2092539 0.0551726 -0.16469942 -0.28819695 -0.093826 0.10640639 0.16039877 0.27688223
0.058720175 -0.026241075 0.016376043 -0.21042731 -0.2531519 0.12870221 0.216387 0.29442713
0.19353116 0.0024688975 0.18115014 0.07907797 0.13578974 -0.17195101 -0.26316258 -0.0045948625
-0.038599435 0.27876472 -0.093050525 0.21580395 -0.031234436 0.2570145 0.0018478779 0.22022377
-0.2146301 -0.28214923 -0.14208551 0.23940927 -0.28662485 0.19878416 -0.24606705 -0.17529438
0.26718384 -0.01125473 0.24653226 0.2161446 -0.30478802 0.090296976 0.07621674 -0.19095597
-0.15610719 -0.20927577 0.21951021 -0.28962925 -0.33862013 -0.025911292 0.14120492 0.21865563
-0.0019472389 -0.0435036 0.04088675 0.2204268 0.2618 -0.10195465 0.16356108 0.0011173383
-0.15897831 0.05743737 -0.25812948 0.09461807 0.071018375 -0.065028794 0.3052762 -0.058056783
0.27710256 0.11872288 0.23748596 0.038663186 -0.33193365 0.29813096 -0.14620656 0.03101663
0.15787692 -0.22271696 0.25923562 0.010323173 0.2357551 -0.12766354 0.18663506 0.21121435
0.18615429 -0.062537685 0.16846403 0.09402964 -0.19230123 0.2706976 0.16633077 0.06812596
-0.26379603 0.25970083 -0.34465 0.17529328 -0.02675324 -0.23444884 0.2290305 -0.27434617
00000000: fd1a 10be ccd2 29be 1efd 70be abf2 be3d
00000010: 2222 aa3e 3511 cabd eb22 56bd 8392 83be
00000020: e4a1 393e 815a 143e cca3 85be 1542 713e
00000030: 6885 5d3e f251 49be 8269 8f3e 29be a0be
00000040: 5356 883d 55e4 d8bd 0f42 553e f735 9f3e
00000050: 1a1d 92be 432c 513e 987a 20be 65a9 a23e
00000060: 2f7e 94bd d585 a3be d2d6 813d 33c0 303e
00000070: d8af 9c3e 9e96 73be 6739 523e 17a4 d83d
00000080: 854c 743d 7aae 553e 3c84 3bbe f7c0 153e
00000090: cc0c efbd 0325 7fbe 5538 e2bd 464e dcbc
000000a0: b207 b23e 1ce9 8bbc 9b80 6dbe 8689 863e
000000b0: 5368 6cbe f9cc e33d 94a4 e7bd 4785 5e3e
000000c0: 4c29 1cbd 0c56 843e 9d27 d8bd 6e87 083e
000000d0: ce8c 093e d8ec 66bc 95ce 7cbe a09b a53e
000000e0: af97 403e 2dfd 6cbe 54d6 54be 7b0b adbd
000000f0: b084 94be b7df 903d b51d 4cbd b9e4 a6be
00000100: bbe9 a0be dc40 443d 6a0d a93e 0436 a93d
00000110: b007 4d3e 9d9a 55be be65 8c3e 6885 9fbd
00000120: 6c81 73bd 30db 903e b98a 0ebe 5d84 c3bc
00000130: 2632 ce3d a451 e33d fa7d b7bd e0ce 2dbd
00000140: 93d2 743e 8be6 45be 886e a3be 950b 54be
00000150: 7413 de3d d8b8 38be 09a2 a5be 9233 e83d
00000160: f1e5 7ebe f9da 2c3e e36d d43c 3dde 353e
00000170: 2bf0 b8bd 9b98 2fbe d050 353e 425a 483e
00000180: 2893 f9bd e1a6 4d3e d4b1 87be 4bc9 16be
00000190: 1a0a 2d3e ce68 0b3d b7cb 243e ce7a a8be
000001a0: 4f4b 9b3d 3311 153e 219a c6bc 0a9d 993e
000001b0: 8dfb 53bc af6f 06be 9864 f73d 07ba 9cbe
000001c0: bf7d 593e 6a79 2bbd b0a6 94bd 2af4 01bd
000001d0: e769 86be 7b6f 12be 16e7 96be 28a1 69be
000001e0: 60a8 ddbb ae9c adbd 6f62 adbc eba7 a73e
000001f0: 457c 9ebe 59e5 383b 5d13 f33b 8231 89be
00000200: d70e 093e c962 453e c039 04be d876 b2bd
00000210: f638 a73e 1552 3b3e 3f49 283e dfd6 22bc
00000220: 343e 8d3e d8a0 623e 3982 953e 2add 3bbe
00000230: 5d9e 563e 5c77 703d c948 0cbe da61 13be
00000240: f492 a63e ee11 e43d efc7 96be ec43 d8bd
00000250: 710f 99be f3c4 023e 11ce 09be e334 6a3d
00000260: a846 563e aafc 613d f7a6 28be 8d8e 93be
00000270: d927 c0bd 98eb d93d 933f 243e 82c3 8d3e
00000280: 9184 703d 86f7 d6bc 0d27 863c 427a 57be
00000290: 209d 81be 83ca 033e 8e94 5d3e 27bf 963e
000002a0: 082d 463e 3acd 213b 6c7f 393e a1f3 a13d
000002b0: 770c 0b3e ed13 30be 3fbd 86be 8090 96bb
000002c0: 711a 1ebd 40ba 8e3e 4691 bebd b6fb 5c3e
000002d0: 5cdf ffbc 6897 833e 7e34 f23a 5782 613e
000002e0: fec7 5bbe dd75 90be dd7e 11be b427 753e
000002f0: 7ec0 92be 138e 4b3e 00f9 7bbe 5f80 33be
00000300: 52cc 883e c265 38bc f472 7c3e 0355 5d3e
00000310: 2d0d 9cbe 9fed b83d 8617 9c3d f689 43be
00000320: 90da 1fbe 634c 56be 49c7 603e 494a 94be
00000330: 9e5f adbe eb43 d4bc 0698 103e 43e7 5f3e
00000340: 7f3a ffba d530 32bd dd78 273d 90b7 613e
00000350: a60a 863e 99cd d0bd 8e7c 273e a773 923a
00000360: 36cb 22be 7343 6b3d 8c29 84be 1ec7 c13d
00000370: 1572 913d d12d 85bd 294d 9c3e f3cc 6dbd
00000380: 63e0 8d3e fb24 f33d 852f 733e 4a5d 1e3d
00000390: 35f3 a9be 9fa4 983e 2cb7 15be 9616 fe3c
000003a0: 7daa 213e ea0f 64be 88ba 843e 8722 293c
000003b0: c969 713e 3bba 02be 431d 3f3e 9348 583e
000003c0: 3b9f 3e3e c213 80bd d681 2c3e 9d92 c03d
000003d0: 9dea 44be e098 8a3e 9d52 2a3e a085 8b3d
000003e0: 4610 87be 82f7 843e f775 b0be 1580 333e
000003f0: 9c29 dbbc 5b13 70be f986 6a3e 1a77 8cbe

block1.0.bias f4 [64]
0.26913905 -0.3128103 0.13132362 0.140311 -0.2616281 -0.01811807 0.05905776 -0.18135056
0.06585911 -0.09251109 -0.15049446 -0.11574268 -0.22788 -0.28985927 0.23591207 0.096802354
0.05121923 0.23552305 -0.15356863 -0.24706645 0.009660819 0.15089683 0.105501674 0.2632313
-0.0057633077 0.23223828 -0.06770189 0.12235545 0.11226713 0.2971985 -0.014378513 0.15689936
-0.22142424 0.30258235 -0.2011281 -0.074460566 0.043328356 0.20650016 -0.19986227 0.3049905
-0.27563578 -0.13987084 0.26959917 -0.16080162 0.06640613 -0.28047323 -0.2874362 -0.28644282
0.14284462 0.14321898 -0.03238303 0.047762424 0.31883875 0.004529756 -0.1807322 0.06099442
-0.25793174 -0.21393538 -0.05065358 -0.12137659 0.31185544 -0.092295706 0.17364144 0.055572543
00000000: 98cc 893e ac28 a0be b379 063e b0ad 0f3e
00000010: 1ef4 85be 596c 94bc 8de6 713d f6b3 39be
00000020: 24e1 863d 7476 bdbd 381b 1abe 800a edbd
00000030: 6059 69be 6f68 94be ef92 713e 5040 c63d
00000040: 41cb 513d f42c 713e 1841 1dbe fdfe 7cbe
00000050: 6948 1e3c b384 1a3e 4311 d83d 41c6 863e
00000060: 21da bcbb dfcf 6d3e 4aa7 8abd 7f95 fa3d
00000070: 4fec e53d 672a 983e db93 6bbc 3aaa 203e
00000080: 09bd 62be 13ec 9a3e 86f4 4dbe c87e 98bd
00000090: 1379 313d c774 533e b2a8 4cbe b727 9c3e
000000a0: 2220 8dbe 4d3a 0fbe e708 8a3e 2ea9 24be
000000b0: f0ff 873d 309a 8fbe d62a 93be a2a8 92be
000000c0: dc45 123e ffa7 123e 11a4 04bd 88a2 433d
000000d0: d53e a33e 596e 943b dd11 39be 49d5 793d
000000e0: a10f 84be e011 5bbe 217a 4fbd 4a94 f8bd
000000f0: 84ab 9f3e 8805 bdbd 10cf 313e 09a0 633d

block1.1.weight f4 [64]
0.98436135 1.0064591 0.99011403 0.9820649 0.9922561 0.98880106 0.981543 1.0352274
0.990451 0.9888274 0.9997997 0.99169 0.98726046 0.9892623 0.98911756 0.9844743
1.0443873 1.0092967 0.98826575 0.99458784 0.9886736 0.99330026 0.98864985 0.9902179
0.9912005 0.9965526 0.9794914 0.99156016 0.99058074 0.9847843 0.988867 0.9895001
1.0327384 1.0182375 0.9812265 0.9919328 1.009562 0.9874839 1.0052258 0.99626064
0.9907797 0.98607427 1.0172713 0.9966875 1.007725 1.0053065 0.9933081 0.98682237
0.99949676 1.0146389 1.0055486 0.99236864 0.9912082 0.99386966 0.9892999 0.9830119
0.99606216 0.98179245 1.0135227 1.0049869 0.9907166 0.98435724 0.9864267 1.01308
00000000: 1bff 7b3f a7d3 803f 1d78 7d3f 9b68 7b3f
00000010: 7f04 7e3f 1122 7d3f 6746 7b3f 5582 843f
00000020: 328e 7d3f cb23 7d3f e0f2 7f3f 65df 7d3f
00000030: 1abd 7c3f 4b40 7d3f cf36 7d3f 8206 7c3f
00000040: 7cae 853f a230 813f fcfe 7c3f 4f9d 7e3f
00000050: b719 7d3f ed48 7e3f 2818 7d3f ec7e 7d3f
00000060: 51bf 7d3f 121e 7f3f f3bf 7a3f e3d6 7d3f
00000070: b396 7d3f d31a 7c3f 6326 7d3f e14f 7d3f
00000080: c630 843f 9b55 823f a931 7b3f 4fef 7d3f
00000090: 5439 813f bfcb 7c3f 3dab 803f f00a 7f3f
000000a0: bda3 7d3f 5d6f 7c3f f235 823f e926 7f3f
000000b0: 22fd 803f e2ad 803f 7149 7e3f 64a0 7c3f
000000c0: 05df 7f3f b0df 813f d1b5 803f df0b 7e3f
000000d0: d2bf 7d3f 3e6e 7e3f c242 7d3f aba6 7b3f
000000e0: eefd 7e3f c056 7b3f 1dbb 813f 69a3 803f
000000f0: 9a9f 7d3f d6fe 7b3f 7686 7c3f 9bac 813f

block1.1.bias f4 [64]
-0.01269324 -0.010540996 -0.0042852536 -0.012713773 -0.019791115 -0.006986952 -0.021273257 0.017283846
-0.0013349352 -0.025916308 0.0044723544 -0.000214311 -0.013440643 -0.0009913121 -0.0008141395 -0.01065073
0.0066703274 -0.0011101452 0.0019934182 -0.0111950785 -0.01719775 -0.010321572 -0.0023427082 -0.0041946913
-0.008830643 -0.0142579395 -0.025630783 -0.0089968955 -0.02086051 -0.010661874 -0.012384143 0.0027548545
0.04073152 0.018502487 -0.0033125884 -0.00653097 -0.026499795 -0.010333099 -0.019904718 -0.007927998
-0.0042793453 -0.0012926245 0.018959066 -0.0129090445 0.002035965 0.005475925 -0.006882165 -0.018567832
0.003389848 0.02896021 -0.011260477 -0.01974169 -0.002309065 0.0016205732 -0.011377616 -0.009112604
0.0053381044 -0.018704938 0.007166865 0.00977832 0.0063433526 -0.014181678 -0.01776448 0.010775586
00000000: 4ff7 4fbc 24b4 2cbc 506b 8cbb 6e4d 50bc
00000010: fa20 a2bc cdf2 e4bb 4145 aebc da96 8d3c
00000020: fef8 aeba 704e d4bc d48c 923b acb8 60b9
00000030: 2536 5cbc eaee 81ba fa6b 55ba 6680 2ebc
00000040: c392 da3b 4b82 91ba 02a4 023b 906b 37bc
00000050: 4ce2 8cbc d01b 29bc 1f88 19bb 9f73 89bb
00000060: 67ae 10bc 229a 69bc a6f7 d1bc b767 13bc
00000070: a9e3 aabc 24af 2ebc dce6 4abc ca8a 343b
00000080: 18d6 263d 8792 973c 0318 59bb bf01 d6bb
00000090: 1916 d9bc 294c 29bc 380f a3bc 6fe4 01bc
000000a0: c039 8cbb 486d a9ba 0b50 9b3c 7580 53bc
000000b0: d36d 053b 636f b33b c983 e1bb 911b 98bc
000000c0: 3628 5e3b f63d ed3c dd7d 38bc 53b9 a1bc
000000d0: af53 17bb 6a69 d43a 2e69 3abc 084d 15bc
000000e0: 44eb ae3b 193b 99bc 05d8 ea3b 3f35 203c
000000f0: e6db cf3b 455a 68bc d186 91bc 158c 303c

block1.1.running_mean f4 [64]
0.109043986 -0.28273967 0.2577424 0.5060895 -0.43409967 0.25481498 -0.18831658 -0.17601009
0.24263287 -0.5963275 -0.091699965 0.06275483 -0.47389844 -0.64214945 0.48069668 0.36850765
0.048707355 0.2761825 0.11352609 -0.18291493 -0.10284565 0.28320074 -0.25479287 0.61800706
0.119352 0.3159976 0.42941776 0.22978586 -0.07317115 -0.12544745 0.26075178 0.011131007
-0.22545256 0.2854349 0.314033 0.046771936 -0.012354405 0.5347354 -0.1568845 0.15472534
-0.07361996 0.2546163 0.2966931 -0.26226643 0.030771796 -0.3556427 -0.47526342 -0.53605807
0.2096384 0.13238283 0.023425551 -0.04284485 0.18865733 -0.21608336 -0.021294955 0.32759264
-0.1636268 -0.5427205 -0.12804085 -0.06909542 0.43324113 0.40987387 0.55903095 0.08909849
00000000: 7452 df3d 41c3 90be d0f6 833e 158f 013f
00000010: 5042 debe 1c77 823e 10d6 40be fd3b 34be
00000020: c074 783e eba8 18bf 31cd bbbd 9b85 803d
00000030: d1a2 f2be e863 24bf e01d f63e 09ad bc3e
00000040: 5d81 473d cb67 8d3e 5e80 e83d 0d4e 3bbe
00000050: bda0 d2bd b0ff 903e 3674 82be b635 1e3f
00000060: d26e f43d 70ca a13e a5dc db3e fc4c 6b3e
00000070: c2da 95bd 4c75 00be 4281 853e d45e 363c
00000080: 09dd 66be 8624 923e efc8 a03e ee93 3f3d
00000090: 216a 4abc 6be4 083f 55a6 20be 5270 1e3e
000000a0: 10c6 96bd 115d 823e 28e8 973e c947 86be
000000b0: 2215 fc3c cd16 b6be ba55 f3be 1a3b 09bf
000000c0: 73ab 563e 5d8f 073e f1e6 bf3c 157e 2fbd
000000d0: 632f 413e f544 5dbe c272 aebc 39ba a73e
000000e0: c98d 27be bbef 0abf 241d 03be e681 8dbd
000000f0: c8d1 dd3e fdda d13e a71c 0f3f 4579 b63d

block1.1.running_var f4 [64]
0.010940302 0.0012601817 0.0077349227 0.05585108 0.012699507 0.030790761 0.026436767 0.00080265605
0.01315045 0.10692221 0.001903262 0.013570094 0.025166547 0.052724782 0.025977014 0.031828128
0.00025254523 0.0015692123 0.03034858 0.0021729444 0.005944894 0.007958476 0.053924736 0.052433524
0.007697455 0.0034784637 0.10266226 0.0051437602 0.014623689 0.073849596 0.032489825 0.009305664
0.0011621112 0.00068868237 0.10997781 0.007332372 0.0024881582 0.045112714 0.0016897182 0.011644111
0.017220214 0.064839885 0.0027912688 0.0053688535 0.0007200068 0.0036596006 0.015658056 0.025998496
0.002276816 0.0009944491 0.0016373034 0.0036249477 0.007549969 0.021096097 0.011518039 0.029627673
0.0056529036 0.04565176 0.0045686997 0.0035964681 0.0070247613 0.10460967 0.061544534 0.0012514679
00000000: f43e 333c ae2c a53a 3c75 fd3b 1ac4 643d
00000010: 9811 503c e83c fc3c eb91 d83c 5669 523a
00000020: fc74 573c 08fa da3d e076 f93a 1955 5e3c
00000030: 132a ce3c f1f5 573d bfcd d43c 365e 023d
00000040: 0c68 8439 07ae cd3a 969d f83c f567 0e3b
00000050: 63cd c23b 4564 023c 2fe0 5c3d 89c4 563d
00000060: ef3a fc3b f0f6 633b 9740 d23d fd8c a83b
00000070: 3398 6f3c 753e 973d 0d14 053d c976 183c
00000080: fb51 983a b188 343a 0c3c e13d 6544 f03b
00000090: 5e10 233b 1cc8 383d 8979 dd3a f1c6 3e3c
000000a0: 6811 8d3c c6ca 843d b8ed 363b 35ed af3b
000000b0: d7be 3c3a e9d5 6f3b 5345 803c ccfa d43c
000000c0: a236 153b 2d58 823a c99a d63a 8890 6d3b
000000d0: bb65 f73b b9d1 ac3c 28b6 3c3c bcb5 f23c
000000e0: fe3b b93b 57fd 3a3d 08b5 953b b9b2 6b3b
000000f0: f82f e63b 983d d63d 1f16 7c3d 4b08 a43a

block2.0.weight f4 [64, 64, 3, 3]
0.027899304 -0.039171156 0.027394982 0.01954902 0.015528283 0.024162957 -0.008044104 -0.01694288
-0.0014535239 -0.011290011 -0.050979845 0.01977433 0.00080331933 -0.016720777 -0.024833653 -0.03640594
0.0036323497 -0.006760786 -0.038669042 0.0018239617 -0.023973517 -0.024059407 0.009143843 -0.0037445684
-0.029050121 -0.007055693 -0.018392738 0.03256877 -0.03759644 -0.020223262 -0.018681278 0.024551392
-0.0052272687 0.0025708221 -0.03200902 0.034013357 -0.037326805 -0.019991755 -0.036795385 -0.029459368
0.015584232 0.006589977 -0.014875261 0.011537417 0.009626799 0.0015743402 0.00576514 -0.040171
0.027925866 0.03617528 0.03552701 0.03233702 -0.026892442 -0.0018187007 0.010740013 -0.037319727
0.01412631 -0.0016405598 -0.009531589 -0.006512979 -0.04107999 0.03466796 -0.033824947 0.043594208
-0.03322105 0.034826316 0.010716354 0.005780178 0.006983 0.0014939106 -0.0010215128 -0.004323209
-0.015866166 -0.016115287 0.031663954 0.038013317 0.031165818 -0.005593546 0.024947643 0.010025281
0.042372987 -0.039515935 -0.02175582 0.0128926635 -0.020783605 -0.036637336 0.023811365 -0.022288239
-0.0035376998 -0.0008914669 -0.0532045 -0.015135562 0.03704805 0.0037004068 0.035072442 0.040198755
0.011411515 0.020531159 0.030807735 0.013473852 -0.008497688 -0.003234086 -0.0032232509 -0.014518941
0.0021723579 0.03884442 -0.019235654 0.020780826 -0.011819314 0.040537603 -0.03399104 0.02226179
0.03356254 -0.02280015 -0.021653974 0.020208482 0.007995287 -0.01639421 -0.03238653 0.0017460699
-0.0020116775 0.0029326642 -0.0010952487 0.022946833 0.0031372397 -0.022719575 0.020550435 0.03671196
-0.02957604 0.004131048 0.02195862 -0.02526015 -0.006228894 0.017959444 0.008215107 -0.04368053
-0.002453164 -0.011202862 -0.005117579 0.005637621 0.031260356 -0.040676463 0.028135896 -0.01438266
0.0146321505 0.001104441 0.022460263 -0.016839448 -0.050479297 -0.0018179134 0.040423952 0.009155451
0.0148360655 0.0285288 -0.04144566 -0.0051403507 -0.030825103 0.028105604 0.0063941674 -0.026943536
0.040435884 -0.025064608 -0.029760938 0.0342244 -0.027987154 0.009389468 0.00635873 0.034397952
-0.028539468 0.026545843 0.021549588 0.019497793 -0.021173423 -0.029564349 -0.015533975 -0.014683968
-0.026272679 -0.01464321 -0.02907572 -0.03530632 0.0011807188 -0.026379598 0.009681162 -0.0026244868
-0.024946095 0.01764597 -0.024139734 0.011331356 -0.02957366 -0.04092865 -0.029449124 0.038862377
0.018157685 -0.0066787344 -0.0031397261 0.018281084 0.026721794 -0.017682413 0.016380413 0.008596355
0.022909135 -0.03956839 -0.039567035 0.02077377 0.033634286 -0.041119203 -0.0061697974 0.017640913
0.03215531 -0.030016134 -0.014003814 0.012736397 0.0173676 0.034192074 0.014714329 -0.0058695734
-0.023020199 0.009485973 -0.017139025 -0.035721384 0.037552424 0.007157686 -0.0056623807 0.029411077
0.018996935 0.014180378 0.017209416 0.0053222757 0.020100186 -0.04210343 -0.019818025 -0.02604356
-0.034689613 -0.03911619 -0.025705915 -0.02468403 0.014504643 0.02248279 0.029746711 -0.03724873
0.039116293 -0.016438153 -0.018421084 -0.035120245 -0.020617325 0.041247908 -0.002248984 0.03888389
0.02509287 0.0437628 0.017828258 0.0012290231 -0.019054638 -0.003915034 -0.013372998 -0.026378293
00000000: 158d e43c ef71 20bd 716b e03c 4425 a03c
00000010: 576a 7e3c 65f1 c53c 6bcb 03bc cbcb 8abc
00000020: 2b84 beba bdf9 38bc 3ed0 50bd c7fd a13c
00000030: d995 523a 03fa 88bc f26f cbbc 651e 15bd
00000040: b70c 6e3b 9589 ddbb 6e63 1ebd 0012 ef3a
00000050: 1c64 c4bc 3c18 c5bc 0fd0 153c 6f67 75bb
00000060: 85fa edbc 7133 e7bb 5eac 96bc d566 053d
00000070: bafe 19bd 41ab a5bc 7b09 99bc 0020 c93c
00000080: 8249 abbb 3d7b 283b e41b 03bd 9751 0b3d
00000090: fee3 18bd c0c5 a3bc c2b6 16bd c654 f1bc
000000a0: 0255 7f3c bcf0 d73b 5eb7 73bc 6f07 3d3c
000000b0: b9b9 1d3c 175a ce3a 80e9 bc3b 598a 24bd
000000c0: c9c4 e43c 882c 143d c584 113d d373 043d
000000d0: 8a4d dcbc 7861 eeba e1f6 2f3c 92dc 18bd
000000e0: 0a72 673c 0d08 d7ba 622a 1cbc d46a d5bb
000000f0: 7e43 28bd feff 0d3d 078c 0abd d78f 323d
00000100: cc12 08bd 0aa6 0e3d a593 2f3c a667 bd3b
00000110: a6d1 e43b 52cf c33a 48e4 85ba b5a9 8dbb
00000120: c3f9 81bc 3504 84bc 10b2 013d dab3 1b3d
00000130: 754f ff3c 114a b7bb 005f cc3c 1441 243c
00000140: 4c8f 2d3d 76db 21bd 4339 b2bc c03b 533c
00000150: 6142 aabc 0811 16bd 0d10 c33c d395 b6bc
00000160: c1d8 67bb 55b1 69ba f6ec 59bd 26fb 77bc
00000170: b2bf 173d 8682 723b 1fa8 0f3d 73a7 243d
00000180: 5df7 3a3c f630 a83c 8160 fc3c 6ec1 5c3c
00000190: e339 0bbc f6f2 53bb 2d3d 53bb dae0 6dbc
000001a0: 1e5e 0e3b 541b 1f3d 1794 9dbc 8d3c aa3c
000001b0: cca5 41bc c20a 263d 303a 0bbd 5c5e b63c
000001c0: e078 093d 61c7 babc ad63 b1bc 428c a53c
000001d0: aafe 023c 264d 86bc bda7 04bd 62dc e43a
000001e0: 59d6 03bb f131 403b 738e 8fba fffa bb3c
000001f0: 269a 4d3b 671e babc 6359 a83c 485f 163d
00000200: 7449 f2bc be5d 873b 90e2 b33c 60ee cebc
00000210: c01b ccbb af1f 933c a898 063c 5bea 32bd
00000220: 43c5 20bb 358c 37bc 5db1 a7bb cbbb b83b
00000230: dc0a 003d 5d9c 26bd 407d e63c 40a5 6bbc
00000240: b0bb 6f3c e4c2 903a 96fe b73c e2f2 89bc
00000250: 61c3 4ebd 0d47 eeba 9693 253d bf00 163c
00000260: f812 733c 3bb5 e93c edc2 29bd 6370 a8bb
00000270: ed84 fcbc b93d e63c 2a86 d13b b1b8 dcbc
00000280: 19a0 253d 4b54 cdbc 36cd f3bc e22e 0c3d
00000290: 5145 e5bc 48d6 193c e55c d03b dee4 0c3d
000002a0: 9acb e9bc ab76 d93c c388 b03c d6b9 9f3c
000002b0: e373 adbc ef30 f2bc 3782 7ebc 0795 70bc
000002c0: cd39 d7bc 13ea 6fbc 3430 eebc 5c9d 10bd
000002d0: 59c2 9a3a 071a d8bc bd9d 1e3c 95ff 2bbb
000002e0: c15b ccbc 488e 903c b1c0 c5bc 27a7 393c
000002f0: 7644 f2bc cda4 27bd 4a3f f1bc 282e 1f3d
00000300: 6dbf 943c 49d9 dabb ddc3 4dbb 36c2 953c
00000310: aae7 da3c b5da 90bc 3730 863c bad7 0c3c
00000320: f0ab bb3c 7712 22bd 0b11 22bd c12d aa3c
00000330: 1bc4 093d 9c6c 28bd 032c cabb ad83 903c
00000340: 49b5 033d 65e4 f5bc 4170 65bc 52ac 503c
00000350: 7f46 8e3c fd0c 0c3d 5e14 713c 8d55 c0bb
00000360: db94 bcbc 0e6b 1b3c 2467 8cbc 9650 12bd
00000370: 92d0 193d 068b ea3b 7e8b b9bb 80ef f03c
00000380: 769f 9b3c d154 683c c3fa 8c3c 7c66 ae3b
00000390: 25a9 a43c a574 2cbd 6959 a2bc 4e59 d5bc
000003a0: b216 0ebd 4c38 20bd 3695 d2bc 2a36 cabc
000003b0: e2a4 6d3c d42d b83c 60af f33c 2092 18bd
000003c0: 6838 203d 4ea9 86bc d0e7 96bc 3fda 0fbd
000003d0: aae5 a8bc 91f3 283d b163 13bb b744 1f3d
000003e0: 908f cd3c 9f40 333d 910c 923c 2c17 a13a
000003f0: 7918 9cbc af49 80bb 6b1a 5bbc 4a17 d8bc

block2.0.bias f4 [64]
0.030319883 -0.010454913 0.006038261 -0.022918046 -0.022844654 0.008390672 -0.031575594 0.014810233
0.025432464 -0.014656717 0.027399864 -0.0049761375 0.0210249 0.021391911 -0.004576855 0.01833771
-0.038987804 -0.033337355 0.011773175 -0.010146225 -0.0047254767 0.028279016 0.03814786 0.02506839
-0.017927371 -0.0014115789 0.023112554 -0.013465956 -0.02214675 -0.0062744026 0.029064093 -0.016019873
-0.028436864 0.01624405 0.02717168 -0.005187753 0.025748748 -0.02987086 -0.008084724 -0.036635276
-0.0052162413 -0.02756572 0.025148222 0.033538833 0.026087118 0.04240325 0.034608487 -0.043216113
-0.003159321 -0.024426695 0.022665748 0.0049607563 -0.024841705 0.0154681485 -0.02124968 -0.03879415
0.037442975 0.007995319 -0.04801756 0.014950025 0.007872829 0.0020866818 0.035101157 0.03231761
00000000: 6761 f83c 154b 2bbc 9bdc c53b a0be bbbc
00000010: b624 bbbc 0779 093c 6955 01bd 9fa6 723c
00000020: be57 d03c ba22 70bc ae75 e03c de0e a3bb
00000030: 693c ac3c 173e af3c 71f9 95bb f738 963c
00000040: adb1 1fbd c08c 08bd 46e4 403c 5a3c 26bc
00000050: 2cd8 9abb 65a9 e73c ee40 1c3d 395c cd3c
00000060: 6cdc 92bc ba04 b9ba 8a56 bd3c 50a0 5cbc
00000070: 1a6d b5bc 8199 cdbb d217 ee3c 1c3c 83bc
00000080: 6df4 e8bc 3e12 853c 2597 de3c 07fe a9bb
00000090: 0aef d23c bcb3 f4bc ca75 04bc df0e 16bd
000000a0: 01ed aabb 81d1 e1bc a503 ce3c 0460 093d
000000b0: a7b4 d53c 08af 2d3d a1c1 0d3d 6103 31bd
000000c0: 9c0c 4fbb 7e1a c8bc 85ad b93c d78d a23b
000000d0: d580 cbbc 1e6e 7d3c cf13 aebc 9de6 1ebd
000000e0: ce5d 193d ccfe 023c 10ae 44bd f3f0 743c
000000f0: 0afd 003c b6c0 083b 3bc6 0f3d 785f 043d

block2.1.weight f4 [64]
1.0096809 0.9972103 1.0047325 1.0030222 0.99398774 1.0078189 0.98514307 0.9849431
0.98675513 1.0015812 1.0027028 0.9912901 1.017395 1.007371 0.9775058 0.9962948
0.9950582 0.9946491 1.0010564 0.99092597 1.0007863 1.0058271 1.0055025 1.0013918
0.9849931 1.0028467 1.0177071 1.0166674 0.9905099 0.98968834 0.99738544 1.0068978
0.9857421 0.9898209 1.0097 0.99430716 1.0040668 1.0030693 1.0170962 1.0082586
0.9897697 0.98959243 0.9907716 0.9873232 1.0024114 0.9957049 1.0008662 0.99296194
1.0126183 0.9816159 1.0145998 0.99688154 1.0003731 1.0045153 1.0059192 1.0058765
0.9914933 0.9988386 1.0247899 0.9804426 1.0000495 0.9923956 0.98873764 1.006525
00000000: 393d 813f 2d49 7f3f 139b 803f 0863 803f
00000010: fb75 7e3f 3600 813f 5632 7c3f 3b25 7c3f
00000020: fc9b 7c3f d033 803f 9158 803f 30c5 7d3f
00000030: 003a 823f 88f1 803f d23d 7a3f 2d0d 7f3f
00000040: 22bc 7e3f 53a1 7e3f 9e22 803f 53ad 7d3f
00000050: c419 803f f1be 803f 4eb4 803f 9b2d 803f
00000060: 8228 7c3f 485d 803f 3a44 823f 2822 823f
00000070: 0f92 7d3f 375c 7d3f a754 7f3f 07e2 803f
00000080: 9859 7c3f e764 7d3f d93d 813f ea8a 7e3f
00000090: 4385 803f 9364 803f 3530 823f 9e0e 813f
000000a0: 8c61 7d3f ee55 7d3f 35a3 7d3f 37c1 7c3f
000000b0: 044f 803f 84e6 7e3f 621c 803f c132 7e3f
000000c0: 7a9d 813f 2e4b 7b3f 68de 813f a133 7f3f
000000d0: 3a0c 803f f593 803f f6c1 803f 90c0 803f
000000e0: 81d2 7d3f e3b3 7f3f 512c 833f 49fe 7a3f
000000f0: 9f01 803f a30d 7e3f e91d 7d3f d0d5 803f

block2.1.bias f4 [64]
-0.0039415425 -0.022293149 -0.017245527 -0.025120595 -0.019622944 -0.030281724 -0.02158973 -0.018471781
-0.024527717 -0.02265117 -0.020534508 -0.022455163 0.001768418 -0.03271589 -0.030032082 -0.016744932
-0.015783051 -0.020040553 -0.022509638 -0.011953704 -0.011344534 -0.010301966 -0.017468922 -0.016028563
-0.028042218 -0.008748389 -0.019242333 -0.0226294 -0.015594311 -0.02257119 -0.019048247 -0.011604674
-0.02735095 -0.016519628 -0.021976339 -0.015553655 0.00692166 -0.011305469 -0.003414802 -0.02750944
-0.008738636 -0.017022585 -0.027564593 -0.03411778 -0.013617703 -0.021215554 -0.017119158 -0.021132547
0.0009177435 -0.0190647 -0.021412022 -0.018586496 -0.022107044 -0.0069666193 -0.0047724266 -0.019299585
-0.013763594 -0.02585969 -0.0081277015 -0.028181856 -0.03151425 -0.021419264 -0.022495536 -0.029826334
00000000: 0e28 81bb 1fa0 b6bc 7e46 8dbc b5c9 cdbc
00000010: 4cc0 a0bc 6111 f8bc f2dc b0bc 2252 97bc
00000020: 5aee c8bc f28e b9bc fc37 a8bc e4f3 b7bc
00000030: 43ca e73a 1901 06bd d705 f6bc ab2c 89bc
00000040: 754b 81bc 162c a4bc 2266 b8bc 78d9 43bc
00000050: 6dde 39bc 94c9 28bc fc1a 8fbc 554e 83bc
00000060: cbb8 e5bc 6755 0fbc 19a2 9dbc 4b61 b9bc
00000070: 487f 7fbc 37e7 b8bc 120b 9cbc 8821 3ebc
00000080: 190f e0bc 2c54 87bc b907 b4bc c2d4 7ebc
00000090: 18cf e23b 933a 39bc dfca 5fbb 7a5b e1bc
000000a0: 7f2c 0fbc f372 8bbc 24cf e1bc 16bf 0bbd
000000b0: c91c 5fbc 3ecc adbc 7a3d 8cbc 2a1e adbc
000000c0: b994 703a 932d 9cbc 4468 afbc b542 98bc
000000d0: d519 b5bc 3d48 e4bb 0462 9cbb 2a1a 9ebc
000000e0: b380 61bc b3d7 d3bc 0d2a 05bc a3dd e6bc
000000f0: 1615 01bd 7477 afbc 8f48 b8bc 5b56 f4bc

block2.1.running_mean f4 [64]
-0.2349697 -0.49152073 -0.41615802 0.0046505095 -0.014606731 -0.51778865 -0.5215443 0.2540146
0.4512391 -0.11271183 -0.40537772 0.035794187 -0.46298516 -0.19943844 0.5942129 -0.067344315
-0.53256625 0.44753912 -0.81645864 -0.20808358 -1.037856 -0.071355715 -0.52586246 -0.033390414
-0.18758923 -0.79053783 0.124918334 -0.43965986 -0.080117494 0.5282451 -0.1685974 -0.36814564
0.26913145 0.65460986 -0.33855453 0.5996101 -0.035228487 -0.3790737 -0.09807671 -0.12940772
0.4532786 0.42702484 -0.5422943 -0.34393424 0.17081246 -0.3433323 -0.5971403 -0.31145754
-0.18592164 0.17080268 0.17028756 -0.112279825 -0.4050724 0.15804078 -0.23887044 0.059784412
-0.6857223 -0.5987067 -0.09651324 -0.18321484 0.6521565 0.088007934 0.21186511 -0.2189553
00000000: e69b 70be 9ba8 fbbe aa12 d5be 4d63 983b
00000010: 1251 6fbc cc8d 04bf ed83 05bf 340e 823e
00000020: d008 e73e 76d5 e6bd ab8d cfbe ed9c 123d
00000030: 640c edbe 9739 4cbe 561e 183f d1eb 89bd
00000040: 4356 08bf d923 e53e 6f03 51bf dd13 55be
00000050: 77d8 84bf f222 92bd ec9e 06bf 63c4 08bd
00000060: 6417 40be b060 4abf 2fd5 ff3d 191b e1be
00000070: a414 a4bd 123b 073f cca4 2cbe 967d bcbe
00000080: 99cb 893e 8394 273f 0557 adbe 0c80 193f
00000090: bf4b 10bd f315 c2be 71dc c8bd 7583 04be
000000a0: 2214 e83e 00a3 da3e cdd3 0abf 2618 b0be
000000b0: 76e9 2e3e 40c9 afbe 30de 18bf 5d77 9fbe
000000c0: 3e62 3ebe e6e6 2e3e dd5f 2e3e f7f2 e5bd
000000d0: a665 cfbe 71d5 213e 749a 74be 80e0 743d
000000e0: 7f8b 2fbf d844 19bf bca8 c5bd ac9c 3bbe
000000f0: baf3 263f 813d b43d 2bf3 583e d135 60be

block2.1.running_var f4 [64]
0.11216599 0.32408565 0.3764811 0.07683094 0.17457773 0.14797132 0.6503042 0.34116232
0.14551859 0.62495273 0.13574386 0.22518887 0.334803 0.08410009 0.15762638 0.31105423
0.3847642 0.22637165 0.25801644 0.2743506 0.75120103 0.29097292 0.15919444 0.22073966
0.6514103 0.27647254 0.0611772 0.15934949 0.37013257 0.32049826 0.15036269 0.14259322
0.78396153 0.26097035 0.10341757 0.20182653 0.105512716 0.23757885 0.05525628 0.07967733
0.21969742 0.37132347 0.4321706 0.91836256 0.14128235 0.37664407 0.24615143 0.2894177
0.1010866 0.23627579 0.06820476 0.2339547 0.26546362 0.08963308 0.1365517 0.10937231
0.4348762 0.20219058 0.06802491 0.69020987 0.5323185 1.0126386 0.3467946 0.09508159
00000000: 48b7 e53d 8eee a53e 21c2 c03e 8a59 9d3d
00000010: 81c4 323e cb85 173e 567a 263f d4ac ae3e
00000020: d302 153e e7fc 1f3f 7000 0b3e e997 663e
00000030: 4c6b ab3e ab3c ac3d cf68 213e 8042 9f3e
00000040: d0ff c43e f8cd 673e bb1a 843e af77 8c3e
00000050: b64e 403f 67fa 943e de03 233e 9409 623e
00000060: d3c2 263f cf8d 8d3e f294 7a3d 832c 233e
00000070: 0482 bd3e 5918 a43e adf8 193e f503 123e
00000080: b4b1 483f e89d 853e 97cc d33d 9dab 4e3e
00000090: 0d17 d83d df47 733e 6954 623d de2d a33d
000000a0: 5cf8 603e 1c1e be3e 7745 dd3e cf19 6b3f
000000b0: 52ac 103e 7ed7 c03e 1f0f 7c3e 8f2e 943e
000000c0: 7e06 cf3d 48f2 713e f0ae 8b3d d291 6f3e
000000d0: d9ea 873e 8c91 b73d 35d4 0b3e 97fe df3d
000000e0: 18a8 de3e 0c0b 4f3e a550 8b3d 98b1 303f
000000f0: 0646 083f 249e 813f 108f b13e 23ba c23d

block3.0.weight f4 [64, 64, 3, 3]
-0.03329883 -0.025433857 -0.021585712 0.020409198 0.030070314 0.04498602 -0.020177253 0.060301084
-0.041897573 -0.01645004 -0.026925951 -0.000125158 -0.008099264 -0.013927511 0.020504922 -0.04100621
0.0053767725 -0.007739773 0.013288595 0.005126368 0.00027814126 0.0011271572 -0.03520699 -0.0006860913
0.025884496 -0.030119063 0.0037707395 -0.023995956 -0.0048626577 -0.014731885 0.036089923 -0.019867778
-0.037848487 0.030876065 0.03391117 0.022439262 -0.03969559 -0.04197791 -0.015534704 -0.026357582
0.025497885 0.021815158 0.017415257 0.013030765 -0.040811125 -0.03494149 -0.016590592 -0.0100672925
0.0013680544 -0.003472809 0.015068924 0.018023493 0.035554443 0.011775337 -0.029132916 0.026980637
-0.0089345025 0.0044793454 -0.02487373 -0.03482913 0.038934648 -0.0010391105 -0.024900513 -0.026401587
-0.015786946 0.018195285 0.030260334 -0.03167363 0.0045010196 0.008648041 -0.036887564 -0.021502938
-0.017942687 -0.0022634782 0.020409398 0.030715112 -0.032379404 0.03709982 -0.015452802 -0.012026965
0.041373577 -0.0050125397 0.026885342 -0.019423846 -0.046844125 -0.00937522 0.014160252 -0.023469323
0.0341809 -0.015983976 0.026846856 -0.018622402 0.014916688 0.017343933 0.0047435835 -0.014928976
0.040231902 0.021634031 0.01931999 -0.00987184 -0.03702756 -0.01879846 -8.874668e-06 -0.020480007
0.025254628 0.02584327 0.024191158 -0.02295634 0.018092267 0.028323252 0.027556691 0.018216742
-0.01540257 -0.030195722 0.02934093 0.014915956 -0.03182642 -0.004595692 -0.02570939 -0.01819957
0.013748862 -0.027477287 -0.029263712 -0.008154258 0.020919548 -0.024786 -0.004885704 -0.027686246
0.020784274 -0.026816128 0.030553605 0.008906307 0.034144353 -0.014096972 0.038316146 0.011386701
0.0040881783 0.017798224 0.0019925225 0.025020393 0.013297668 -0.007502637 -0.04185646 -0.010923136
-0.02733065 0.010114547 0.01582712 0.031161912 -0.0050591836 0.0035359361 0.021325793 -0.05274062
-0.024958689 0.014614181 0.014368713 0.004938085 0.036444765 0.01583756 0.021691123 0.0024869898
0.03486968 0.029911043 0.015442855 -0.03413696 0.026979227 -0.009796893 -0.024835095 -0.048537884
0.017074084 0.0069351355 0.0070473873 -0.032136947 0.01889288 0.0074566607 0.031228201 -0.027485192
0.01954689 0.012489295 -0.00095176033 0.010477715 -0.048943162 0.0047313557 -0.021304334 -0.013172943
0.0031470465 -0.014176434 -0.040188443 -0.0071400027 0.027806105 -0.045260284 0.017301444 0.0037297169
-0.027673915 -0.026986564 0.030545864 -0.033530902 -0.03545108 0.0030124981 0.022623898 0.019920787
0.02276439 0.028000025 0.0041972348 0.007520529 -0.018842978 -0.046095334 -0.0010365163 0.02228881
0.0009265514 0.028254231 -0.0074374224 -0.015981916 -0.042869776 0.04935451 0.001744013 -0.017355744
-0.0080979 0.026331123 0.009072902 0.037169475 0.0242034 -0.00090551196 -0.014055753 -0.0030550065
-0.016014965 0.01913739 0.018676734 -0.00839994 0.014684342 0.00178483 0.0018435582 -0.012284113
0.047856852 0.006338202 -0.04004652 0.052903377 -0.040603194 0.0064911363 -0.023769049 0.023293048
0.007940255 -0.018504256 0.021179039 -0.04935021 0.022558521 0.012809977 -0.0032279075 -0.0040929387
-0.037604358 0.020092577 -0.040234376 -0.01310932 -0.007727258 -0.0033292111 0.0063537005 -0.020506637
00000000: 5b64 08bd aa5a d0bc 85d4 b0bc 3131 a73c
00000010: 0556 f63c 4343 383d c44a a5bc 45fe 763d
00000020: ca9c 2bbd 3cc2 86bc d093 dcbc d83c 03b9
00000030: c7b2 04bc 3730 64bc f0f9 a73c 21f6 27bd
00000040: a32f b03b ec9d fdbb 68b8 593c 17fb a73b
00000050: 7dd3 9139 1fbd 933a 3435 10bd cfda 33ba
00000060: b90b d43c 41bc f6bc 831e 773b 2b93 c4bc
00000070: ee56 9fbb 015e 71bc 07d3 133d c0c1 a2bc
00000080: 0407 1bbd cdef fc3c 70e6 0a3d 8bd2 b73c
00000090: d897 22bd 07f1 2bbd 4585 7ebc dbeb d7bc
000000a0: f1e0 d03c b4b5 b23c 71aa 8e3c fd7e 553c
000000b0: 9129 27bd cf1e 0fbd fee8 87bc 49f1 24bc
000000c0: 4a50 b33a 1198 63bb a6e3 763c 01a6 933c
000000d0: 89a1 113d 58ed 403c 27a8 eebc 7f06 dd3c
000000e0: 0562 12bc 79c7 923b fec3 cbbc fda8 0ebd
000000f0: f079 1f3d c332 88ba 29fc cbbc 2448 d8bc
00000100: a053 81bc 470e 953c 85e4 f73c 35bc 01bd
00000110: 4a7d 933b 83b0 0d3c 6a17 17bd ee26 b0bc
00000120: 8bfc 92bc dd56 14bb 9c31 a73c 429e fb3c
00000130: 44a0 04bd fbf5 173d c02d 7dbc bf0c 45bc
00000140: 5777 293d 3b40 a4bb a63e dc3c c21e 9fbc
00000150: a0df 3fbd 869a 19bc 6700 683c bd42 c0bc
00000160: 4501 0c3d d4f0 82bc f0ed db3c 028e 98bc
00000170: 2065 743c dd14 8e3c 1070 9b3b aa98 74bc
00000180: 35ca 243d da39 b13c f544 9e3c 7fbd 21bc
00000190: 36aa 17bd 3aff 99bc 69e4 14b7 b0c5 a7bc
000001a0: cbe2 ce3c 44b5 d33c 892c c63c ef0e bcbc
000001b0: 3c36 943c 2a06 e83c 92be e13c 473b 953c
000001c0: 105b 7cbc 055d f7bc 645c f03c 0e62 743c
000001d0: 6c5c 02bd 7597 96bb 809c d2bc 4417 95bc
000001e0: e842 613c 0c18 e1bc 74ba efbc 7099 05bc
000001f0: 795f ab3c 020c cbbc 4118 a0bb 44ce e2bc
00000200: c843 aa3c 7fad dbbc 8e4b fa3c c2eb 113c
00000210: f3da 0b3d fcf6 66bc 64f1 1c3d 498f 3a3c
00000220: 20f6 853b 95cd 913c fb94 023b 91f7 cc3c
00000230: 76de 593c aed8 f5bb ae71 2bbd f4f6 32bc
00000240: 87e4 dfbc 7cb7 253c e0a7 813c 4447 ff3c
00000250: 82c7 a5bb 2abb 673b 6eb3 ae3c 8c06 58bd
00000260: 2a76 ccbc 5170 6f3c c06a 6b3c a9cf a13b
00000270: 1b47 153d c5bd 813c 95b1 b13c c4fc 223b
00000280: 82d3 0e3d 0108 f53c 0704 7d3c 32d3 0bbd
00000290: 8a03 dd3c 2683 20bc f872 cbbc a9cf 46bd
000002a0: f3de 8b3c 2240 e33b c5ed e63b 08a2 03bd
000002b0: 3ec5 9a3c 0157 f43b 49d2 ff3c a028 e1bc
000002c0: cd20 a03c e69f 4c3c 8e7f 79ba b9aa 2b3c
000002d0: a078 48bd 7d09 9b3b 6d86 aebc 54d3 57bc
000002e0: ae3e 4e3b 4644 68bc a39c 24bd aff6 e9bb
000002f0: a1c9 e33c d962 39bd c2bb 8d3c 446e 743b
00000300: 68b4 e2bc ed12 ddbc 523b fa3c b357 09bd
00000310: 2735 11bd 556d 453b c155 b93c eb30 a33c
00000320: 637c ba3c 4f60 e53c f588 893b c56e f63b
00000330: 975c 9abc 76ce 3cbd b7db 87ba 0697 b63c
00000340: d0e3 723a 6b75 e73c 9fb5 f3bb 82ec 82bc
00000350: 3898 2fbd f427 4a3d 5e97 e43a a22d 8ebc
00000360: 0ead 04bc 5eb4 d73c 82a6 143c 053f 183d
00000370: 3546 c63c e15f 6dba 1a4a 66bc 8136 48bb
00000380: d131 83bc 04c6 9c3c f3ff 983c e79f 09bc
00000390: 9896 703c f5f0 e93a 8ca3 f13a 4e43 49bc
000003a0: 8c05 443d b1b0 cf3b d207 24bd 36b1 583d
000003b0: 894f 26bd 99b3 d43b 4fb7 c2bc 10d1 be3c
000003c0: d817 023c 3d96 97bc aa7f ad3c 7223 4abd
000003d0: a6cc b83c f0e0 513c 4d8b 53bb 0f1e 86bb
000003e0: 0707 1abd 3099 a43c cdcc 24bd 79c8 56bc
000003f0: f034 fdbb e52e 5abb b432 d03b 89fd a7bc

block3.0.bias f4 [64]
0.007267518 0.002750582 -0.028512295 -0.013981137 0.042719238 0.010085184 -0.030621765 -0.03930119
-0.032155853 -0.030093003 -0.023932237 -0.0078012655 0.023956336 -0.035292085 0.026906122 -0.03701077
0.022850089 -0.008659319 -0.008830111 -0.038805533 0.01786403 -0.022771483 -0.04079599 0.030735815
-0.0014260097 -0.02995875 0.016231023 -0.009044713 0.011841982 -0.028988605 0.02755118 -0.0060981438
-0.0028076551 -0.04754552 0.022786502 -0.008936667 0.03252129 -0.0031072167 -0.038592294 -0.016786972
0.008370579 -0.04021101 -0.022170853 -0.011979658 -0.017047094 -0.027473785 -0.036162004 0.028407037
0.0031150044 -0.018582094 0.010757469 -0.037462424 -0.015175534 -0.005065666 -0.034645803 -0.010223065
0.034891017 0.0037373782 -0.027438825 -0.031961318 0.009287262 -0.0058586244 0.025414856 0.0017154274
00000000: 5c24 ee3b 1c43 343b 9e92 e9bc 2411 65bc
00000010: 5efa 2e3d 543c 253c 7fda fabc 49fa 20bd
00000020: dbb5 03bd 9a85 f6bc 8a0d c4bc c2a1 ffbb
00000030: 1440 c43c 6f8e 10bd 3a6a dc3c 9b98 17bd
00000040: 1c30 bb3c d1df 0dbc 2bac 10bc 8df2 1ebd
00000050: 9657 923c 438b babc b219 27bd adc9 fb3c
00000060: f2e8 baba 0d6c f5bc ecf6 843c 4730 14bc
00000070: df04 423c 8379 edbc 03b3 e13c f0d2 c7bb
00000080: a300 38bb 17bf 42bd c2aa ba3c 196b 12bc
00000090: 0b35 053d 72a2 4bbb f412 1ebd d584 89bc
000000a0: c124 093c 4db4 24bd a69f b5bc 5446 44bc
000000b0: 59a6 8bbc b410 e1bc 9c1e 14bd e0b5 e83c
000000c0: 1a25 4c3b 7a39 98bc 1840 303c 3372 19bd
000000d0: cea2 78bc e3fd a5bb c2e8 0dbd a47e 27bc
000000e0: e2e9 0e3d cdee 743b 63c7 e0bc dfe9 02bd
000000f0: 9a29 183c b4f9 bfbb d132 d03c 31d8 e03a

block3.1.weight f4 [64]
1.0033603 0.9917911 0.9954158 0.9992401 0.9977991 1.0021162 0.9850974 1.0012908
1.0060536 1.0075022 1.0019759 1.0047007 0.9964228 1.0187767 0.9877383 1.0022871
0.98964506 0.98915637 1.000784 1.0006609 0.9914656 0.99592555 1.0113283 1.0016654
0.98517406 0.9865863 1.0085721 1.0094608 0.9870018 1.0049899 1.0236477 1.0062194
1.0093257 0.998606 1.0009849 1.0032575 1.0013686 0.99526256 0.99999344 0.99987185
0.9906274 0.99064004 1.0042775 0.9945462 0.9965915 1.0083306 0.9958429 1.0123187
1.0046389 0.9821608 1.0065037 0.99946445 1.0072572 1.0061274 0.99954766 1.020836
1.0184132 0.9956462 0.990852 1.0020226 0.9991628 1.0085355 0.983436 0.9934002
00000000: 1c6e 803f 06e6 7d3f 92d3 7e3f 33ce 7f3f
00000010: c36f 7f3f 5845 803f 582f 7c3f 4c2a 803f
00000020: 5dc6 803f d5f5 803f bf40 803f 089a 803f
00000030: 9115 7f3f 4667 823f 6bdc 7c3f f24a 803f
00000040: 6159 7d3f 5a39 7d3f b119 803f a815 803f
00000050: b1d0 7d3f faf4 7e3f 3573 813f 9236 803f
00000060: 5e34 7c3f eb90 7c3f e418 813f 0336 813f
00000070: 26ac 7c3f 82a3 803f e306 833f cccb 803f
00000080: 9631 813f a5a4 7f3f 4620 803f be6a 803f
00000090: d92c 803f 87c9 7e3f 92ff 7f3f 9af7 7f3f
000000a0: c299 7d3f 969a 7d3f 2a8c 803f 949a 7e3f
000000b0: 9f20 7f3f fa10 813f 8fef 7e3f a993 813f
000000c0: 0298 803f e46e 7b3f 1dd5 803f e7dc 7f3f
000000d0: ceed 803f c8c8 803f 5be2 7f3f c1aa 823f
000000e0: 5d5b 823f abe2 7e3f 7aa8 7d3f 4742 803f
000000f0: 22c9 7f3f b117 813f 76c2 7b3f 7a4f 7e3f

block3.1.bias f4 [64]
-0.0212396 -0.028957576 -0.025557373 -0.022245048 -0.0139123835 -0.027853997 -0.042623263 -0.012626117
-0.028113034 -0.019687168 -0.01934412 -0.022801507 -0.01879063 0.0044405377 -0.021848314 -0.031565927
-0.025319219 -0.018557537 -0.015878737 -0.03208475 -0.028169109 -0.025268553 -0.023057206 -0.025473084
-0.03906401 -0.007760154 -0.03987002 -0.029057689 -0.018115902 -0.01589091 -0.019336203 -0.005728264
-0.013691258 -0.012898628 -0.022425687 -0.009316029 -0.03414853 -0.037020016 -0.033675767 -0.015926687
-0.020383254 -0.009951928 -0.032177377 -0.03554414 -0.019725386 -0.016516916 -0.018793875 -0.025796244
-0.014651101 -0.028870322 -0.027329119 -0.030932488 -0.02122984 -0.030683767 -0.030637436 -0.01039284
-0.024021963 -0.02274114 -0.025937596 -0.024830177 -0.02901666 -0.022022534 -0.036004886 -0.02685547
00000000: abfe adbc 7038 edbc b25d d1bc 3f3b b6bc
00000010: c4f0 63bc 112e e4bc bb95 2ebd c6dd 4ebc
00000020: 4e4d e6bc fc46 a1bc 8f77 9ebc 3aca babc
00000030: cfee 99bc ee81 913b 3cfb b2bc 464b 01bd
00000040: 406a cfbc fa05 98bc 2014 82bc 4c6b 03bd
00000050: e7c2 e6bc ffff cebc 77e2 bcbc eeac d0bc
00000060: 9501 20bd e448 febb bf4e 23bd 640a eebc
00000070: cd67 94bc a72d 82bc f566 9ebc 29b4 bbbb
00000080: 4c51 60bc c454 53bc 13b6 b7bc 42a2 18bc
00000090: 54df 0bbd 4da2 17bd 9aef 09bd af78 82bc
000000a0: c8fa a6bc 690d 23bc 6dcc 03bd bb96 11bd
000000b0: 2297 a1bc 7c4e 87bc 9df5 99bc a552 d3bc
000000c0: 2c0b 70bc 7481 ecbc 51e1 dfbc 2166 fdbc
000000d0: 34ea adbc 865c fbbc 5cfb fabc bb46 2abc
000000e0: b5c9 c4bc a14b babc 157b d4bc a868 cbbc
000000f0: 59b4 edbc 9a68 b4bc dc79 13bd 0100 dcbc

block3.1.running_mean f4 [64]
-0.12713057 -0.24929315 -0.050518144 -0.5697112 -0.076324135 0.15831022 0.096196696 -0.22929397
-0.0069670426 -0.27224097 -0.015550557 -0.058920927 -0.12578268 -0.7971528 -0.20680963 0.10684103
-0.17835946 0.31181428 0.09736291 0.0035425436 -0.027994249 0.32285404 -0.40621385 0.08800631
0.075031005 -0.26898703 0.10779256 0.2992664 0.15171006 0.03700782 -0.12316047 -1.1342742
-0.54879254 0.2453442 0.17694998 -0.44187036 0.0039605065 0.29246676 0.070920765 -0.26858684
-0.83257335 -0.33975628 0.10657035 -0.46690834 0.034986418 0.32074645 0.032548532 -0.31137925
-0.041897785 0.17680615 0.30569428 0.08519056 -0.08115608 0.0347248 0.19345275 -0.841086
0.03167174 0.22861563 0.20474811 -0.08207382 0.36043754 0.25288028 0.26665518 -0.38693094
00000000: 842e 02be b446 7fbe 1dec 4ebd 98d8 11bf
00000010: d44f 9cbd 131c 223e c602 c53d 0acc 6abe
00000020: ca4b e4bb 2b63 8bbe c3c7 7ebc 1257 71bd
00000030: 2dcd 00be 3512 4cbf e7c5 53be 78cf da3d
00000040: dda3 36be 1fa6 9f3e 3566 c73d 052a 683b
00000050: 3254 e5bc 204d a53e 43fb cfbe a73c b43d
00000060: dba9 993d abb8 89be 58c2 dc3d 7239 993e
00000070: e259 1b3e 8395 173d 8e3b fcbd e62f 91bf
00000080: ab7d 0cbf 833b 7b3e 6032 353e d53c e2be
00000090: 23c7 813b 34be 953e e83e 913d 3784 89be
000000a0: 8723 55bf 89f4 adbe 8e41 da3d 9c0e efbe
000000b0: eb4d 0f3d e138 a43e 9c51 053d 1a6d 9fbe
000000c0: 039d 2bbd ac0c 353e f683 9c3e 6378 ae3d
000000d0: 2935 a6bd 983b 0e3d 7a18 463e 6951 57bf
000000e0: 3aba 013d 371a 6a3e 7da9 513e 5216 a8bd
000000f0: 458b b83e 8679 813e 0787 883e d01b c6be

block3.1.running_var f4 [64]
0.11655528 0.24305244 0.15796989 0.21122707 0.2309243 0.12394383 0.22953175 0.14335214
0.14849629 0.15798377 0.23247916 0.12969339 0.2517739 0.3051105 0.2528284 0.17414697
0.18249123 0.37755045 0.20423105 0.09953162 0.22152847 0.16044953 0.21783462 0.18984987
0.25912797 0.18916976 0.21810162 0.12986392 0.15720187 0.2857009 0.1458339 0.63629615
0.4393515 0.2842277 0.14760022 0.25445548 0.15493791 0.32130444 0.11333989 0.18333292
0.54994047 0.24175778 0.14397648 0.20566297 0.16570248 0.18391219 0.2620682 0.309754
0.19938743 0.1510903 0.14022966 0.21311134 0.125412 0.118079655 0.21953069 0.44114867
0.13289617 0.18351614 0.16225703 0.2022787 0.20126683 0.12931526 0.3413761 0.15545882
00000000: 89b4 ee3d bde2 783e dcc2 213e e94b 583e
00000010: 6b77 6c3e 43d6 fd3d 5f0a 6b3e e7ca 123e
00000020: 690f 183e 7fc6 213e 040f 6e3e 58ce 043e
00000030: 82e8 803e 7237 9c3e b972 813e 9553 323e
00000040: fbde 3a3e 4b4e c13e f221 513e 3cd7 cb3d
00000050: 5cd8 623e e24c 243e 0a10 5f3e 0168 423e
00000060: 6cac 843e b8b5 413e 0856 5f3e 0cfb 043e
00000070: 87f9 203e 6347 923e 7b55 153e 4ee4 223f
00000080: aef2 e03e 4b86 913e 8324 173e fd47 823e
00000090: 0ba8 1e3e 0482 a43e bf1e e83d a0bb 3b3e
000000a0: e6c8 0c3f 5a8f 773e 926e 133e 5099 523e
000000b0: e9ad 293e 7a53 3c3e ce2d 863e 1498 9e3e
000000c0: 382c 4c3e 6ab7 1a3e 5d98 0f3e dc39 5a3e
000000d0: 016c 003e bfd3 f13d a7cc 603e 3dde e13e
000000e0: ef15 083e a8eb 3b3e b526 263e 2622 4f3e
000000f0: e418 4e3e 386b 043e d9c8 ae3e 9930 1f3e

block4.0.weight f4 [64, 64, 3, 3]
0.007829854 -0.03440401 0.027799314 0.012315173 0.020352365 0.03580495 0.022395814 -0.03426043
0.00994584 0.010571136 -0.029392099 0.013475768 0.008409888 0.041881856 -0.034919977 -0.04267244
-0.040483605 0.032725893 -0.0099502355 0.0348911 -0.009583592 0.026377728 0.022204725 -0.04058909
0.031563383 0.02297109 -0.024505015 -0.034163136 0.014513271 0.042822152 -0.03161118 0.01897399
0.01578565 -0.019284004 0.008931269 0.023568338 -0.029050676 -0.041828923 -0.016218679 -0.008681637
-0.016129479 0.0113602 0.01341489 0.025220226 -0.024475971 -0.03789409 0.020450773 -0.009564214
-0.011568633 0.021246564 -0.0034192973 0.02855062 0.035381686 0.02333685 -0.04381087 0.034178946
0.009240952 0.027720287 0.014800645 -0.020806417 0.03136406 0.041193575 0.03248642 0.0053309547
0.020076351 0.020444294 0.009902462 -0.046725545 0.0125184795 0.013040805 -0.040661864 0.041823864
0.014153489 -0.03157178 0.042109407 0.0064777774 -0.02358546 -0.0014790538 0.024233831 -0.044061292
-0.017916884 0.001951799 -0.011962406 0.017185444 0.009043961 0.016216703 -0.029653283 0.048163462
-0.014909643 0.0027056988 0.018247362 -0.03250351 -0.023209164 0.033788048 0.022214409 0.008315537
0.011751561 0.04151564 -0.038891654 0.039362114 -0.009127642 0.027537528 -0.048663896 -0.020785308
0.003490409 0.032654103 0.014248343 0.041252755 -0.02900214 -0.009152392 0.040464327 0.014504532
-0.026579855 0.034503195 0.010873266 0.0016791609 -0.0019643796 0.031017821 -0.013881293 0.024303664
0.051916406 -0.022596383 0.035099577 -0.0048936647 -0.0022072387 0.03190149 -0.0038590808 0.017408635
0.038138125 0.018410657 -0.037844427 -0.0055941055 0.0015357268 -0.041432828 0.027713435 -0.015094142
0.008723494 -0.015637305 0.0050918013 0.017850012 -0.017753437 -0.04392012 -0.0068861777 -0.018039275
0.025636232 0.032551706 0.021820186 -0.032073524 -0.033290043 -0.04241079 0.02372685 0.028160904
-0.025947813 -0.025756765 -0.0042920476 0.010818278 0.009307318 0.02620042 0.008154028 0.008857375
-0.0172231 -0.02125868 0.0422567 -0.032479245 0.009169332 -0.04097831 -0.036924783 -0.008462399
-0.04025109 0.01293551 -0.0019988765 -0.020427229 -0.033243652 -0.013071822 -0.022691723 0.022681037
-0.04380311 -0.017215721 0.026153622 -0.037138697 -0.026797047 -0.032943383 0.011075353 0.0137175685
0.02875291 -0.006589329 0.04618336 -0.008912799 0.027971352 0.026092844 -0.038144633 0.0071556033
-0.015096999 -0.03654229 -0.029797608 0.039675232 0.008127232 0.030020656 -0.0053020166 -0.038613304
0.006558422 -0.015039282 -0.034032766 0.029862266 -0.009488907 -0.017082315 0.00787593 0.026996685
0.014119457 -0.018805938 -0.030267289 0.0039920188 0.02501424 -0.01977962 0.031726614 -0.005357898
-0.032853466 0.0016642067 0.002730242 -0.026392229 -0.042680264 -0.020833187 0.029415932 -0.019966388
0.03351566 0.008427161 0.019268706 -0.039717462 0.013414776 -0.021306291 0.021156834 -0.017014487
-0.019909235 0.046692636 -0.0051322714 0.04068477 0.045284312 -0.02101171 0.03850322 -0.007438247
-0.03559948 0.00017229217 0.029191162 0.003461623 -0.0079910485 0.02405092 -0.0064172996 -0.04340901
-0.03059104 0.023922477 -0.009965666 -0.023997242 -0.021944787 0.0104050245 -0.021805212 0.0033848702
00000000: ca48 003c 38eb 0cbd 63bb e33c 94c5 493c
00000010: 01ba a63c 36a8 123d 6d77 b73c aa54 0cbd
00000020: e0f3 223c 8f32 2d3c b3c7 f0bc 78c9 5c3c
00000030: a0c9 093c 4f8c 2b3d 4008 0fbd 4cc9 2ebd
00000040: 23d2 25bd 960b 063d 5006 23bc f8e9 0e3d
00000050: 8004 1dbc 1b16 d83c afe6 b53c bf40 26bd
00000060: 9b48 013d de2d bc3c bebe c8bc a5ee 0bbd
00000070: 12c9 6d3c 4866 2f3d ba7a 01bd 576f 9b3c
00000080: e850 813c 7df9 9dbc 7554 123c 6312 c13c
00000090: affb edbc ce54 2bbd 09dd 84bc 6d3d 0ebc
000000a0: f821 84bc 2220 3a3c 20ca 5b3c a69a ce3c
000000b0: d581 c8bc d536 1bbd 6188 a73c 39b3 1cbc
000000c0: 5d8a 3dbc 460d ae3c 4a16 60bb fde2 e93c
000000d0: 63ec 103d ec2c bf3c 0773 33bd 39ff 0b3d
000000e0: 5d67 173c a815 e33c 687e 723c 3872 aabc
000000f0: 9a77 003d 98ba 283d 7b10 053d 4aaf ae3b
00000100: 2977 a43c cb7a a73c f03d 223c 4963 3fbd
00000110: 4f1a 4d3c 1aa9 553c 0e8d 26bd 804f 2b3d
00000120: 09e4 673c 6951 01bd ea7a 2c3d 8943 d43b
00000130: 4b36 c1bc cfdc c1ba 0786 c63c 9d79 34bd
00000140: 6ec6 92bc 82d3 ff3a f8fd 43bc 7dc8 8c3c
00000150: 1f2d 143c e4d8 843c 71eb f2bc 0d47 453d
00000160: 9347 74bc 1852 313b 7e7b 953c 6722 05bd
00000170: 2521 bebc 5665 0a3d fefa b53c e43d 083c
00000180: 9f89 403c 4e0c 2a3d db4c 1fbd 2b3a 213d
00000190: 1b8c 15bc 6296 e13c cb53 47bd f345 aabc
000001a0: 59bf 643b 4fc0 053d e271 693c a6f8 283d
000001b0: e595 edbc eaf3 15bc ecbd 253d 6ba4 6d3c
000001c0: ffbd d9bc 3953 0d3d c825 323c 4a17 dc3a
000001d0: d2bc 00bb 1619 fe3c 5d6e 63bc 7a18 c73c
000001e0: 4ca6 543d 0d1c b9bc 93c4 0f3d 095b a0bb
000001f0: 52a7 10bb 23ab 023d a2e8 7cbb 8e9c 8e3c
00000200: b936 1c3d f2d1 963c c202 1bbd c24e b7bb
00000210: 714a c93a 78b5 29bd 4907 e33c 6c4d 77bc
00000220: fcec 0e3c ce19 80bc 20d9 a63b 303a 923c
00000230: a86f 91bc 95e5 33bd 72a5 e1bb 1ac7 93bc
00000240: 1303 d23c f054 053d 3fc0 b23c 875f 03bd
00000250: 245b 08bd f0b6 2dbd d05e c23c b2b1 e63c
00000260: 8290 d4bc daff d2bc 4ea4 8cbb 263f 313c
00000270: b97d 183c 43a2 d63c 7998 053c 861e 113c
00000280: 7517 8dbc af26 aebc 5d15 2d3d f508 05bd
00000290: f73a 163c dfd8 27bd 713e 17bd e0a5 0abc
000002a0: 54de 24bd 76ef 533c 95ff 02bb 0157 a7bc
000002b0: 7f2a 08bd 322b 56bc fee3 b9bc 95cd b93c
000002c0: e46a 33bd fc07 8dbc 1f40 d63c bf1e 18bd
000002d0: 7b85 dbbc a4ef 06bd 6675 353c a7bf 603c
000002e0: 398b eb3c 4ceb d7bb c32a 3d3d fd06 12bc
000002f0: 2d24 e53c a9c0 d53c 8c3d 1cbd 8d79 ea3b
00000300: 6759 77bc 5ead 15bd 1d1a f4bc 7f82 223d
00000310: 1528 053c e1ed f53c 8abc adbb fc28 1ebd
00000320: 08e8 d63b 5267 76bc f165 0bbd b6a1 f43c
00000330: 5c77 1bbc 36f0 8bbc 0b0a 013c 2728 dd3c
00000340: 4c55 673c e90e 9abc 1bf3 f7bc 7bcf 823b
00000350: aaea cc3c df08 a2bc c4f3 013d 4e91 afbb
00000360: 5b91 06bd 8321 da3a dced 323b 8434 d8bc
00000370: 80d1 2ebd 5caa aabc aef9 f03c 8d90 a3bc
00000380: b747 093d 1312 0a3c 68d9 9d3c c7ae 22bd
00000390: a6c9 5b3c 888a aebc 1951 ad3c f761 8bbc
000003a0: b118 a3bc c740 3f3d 9d2c a8bb 13a5 263d
000003b0: 0b7c 393d c020 acbc 8db5 1d3d 8abc f3bb
000003c0: c3d0 11bd 54a9 3439 4e22 ef3c 66dc 623b
000003d0: e3ec 02bc 6f06 c53c 3648 d2bb a5cd 31bd
000003e0: 109a fabc 12f9 c33c 0847 23bc dd95 c4bc
000003f0: 8ec5 b3bc d679 2a3c d8a0 b2bc b3d4 5d3b

block4.0.bias f4 [64]
-0.012627779 -0.029664304 -0.03834211 -0.007175817 -0.038197175 0.028760279 0.014470993 -0.0053516217
0.034616113 0.026546514 0.024302002 -0.0014326255 -0.029658986 0.010198788 0.017603714 0.02857211
0.024569992 -0.036138896 0.020619627 -0.033528756 -0.013685697 0.026521837 -0.010355454 0.0011154552
-0.031203344 0.023846367 -0.026132168 0.009716684 -0.020167703 0.039719693 0.0043983455 0.0022034752
-0.009637953 8.163346e-05 0.03196802 0.008383149 -0.015920017 0.037177972 0.023043374 -0.03416172
-0.0016205069 0.032110594 0.029531084 0.026676938 -0.0027928117 -0.008052033 -0.03801578 -0.026765106
0.02194276 -0.033464614 -0.0063866866 -0.01520641 -0.0050220746 -0.0025814977 -0.007956541 0.005141981
0.030355401 -0.022469712 0.04354877 -0.00020406795 0.038415663 0.018186899 -0.018998558 -0.0136557985
00000000: bee4 4ebc 8e02 f3bc 9e0c 1dbd 1e23 ebbb
00000010: a474 1cbd ad9a eb3c be17 6d3c a85c afbb
00000020: a0c9 0d3d 1378 d93c fe14 c73c efc6 bbba
00000030: 67f7 f2bc d118 273c aa35 903c 0f10 ea3c
00000040: 0247 c93c 6106 14bd 7eea a83c 7355 09bd
00000050: f939 60bc 5344 d93c eca9 29bc 7734 923a
00000060: 289e ffbc 7559 c33c 2113 d6bc ba32 1f3c
00000070: bd36 a5bc 1eb1 223d ff1f 903b 2e68 103b
00000080: 81e8 1dbc a132 ab38 e6f0 023d 7a59 093c
00000090: b26a 82bc ee47 183d 75c5 bc3c 29ed 0bbd
000000a0: 3067 d4ba 6686 033d 2ceb f13c 9889 da3c
000000b0: 9b07 37bb adec 03bc 6fb6 1bbd 7f42 dbbc
000000c0: 4ec1 b33c 3112 09bd 6947 d1bb 4e24 79bc
000000d0: 3790 a4bb 582e 29bb 275c 02bc 107e a83b
000000e0: e4ab f83c 6712 b8bc 3260 323d 13fb 55b9
000000f0: be59 1d3d b1fc 943c dda2 9bbc 92bc 5fbc
