results/old/basic/basic_9.pth (torch, 961549 bytes, 26 tensors)

block1.0.weight f4 [64, 1, 3, 3]
00000000: e4df 13be 94d7 2ebe 16f5 76be 8d44 b73d
00000010: e197 a53e eefc d8bd 465f 74bd 34e8 87be
00000020: 05f7 303e 6539 163e 643a 83be 1733 743e
00000030: 0317 5f3e c746 46be f40d 903e 991a a1be
00000040: d065 863d 9849 d9bd 8f2e 593e 9cf5 a23e
00000050: 5b99 8ebe cff9 503e 3a55 1cbe 45a7 a43e
00000060: b4d0 93bd 83e0 a1be 2767 893d e18e 313e
00000070: 569c 9c3e 8b70 72be e6bc 573e c834 dc3d
00000080: 7bb5 733d cca2 573e 83a8 37be 9a8e 153e
00000090: 485d 00be e80e 83be 4237 eebd 328c 03bd
000000a0: 345b ae3e 24f5 bbbc 76c1 71be 7b79 823e
000000b0: 69f0 71be 71fc e33d 5ba5 e9bd a5a5 573e
000000c0: 7881 03bd 3ff2 8d3e 2590 c8bd 3f36 063e
000000d0: 6afa 093e 6a92 0dbc f912 7cbe 3199 a53e
000000e0: 1213 403e d6a3 6fbe d99a 56be f685 b0bd
000000f0: 5127 91be 0914 9a3d f6ec 4abd 1f17 a7be
00000100: f81a a1be b9d1 3f3d ee00 a83e b35f a93d
00000110: 33e3 4d3e 2ef8 55be 07db 8c3e 2c47 9cbd
00000120: 00d9 6fbd a657 903e 3a6e 0dbe d732 b8bc
00000130: 06fa cb3d 4f82 ea3d 0d8a b4bd c49f 2dbd
00000140: 168b 773e 9dbf 3ebe d5ed a4be 1e19 5bbe
00000150: 29a3 ee3d 210b 30be d178 a5be 0e31 e53d
00000160: cdcc 7dbe d51f 2f3e d5b6 fe3c fce4 3b3e
00000170: 4252 b0bd 96da 2bbe ebaa 363e fa48 493e
00000180: c1f8 f7bd 2e3d 4e3e 18fa 86be ddd5 13be
00000190: cfff 2e3e bc79 183d 35c5 293e 402b a6be
000001a0: b771 9f3d f200 163e 1e9d adbc db71 9b3e
000001b0: 5b43 78bc e80a 08be d790 f13d 50ce 9cbe
000001c0: 9476 583e bae4 3abd c3cf 9bbd 8d73 01bd
000001d0: 0255 86be e939 0ebe f661 95be b2df 69be
000001e0: 2c2c b1bb 1c8e b2bd d004 c6bc cd4e a73e
000001f0: f2cd 9fbe fcd2 2f3b 87b0 273c 43e8 88be
00000200: 3796 063e 47de 493e 786c fbbd b8f2 b9bd
00000210: ac0d a63e 6d8e 403e 8378 283e 8776 05bc
00000220: 0ae3 883e bb4c 653e 95ea 933e 7b30 44be
00000230: 5a7a 543e e7dc 593d bf23 0fbe 6f7c 15be
00000240: 3740 a63e e614 e23d 4c20 97be 6cd5 d8bd
00000250: e6d4 99be 99d4 003e e235 08be 8008 6a3d
00000260: 28fb 553e fc46 653d 79bf 26be df34 93be
00000270: ed8a bbbd fc3b db3d 4324 233e a94c 8f3e
00000280: d4de 6f3d ce3d dabc 9e55 9e3c 4b69 56be
00000290: c92c 81be e159 043e 049a 5c3e 109b 963e
000002a0: 2d21 483e 8886 bbba 135c 3c3e 4451 a13d
000002b0: b2f3 0a3e dc27 2ebe 6d42 87be c0da 81bb
000002c0: 3d26 10bd 3c1b 8f3e a6cb bdbd cd79 5d3e
000002d0: 2f6a 0cbd 4781 813e a2ce dfba 7d05 613e
000002e0: 77f3 5bbe 44f5 90be 2341 13be 5ae5 703e
000002f0: 4c64 97be 4be5 4f3e bf7e 79be 3785 32be
00000300: c018 8c3e d992 c5bb 3681 7d3e 0c72 5e3e
00000310: d918 9abe 5c8f b33d f126 973d b6ec 47be
00000320: ce76 24be 8ea1 59be 4096 5b3e af53 93be
00000330: 4fea acbe 2202 02bd e180 0e3e ebcc 693e
00000340: 19d4 7e3b 4a94 31bd 8be0 2a3d 855d 573e
00000350: 38a0 843e 1f39 c7bd 80f9 263e 6191 003a
00000360: de39 23be a52b 713d e6a9 81be b154 c33d
00000370: 7280 923d b311 78bd 9408 9e3e 6489 6ebd
00000380: eabc 8f3e f530 fb3d 82c4 743e ee9f 293d
00000390: a40c a9be 343b 9a3e 3cda 11be e6fc 003d
000003a0: 39c9 223e eb95 61be 6e51 833e 6274 703b
000003b0: ae88 703e f622 00be a8cd 383e def1 5c3e
000003c0: 840d 443e 0f9c 82bd ba7f 2c3e 2119 c73d
000003d0: e900 41be ca59 8c3e 096a 333e 926e 973d
000003e0: 1c63 84be 3e00 873e a3db adbe 70b1 373e
000003f0: 3ba4 d9bc 275d 72be c4f3 673e cea9 8cbe
-0.14440876 -0.17074424 -0.2411693 0.08948622 0.32342437 -0.105951175 -0.059661172 -0.26544344
0.1728173 0.14670332 -0.25630486 0.23847614 0.21786122 -0.19362937 0.28135645 -0.31465605
0.06562388 -0.1060974 0.21209167 0.3182801 -0.27851376 0.20407794 -0.15266886 0.32158867
-0.07217541 -0.316166 0.06709128 0.1733966 0.30588025 -0.23675744 0.21068153 0.10752255
0.059499245 0.21058196 -0.17935376 0.1460518 -0.12535584 -0.2559731 -0.11631633 -0.032116123
0.34053957 -0.02294404 -0.23608956 0.25483307 -0.23626865 0.11132134 -0.11408492 0.21059282
-0.032105893 0.27723882 -0.097931184 0.1310663 0.13474432 -0.008640865 -0.24616612 0.32343438
0.18757275 -0.23402342 -0.20957507 -0.08619301 -0.2835031 0.07523353 -0.04954239 -0.32634827
-0.31465888 0.046830866 0.3281321 0.08270206 0.20106201 -0.20895454 0.27510855 -0.076307625
-0.058556557 0.2819187 -0.1381158 -0.02248518 0.099597976 0.11450636 -0.088153936 -0.042388692
0.24174151 -0.18627782 -0.322127 -0.213963 0.11652214 -0.17191745 -0.32318738 0.11190997
-0.24785157 0.17101987 0.03109304 0.1834907 -0.086094394 -0.16782603 0.17838638 0.19656745
-0.12107993 0.20140526 -0.2636268 -0.14437051 0.1708977 0.03722547 0.16579135 -0.32454872
0.07785361 0.14648798 -0.021193083 0.30360302 -0.015152778 -0.1328541 0.11795204 -0.30626154
0.21138984 -0.045628287 -0.07607987 -0.03160434 -0.2623673 -0.13889278 -0.291763 -0.22839239
-0.005406877 -0.087185115 -0.024172217 0.32677308 -0.3121181 0.0026828637 0.0102349585 -0.26739702
0.1314324 0.19713698 -0.12276548 -0.09079498 0.32432306 0.18804331 0.16452222 -0.008145935
0.26735717 0.22392552 0.2888991 -0.19159119 0.20749798 0.053189185 -0.1397848 -0.14598249
0.32470867 0.11039142 -0.29516828 -0.10587582 -0.3004524 0.125811 -0.13301805 0.057137012
0.2089659 0.0559759 -0.16283979 -0.28751275 -0.09157357 0.107048005 0.15931801 0.27988175
0.058562115 -0.026640799 0.019327935 -0.20938604 -0.2522948 0.12924911 0.21543127 0.29415178
0.19543906 -0.0014307061 0.18394499 0.07876828 0.13569525 -0.17007393 -0.26417866 -0.0039628446
-0.035192717 0.27950466 -0.092673585 0.21628495 -0.034280952 0.25293943 -0.0017075131 0.2197475
-0.21479593 -0.28312123 -0.14380316 0.2352499 -0.29568708 0.20302312 -0.24364756 -0.1743363
0.27362633 -0.0060294685 0.24756321 0.21723193 -0.30097082 0.08767578 0.07380474 -0.19523892
-0.16060945 -0.21253034 0.21444035 -0.28774783 -0.33772513 -0.031740315 0.13916351 0.22832076
0.0038883744 -0.04335431 0.041718047 0.21031769 0.25903487 -0.09727692 0.16306114 0.00049044756
-0.15940043 0.058879513 -0.25324935 0.09537638 0.07153405 -0.060563754 0.3086592 -0.058236495
0.28073817 0.12265197 0.23903087 0.041412286 -0.33017457 0.30123293 -0.14243406 0.031491183
0.15897073 -0.22029845 0.25648063 0.0036690463 0.23489639 -0.12513337 0.18047202 0.2157664
0.19145781 -0.06377422 0.16845599 0.0972159 -0.18848003 0.27412254 0.17520918 0.073941365
-0.25856864 0.26367372 -0.33956632 0.17938781 -0.026567569 -0.23668347 0.22651583 -0.274733

block1.0.bias f4 [64]
00000000: 91ca 853e 51a1 9ebe da9b 073e fc4d 0e3e
00000010: aee4 87be 8196 8bbc 59ee 763d 7aa6 3ebe
00000020: 21ea 823d cd5d b6bd c129 1abe c68b ecbd
00000030: f604 67be b66b 97be da3b 703e c143 d13d
00000040: 2ab8 3e3d 2979 763e 9149 1bbe f80f 7cbe
00000050: 9a78 0c3c ba12 1a3e a899 da3d d856 873e
00000060: 71b1 47ba 6f05 703e eec6 8abd 1f0f f63d
00000070: 53b6 d83d 3d3c 9a3e ccc0 96bc 099b 1d3e
00000080: 6508 62be 6ea7 983e 98e7 4bbe 04da 9dbd
00000090: 1398 3a3d e48d 503e 907d 4dbe 7699 973e
000000a0: 6b8c 8abe f80c 08be 02f3 8b3e 5e7b 1cbe
000000b0: dd77 803d 07df 8fbe 4a50 8fbe 759e 92be
000000c0: 6b90 113e 1573 113e 9ebd 07bd bf00 2b3d
000000d0: 79d8 a23e 1a3f 1e3c 0185 3dbe 293d 7f3d
000000e0: 08f7 83be cb5b 5bbe 2d5d 3ebd 8a33 f8bd
000000f0: 5665 a13e ebcb c5bd 27b0 2a3e 5c9e 5b3d
0.26131108 -0.3098245 0.13243046 0.13896936 -0.26541656 -0.01703954 0.0602859 -0.18618193
0.06392313 -0.0890461 -0.1505499 -0.11550097 -0.22560486 -0.29574364 0.23460332 0.10218001
0.04656235 0.24069656 -0.15164782 -0.24615467 0.0085736755 0.15046206 0.10673839 0.26433444
-0.00076176884 0.23439573 -0.06776224 0.12014603 0.105816506 0.30124083 -0.01840248 0.15391172
-0.22073515 0.2981524 -0.19912565 -0.07707599 0.045555186 0.20366627 -0.2006743 0.2960927
-0.27060255 -0.13286197 0.27333838 -0.15281436 0.06272862 -0.28099844 -0.27990943 -0.28636518
0.14215247 0.14204057 -0.033139817 0.04174876 0.3180578 0.009658599 -0.18507768 0.062314186
-0.25774407 -0.21421735 -0.046475578 -0.12119205 0.31522626 -0.09658035 0.1666876 0.05361782

block1.1.weight f4 [64]
00000000: c966 7d3f 9a73 803f 2b46 7e3f 4a48 7d3f
00000010: 7db3 7e3f b435 7e3f 4afc 7c3f d7d7 823f
00000020: 7892 7e3f 4eec 7d3f 09c8 7f3f f097 7e3f
00000030: 2155 7e3f b79a 7e3f fb92 7e3f 9d87 7d3f
00000040: c54e 833f f3f2 803f a049 7e3f c144 7f3f
00000050: ecac 7d3f e3d3 7e3f 3e94 7e3f 279f 7e3f
00000060: 6b67 7e3f ed73 7f3f 5c78 7c3f b783 7e3f
00000070: 0da0 7e3f 25b7 7d3f 2752 7e3f eae2 7d3f
00000080: 31f1 823f c599 813f 9aa3 7c3f 72d9 7e3f
00000090: 10d4 803f 456b 7e3f 8682 803f 8116 7f3f
000000a0: c679 7e3f f3f1 7d3f 4dc0 813f 1d0b 7f3f
000000b0: d8c8 803f 093e 803f 6b50 7f3f 17bd 7d3f
000000c0: 1782 7f3f 41e9 803f 49a1 803f 53ae 7e3f
000000d0: 5002 7f3f 624c 7f3f 31e1 7d3f 1970 7d3f
000000e0: a292 7e3f 5594 7d3f 8940 813f dc8f 803f
000000f0: 250e 7e3f c9dc 7d3f 571e 7e3f 3114 813f
0.9898496 1.0035279 0.9932582 0.9893843 0.9949263 0.99300694 0.9882246 1.0222119
0.99442244 0.991887 0.99914604 0.9945059 0.99348646 0.99454826 0.99443024 0.99035054
1.0258414 1.0074142 0.9933109 0.99714285 0.9909198 0.99542063 0.9944495 0.994616
0.99376553 0.99786264 0.98621154 0.9941973 0.9946297 0.9910758 0.99344105 0.9917437
1.0229856 1.0125052 0.98687136 0.99550545 1.0064716 0.9938243 1.0039833 0.99643713
0.9940456 0.9919731 1.013681 0.9962633 1.0061293 1.0018932 0.99732083 0.99116653
0.99807876 1.0071183 1.004922 0.9948475 0.99612904 0.99725926 0.9917174 0.9899917
0.99442494 0.9905446 1.009782 1.0043902 0.9924033 0.99165016 0.99265045 1.0084287

block1.1.bias f4 [64]
00000000: 43de afbb 7f59 f7bb afb1 d2ba 7af9 b8bb
00000010: 680a 39bc 5f0f 58bb 9441 5cbc 13de 573c
00000020: 34c7 abbb abb8 84bc ba82 2d3b eaed cdba
00000030: cc31 08bc 3c58 aeb9 1079 de3a 2972 a3bb
00000040: 437f fc3b cc55 523a a5fa 423b 6080 9bbb
00000050: 9d07 6abc 58ba efbb 1f45 24bb 2d11 86bb
00000060: 007f 3abb 94f6 34bc fe4c 1dbc 9c82 38bc
00000070: e93c 79bc ba2c a6bb 7548 09bc 406c 623b
00000080: aa89 013d 236a 213c 466b 5d3b 6e4e 73bb
00000090: ccdc 96bc c604 8bbb bc12 9dbc 11af afbb
000000a0: 8602 8fbb 3075 c63a f0af 743c 82b9 fbbb
000000b0: 5a1b 293b 13da dfba 02e6 8ebb c75a 41bc
000000c0: 4bae d93a 4f3f 5e3c 9cef b4bb 288d 40bc
000000d0: e3bc 143a f969 f73a 57ee 0dbc 133b d2bb
000000e0: fcde 7f3a 8d3e 58bc c1d4 a63b 970f b43b
000000f0: c94f 843b 37ca 26bc d231 1fbc 78f3 353c
-0.005367072 -0.0075485106 -0.0016074682 -0.0056449743 -0.011293985 -0.0032968146 -0.013443369 0.013175505
-0.0052422527 -0.016201338 0.0026475624 -0.0015711163 -0.008312654 -0.00033253606 0.0016973335 -0.004987974
0.0077056005 0.0008023649 0.0029751447 -0.004745528 -0.014284042 -0.007315915 -0.0025065613 -0.004091403
-0.0028457046 -0.011045117 -0.009600876 -0.011261608 -0.015212276 -0.00507125 -0.0083790915 0.0034549385
0.031625427 0.009851965 0.0033785864 -0.0037125605 -0.018415831 -0.0042425124 -0.019173972 -0.0053614457
-0.0043643145 0.0015141126 0.014934525 -0.0076820264 0.0025803656 -0.0017078541 -0.004360915 -0.011801428
0.001660773 0.013564899 -0.0055217277 -0.011752404 0.0005673898 0.0018876187 -0.008662782 -0.0064157336
0.0009760705 -0.013198507 0.00509128 0.0054950225 0.0040378314 -0.010180048 -0.009716468 0.011105411

block1.1.running_mean f4 [64]
00000000: e6a2 9a3d 117d 8cbe 142f 8d3e 20ea 023f
00000010: 7aa6 edbe 2bcf 893e 5de9 3cbe 384d 39be
00000020: df0f 7c3e 1143 16bf 54e1 a1bd fe42 9d3d
00000030: da69 f5be b15d 26bf affd f73e 600a b93e
00000040: f521 2a3d 2724 913e 9783 f23d 6c92 36be
00000050: f075 efbd 1688 953e 1b52 88be 5a7c 1f3f
00000060: 116c 063e 0f7a a83e b529 db3e 87a9 7e3e
00000070: 29b4 b8bd bcde f3bd 8140 863e b9a3 5cbc
00000080: 1f91 67be ba0a 8e3e 74a1 a33e 7d37 363d
00000090: 8476 41bc 49ea 0c3f f5bd 21be 75a1 023e
000000a0: 4536 42bd 5656 813e e149 993e 6240 89be
000000b0: 6395 ac3c c332 b8be d6a4 f5be 7e4f 09bf
000000c0: eabb 5c3e 66fb 043e dd69 de3c c2fb 83bd
000000d0: efc1 423e 99ea 5ebe 8eeb 73bc bb24 ac3e
000000e0: 6f68 1bbe c504 0cbf d5ae 07be 233f 8bbd
000000f0: 627f e13e 9262 cf3e 67fd 0f3f 613c b23d
0.07550602 -0.27439168 0.2757498 0.51138496 -0.46416074 0.2691587 -0.18448396 -0.18095863
0.2461543 -0.58696085 -0.07904306 0.07678793 -0.4793232 -0.6498671 0.48435733 0.36140728
0.04153629 0.28347895 0.11841505 -0.17829293 -0.11692417 0.29205388 -0.26625142 0.6229912
0.13127162 0.32905623 0.42805257 0.24869357 -0.09018738 -0.119077176 0.26221088 -0.013466769
-0.22613953 0.2774256 0.31959116 0.04448651 -0.0118080415 0.5504499 -0.15795119 0.12756903
-0.047415037 0.25261182 0.29939178 -0.26806933 0.021067327 -0.35976228 -0.47977322 -0.5363692
0.21556059 0.12986526 0.027150089 -0.06444503 0.19019292 -0.2176918 -0.014887704 0.33621773
-0.15176557 -0.5469478 -0.13250287 -0.06799152 0.44042498 0.4050489 0.56246036 0.087029226

block1.1.running_var f4 [64]
00000000: 3fee 6d3c e92a bc3a 091d 1d3c 32a6 6b3d
00000010: 0f18 883c 9c22 0a3d ca50 d23c 10c6 4c3a
00000020: 94a4 623c 4f62 d43d 019c 273b 1164 7e3c
00000030: e563 d93c e119 583d 8ca9 db3c 3d32 ed3c
00000040: b7f5 8839 e7d8 d43a 2c4b fb3c 151d 1a3b
00000050: 5f4e ea3b 0d8e 123c 1c4b 6a3d bd0b 5a3d
00000060: 2846 093c 33b0 8a3b fb34 cf3d 5edc e93b
00000070: 5e37 843c b2ab 943d baf2 083d 598e 443c
00000080: 28df 973a 6983 3f3a 0638 e23d f451 f13b
00000090: 0f1b 273b 2e26 4c3d 6800 da3a 7659 643c
000000a0: 4d61 aa3c ce3b 7b3d 5e7d 323b e816 d73b
000000b0: 82d8 6c3a 557f 7c3b d82c 8f3c 4850 d33c
000000c0: f3ea 2d3b ef7c 863a 1ae6 ef3a fcd2 9d3b
000000d0: f51b ee3b d4df b53c bd63 523c 1ba8 fd3c
000000e0: 44bd d73b 09ae 3d3d d00b a93b d9fc 6a3b
000000f0: 34ff f03b 80e2 d33d 0496 833d 4dae 9f3a
0.014522134 0.001435605 0.009589442 0.057531543 0.016613035 0.033724412 0.025673289 0.0007811496
0.013833184 0.103703134 0.0025575163 0.015526787 0.026536891 0.052759055 0.026814245 0.02895462
0.00026123013 0.0016238958 0.030675493 0.002351587 0.007150456 0.008945 0.057200536 0.05323385
0.008378543 0.0042324304 0.10117527 0.0071368655 0.016139682 0.07259311 0.033434607 0.011996829
0.0011586891 0.00073056534 0.11045842 0.007364506 0.0025498306 0.0498411 0.0016632201 0.013937345
0.02079835 0.06133633 0.002723537 0.00656401 0.0009034948 0.0038528044 0.017477438 0.025795117
0.0026537746 0.0010260622 0.0018302829 0.004816411 0.0072665163 0.022201456 0.012841162 0.030963948
0.0065838415 0.04630855 0.005158879 0.0035856275 0.0073546413 0.10345936 0.064250976 0.0012182683

block2.0.weight f4 [64, 64, 3, 3]
00000000: 1db9 d83c bb88 23bd 91b0 e73c 1b8c a53c
00000010: 0317 833c b14d cc3c 2b82 13bc 43c4 83bc
00000020: ff4c 49ba 2398 8dbc bec7 49bd 78cc d23c
00000030: dee3 0e3a 266f 91bc c04f c3bc 6cb8 11bd
00000040: 3bd8 813b dae9 b0bb c180 20bd 9228 623b
00000050: c047 babc 96eb cfbc 32c4 133c ef54 cbba
00000060: 2346 f8bc b3ab d9bb 5813 97bc d0b5 033d
00000070: e15f 16bd 855b a3bc ffc3 a4bc cc8a c23c
00000080: 4e0f dabb f3c5 1d3b 20fc 01bd 4787 063d
00000090: ed27 16bd 4eff b2bc 28c4 18bd ac8a d5bc
000000a0: 72aa 753c c8aa fb3b b2b0 6dbc 47c1 543c
000000b0: eac9 0f3c 9a8a e93a bf43 cb3b c925 24bd
000000c0: f7b3 de3c 7c6c 103d d2d1 0e3d 3be7 043d
000000d0: 809e dabc d5f6 66bb 1712 453c 0c5b 1abd
000000e0: e7f9 5d3c 5974 5bbb 5154 3abc 92a8 f7bb
000000f0: 6c4e 25bd 9cb9 0d3d 4912 13bd 0a54 2a3d
00000100: e294 09bd f370 0d3d 8a39 453c abf7 933b
00000110: 88c4 ce3b f4ab 4f3b 79cc 363a 8382 32bb
00000120: 2bbf 77bc 8ffb 83bc a2ec 073d 5af2 1b3d
00000130: a40c f83c a86b debb bc1d c73c c623 1f3c
00000140: e449 293d be0c 24bd a6b4 c1bc 6a66 4e3c
00000150: e4b1 a8bc 12f0 17bd e142 c03c 998c b3bc
00000160: 33c4 a3bb d0ed a5ba 3303 4fbd 9365 40bc
00000170: 725d 193d 1e10 403b e3d1 133d 2426 233d
00000180: 6787 313c c53e a73c 1b7c ee3c 4a07 513c
00000190: 8627 1fbc ecd1 0fbb 4df0 7abb e3af 74bc
000001a0: 343a fb3a 4786 223d 2867 a8bc 1363 a93c
000001b0: 441e 41bc f8af 223d 5b88 0bbd f932 b63c
000001c0: 1fe3 033d e2f2 c3bc 441f a2bc 4fa7 a83c
000001d0: 0fbb f33b c76d 8fbc aaad 0cbd 64d4 833a
000001e0: 0d12 42ba 229f 2d3b 57c5 1cba d958 c63c
000001f0: 5699 a53a 813f bfbc 4745 9a3c 118f 133d
00000200: 44ed edbc 8f57 793b 5da9 b33c e08f d9bc
00000210: a85c a0bb c51e 9b3c 2812 093c 5bfa 2fbd
00000220: cdb1 0bbb 612e 14bc cdb8 a0bb fc16 b73b
00000230: 8497 083d de27 26bd 1f91 e13c d80d 79bc
00000240: e3c3 673c 81cb 8abb 3fad 9b3c 5256 aabc
00000250: 98f2 27bd 99b7 dcba be45 1c3d 5aa6 0f3c
00000260: 5283 4d3c 98db e13c 5bba 22bd 63f7 3fbb
00000270: 729e e0bc 641e ed3c 2835 a33b a783 c2bc
00000280: 42b1 203d be36 d1bc dcca fbbc 62f6 0d3d
00000290: b696 dcbc 6bd8 343c 508e a93b c747 093d
000002a0: 972a e3bc 1758 d33c ccc7 a13c 1940 a63c
000002b0: 3096 9fbc 421d e9bc dc9e 70bc 250f 63bc
000002c0: 4696 edbc 1f6a 84bc 8cbb e1bc 887f 13bd
000002d0: 46a1 c539 fbc7 e8bc 794e 1b3c 1379 a7bb
000002e0: 7b9b c8bc d731 843c 5368 d3bc 1385 4b3c
000002f0: 0b34 eebc 41f5 2abd d699 e8bc 56bd 1d3d
00000300: ca2b 9c3c 451c f6bb 6ef6 58bb 5764 a83c
00000310: 5f26 c03c baba 8abc 4ea9 873c 6855 fb3b
00000320: 4247 c13c b5ff 25bd b8da 25bd 0878 a93c
00000330: ebf5 0b3d e306 2abd a4ce b4bb 4146 9b3c
00000340: 9f31 053d 945c eabc dc49 78bc 3ffc 4d3c
00000350: 7bd7 883c 5732 093d 1c8f 663c 59d9 e8bb
00000360: 9e56 cfbc 2042 213c d03d 84bc 8e20 0dbd
00000370: b7f6 1a3d 386c 8f3b a37c 9fbb 7a87 eb3c
00000380: 97d6 893c 3304 483c 23a8 8b3c 0a59 f43a
00000390: 0db5 983c 9e57 2bbd eb42 8ebc af54 ebbc
000003a0: 48de 10bd c364 1ebd 14ae c8bc a6d8 c5bc
000003b0: 74aa 853c 0a67 b23c c9ed eb3c a0df 16bd
000003c0: bc8e 213d 5747 88bc 7788 a2bc 375c 12bd
000003d0: f1d1 b0bc a876 293d 3bda c1ba 1b7a 203d
000003e0: 4084 d73c a96a 363d aedc 5f3c 1167 f73a
000003f0: 0032 9bbc 06cc 85bb d100 63bc 8fbf d8bc
0.026455456 -0.03992532 0.028282436 0.020208409 0.016002184 0.02493939 -0.009003202 -0.016084796
-0.0007679015 -0.017284459 -0.049262755 0.025732264 0.0005450825 -0.017753195 -0.023841739 -0.03557627
0.0039625443 -0.005398971 -0.03918529 0.0034509045 -0.022739291 -0.02538089 0.009018945 -0.0015512983
-0.030306881 -0.0066427826 -0.018441841 0.03215581 -0.03671253 -0.0199411 -0.02011299 0.023747824
-0.0066546565 0.0024074286 -0.031734586 0.032843854 -0.03665917 -0.021850254 -0.037296444 -0.0260671
0.014994251 0.007680271 -0.0145074595 0.012985534 0.008776167 0.0017817796 0.0062031443 -0.040075097
0.027185423 0.03525971 0.03486807 0.03244708 -0.026686907 -0.0035242338 0.012028239 -0.037684485
0.013548351 -0.0033486097 -0.011372642 -0.007557937 -0.040357992 0.03460084 -0.03590611 0.041584052
-0.03358925 0.034531545 0.012037644 0.0045156083 0.0063100494 0.0031688185 0.0006973218 -0.0027238436
-0.015121262 -0.016111163 0.033184655 0.03807292 0.030279465 -0.006787736 0.02430617 0.009713119
0.041330233 -0.040051214 -0.02364571 0.01259766 -0.020592637 -0.037094183 0.02346939 -0.021917628
-0.004997754 -0.0012659375 -0.05054016 -0.011742967 0.037442632 0.0029306482 0.036088835 0.039831296
0.010835505 0.020415673 0.029111912 0.0127580855 -0.009714013 -0.0021945192 -0.0038290203 -0.014934513
0.0019167126 0.039678838 -0.020557001 0.020677125 -0.011787001 0.039718598 -0.034065586 0.022241103
0.03219902 -0.023919526 -0.0197903 0.020587591 0.0074380706 -0.0175084 -0.034345306 0.0010057804
-0.00074032025 0.0026492556 -0.00059803337 0.024212288 0.0012634199 -0.02334571 0.018831862 0.03602511
-0.029043801 0.0038046574 0.021931345 -0.026557863 -0.004893858 0.01893557 0.008366145 -0.042963367
-0.0021315694 -0.009044261 -0.0049048425 0.0055874567 0.03334762 -0.040565364 0.02753502 -0.0152010545
0.014145824 -0.0042356853 0.019003509 -0.020793114 -0.04100284 -0.0016839384 0.03815245 0.008767689
0.012543516 0.02757053 -0.039728504 -0.002929174 -0.027419303 0.028945155 0.004980702 -0.023744417
0.039231546 -0.025538798 -0.03073638 0.034658797 -0.026927333 0.011037926 0.0051744357 0.033515718
-0.02773027 0.02579884 0.01974859 0.020294236 -0.019480795 -0.028456334 -0.0146863125 -0.013858591
-0.02900232 -0.016163884 -0.02755525 -0.036010295 0.00037694926 -0.02841567 0.009479159 -0.0051108687
-0.024488201 0.016137047 -0.025806582 0.012421864 -0.02907755 -0.0417378 -0.028393667 0.038510643
0.019063849 -0.007510694 -0.0033105868 0.020555658 0.023455797 -0.016934741 0.016560223 0.0076700933
0.023593549 -0.040527064 -0.04049179 0.020687118 0.034170073 -0.041510474 -0.0055177975 0.018954398
0.032518025 -0.028608598 -0.015154328 0.012572347 0.016704312 0.033495273 0.014072206 -0.007105988
-0.025309857 0.009842426 -0.016142756 -0.034454875 0.03783294 0.0043769144 -0.004867153 0.028751124
0.016825957 0.012208032 0.017047947 0.0018642258 0.01864102 -0.041831605 -0.017365893 -0.028726904
-0.035368234 -0.038670313 -0.02449707 -0.024151158 0.01631663 0.021777648 0.028799908 -0.03683436
0.039442763 -0.01663558 -0.019840462 -0.035732474 -0.021584483 0.041372925 -0.0014789769 0.03917895
0.026308179 0.044535313 0.013663454 0.0018875321 -0.01894474 -0.0040831594 -0.013855175 -0.02645853

block2.0.bias f4 [64]
00000000: e0f7 c93c 2c76 44bc 0440 e83b 633c dfbc
00000010: 9f38 c1bc 068c 533c bce0 ddbc a981 523c
00000020: 95d8 be3c 0680 6abc 0055 fd3c a5d9 35bb
00000030: e5ab 9a3c d1de 8b3c 9de7 faba 735f 923c
00000040: 0e5e 27bd df03 07bd b1fc 333c 87b8 07bc
00000050: 87de 59ba 8abf f23c 0370 0e3d de14 c63c
00000060: f1aa 94bc 0806 1cbc 4b07 a53c 2046 a0bc
00000070: cf7b a1bc 45a5 03bc d2a8 043d c843 8cbc
00000080: f297 cfbc 86ba 593c 97e9 b73c 8946 d4bb
00000090: 26f9 e23c 8af8 f2bc 4fd1 61bc 014d 0ebd
000000a0: 40ee 87ba ae28 f1bc d77d e93c b680 f93c
000000b0: 7522 fd3c 9860 1c3d 1555 103d 16d7 17bd
000000c0: ef4a 8abb e1ac abbc af2b f33c 36d7 4cba
000000d0: 4cf3 96bc 37ef 943c 1fe2 d7bc dd23 1dbd
000000e0: 0f71 1b3d aa83 b33c 0e02 1fbd 42b2 7f3c
000000f0: db27 923b 2eac 1d3b c27b e43c 7e28 0f3d
0.024654329 -0.011991065 0.0070877094 -0.027250474 -0.02358657 0.012911802 -0.0270847 0.012848296
0.023296634 -0.01431275 0.03092432 -0.0027748134 0.018880794 0.01707402 -0.0019142512 0.01786778
-0.040861182 -0.032962676 0.010985539 -0.008283741 -0.0008311052 0.029632349 0.03477479 0.024179872
-0.018147917 -0.009522922 0.02014508 -0.019564688 -0.019712357 -0.008035009 0.032387562 -0.017122164
-0.025341008 0.0132891 0.022450252 -0.006478135 0.027706694 -0.029659528 -0.013782813 -0.034741405
-0.0010370687 -0.029438343 0.028502388 0.030456882 0.03090022 0.038178056 0.03523739 -0.037070356
-0.0042203586 -0.020956459 0.029683916 -0.00078140514 -0.01842656 0.018180473 -0.02635294 -0.03836428
0.037949618 0.021913368 -0.03882032 0.015606465 0.0044603175 0.0024058926 0.027891044 0.034950726

block2.1.weight f4 [64]
00000000: 71cf 803f d37d 7f3f f98e 803f ea5e 803f
00000010: 158f 7e3f 53ee 803f d17b 7d3f a176 7d3f
00000020: b763 7d3f d161 803f 0a20 803f cc78 7e3f
00000030: 43fe 803f 9b3e 803f 91df 7b3f 036f 7f3f
00000040: 9c24 7f3f 5ee5 7e3f 6781 7f3f 967f 7e3f
00000050: 2cc0 7f3f 0f68 803f f159 803f 0221 803f
00000060: f817 7d3f 1f0b 803f 29ad 813f c914 813f
00000070: 6bfc 7d3f 144f 7e3f d349 7f3f 26cb 803f
00000080: c827 7d3f 12af 7e3f b8ba 803f de5a 7f3f
00000090: 47fd 7f3f dd73 803f 7447 813f 4dbd 803f
000000a0: 92b5 7e3f 096c 7e3f eb70 7e3f ed7b 7d3f
000000b0: 2026 803f 7088 7e3f 5654 7f3f 6cde 7e3f
000000c0: 597d 813f ccac 7c3f 626a 813f b848 7f3f
000000d0: fb9c 7f3f 6efc 803f 33a9 803f 51e4 803f
000000e0: 3b79 7e3f 6b02 7f3f cd36 823f baa9 7c3f
000000f0: d50b 803f 7401 7f3f bc3c 7e3f e9f8 803f
1.0063306 0.9980137 1.0043632 1.0028965 0.99437076 1.0072731 0.99017054 0.9900914
0.9898028 1.0029851 1.0009778 0.9940307 1.0077595 1.0019106 0.9838801 0.99778765
0.99665236 0.99568737 0.9980683 0.9941343 0.99902606 1.0031756 1.0027448 1.0010073
0.988647 1.0003394 1.0130969 1.0084468 0.99213284 0.99339414 0.9972202 1.0061996
0.98888826 0.99485886 1.0056982 0.9974803 0.99995846 1.0035359 1.0099931 1.005777
0.99495804 0.993836 0.9939105 0.9901722 1.0011635 0.9942694 0.9973806 0.9955814
1.0116378 0.9870117 1.011059 0.99720335 0.9984891 1.0077035 1.0051636 1.0069677
0.99403733 0.99613065 1.0172974 0.9869648 1.0003611 0.9961159 0.99311423 1.0075961

block2.1.bias f4 [64]
00000000: 5ab0 1bbb ed13 66bc d896 38bc 0c42 b6bc
00000010: e5dc 42bc 2fcd 98bc 3e84 3bbc dd17 1dbc
00000020: c178 82bc 338c 7cbc ad89 83bc 30aa 69bc
00000030: 08d0 8cba f30e a4bc 42e3 95bc 2a5d 2fbc
00000040: 1ba3 13bc 5288 4ebc 8031 74bc 9f9f 05bc
00000050: 0d03 c6bb a804 91bb 14e9 51bc 45bd 48bc
00000060: 7ba7 9ebc 2024 a4bb a121 2ebc 23db 92bc
00000070: ddcd 1dbc a59c 7fbc 28ef 47bc b782 f5bb
00000080: 5737 a2bc d911 3dbc 8c17 67bc c0d9 58bc
00000090: e37a b63b 5d31 dcbb d366 a2b9 3d0d a6bc
000000a0: cae6 eabb 032a 3dbc 2553 74bc f2ef b6bc
000000b0: 4802 0cbc b13a 4abc b81a 3fbc 6efd 2cbc
000000c0: 1064 373b 7376 2ebc aa91 57bc d36e 5cbc
000000d0: 5b78 47bc afe3 22bb 5817 cfba 03fd 0cbc
000000e0: 4834 0ebc 8f65 80bc 31d6 99bb e521 88bc
000000f0: e315 b9bc 99f5 51bc 6f04 7cbc b44d aebc
-0.0023756237 -0.014042837 -0.011266433 -0.02224829 -0.011893486 -0.018652527 -0.011445103 -0.009588209
-0.01592672 -0.0154142855 -0.01605686 -0.014261767 -0.001074315 -0.02002666 -0.018296842 -0.010703364
-0.009011055 -0.0126057435 -0.01490438 -0.008155732 -0.006042844 -0.004425604 -0.012811918 -0.012252157
-0.01936697 -0.0050091892 -0.010628135 -0.017926758 -0.009631601 -0.015601312 -0.012203015 -0.007492389
-0.019801779 -0.0115399 -0.014104735 -0.013235509 0.0055688485 -0.0067197517 -0.00030975658 -0.020269984
-0.0071686255 -0.011545661 -0.014912401 -0.022331212 -0.008545466 -0.012343095 -0.011664085 -0.010558469
0.0027983226 -0.010648358 -0.013157288 -0.013454157 -0.012174691 -0.0024854948 -0.0015799804 -0.008605245
-0.008679457 -0.015673427 -0.004694723 -0.016617725 -0.022593444 -0.012814903 -0.015381916 -0.021277286

block2.1.running_mean f4 [64]
00000000: 65ef 94be 46e9 eebe be31 bcbe 85a6 933c
00000010: 056a c8bc 5e10 0fbf e43b 34bf 610a 923e
00000020: 7e8b f63e 6a64 5ebd 6642 43be d7ee d43d
00000030: 0b14 a2be 360e 5dbe a044 143f 4384 a3bd
00000040: 719e 0cbf 1b73 fd3e 4a1d 49bf 3a2d 8cbd
00000050: 423e 91bf 2764 6f3d 7c75 03bf e745 633a
00000060: e050 bfbd c022 3cbf 3d50 203e c5a5 dcbe
00000070: 6872 b1bd 3bd8 f93e 4cb1 febd 5d03 cebe
00000080: 6e9e ef3e feed 3a3f c42a a0be 0b45 1d3f
00000090: 5099 d1bc 4d9b d8be 564f 7fbd 96d5 5dbd
000000a0: 84a5 d83e f5cc f53e f922 22bf 5748 94be
000000b0: 0563 3c3e a707 e6be 4c6d 27bf bb96 6abe
000000c0: 4d8c bcbd a048 0b3e 0da4 0b3e 1c47 09be
000000d0: f684 b6be 3b38 423e efa2 73be 4ef0 fa3b
000000e0: f477 2abf f53c 07bf 81a3 7abd 841d 31be
000000f0: a67e 293f 89ac 853e 1a7e af3e 2686 69be
-0.29088894 -0.46662349 -0.367567 0.018023739 -0.024464617 -0.5588435 -0.70403886 0.28523543
0.481533 -0.05429498 -0.19068298 0.103971176 -0.31655917 -0.21587452 0.57917213 -0.07984211
-0.5492926 0.4950188 -0.78560317 -0.06844564 -1.1347125 0.058445122 -0.5135114 0.0008669779
-0.093415976 -0.73490524 0.15655608 -0.43095222 -0.086643994 0.48797783 -0.124361604 -0.4023694
0.4680056 0.730194 -0.31282628 0.61433476 -0.0255858 -0.42305985 -0.06233152 -0.05415877
0.42313778 0.48007932 -0.63334614 -0.2896144 0.18397148 -0.44927713 -0.6540115 -0.22909062
-0.09206448 0.13601923 0.13636799 -0.13406032 -0.35648316 0.18966763 -0.23792623 0.007658041
-0.66589284 -0.5282739 -0.061191086 -0.17296416 0.66208875 0.26108196 0.34275895 -0.2280508

block2.1.running_var f4 [64]
00000000: 4bc7 de3d 6a14 ab3e 065b b53e 7515 843d
00000010: c173 543e 6ba1 163e 76b5 8c3f 22c7 e93e
00000020: a9a8 023e 59e4 013f c756 f13d 9ffa 843e
00000030: 1ae1 803e b2d3 9e3d 2ddd 193e 8a0d a43e
00000040: c10c 0e3f 99b5 303e f224 7b3e 9037 883e
00000050: 538e 6a3f c9c2 a33e 2f50 183e 4238 5c3e
00000060: 10c2 363f 4cb2 703e 690e 603d 5136 033e
00000070: d68d a93e 5893 9c3e cc08 4d3e 7a7a 243e
00000080: 87ae 6b3f ef57 8a3e a3f0 c53d 0706 1f3e
00000090: f248 e63d 5a13 423e 375e 503d 8828 823d
000000a0: 03cc 4c3e 017e f13e 5ef1 1d3f e11d 643f
000000b0: 8b27 f03d ccc7 de3e ebc2 883e 5998 8a3e
000000c0: 3c0e aa3d 6963 233e 5e8f 963d 3123 423e
000000d0: 2d4b 6a3e af44 ac3d 3b59 013e 31ee e23d
000000e0: ea29 da3e 757f 303e a754 7f3d b33d 383f
000000f0: 7210 e93e 8f5a 983f 4732 9b3e 45a0 dd3d
0.10877856 0.33414012 0.35421008 0.06449405 0.20747282 0.14710014 1.0992877 0.4565974
0.12759651 0.50739056 0.117841296 0.2597246 0.2517174 0.077552214 0.15025778 0.3204158
0.5548821 0.17256774 0.24525812 0.2660489 0.9162342 0.31984547 0.14874338 0.21505836
0.71389866 0.23505515 0.054701243 0.12813689 0.33116025 0.30581164 0.20022887 0.16062346
0.9206318 0.27020213 0.096650384 0.15529643 0.11244382 0.18952695 0.0508711 0.06355387
0.199997 0.47166446 0.6169642 0.8910809 0.11726292 0.43511808 0.2671121 0.27069357
0.08303496 0.1595589 0.07351564 0.18958737 0.2288024 0.08411538 0.12631695 0.11080588
0.42610103 0.17236121 0.06233659 0.71969146 0.4552036 1.1902636 0.30311796 0.108215846

block3.0.weight f4 [64, 64, 3, 3]
00000000: ce47 02bd 3fde d5bc 5344 9ebc 21a0 aa3c
00000010: 7844 fc3c 2592 273d f0c2 a5bc c248 593d
00000020: cb8a 17bd 16e2 8cbc c088 b3bc 49c0 813a
00000030: aaa0 01bc de32 6bbc 77ab af3c c544 14bd
00000040: 6eec ea3b bdf6 febb 688a 883c 5f0b b53b
00000050: 321f fcba 884e 11ba 304e 21bd 2aaa 2f3a
00000060: e8cf d63c 7f31 fabc b16d 0c3b 9222 c2bc
00000070: 6cdc 3fbb 5067 64bc 6ecc 143d 3379 b6bc
00000080: 5893 10bd 169c ea3c b5f3 193d d6d3 ce3c
00000090: 9258 09bd 8ab6 25bd 480a 8dbc 5026 dfbc
000000a0: ca13 d03c 166d 9f3c 7348 a93c 18b8 5f3c
000000b0: add3 2ebd c941 f7bc 4dc7 a5bc cc69 4dbc
000000c0: b3d7 0b38 2bf2 d3bb 5e46 8f3c b277 8d3c
000000d0: c573 103d b901 663c 32fc e8bc e440 e63c
000000e0: 55b3 e7bb 9a86 303b e0ab cfbc 3261 fcbc
000000f0: 98a9 1e3d 3508 213a 9554 c5bc 962f dfbc
00000100: 15f5 78bc 77d2 983c 4304 de3c 7d5b 04bd
00000110: cf8d 863b b38d 0e3c 1015 0fbd 7511 c2bc
00000120: fb1e 92bc 16e9 2cbb e71c ad3c 087d 023d
00000130: 15a5 0fbd b946 203d b096 5ebc f608 4cbc
00000140: 2ad3 1e3d 262a 24bb c76a e03c 5f49 8bbc
00000150: b5e1 35bd 1861 59bc 39bd 873c 961d aabc
00000160: 3b96 0c3d 7317 6dbc 6431 fb3c b616 7bbc
00000170: 8087 9a3c 50a9 723c 388b 253c abed 22bc
00000180: f4a3 2e3d 86be bf3c 8029 a93c c53e dabb
00000190: 7cb4 0bbd f605 89bc 6e54 f339 6cb0 b6bc
000001a0: 2372 ba3c 4429 bb3c aeaa c23c eef9 a9bc
000001b0: 97fe 973c 283e f93c c94a 013d 12c0 aa3c
000001c0: f6a3 0ebc d639 b1bc 4406 003d 0f3b 853c
000001d0: 1408 c3bc 20f9 57ba faf8 b9bc efe6 82bc
000001e0: 4d69 443c 798f dabc 6008 08bd 00c1 1dbc
000001f0: 3444 bd3c 012d d6bc 551f 80bb 2ae9 ddbc
00000200: 38f1 c13c ece0 d5bc 36a0 e03c 34d3 0b3c
00000210: b871 003d a782 8cbc 3309 083d 0207 5b3c
00000220: bb47 a33b daf7 9f3c 838b 9fba 2b81 d23c
00000230: 365a 603c d29c 93bb 025c 2bbd 5634 18bc
00000240: a373 c7bc dfdc 493c 085d 933c a61d 083d
00000250: 0f78 beba afde b03b 561f bb3c e4ed 3dbd
00000260: 17a8 bebc a61b 613c 3bf9 943c 7d71 b33b
00000270: adeb 0b3d 8638 8e3c c55a 9f3c bb0e 4e3b
00000280: 6908 213d 2f7e ea3c 69f0 913c 7293 f5bc
00000290: 6343 e63c 3f22 4ebc 6f78 cfbc f88c 37bd
000002a0: cbd5 793c 60c1 0f3c 8694 dc3b ea95 f3bc
000002b0: 7f50 883c 6058 fd3b 3beb dc3c 3b39 ddbc
000002c0: a037 a93c 224d 6f3c bf99 473a 53fe 3a3c
000002d0: 3cec 41bd b348 143c 2cd8 69bc d6ba 2cbc
000002e0: c470 303a d4bb 2bbc fbdc 16bd ee2f 10bc
000002f0: 1e0d fe3c 4a7f 32bd e134 783c 58f4 15bb
00000300: 3843 d6bc b686 d2bc 728a e13c 3fb0 01bd
00000310: 7759 0ebd ef8a d7b9 7738 cb3c def5 c43c
00000320: 15c2 b63c 0f8e e03c 5380 403b 796e f53b
00000330: 001b 85bc 8c59 35bd d039 dbbb 7794 e83c
00000340: b976 8fb9 ee97 e13c ca35 00bc d37a 8dbc
00000350: 4437 1dbd 0645 393d ffda 813b 2cd0 85bc
00000360: a9f6 15bc 1de1 dc3c 3cb3 123c 3be8 093d
00000370: aafe ac3c d3bc a0b8 b707 6ebc dde2 91bb
00000380: 6ccf 75bc 2257 b63c 9a6b 8e3c 37ac bebb
00000390: f920 7e3c 1952 fe39 0506 a23b 0b48 21bc
000003a0: 9daa 3d3d 10f9 043c ff74 19bd 9418 4c3d
000003b0: 7b87 24bd deb3 ea3b 13bb b2bc 8d75 993c
000003c0: 67b3 fe3b 1453 b1bc ba09 c73c 1eea 34bd
000003d0: aa04 ca3c 4bf2 3f3c 1d74 84ba bb06 21bb
000003e0: d67c 0ebd b85b ac3c 209f 1abd 6fda 45bc
000003f0: 55ff 7cbb d37f 91bb aaf3 9e3b 56c5 a6bc
-0.03180676 -0.026106952 -0.019319689 0.020828309 0.030794367 0.04091086 -0.020234555 0.053047903
-0.036997598 -0.01719765 -0.021915793 0.0009899224 -0.00791184 -0.014355389 0.021444065 -0.036198396
0.007169298 -0.0077808783 0.01666756 0.005525037 -0.0019235371 -0.0005543013 -0.039381206 0.00067010766
0.026222184 -0.03054118 0.0021427686 -0.023698125 -0.0029275669 -0.013940647 0.03632777 -0.02227459
-0.035296768 0.02863888 0.037585933 0.025247496 -0.033531733 -0.040457286 -0.017216817 -0.027239949
0.025400061 0.019461196 0.02066443 0.013654731 -0.04268234 -0.030182736 -0.020236636 -0.012537431
3.3341068e-05 -0.0064680777 0.017489608 0.01726899 0.035266656 0.014038497 -0.028440569 0.028107114
-0.0070709386 0.0026935698 -0.025350511 -0.030808065 0.038735956 0.00061428855 -0.024088183 -0.02724437
-0.015195151 0.018655045 0.027101642 -0.032313813 0.0041062604 0.008700776 -0.034932196 -0.023689965
-0.017837038 -0.0026384047 0.021131946 0.03185752 -0.035069544 0.039129946 -0.013585731 -0.012453308
0.0387756 -0.0025049536 0.027394665 -0.01700276 -0.044404704 -0.013267778 0.01656972 -0.02076606
0.03432296 -0.014470923 0.0306632 -0.015325239 0.01886344 0.014810875 0.010103993 -0.00994436
0.042636827 0.023406278 0.020649672 -0.0066603147 -0.03410767 -0.016726475 0.00046411477 -0.022300921
0.022759503 0.022846825 0.023763027 -0.020749059 0.018554015 0.030425146 0.03156546 0.02084354
-0.0087060835 -0.021634024 0.031255975 0.016263513 -0.023807563 -0.00082387216 -0.02270173 -0.015979258
0.011987996 -0.026679741 -0.033211112 -0.009628534 0.02310381 -0.026144506 -0.003909985 -0.02708872
0.023674592 -0.026108228 0.027420145 0.0085342415 0.03135845 -0.017152144 0.033211898 0.01336837
0.004982916 0.019527365 -0.0012172315 0.025696358 0.013693383 -0.0045047784 -0.041835792 -0.009289822
-0.024347132 0.012320726 0.017988697 0.0332314 -0.001453163 0.0053976397 0.02284209 -0.04636945
-0.02327351 0.013739502 0.018185249 0.0054761753 0.034160305 0.017360937 0.019452462 0.0031441886
0.03931466 0.028624622 0.017814832 -0.029977534 0.028108304 -0.012581407 -0.025325982 -0.044812173
0.015248726 0.008774132 0.0067315726 -0.02973457 0.016639946 0.0077314824 0.026967635 -0.027004829
0.020656407 0.014605792 0.00076141575 0.011413175 -0.04734443 0.009050536 -0.014272731 -0.010542592
0.00067306706 -0.010481793 -0.036831837 -0.00880049 0.031012114 -0.043578424 0.015149326 -0.0022881236
-0.0261551 -0.025699 0.027531836 -0.031662222 -0.03475329 -0.0004111151 0.024807198 0.02404302
0.022309342 0.027411489 0.0029373362 0.007489976 -0.016248226 -0.04427485 -0.0066902414 0.028391106
-0.0002736354 0.027538266 -0.007825324 -0.017270481 -0.038382784 0.04523184 0.003962874 -0.016334616
-0.009153047 0.026962811 0.008953866 0.033668738 0.021117527 -7.664566e-05 -0.014528207 -0.004452093
-0.0150030665 0.022258345 0.017385293 -0.0058188695 0.015510791 0.00048507823 0.0049445652 -0.009843837
0.046305288 0.008116022 -0.03746509 0.049828127 -0.040168267 0.007162555 -0.02181772 0.01873281
0.0077728513 -0.02164606 0.02429663 -0.044168584 0.024660427 0.011715482 -0.0010105405 -0.0024570662
-0.03478702 0.021039829 -0.03774941 -0.012076004 -0.0038604338 -0.0044402867 0.0048508244 -0.020357769

block3.0.bias f4 [64]
00000000: 5e3b a73b b511 6dbb c619 d1bc 21ce a9bc
00000010: c0e6 283d 3c6e 963b 015a 08bd 3de7 0abd
00000020: 9539 19bd 33de 1cbd 409a 8bbc 6170 ddbb
00000030: cb68 ae3c 14d9 17bd c510 f53c ada6 12bd
00000040: ae72 b23c 3e35 0fbc c45e 7dbb 86cb 24bd
00000050: 1af6 563c 3aa9 a9bc 966f 13bd 7616 083d
00000060: f260 83bb 3d1f d7bc f886 953c 2635 5fbc
00000070: 1f88 033c 35d4 02bd cf6d ed3c 73f6 89bb
00000080: af6d 1fbb 7937 2cbd f6f3 ba3c e0fd c6bb
00000090: c4ca 133d e4d6 55b9 880c 11bd 3bb2 99bc
000000a0: 372f 033c 33cd 1bbd a58b 8cbc 5389 7fbc
000000b0: 5b0d 94bc 6a0c d3bc 709e 07bd 7186 023d
000000c0: d607 7d3b 416a 9abc 80e5 0b3c 8204 17bd
000000d0: ba1a 7abc 2dbb 9ebb 9a30 fabc 02fd 01bc
000000e0: a113 113d db58 683b a860 d8bc 307d 0bbd
000000f0: 3862 243c 33cb 0bbc 14b0 ad3c 6e71 df37
0.0051035127 -0.0036173884 -0.025524985 -0.020728173 0.041235685 0.0045907777 -0.03328896 -0.033911932
-0.03740843 -0.038297843 -0.017041326 -0.0067577814 0.021290204 -0.037072256 0.029915223 -0.035803486
0.0217832 -0.008740721 -0.003866122 -0.040233158 0.013120199 -0.020710576 -0.03599509 0.033224545
-0.0040093595 -0.026260013 0.018252835 -0.013623511 0.008028059 -0.031940658 0.028983025 -0.0042102872
-0.002432685 -0.04204509 0.022821408 -0.0060727447 0.036082044 -0.00020393316 -0.03541234 -0.018761745
0.008006862 -0.03803749 -0.017156431 -0.0155967055 -0.018072775 -0.025762755 -0.033110082 0.031866495
0.0038609407 -0.018849494 0.008538604 -0.036869533 -0.015265161 -0.0048440904 -0.030540753 -0.007933857
0.03541911 0.0035453353 -0.026413277 -0.034054935 0.010033183 -0.008532333 0.021202125 2.6636491e-05

block3.1.weight f4 [64]
00000000: 93aa 803f 977b 7d3f 83ca 7e3f 56fb 7e3f
00000010: b0de 7e3f c286 7f3f c6f2 7d3f 630c 803f
00000020: 7479 803f 2fc9 7f3f 932e 803f 6995 7f3f
00000030: 95cd 7e3f 83dc 803f 9062 7d3f 2cb5 803f
00000040: 5e0e 7f3f 8eed 7d3f 95a0 7f3f d259 803f
00000050: f821 7d3f 9de4 7e3f 3fec 803f 0923 803f
00000060: 6435 7c3f ba53 7d3f 9a4b 803f 555d 813f
00000070: d282 7e3f 8160 803f f2e2 813f 6b3d 7f3f
00000080: cb55 803f c1b5 7f3f e423 803f 9e28 803f
00000090: 68ad 803f e63d 803f f420 803f c74b 803f
000000a0: 7236 7e3f 1daf 7d3f 6f93 803f 345a 7f3f
000000b0: 7e74 7f3f 5275 813f 53fa 7f3f 25ea 803f
000000c0: ff7e 7f3f ba71 7c3f fffb 803f 8a54 803f
000000d0: 9909 813f 149c 7f3f 2d32 803f 6586 813f
000000e0: cc1c 823f f25d 7f3f 4fd3 7d3f ca15 803f
000000f0: b32a 803f 6607 813f 4154 7c3f 5e77 7e3f
1.0052055 0.9901671 0.9952776 0.9960226 0.99558544 0.99815 0.9919857 1.000378
1.0037065 0.99916357 1.0014213 0.99837357 0.99532443 1.0067295 0.9897852 1.0055289
0.996313 0.99190605 0.99854404 1.0027411 0.9887996 0.99567586 1.0072097 1.0010692
0.9851897 0.9895588 1.0023072 1.0106608 0.99418366 1.0029451 1.0147383 0.9970309
1.0026182 0.9988671 1.0010953 1.0012395 1.0052919 1.001889 1.0010056 1.0023125
0.99301827 0.99095327 1.0044993 0.99747014 0.9978713 1.0113928 0.9999134 1.0071455
0.99803156 0.9861103 1.0076903 1.0025799 1.0081054 0.9984753 1.0015312 1.0119139
1.0165038 0.99752724 0.99150556 1.000665 1.0013031 1.0080383 0.9856606 0.9940089

block3.1.bias f4 [64]
00000000: 3aef 5abc 61e6 86bc f808 73bc de72 8dbc
00000010: 0fc6 e7bb cb43 85bc 55ff f1bc 2075 f8bb
00000020: c7c2 82bc 0d4b 72bc 7b68 24bc e471 6fbc
00000030: 12ef 51bc e7f9 2f3b 1160 72bc 3e12 dbbc
00000040: d96e 67bc cbfd 3fbc 2a57 26bc 9d71 92bc
00000050: 0917 93bc 8874 94bc dbef 00bc 923f 84bc
00000060: 7272 cabc 21c0 f0bb 36d5 d5bc e292 82bc
00000070: ac23 1bbc a51f 16bc 8fb4 04bc f040 eabb
00000080: b28d d4bb 3e8a 01bc 4130 28bc 447e eebb
00000090: 6cfb a3bc 94e8 cebc 8840 82bc e9a1 04bc
000000a0: 1f71 4ebc e0a4 8ebb 46dc b0bc dbd5 c2bc
000000b0: 3651 44bc be65 09bc 5974 44bc da9c 6abc
000000c0: bb15 08bc c4bc 98bc 999f 5cbc 9871 a9bc
000000d0: 81a6 21bc 1aef a8bc d186 83bc 7aa8 c9bb
000000e0: 669d 55bc 96dc 7bbc 1777 8dbc 3e68 85bc
000000f0: e58f 93bc 9e10 61bc 06fc d7bc 2d34 81bc
-0.0133627 -0.016467275 -0.014833681 -0.017266687 -0.007073171 -0.016267678 -0.029540697 -0.0075823218
-0.015962018 -0.014788401 -0.010034676 -0.014614556 -0.012813346 0.0026851834 -0.014793412 -0.026742097
-0.014125549 -0.011718224 -0.0101526175 -0.01787644 -0.01795532 -0.018121973 -0.007869686 -0.016143594
-0.024712775 -0.0073471223 -0.026102643 -0.01593918 -0.009468954 -0.009162818 -0.008099689 -0.0071488544
-0.006486618 -0.007906495 -0.010265411 -0.0072782356 -0.020017348 -0.025257386 -0.015899912 -0.008095243
-0.012600212 -0.0043531507 -0.02158941 -0.023783615 -0.011982253 -0.008386074 -0.01199063 -0.014319623
-0.008305962 -0.018644698 -0.013465785 -0.020684049 -0.009866358 -0.020621825 -0.016055496 -0.006154117
-0.013038015 -0.015372416 -0.0172687 -0.016285058 -0.01801295 -0.013736872 -0.026365291 -0.01577195

block3.1.running_mean f4 [64]
00000000: 8ece 753c 6cb0 4abe 53f6 58bc 638a 15bf
00000010: efa8 05be 8783 3e3e f589 ff3d 990b 6ebe
00000020: 1817 563d cd82 92be 8221 fa3b 1770 52bd
00000030: 5aaf cfba 64a0 4fbf dfd9 52be 9db9 333e
00000040: 22b7 f5bd 590e cc3e 1929 b03d 396a 403d
00000050: 4491 2dbd ac94 cc3e c4a1 cbbe 05f3 ed3d
00000060: b47a a13d f2c6 4cbe df49 973d 0e7d 833e
00000070: fd27 513e b6f4 9f3c aefc 25be 94cf 85bf
00000080: ea4a 19bf cc71 ab3e aff8 5a3e d408 d9be
00000090: dfa4 0b3e 146b 793e 8d66 f13d dd35 8dbe
000000a0: 8ed1 67bf 6064 82be c31a 773e a8fb c3be
000000b0: 7201 013e 9133 913e 4dc1 4c3e ec52 acbe
000000c0: d9fc 813b 5e9e df3d b920 9b3e 2083 c7bc
000000d0: 30ea 953b b59c 0a3d 23a3 4c3e 1dca 56bf
000000e0: d823 4f3d 75ad 803e 3088 123e f5e0 fdbd
000000f0: 05f8 a63e dd69 983e 0858 a03e c2a2 c6be
0.01500286 -0.19793862 -0.013242322 -0.58414286 -0.13052724 0.18604861 0.12477485 -0.23246612
0.052268118 -0.28615418 0.007633389 -0.05137643 -0.0015845106 -0.8110411 -0.20590924 0.17551275
-0.119978204 0.39854696 0.08601589 0.0469763 -0.042374864 0.39957178 -0.39771855 0.11618618
0.07884732 -0.19997767 0.07387137 0.25681347 0.2042541 0.019525867 -0.16209671 -1.0453973
-0.59879935 0.33485258 0.21383928 -0.42389548 0.13637112 0.24357253 0.11787138 -0.27580157
-0.9055413 -0.25467205 0.24131303 -0.38277936 0.12598208 0.28359655 0.19995613 -0.33657014
0.0039669094 0.10918878 0.30298403 -0.024354517 0.0045750365 0.033840854 0.19984107 -0.8390215
0.050571293 0.25132337 0.14309764 -0.12396423 0.326111 0.29768267 0.31317163 -0.3879605

block3.1.running_var f4 [64]
00000000: 3720 0e3e 26af 593e 714a 393e 980a 473e
00000010: 4d4a 7f3e de14 3a3e 28a0 7e3e 633f 1c3e
00000020: 9150 1c3e 4c1e 463e c231 6c3e 9313 273e
00000030: 8993 ad3e 794a 9d3e 93d5 9d3e d25c 313e
00000040: 7cc2 403e 3d49 fc3e ff54 813e 475c ce3d
00000050: ce5c 5a3e ec4a 553e ed0a 613e d822 813e
00000060: 3279 8a3e 2045 5a3e 9d6d b23e 3bf4 033e
00000070: 120f 233e 2eea a13e 9659 293e 2b94 293f
00000080: d885 fd3e 63c2 b83e 7bcc 273e 46ab 993e
00000090: 9852 423e 0021 9e3e be76 fa3d 291e 3e3e
000000a0: 50b6 333f e438 793e 7684 183e 94d8 453e
000000b0: 8913 893e c8bd 4d3e 5a91 b83e 35a3 c93e
000000c0: 8168 553e 3848 2d3e 4ab1 0c3e dcf6 8d3e
000000d0: 0aae 173e bcfd e83d 2e59 893e 9208 f73e
000000e0: 76df 093e b36d 523e 81f3 753e 5242 923e
000000f0: 3f6d 5d3e 27a9 193e 7d5b a13e a5a2 3d3e
0.13879476 0.2125822 0.18094803 0.19437635 0.24930687 0.18172023 0.24865782 0.15258555
0.15265109 0.19347495 0.23065856 0.1631606 0.33901623 0.3072088 0.30827007 0.17320564
0.1882419 0.49274626 0.2526016 0.10076194 0.21324465 0.20829362 0.21976824 0.25221896
0.2704559 0.21315432 0.34849253 0.12886135 0.15923718 0.31623977 0.1653808 0.6624171
0.49516177 0.36085805 0.16386597 0.30013484 0.1897682 0.30884552 0.122296795 0.18566193
0.7020006 0.24338108 0.1489428 0.19320899 0.26772717 0.20091927 0.36048394 0.3938233
0.20840646 0.1692208 0.13739505 0.277274 0.14812484 0.11376521 0.2682585 0.48248726
0.1346415 0.2054966 0.2401867 0.28566223 0.21623705 0.15005933 0.31515113 0.18519075

block4.0.weight f4 [64, 64, 3, 3]
00000000: 77b4 193c ade7 00bd 5367 db3c 9b4f 333c
00000010: af8b cd3c ca02 0e3d 6a01 df3c 8423 07bd
00000020: 570a 253c 65e8 a03c 8f16 e4bc 7c35 7f3c
00000030: be3c 123c 2008 0d3d 41e2 30bd abd1 1abd
00000040: 7905 26bd 03a3 f83c f4ba 21bc 3014 1f3d
00000050: 0a36 11bc f58f d63c 5b29 aa3c ebe4 1dbd
00000060: a9f7 ed3c 7d1c d43c a305 d6bc a838 10bd
00000070: 2bff 903c c3f3 293d 3782 f7bc ad3a b03c
00000080: 2cfb 5b3c 11cc 93bc c079 2e3c 2705 a33c
00000090: 4417 dbbc 751a 21bd 7ecd 14bc f35c 3dbc
000000a0: 8697 70bc c37c 593c 46fe 3b3c d916 dd3c
000000b0: f639 c6bc 204b 19bd 74e8 c83c ae5f 1abc
000000c0: 4927 16bc fc11 b63c 8b25 8dbb 007d c33c
000000d0: db07 043d c053 c23c 62b5 41bd 9434 023d
000000e0: 2a9c 143c be55 c93c a994 813c 7b75 adbc
000000f0: d5a2 de3c 0a37 273d 6d90 ea3c 935f c23b
00000100: ebbb b83c 93c6 c33c f1b5 7e3c 0c3b 2abd
00000110: 9282 873c fd40 533c 0c0e 17bd ed38 203d
00000120: ebf8 433c b968 06bd 5c1f 103d b3e2 4d3b
00000130: 1499 a9bc f82b e0ba cf9c a33c b090 2cbd
00000140: d6bf 34bc ae58 6739 1e0b 71bc dbf8 873c
00000150: 2c9e 823b 8e91 963c fb47 fabc 8afc 2c3d
00000160: b5dc 9bbc c612 f33a 20f2 ab3c 5362 fdbc
00000170: 25a1 cabc a51a 0d3d 1b95 ad3c 3bcf 263c
00000180: 03a3 1f3c 8377 283d 5501 0cbd b629 193d
00000190: 4d3c f9bb 27ec c33c 9f90 31bd 7dfc 89bc
000001a0: 749b 223b 20d2 f53c aa49 833c 687f 2a3d
000001b0: edad f2bc a962 1fbc 192c 343d 86e7 0d3c
000001c0: 43c0 b7bc 95ec 013d b6ad 413c d499 b63a
000001d0: aabf e9bb bf93 e13c d267 8fbc 00ce 963c
000001e0: 8e63 393d 7df4 e9bc 9565 fd3c f1ad a1bb
000001f0: 4ca3 cfbb 60f5 f13c 6e12 36bb 1514 a93c
00000200: 52f4 213d f16b b83c 0e5a 08bd d9a5 b8bb
00000210: 1db9 b53b bbb6 16bd dda0 ec3c 261f a6bc
00000220: 2982 543c 6232 c9bc 3d42 c03b 143e 893c
00000230: 2f06 abbc 607d 2bbd 213d 26bc 8db0 c4bc
00000240: 856d b93c f03d 053d 5cd5 b63c a929 17bd
00000250: 9c7d 14bd 0faf 20bd fbf4 c93c 7983 d93c
00000260: 4580 d7bc 248c f6bc 8dcc e3bb 7ac7 4d3c
00000270: 1270 193c ec3b f03c 1c2f 033c 8c80 ed3b
00000280: a13c 9cbc 1ded b3bc 77b6 313d 6a7e fdbc
00000290: adf1 463c eaf2 2dbd d6b6 26bd d8a6 0cbc
000002a0: 2b3a 1fbd 5df7 1a3c 385b 43b9 c11e 91bc
000002b0: 2685 09bd f00e 45bc 69b3 9dbc ae5f da3c
000002c0: 991a 30bd a2ef 8bbc d71b da3c 483d 1abd
000002d0: af21 efbc e52f d7bc 68a1 653c 9c4f 573c
000002e0: 1f6d f23c 43e5 adbb 2c72 253d 2148 5abc
000002f0: 0309 e23c 8312 f03c bad4 11bd 900d d23b
00000300: 4589 55bc d9c3 15bd 7285 f4bc 481c 1c3d
00000310: da4d 343c 9440 053d 81f1 30bc 065d 1abd
00000320: 829e ae3b 8bf9 39bc 91ef edbc 1372 e03c
00000330: e95a f4bb 6eea 7ebc 91ce 233c f076 f13c
00000340: 5d25 8d3c ea45 95bc ea2a ccbc 1905 b63a
00000350: a29a cc3c 462d 83bc 484e 003d 4614 d2bb
00000360: 936a 0dbd 6abd ba3b 730d 733b d816 dfbc
00000370: 22ca 2bbd 237b b6bc 2f9b bf3c 207a a2bc
00000380: b7cd 073d 3e5f 643c 9dec ad3c 0174 11bd
00000390: 0abd 5d3c 63bd b5bc 5fa9 ca3c 790f 88bc
000003a0: df36 9bbc d707 303d ae37 b9bb 9e96 1e3d
000003b0: 90ad 3d3d 80cf bcbc 026b 0b3d 4e6d 19bc
000003c0: b11e 10bd 4d96 80bb 0dfe d03c d23a 8639
000003d0: a9a4 4fbc 5294 953c 7c8a 13bc d0c4 3bbd
000003e0: d834 11bd edf4 9a3c b480 57bc 697f e5bc
000003f0: 49d6 bebc 5f82 2d3c 5350 a9bc 75ec aa3b
0.009381405 -0.031470943 0.026782667 0.010944272 0.02509102 0.03467063 0.027222354 -0.032992855
0.010073266 0.019642064 -0.027842788 0.0155767165 0.008925615 0.034431577 -0.043184523 -0.03779761
-0.040532563 0.030351168 -0.009871233 0.03883761 -0.008862982 0.026191691 0.020771673 -0.03854839
0.029048758 0.02589249 -0.026125735 -0.03521028 0.017699799 0.041492235 -0.030213458 0.021512354
0.013426583 -0.018041642 0.010649145 0.019899918 -0.026744492 -0.039331872 -0.009082196 -0.011557805
-0.0146845635 0.013274374 0.011474198 0.026988434 -0.02419756 -0.03742516 0.024524905 -0.009422226
-0.00916464 0.022225372 -0.004307454 0.023863316 0.032234054 0.023721576 -0.04729212 0.031788424
0.009070436 0.024577018 0.015817957 -0.021174183 0.027177254 0.040823974 0.02863332 0.0059318035
0.022550544 0.023898399 0.015546308 -0.041560218 0.016541753 0.012893912 -0.03687863 0.03911679
0.011961202 -0.032814715 0.035186157 0.003141564 -0.020702876 -0.0017102947 0.019972233 -0.042130172
-0.011032065 0.00022062912 -0.014712123 0.016598156 0.0039861407 0.018379953 -0.030551901 0.042233028
-0.01902614 0.0018545024 0.020989478 -0.030930674 -0.024735043 0.03444924 0.021189263 0.0101812435
0.009743455 0.0411296 -0.034180958 0.037393294 -0.0076060654 0.023916317 -0.043350812 -0.016844029
0.0024811896 0.030007422 0.016026337 0.04162541 -0.02962395 -0.009728112 0.043987367 0.0086611565
-0.022430545 0.031719763 0.011821201 0.0013931342 -0.007133444 0.027536271 -0.01750556 0.018408775
0.04526096 -0.028558964 0.030932227 -0.0049340655 -0.006336605 0.02953595 -0.002778198 0.020639459
0.039539643 0.022512408 -0.033289008 -0.005635005 0.005545749 -0.03679536 0.0288853 -0.020278525
0.012970486 -0.024560157 0.005867271 0.016753234 -0.020876972 -0.041867614 -0.01014641 -0.024009967
0.02263523 0.03252977 0.022318535 -0.036904965 -0.036252603 -0.03922945 0.024652949 0.026551949
-0.02630628 -0.030096121 -0.0069518746 0.012559766 0.009365099 0.029325448 0.008006837 0.00724799
-0.019071879 -0.02196365 0.043386903 -0.030944068 0.012142581 -0.04246799 -0.04070171 -0.0085847005
-0.038873833 0.00945839 -0.00018630631 -0.01771486 -0.033574246 -0.012027487 -0.019250588 0.026656952
-0.042994116 -0.01708204 0.026624603 -0.0376561 -0.029190866 -0.026267955 0.014015533 0.013141539
0.029593049 -0.005306871 0.040392086 -0.013322861 0.027592188 0.029305702 -0.035603262 0.006410308
-0.013033216 -0.036563728 -0.029848788 0.03811291 0.011004889 0.03253229 -0.0107997665 -0.03768637
0.005328954 -0.011351 -0.029044898 0.027398145 -0.0074571264 -0.015558822 0.00999798 0.02947566
0.01722973 -0.018221814 -0.024922807 0.0013887017 0.024976078 -0.016012799 0.031324655 -0.006411108
-0.034525465 0.0056988494 0.0037086874 -0.027232572 -0.041940816 -0.022275513 0.023389427 -0.019833624
0.03315517 0.013938723 0.02123099 -0.03551102 0.01353384 -0.022185033 0.024738966 -0.01660894
-0.018947063 0.042976227 -0.0056523895 0.03871786 0.0463081 -0.023048162 0.034037597 -0.009364439
-0.03518552 -0.0039241672 0.025511766 0.00025602296 -0.012673535 0.018259201 -0.009005185 -0.045841992
-0.035450786 0.018915618 -0.013153244 -0.028014855 -0.023295538 0.010590165 -0.020668184 0.005216176
