results/old/basic/basic_12.pth (torch, 961545 bytes, 26 tensors)

block1.0.weight f4 [64, 1, 3, 3]
000000 5f 9a 10 be 94 1b 2c be 3c 2b 75 be b9 d8 bc 3d
       -0.14121388 -0.16807395 -0.23942274 0.09221024
000010 16 3e a8 3e a2 e6 d1 bd 28 38 63 bd cb 6c 85 be
       0.32859868 -0.10249068 -0.055473477 -0.26059565
000020 6d fa 34 3e 0e 2e 15 3e ef d2 84 be 03 e5 71 3e
       0.17673655 0.1456835 -0.2594218 0.23622517
000030 8e c5 5e 3e c5 0a 48 be cc 79 8f 3e d6 d8 a0 be
       0.21755049 -0.19535358 0.2802261 -0.31415433
000040 4d f0 86 3d a5 04 da bd 84 ac 56 3e 09 ec a0 3e
       0.065888025 -0.10645417 0.20964247 0.3143008
000050 46 53 90 be 01 e1 51 3e dc 7c 1e be 7d e2 a3 3e
       -0.28188533 0.20495988 -0.15477318 0.32008734
000060 f3 57 92 bd 0b 92 a2 be 78 7b 87 3d d1 c8 2f 3e
       -0.07145681 -0.31752047 0.06615347 0.17166449
000070 5c af 9c 3e 00 0d 74 be bd e7 54 3e 0a 43 d5 3d
       0.3060254 -0.23833084 0.20791526 0.10413177
000080 b4 ed 6d 3d 2a ac 55 3e d3 57 3c be aa 90 14 3e
       0.05808802 0.20866457 -0.18392877 0.1450831
000090 23 fd f3 bd 38 2c 81 be 6d 53 e9 bd bf 17 e7 bc
       -0.11913516 -0.2522905 -0.11392865 -0.028209565
0000a0 e3 76 b0 3e 1e 7a a1 bc 84 fd 70 be 84 f5 83 3e
       0.34465703 -0.01971155 -0.23534209 0.2577325
0000b0 22 9d 6f be 7d 6f e6 3d dc b4 e7 bd f8 e4 58 3e
       -0.23399785 0.112517335 -0.11313793 0.21181095
0000c0 79 ce 0c bd fe 11 88 3e 79 47 d7 bd dd ac 09 3e
       -0.034376595 0.26576227 -0.10511679 0.13444848
0000d0 af c0 0a 3e b0 17 61 bc 0b 99 7a be 56 78 a6 3e
       0.13550065 -0.013738558 -0.24472444 0.32513684
0000e0 97 45 41 3e 1e a6 6c be f3 e1 53 be 90 b9 ac bd
       0.18874203 -0.23110244 -0.20691662 -0.08433831
0000f0 52 6b 93 be c4 b3 95 3d 93 e8 48 bd 75 14 a7 be
       -0.28792816 0.07309678 -0.049049925 -0.32632795
000100 44 5a a1 be ba 8b 3e 3d 07 71 a8 3e c4 79 a8 3d
       -0.3151418 0.046519972 0.32898733 0.0822635
000110 ad b7 4c 3e 1c af 56 be d5 23 8c 3e 50 55 a0 bd
       0.19991942 -0.20965236 0.27371088 -0.07828772
000120 da 15 6f bd 1e ef 90 3e e3 c9 0d be a1 67 ba bc
       -0.05837045 0.28307432 -0.13846545 -0.022754492
000130 91 e4 ce 3d 44 fa e6 3d 5a 79 b8 bd 58 85 34 bd
       0.10102189 0.11278203 -0.09007521 -0.04407248
000140 76 08 74 3e b1 75 44 be 2d 19 a3 be ff 71 57 be
       0.23831353 -0.1918552 -0.31855145 -0.2103958
000150 89 8c e1 3d 93 9d 35 be 4f af a6 be 60 b1 e6 3d
       0.11013133 -0.17735891 -0.32555625 0.112643
000160 10 cb 7d be f5 b8 2c 3e 5d 62 dd 3c 55 08 38 3e
       -0.24784493 0.1686743 0.027024442 0.17971928
000170 a1 ee b6 bd e3 de 2e be 8d 94 35 3e 3e 84 48 3e
       -0.089322336 -0.17077212 0.17732449 0.19581696
000180 11 a6 f8 bd 00 2e 4e 3e 8b 3e 87 be 3b 9d 16 be
       -0.1214105 0.20134735 -0.26414904 -0.14708416
000190 96 a6 2c 3e b3 53 0d 3d a3 ad 25 3e 55 41 a8 be
       0.16860422 0.03450365 0.16179518 -0.32862344
0001a0 ae 2c 9c 3d d9 85 13 3e 25 50 ca bc 3b 96 9a 3e
       0.076257095 0.14406528 -0.024696419 0.30192742
0001b0 77 f8 57 bc ed 80 07 be c8 82 f2 3d 83 04 9c be
       -0.013181797 -0.13232775 0.11841351 -0.30472192
0001c0 42 95 59 3e f2 7c 33 bd c5 be 96 bd f7 98 00 bd
       0.21248344 -0.04382033 -0.07360605 -0.03139588
0001d0 4d 3c 87 be be 3f 11 be 25 2d 98 be a4 9d 6a be
       -0.26413193 -0.14184472 -0.29721943 -0.22911698
0001e0 9d fa d4 bb 0d c7 ae bd f2 04 a9 bc d8 3e a7 3e
       -0.006499602 -0.0853406 -0.02063224 0.32665133
0001f0 2b 92 9e be 83 28 9b 3b 63 2b ca 3b e2 25 8a be
       -0.30970892 0.004735054 0.006169723 -0.26982027
000200 18 db 05 3e 97 2a 45 3e 26 6f 03 be a2 23 b9 bd
       0.13071859 0.19254528 -0.12835369 -0.090399995
000210 b9 4d a6 3e c9 28 3c 3e cd d3 26 3e 4c ad c1 bb
       0.32481173 0.18374933 0.16291733 -0.005910551
000220 15 2d 8c 3e 1f e8 63 3e fb 8c 95 3e 67 cf 3d be
       0.27378145 0.22256516 0.29209122 -0.18536149
000230 8e 13 56 3e 9d a5 68 3d ab 70 0c be d8 98 13 be
       0.20905897 0.056798566 -0.13714854 -0.14413774
000240 d0 27 a6 3e 93 23 e3 3d 5c 2e 97 be 1d 78 d9 bd
       0.3245225 0.110907696 -0.29527557 -0.10618613
000250 fa 59 99 be 5c 9a 01 3e e8 b7 09 be 10 64 6a 3d
       -0.2995146 0.1265654 -0.13449061 0.057224333
000260 89 1b 56 3e b5 cd 62 3d ce 5d 28 be 41 b3 93 be
       0.20908941 0.05537196 -0.16442034 -0.28847697
000270 a7 b1 be bd f1 41 d9 3d d5 0f 23 3e b6 38 8e 3e
       -0.09311228 0.106082805 0.15924008 0.27777642
000280 d7 1e 6d 3d 5f b3 dd bc df 77 86 3c a4 e9 59 be
       0.05789074 -0.02706307 0.01641458 -0.21280533
000290 7e 64 82 be b9 83 02 3e 75 32 59 3e dc 41 95 3e
       -0.25467294 0.1274556 0.21210654 0.2915181
0002a0 db 74 47 3e c2 45 69 3a fe 6b 3a 3e a3 ac a2 3d
       0.1947817 0.00088986394 0.18205258 0.07943084
0002b0 10 7b 0b 3e bb ca 2e be c3 92 86 be c9 b6 68 bb
       0.13621163 -0.17069523 -0.26283845 -0.003550934
0002c0 ec 91 16 bd 8f 7b 8f 3e 35 cf bc bd b3 59 5d 3e
       -0.036760256 0.28023955 -0.09219209 0.21616249
0002d0 3c 47 05 bd e1 9e 82 3e d9 08 31 3a d8 ba 61 3e
       -0.032538638 0.2551184 0.00067533326 0.22043931
0002e0 20 8a 5c be 8c db 90 be 91 e3 11 be b4 31 73 3e
       -0.21537066 -0.282925 -0.14246966 0.23749429
0002f0 5c 28 94 be cc 4c 4d 3e b5 8d 7a be ae 8c 32 be
       -0.28937042 0.20048827 -0.2446812 -0.17436478
000300 fb 3e 8a 3e 0b ac 11 bc e9 74 7d 3e 03 6b 5e 3e
       0.27001175 -0.008891116 0.24751629 0.21720509
000310 a8 19 9b be b5 0f b8 3d dc 58 99 3d 4c e1 44 be
       -0.30293012 0.08987371 0.07487652 -0.19226569
000320 2b a8 21 be d3 7e 58 be f2 1a 5e 3e 3a ec 93 be
       -0.15786807 -0.2114213 0.21689966 -0.28891164
000330 db 49 ad be 40 a6 f1 bc 4b c3 0f 3e 56 62 63 3e
       -0.3384541 -0.02949822 0.14039342 0.22205481
000340 97 35 56 3a a9 e1 2b bd 61 90 28 3d a7 16 5d 3e
       0.00081714377 -0.041963253 0.041153315 0.21590672
000350 67 11 86 3e 9f df cb bd 48 a7 27 3e 96 71 27 3a
       0.26185152 -0.09954762 0.16372406 0.000638747
000360 52 fa 23 be b8 ab 68 3d f0 8e 83 be a2 0a c0 3d
       -0.16013458 0.05680439 -0.2569499 0.09377028
000370 53 41 90 3d cc bb 83 bd 02 85 9c 3e 78 21 6e bd
       0.070437096 -0.06432304 0.30570227 -0.058137387
000380 09 6b 8e 3e c1 5e f4 3d 88 bb 72 3e d8 12 1e 3d
       0.27816036 0.119321354 0.2370435 0.03859219
000390 79 04 aa be 9b b8 98 3e f7 75 15 be f1 24 fb 3c
       -0.33206537 0.29828343 -0.14595781 0.030657263
0003a0 c7 60 21 3e 5e 0f 64 be 0f 18 84 3e 41 0d 23 3c
       0.15759574 -0.22271487 0.25799605 0.00995189
0003b0 8e f4 71 3e fa 01 01 be 2d c5 3b 3e a5 88 59 3e
       0.23628446 -0.1259841 0.18336935 0.21243532
0003c0 a2 77 41 3e 1b 99 81 bd d6 3c 2c 3e a2 bf c4 3d
       0.18893293 -0.06328031 0.16820082 0.096068636
0003d0 5c 45 43 be 4d 4c 8b 3e 47 9c 2e 3e b0 88 90 3d
       -0.19069427 0.2720665 0.17051803 0.07057321
0003e0 14 b7 85 be 1c da 85 3e 38 7f af be 26 0e 35 3e
       -0.2611624 0.26142967 -0.34276748 0.17681178
0003f0 52 10 e4 bc 06 9a 71 be a2 39 68 3e d7 01 8d be
       -0.027839813 -0.23593912 0.22678235 -0.27540466

block1.0.bias f4 [64]
000000 f0 f5 86 3e 20 4a 9f be 37 9d 09 3e 85 27 0e 3e
       0.2635951 -0.3111124 0.13438879 0.13882263
000010 29 77 84 be d0 c2 82 bc b2 50 6c 3d 22 70 3d be
       -0.25872162 -0.015962034 0.057694145 -0.18499807
000020 76 33 85 3d 33 b7 bf bd e0 fd 1c be 7d 87 e8 bd
       0.06503956 -0.09361114 -0.1533122 -0.11353967
000030 46 19 67 be de be 94 be 38 11 6c 3e 8a 10 cf 3d
       -0.22568235 -0.2905187 0.23053443 0.101105765
000040 ab 2b 56 3d fc 47 6e 3e dc 6c 1b be b7 bb 7a be
       0.05228774 0.23269647 -0.15178245 -0.2448567
000050 21 cf 42 3c dc 92 18 3e e0 fb d9 3d a6 ff 86 3e
       0.011890204 0.14899772 0.106437445 0.2636692
000060 fc 25 ec ba 14 a8 6e 3e 10 c8 85 bd 62 f6 fd 3d
       -0.0018016691 0.23306304 -0.065322995 0.124005094
000070 c1 35 e6 3d 50 35 98 3e 7d 5b 83 bc a3 2e 20 3e
       0.112407215 0.29728174 -0.016034836 0.1564279
000080 73 62 5e be d4 18 9b 3e 45 93 4c be 9c dc 9d bd
       -0.21717243 0.3029238 -0.19978054 -0.077080935
000090 e0 f7 3b 3d 79 ec 4f 3e 7d 34 4d be 39 cf 99 3e
       0.04589069 0.20305051 -0.20039554 0.3004091
0000a0 d5 3b 8c be 71 37 0d be 73 d2 88 3e 21 05 1e be
       -0.27389398 -0.1379068 0.2672306 -0.15431644
0000b0 b0 5c 88 3d cd c6 8d be 1f 53 90 be 80 17 93 be
       0.06658304 -0.27690735 -0.28188416 -0.28728867
0000c0 b5 15 13 3e 0b d3 12 3e 22 7d 08 bd af db 35 3d
       0.1436375 0.14338319 -0.03332246 0.04439896
0000d0 24 03 a2 3e 01 6d da 3b c9 70 3b be 54 ca 7f 3d
       0.3164302 0.0066658263 -0.18304743 0.062448815
0000e0 86 1b 84 be 6e 68 5a be e1 7d 3c bd 68 6a f8 bd
       -0.2580225 -0.213289 -0.046018485 -0.121296704
0000f0 35 eb 9f 3e ce 68 c1 bd dd 6b 30 3e ae 11 5e 3d
       0.31234136 -0.09443818 0.17228647 0.05421608

block1.1.weight f4 [64]
000000 bd 71 7c 3f 69 95 80 3f d2 ad 7d 3f 0c 20 7c 3f
       0.9861105 1.0045596 0.99093354 0.984864
000010 33 5b 7e 3f 48 83 7d 3f e8 26 7c 3f d2 e9 83 3f
       0.9935791 0.99028444 0.98496866 1.0305731
000020 3e d9 7d 3f 7b 62 7d 3f cc e6 7f 3f e4 40 7e 3f
       0.9915961 0.98978394 0.99961543 0.99317765
000030 ef 37 7d 3f da ac 7d 3f 3d d1 7d 3f d0 a0 7c 3f
       0.9891347 0.99091876 0.991474 0.9868288
000040 5d df 84 3f 3f 2c 81 3f 2f 7a 7d 3f 65 e9 7e 3f
       1.0380665 1.0091628 0.9901456 0.9957488
000050 0a 1d 7d 3f 41 6f 7e 3f 50 78 7d 3f 5e e5 7d 3f
       0.98872435 0.9938851 0.9901171 0.9917811
000060 e4 02 7e 3f 95 78 7f 3f 20 60 7b 3f 47 13 7e 3f
       0.9922316 0.9979337 0.9819355 0.99248165
000070 ea 07 7e 3f fd 9f 7c 3f 26 7e 7d 3f 8f bf 7d 3f
       0.99230826 0.9868162 0.9902061 0.9912042
000080 4e c6 83 3f 72 05 82 3f 84 b9 7b 3f b3 25 7e 3f
       1.0294893 1.0157912 0.9832995 0.99276274
000090 4d 44 81 3f 53 4c 7d 3f c2 a9 80 3f fc 02 7f 3f
       1.0098969 0.98944587 1.0051806 0.9961393
0000a0 e6 f0 7d 3f 1c 01 7d 3f 06 18 82 3f 32 f9 7e 3f
       0.99195707 0.9882982 1.0163581 0.9959899
0000b0 a9 e0 80 3f 90 6f 80 3f 7f ac 7e 3f 27 f0 7c 3f
       1.0068561 1.0034046 0.9948196 0.98803943
0000c0 b7 ab 7f 3f d4 7c 81 3f a2 bd 80 3f 72 3d 7e 3f
       0.9987139 1.011622 1.0057871 0.9931251
0000d0 9a 38 7e 3f a6 9f 7e 3f 8b 8f 7d 3f 66 66 7c 3f
       0.9930512 0.99462354 0.99047154 0.9859375
0000e0 c0 f1 7e 3f d2 34 7c 3f 70 5c 81 3f a3 8b 80 3f
       0.9958763 0.985181 1.0106335 1.0042614
0000f0 56 ce 7d 3f 42 c9 7c 3f 67 1b 7d 3f 66 88 81 3f
       0.9914297 0.98744595 0.9886994 1.011975

block1.1.bias f4 [64]
000000 37 6c 20 bc b6 3b 1b bc 89 e5 16 bb 9c 73 2a bc
       -0.009791425 -0.009474685 -0.0023024997 -0.01040354
000010 5f c4 81 bc 0e 00 99 bb 92 d3 92 bc 72 74 89 3c
       -0.015840707 -0.004669196 -0.01792315 0.016779158
000020 78 ec 69 bb 97 d9 bc bc 5e a0 8b 3b e0 31 98 38
       -0.0035693925 -0.023052974 0.0042610606 7.257215e-05
000030 5d 2b 3f bc b5 6a 07 bb c1 42 d8 3a dc 97 05 bc
       -0.011668053 -0.0020662968 0.0016499386 -0.008153882
000040 91 76 f9 3b 1d 09 8c 39 e3 e6 7f 3b b0 a5 13 bc
       0.007613011 0.0002670967 0.0039047531 -0.009011671
000050 18 9b 89 bc 82 1a 16 bc 6c d7 ac ba 5d 8e 8a bb
       -0.016797587 -0.009161593 -0.0013186759 -0.004228397
000060 0b 5a c9 bb 05 9e 51 bc 95 f3 9c bc f4 8a 35 bc
       -0.006144767 -0.012794022 -0.019159118 -0.011080492
000070 f0 c9 93 bc d2 03 12 bc f7 9d 37 bc 3b 7c a4 3b
       -0.018040627 -0.008912044 -0.011207095 0.0050196922
000080 c6 6c 1c 3d 06 b2 80 3c 93 59 31 3a ed 57 a8 bb
       0.038189672 0.015709888 0.0006765362 -0.0051374347
000090 e5 4d bc bc a6 31 0e bc ab b6 a4 bc a6 48 f6 bb
       -0.022986362 -0.008678829 -0.020106634 -0.0075159846
0000a0 a1 3c c6 bb 0d ed 31 ba a4 22 93 3c 63 0c 2a bc
       -0.006049708 -0.00067873375 0.017960854 -0.01037893
0000b0 69 c8 03 3b fb 7d 27 3b e4 d7 cc bb 78 e3 75 bc
       0.0020108467 0.0025557268 -0.006251322 -0.015007846
0000c0 01 2b 36 3b b2 e8 ca 3c ba 11 13 bc 4d d2 84 bc
       0.0027796628 0.02476916 -0.008976394 -0.01621356
0000d0 64 d9 d3 ba a2 7e 1d 3b 8f 57 26 bc 8a bc 08 bc
       -0.001616281 0.0024031778 -0.0101527115 -0.008345732
0000e0 f4 71 a5 3b c8 b5 81 bc 4d 2b af 3b 53 16 1a 3c
       0.0050489847 -0.01583375 0.005345738 0.009404737
0000f0 28 55 ab 3b df 4d 60 bc 9e 7f 81 bc b1 26 50 3c
       0.0052286573 -0.013690441 -0.015807923 0.012704537

block1.1.running_mean f4 [64]
000000 e4 c5 bf 3d 88 94 8e be d1 3b 89 3e b2 09 00 3f
       0.093639165 -0.27847695 0.2680345 0.50014794
000010 38 8d e2 be 3c e7 84 3e ee b7 3a be 82 ff 39 be
       -0.44248366 0.25957668 -0.18234226 -0.18163875
000020 93 91 78 3e a1 e2 17 bf 07 d0 b7 bd 88 4b 89 3d
       0.24274282 -0.59330183 -0.08975225 0.067038596
000030 38 c1 f1 be f0 51 24 bf e6 f9 ef 3e d6 21 bd 3e
       -0.47217727 -0.64187527 0.46870345 0.36939877
000040 05 5c 47 3d e2 c7 8b 3e ac 68 dd 3d 0a b5 34 be
       0.04867174 0.27300936 0.1081098 -0.17647186
000050 3b b1 d6 bd 6d 34 92 3e 54 fb 83 be e5 75 1e 3f
       -0.10483023 0.28555623 -0.25777686 0.6189864
000060 8a 05 fd 3d 28 30 a2 3e 8b d1 db 3e 51 94 75 3e
       0.12354572 0.31677365 0.42933306 0.2398236
000070 3f e9 a5 bd 97 92 f8 bd d1 12 87 3e cd 32 11 3c
       -0.08101129 -0.12137335 0.26381543 0.0088622095
000080 8d df 62 be 2f f1 90 3e 87 d7 9f 3e 29 a7 28 3d
       -0.2215559 0.28309008 0.31219122 0.04117504
000090 34 cf d0 bb 0e d7 09 3f c5 41 24 be a7 40 15 3e
       -0.006372357 0.5384377 -0.16040714 0.14575444
0000a0 24 fc 83 bd 3d 42 80 3e 44 99 94 3e 99 d7 85 be
       -0.064445764 0.25050536 0.29023182 -0.2614105
0000b0 92 c6 d4 3c 07 60 b4 be 51 cb f3 be 19 d8 08 bf
       0.025973592 -0.35229513 -0.47616056 -0.5345474
0000c0 f6 3a 5a 3e 7e 83 07 3e 83 86 a9 3c 6b ee 46 bd
       0.21311554 0.13233754 0.020694023 -0.048567217
0000d0 27 2b 3d 3e 51 dc 57 be 05 f6 c0 bc 2a 88 a7 3e
       0.18473493 -0.21080138 -0.023554811 0.32721072
0000e0 5b 4d 21 be e6 f2 0a bf 17 51 01 be 6e 27 8f bd
       -0.15752165 -0.54276884 -0.1262859 -0.069899425
0000f0 cb bd de 3e b7 d8 ce 3e b1 63 0f 3f 15 a4 b0 3d
       0.43504176 0.40399715 0.5601149 0.08625046

block1.1.running_var f4 [64]
000000 ab 79 4e 3c 51 e6 ae 3a e3 ff 0d 3c ff 25 64 3d
       0.01260225 0.0013343786 0.008666965 0.0557003
000010 86 70 6f 3c 2a 6e 03 3d 9a 81 d0 3c ee bb 51 3a
       0.01461423 0.032087483 0.025452424 0.0008000721
000020 af 65 5e 3c f3 f1 db 3d 85 9f 0d 3b d3 e6 67 3c
       0.013574048 0.107395075 0.0021609974 0.014154154
000030 ee b7 d3 3c 15 ce 5a 3d 5f de cd 3c 61 1d 02 3d
       0.02584454 0.05341919 0.025130449 0.0317663
000040 55 91 87 39 73 db ce 3a 49 d3 ef 3c 37 e8 1c 3b
       0.00025857487 0.0015781954 0.029275553 0.0023942122
000050 46 40 d4 3b 77 4f 0c 3c 54 71 66 3d 4a 72 5b 3d
       0.0064773886 0.008563868 0.056260422 0.05357579
000060 39 97 00 3c 8e e0 67 3b 4f f5 d3 3d d8 e9 c4 3b
       0.007848554 0.0035381648 0.10349523 0.0060093217
000070 3f b8 84 3c 15 97 97 3d c1 0a 0c 3d a2 82 1f 3c
       0.016201137 0.074018635 0.034189943 0.009735735
000080 28 c5 97 3a c4 31 3e 3a 28 38 e3 3d 98 2c ea 3b
       0.0011579143 0.00072553405 0.11094695 0.0071464293
000090 d6 72 1a 3b c9 e7 44 3d f9 83 d0 3a 08 27 4c 3c
       0.0023566983 0.04807261 0.0015908472 0.012460478
0000a0 cc df 9a 3c 56 86 83 3d b7 0f 30 3b 98 3b c3 3b
       0.018905543 0.06422107 0.0026864836 0.005958032
0000b0 f3 e5 68 3a 57 d7 74 3b 52 01 8b 3c 0a 52 d5 3c
       0.0008884363 0.0037359798 0.016968403 0.026040096
0000c0 06 e7 20 3b e1 09 83 3a ac aa cc 3a 3a b8 7c 3b
       0.0024551763 0.0009997451 0.0015614829 0.0038561956
0000d0 95 a0 00 3c 6f bc ab 3c c0 b4 40 3c ab d7 f3 3c
       0.007850786 0.020963876 0.011761844 0.029765924
0000e0 00 b7 cb 3b aa e2 3f 3d d1 1b 9e 3b d6 fb 69 3b
       0.0062168837 0.046847023 0.0048250933 0.0035703084
0000f0 dc f9 ee 3b aa 69 d7 3d d3 45 82 3d d6 7b 9d 3a
       0.007292969 0.10518201 0.06360974 0.0012015055

block2.0.weight f4 [64, 64, 3, 3]
000000 4e fd e3 3c 87 7a 20 bd 29 0b e6 3c 2d ec a4 3c
       0.027830746 -0.03917935 0.028081493 0.020132149
000010 da 3d 88 3c 42 1b d0 3c 20 c5 04 bc 81 c9 85 bc
       0.016631056 0.025403623 -0.008103639 -0.016331436
000020 2b 02 9a ba fb 25 56 bc 70 06 4e bd 3e 3f b6 3c
       -0.0011749914 -0.013070579 -0.050299108 0.022246953
000030 e8 84 41 3a 5c 9c 82 bc 7f bb c7 bc 20 2c 0f bd
       0.00073821703 -0.015943699 -0.024381397 -0.03495419
000040 80 e1 98 3b 26 a8 b8 bb 23 6e 1e bd f8 9b 2c 3b
       0.0046655536 -0.005635279 -0.038679253 0.0026338082
000050 5c a6 c2 bc ca 50 c7 bc c3 3e 13 3c 61 f2 6b bb
       -0.023760967 -0.024330515 0.0089871315 -0.0036002623
000060 40 93 ea bc 16 69 eb bb be e8 94 bc f8 bb 04 3d
       -0.028634667 -0.007184158 -0.018177386 0.032405823
000070 34 6b 1a bd 44 0a a9 bc 9f fb 9d bc 82 c2 c1 3c
       -0.037699893 -0.020634778 -0.019285021 0.023652319
000080 5b 34 d4 bb 2f 0c 20 3b b2 99 04 bd 63 ee 07 3d
       -0.006475968 0.0024421324 -0.032373138 0.033186328
000090 98 fa 14 bd eb 1e aa bc f0 83 15 bd de 11 df bc
       -0.036371797 -0.020766696 -0.03650278 -0.0272302
0000a0 a2 16 81 3c f0 81 fe 3b 8a aa 67 bc be 0a 47 3c
       0.015757862 0.0077669546 -0.014139781 0.012148557
0000b0 14 5c 1a 3c a8 f3 c3 3a 82 18 af 3b 72 b1 26 bd
       0.009421367 0.0014949935 0.0053434977 -0.04069657
0000c0 d2 3a e0 3c bf 59 0f 3d 96 05 0e 3d 58 a1 02 3d
       0.027371798 0.034997698 0.034673296 0.03189215
0000d0 13 72 df bc 8a a1 32 bb 58 f3 39 3c 35 38 16 bd
       -0.027276075 -0.002725693 0.011349522 -0.036674697
0000e0 8f 68 6e 3c 01 ab 01 bb f0 4d 27 bc e6 29 dd bb
       0.014551296 -0.0019785764 -0.010211453 -0.0067493794
0000f0 94 40 23 bd 20 51 0e 3d 2a 97 0c bd 54 14 31 3d
       -0.03985651 0.034745336 -0.03432385 0.043232277
000100 7e 65 06 bd bd c4 0f 3d b2 d5 3d 3c b3 a9 bd 3b
       -0.032811634 0.035099734 0.011586593 0.005788052
000110 87 ec 02 3c ba 8a ca 3a 67 0b b0 36 60 c7 4b bb
       0.007990963 0.0015452721 5.246536e-06 -0.0031094179
000120 58 b1 83 bc 43 12 88 bc 54 f7 01 3d eb 22 1b 3d
       -0.016075775 -0.01661027 0.03173001 0.037875097
000130 9a fb f4 3c 37 81 d5 bb fd 65 cd 3c ae 71 1c 3c
       0.02990513 -0.0065156478 0.025073046 0.009548588
000140 37 d2 2a 3d 65 91 20 bd 1b c8 b4 bc 8e 30 58 3c
       0.041704383 -0.03920116 -0.022068074 0.01319517
000150 45 5a a6 bc 11 1c 14 bd 27 aa c7 3c 1d 07 b6 bc
       -0.020306716 -0.03615958 0.024373127 -0.022220189
000160 dc df 7b bb 02 df 44 ba 32 5d 51 bd 90 82 6c bc
       -0.003843299 -0.00075100374 -0.05111427 -0.014435425
000170 da c5 17 3d ad 5f 8c 3b 01 ac 0a 3d 86 4c 24 3d
       0.03705392 0.0042838664 0.033855442 0.04011204
000180 9a 8a 43 3c 12 93 a1 3c b9 23 fe 3c 85 54 50 3c
       0.011934901 0.019723449 0.031022893 0.0127154635
000190 bd 95 1d bc 66 5e 6b bb 4f 61 88 bb 7a 8c 74 bc
       -0.00961822 -0.003591442 -0.0041619907 -0.01492607
0001a0 ec 46 e0 3a c4 ce 1f 3d 3f 23 a3 bc 14 c4 a9 3c
       0.001711098 0.039015546 -0.019914268 0.02072338
0001b0 f6 db 3c bc f7 cd 26 3d 5f 0b 0a bd ae f7 b8 3c
       -0.011527052 0.040723767 -0.03370225 0.02257904
0001c0 a1 26 08 3d ef c4 bc bc d2 42 a7 bc d6 34 a7 3c
       0.033239964 -0.023043124 -0.020417605 0.020410936
0001d0 f6 cf 01 3c 45 59 85 bc 7b f4 05 bd 86 ba fe 3a
       0.007923117 -0.016277919 -0.032703858 0.001943425
0001e0 ee f5 81 ba 0f 69 71 3b 6a 56 bc b8 17 a7 bf 3c
       -0.0009915212 0.0036836301 -8.9806344e-05 0.023395104
0001f0 22 ff 36 3b dc f3 b8 bc c7 66 a2 3c 38 ab 12 3d
       0.0027923067 -0.022577219 0.019824399 0.03580782
000200 ed 77 f5 bc db 10 8d 3b e2 7f b2 3c 42 f1 d4 bc
       -0.029964412 0.004304988 0.021789495 -0.025993947
000210 8e 66 ca bb 46 1e 97 3c 0e b6 0a 3c d0 e4 31 bd
       -0.0061767763 0.018447053 0.008466257 -0.043431103
000220 ad b7 1d bb 25 c0 31 bc a3 81 b1 bb 24 f0 a3 3b
       -0.0024065778 -0.0108490335 -0.005417065 0.005002992
000230 dd 78 ff 3c 00 aa 26 bd 3d d0 df 3c ba a0 73 bc
       0.031185562 -0.04068947 0.027320975 -0.014869863
000240 a4 54 7e 3c 04 f9 30 3a ed 3d c0 3c 05 44 8c bc
       0.01552311 0.00067509734 0.023467029 -0.017122278
000250 a7 6f 3d bd a9 90 0e bb 3c 89 28 3d 6e 84 2c 3c
       -0.046249058 -0.0021753705 0.041146502 0.010529621
000260 01 d7 5c 3c de b9 f0 3c b7 3a 27 bd 63 de 68 bb
       0.013478995 0.029385503 -0.04082748 -0.0035532943
000270 00 9b e6 bc 01 a5 f2 3c 6a 73 da 3b 8d fe d3 bc
       -0.028150082 0.029619696 0.0066665905 -0.025878215
000280 45 95 29 3d a7 d7 c2 bc f2 20 f9 bc c5 89 0a 3d
       0.04140212 -0.023784472 -0.030411217 0.033822794
000290 6c 11 e4 bc 99 b6 21 3c 3d 19 ae 3b d5 be 09 3d
       -0.027840339 0.009870195 0.005313067 0.033629257
0002a0 d5 ac e9 bc 9f 20 d9 3c 71 a5 ac 3c 4e dd a4 3c
       -0.028524796 0.026504813 0.021074982 0.020125058
0002b0 e5 59 ac bc 25 5c ea bc 39 4b 75 bc 93 e5 6b bc
       -0.021038959 -0.028608391 -0.014971548 -0.0143979965
0002c0 5d 7a dd bc 31 92 77 bc 49 d2 e9 bc 4b 56 13 bd
       -0.027035886 -0.015110538 -0.028542655 -0.035970967
0002d0 e0 4e b8 3a a7 34 de bc 4a 12 25 3c 1a 64 6f bb
       0.0014061593 -0.027124716 0.010075161 -0.003652817
0002e0 9d fc cf bc b6 c2 89 3c a5 d6 ca bc d3 4b 3b 3c
       -0.02538901 0.016816478 -0.024760554 0.011431652
0002f0 f7 a2 ea bc 90 d1 26 bd 02 88 ef bc cc ed 1e 3d
       -0.02864216 -0.040727198 -0.029239658 0.038801
000300 57 da 96 3c 8f f2 e6 bb 37 de 81 bb d5 f6 98 3c
       0.01841466 -0.007047958 -0.0039632577 0.018672386
000310 d5 ce d2 3c 03 7b 8f bc 39 41 89 3c 21 41 0e 3c
       0.02573339 -0.017514711 0.016754733 0.00868252
000320 d6 db c0 3c 9b 8f 22 bd ed 10 22 bd 39 03 ad 3c
       0.023542326 -0.039687734 -0.039566923 0.0211197
000330 f3 13 0c 3d 42 d9 28 bd 44 58 c2 bb d0 c4 91 3c
       0.034198713 -0.04122282 -0.0059309322 0.017794043
000340 a9 38 02 3d 0a c1 f4 bc 85 56 6f bc 74 48 42 3c
       0.031792317 -0.029877204 -0.01460803 0.0118580945
000350 29 6f 87 3c 49 b7 09 3d 47 2e 68 3c 4b 9a d8 bb
       0.016532497 0.03362206 0.01417119 -0.00661019
000360 2a 06 c0 bc 5a 96 15 3c 10 99 8a bc 2a 00 0e bd
       -0.02344044 0.009130085 -0.016918689 -0.034668125
000370 ef 5f 1c 3d 66 ba d4 3b 88 44 ad bb 21 36 f1 3c
       0.038177427 0.006491947 -0.0052877106 0.029444756
000380 29 79 9b 3c be 42 6b 3c 3e e1 84 3c b5 f1 83 3b
       0.018978672 0.014359174 0.016220685 0.0040266165
000390 ad 4a a4 3c 28 c7 34 bd a6 78 9a bc c2 3b d8 bc
       0.02005514 -0.044135243 -0.018856358 -0.026395682
0003a0 ad b5 13 bd f4 c1 1d bd 12 4e d2 bc ef 9f cc bc
       -0.03606193 -0.038515046 -0.025671992 -0.024978606
0003b0 7e 4a 6f 3c b4 7b b2 3c 53 1c ea 3c 70 8c 1a bd
       0.014605163 0.021787502 0.02857796 -0.037731588
0003c0 9c 21 1f 3d 52 ae 8a bc 6f 0b 9d bc 93 23 10 bd
       0.03885041 -0.016928826 -0.019170491 -0.035190176
0003d0 93 13 ad bc 92 8c 26 3d aa 39 2c bb c0 b8 1d 3d
       -0.021127498 0.040661402 -0.0026279488 0.03850627
0003e0 1b 0f c6 3c d4 f7 31 3d f7 1e 82 3c 0d 04 4f 3a
       0.024177125 0.043449238 0.015883906 0.0007897027
0003f0 ac a0 99 bc f9 be 4e bb 83 10 58 bc d6 4a d4 bc
       -0.018753372 -0.0031546934 -0.01318753 -0.02591459

block2.0.bias f4 [64]
000000 58 05 d6 3c 9f 94 d2 bb 47 0a fd 3b ff 22 d9 bc
       0.026125595 -0.0064264084 0.0077221724 -0.026505945
000010 0f 5a a2 bc f1 5b 02 3c 31 30 fa bc f4 c4 6d 3c
       -0.019818334 0.007956491 -0.030540558 0.014512289
000020 b4 87 d6 3c 3b d8 85 bc 14 fb f6 3c 8a 19 c3 37
       0.026187755 -0.016338458 0.03014902 2.3257704e-05
000030 13 b5 a9 3c 03 53 a9 3c 17 6c a0 bb 1b 72 98 3c
       0.020716226 0.020669466 -0.004895698 0.018609097
000040 55 9a 19 bd 83 76 0a bd db d6 2f 3c 75 f6 42 bc
       -0.037500698 -0.033804428 0.010732378 -0.01189958
000050 17 03 8f bb 76 46 de 3c 64 35 18 3d 3c 14 ba 3c
       -0.004364382 0.027133208 0.037160292 0.022714727
000060 82 9c a3 bc 7b 31 eb bb f9 5f be 3c 23 da 90 bc
       -0.01997209 -0.0071775294 0.023239123 -0.01768214
000070 48 a8 b6 bc 58 8d cc bb b7 93 f9 3c 19 1b 91 bc
       -0.02229704 -0.0062424354 0.030465944 -0.017713116
000080 c1 a3 d1 bc 2f ee 8d 3c 70 15 e2 3c 7c f2 6c bb
       -0.02559078 0.017325489 0.027598113 -0.0036155274
000090 e4 44 e1 3c e6 94 e9 bc 4e 98 26 bc d8 db 22 bd
       0.02749867 -0.028513383 -0.010168148 -0.03976044
0000a0 06 7f bb ba b9 5b 00 bd 17 e1 dd 3c 56 66 0a 3d
       -0.0014304824 -0.031337474 0.02708487 0.033789
0000b0 f9 29 ee 3c c0 6d 18 3d 27 d2 19 3d 26 b7 15 bd
       0.029072748 0.03721404 0.037553933 -0.036551617
0000c0 f0 71 ca ba 0b e5 cd bc 47 2b bf 3c 1e 36 c8 3a
       -0.0015445333 -0.02513363 0.023336066 0.0015274917
0000d0 b6 67 a6 bc a0 1c 86 3c 2c d7 c5 bc 58 5c 1b bd
       -0.020313125 0.016371071 -0.024150454 -0.037929863
0000e0 a2 96 1e 3d 66 ac 57 3c 09 06 3e bd c4 37 71 3c
       0.038717873 0.013163662 -0.046392474 0.014722768
0000f0 8b c5 f4 3b 75 15 2e 3b 8d aa fd 3c 11 cc 07 3d
       0.007469838 0.0026563082 0.030965114 0.033153597

block2.1.weight f4 [64]
000000 b2 43 81 3f 0f 31 7f 3f fa 8c 80 3f e6 7f 80 3f
       1.0098784 0.9968423 1.0043023 1.0039032
000010 00 47 7e 3f 89 06 81 3f 0d 8f 7c 3f c4 99 7c 3f
       0.9932709 1.0080119 0.9865578 0.9867213
000020 95 9e 7c 3f ae 39 80 3f 8b 35 80 3f c9 e8 7d 3f
       0.98679477 1.0017602 1.001634 0.99183327
000030 ba ae 81 3f ea b3 80 3f 1c a4 7a 3f a5 3a 7f 3f
       1.0131447 1.0054905 0.9790666 0.9969886
000040 c8 0f 7f 3f fb 95 7e 3f 3b c2 7f 3f 03 eb 7d 3f
       0.99633455 0.994476 0.9990575 0.99186724
000050 29 1b 80 3f 6d 9e 80 3f ee a1 80 3f 4d 32 80 3f
       1.0008289 1.0048348 1.0049417 1.001535
000060 e7 68 7c 3f bc 3d 80 3f 1a 01 82 3f 8b bb 81 3f
       0.9859757 1.001884 1.0156586 1.0135359
000070 00 a5 7d 3f 92 c0 7d 3f a5 01 7f 3f 3d d8 80 3f
       0.99079895 0.99121964 0.99611884 1.0065991
000080 55 ef 7c 3f be bb 7d 3f 9f 07 81 3f be a6 7e 3f
       0.9880269 0.99114597 1.0080451 0.9947318
000090 6f 47 80 3f d0 4c 80 3f da dd 81 3f d7 15 81 3f
       1.00218 1.0023441 1.0145829 1.008479
0000a0 04 b7 7d 3f 7a 97 7d 3f 73 55 7e 3f 7a 58 7d 3f
       0.99107385 0.9905926 0.99349135 0.9896313
0000b0 2a 48 80 3f 17 91 7e 3f 4b dc 7f 3f 62 4e 7e 3f
       1.0022023 0.9944014 0.99945515 0.9933835
0000c0 90 a5 81 3f a8 f7 7b 3f 6d be 81 3f 36 75 7f 3f
       1.0128651 0.9842477 1.0136238 0.99788225
0000d0 7f ab 7f 3f 4f a6 80 3f 23 b3 80 3f a5 ad 80 3f
       0.9987106 1.0050753 1.0054668 1.0052992
0000e0 f7 13 7e 3f a8 a8 7f 3f ff 14 83 3f 23 95 7b 3f
       0.99249214 0.99866724 1.0240782 0.9827444
0000f0 26 20 80 3f c8 9b 7e 3f 8c c1 7d 3f da ec 80 3f
       1.0009811 0.99456453 0.99123454 1.0072281

block2.1.bias f4 [64]
000000 1a 26 86 ba 27 22 a5 bc b2 31 7d bc 1c e1 d3 bc
       -0.0010234744 -0.020157887 -0.015453743 -0.025864176
000010 19 58 84 bc 12 d0 d7 bc bd ca 99 bc a1 0e 76 bc
       -0.01615529 -0.026344333 -0.018773431 -0.015018136
000020 e1 ff bd bc 40 0e a4 bc ba 0d a0 bc d8 9b 9c bc
       -0.023193302 -0.020026326 -0.019537795 -0.01911728
000030 f5 7a 23 3b ef 6c ec bc 73 9f c7 bc dc 6b 6a bc
       0.0024945114 -0.028860537 -0.024368023 -0.014307942
000040 75 08 53 bc 0f 99 99 bc be af a8 bc 55 17 2d bc
       -0.012880434 -0.018749742 -0.020591613 -0.010564645
000050 3a 41 1b bc 6f c8 0e bc bf ee 83 bc 2f 97 73 bc
       -0.009476 -0.008714779 -0.016105054 -0.014867588
000060 51 f6 cc bc c1 8c 08 bc d7 e1 8a bc 93 47 a4 bc
       -0.025019797 -0.00833434 -0.016953392 -0.02005366
000070 d2 ce 55 bc 8a b5 99 bc e5 e1 86 bc f1 af 1f bc
       -0.013049798 -0.018763322 -0.016465137 -0.009746538
000080 0b 6d c9 bc 32 20 7a bc ad c3 86 bc 97 ab 61 bc
       -0.024588129 -0.015266465 -0.016450727 -0.01377382
000090 7a c6 df 3b 3a 05 2d bc 49 3d cf ba 9f cc bf bc
       0.00682908 -0.010560328 -0.0015811111 -0.023413
0000a0 e0 a9 f7 bb 36 42 70 bc 40 47 b1 bc ef 1d e9 bc
       -0.0075580925 -0.014664223 -0.02164042 -0.028456656
0000b0 ee 95 4c bc df 27 a3 bc 7f 29 7d bc 74 ce 8b bc
       -0.012486918 -0.019916473 -0.015451788 -0.017066218
0000c0 fe 97 ef 3a cf 53 85 bc 32 b3 8f bc d4 1c 8d bc
       0.001827955 -0.016275315 -0.017541502 -0.01722566
0000d0 a8 1f 9d bc 40 d0 b4 bb 74 58 3e bb 4f 6a 7a bc
       -0.019180134 -0.0055179894 -0.0029044421 -0.015284135
0000e0 1d c7 3e bc a3 9b b1 bc 4d b1 be bb 3d 32 bd bc
       -0.011644152 -0.021680659 -0.0058194757 -0.023095245
0000f0 9f ac e4 bc e0 21 92 bc 87 32 a3 bc 5a bd de bc
       -0.027914343 -0.017838418 -0.019921554 -0.0271899

block2.1.running_mean f4 [64]
000000 89 45 81 be 0d 81 09 bf d3 04 aa be fb c6 64 bb
       -0.25248364 -0.5371254 -0.33206806 -0.003490864
000010 ca 8b 10 bd 93 b1 0a bf c8 7f 2a bf 86 ff 28 3e
       -0.035289563 -0.54177207 -0.6660123 0.16503724
000020 e0 8c 02 3f 07 90 1c be 8b 66 93 be 53 55 81 3d
       0.5099621 -0.15289317 -0.28789172 0.063151024
000030 20 19 cc be cd eb 78 be 9c 50 15 3f ce 28 db bd
       -0.3986292 -0.24308701 0.58326125 -0.10701142
000040 64 b3 10 bf 55 69 f0 3e c9 c1 45 bf 12 94 18 be
       -0.5652373 0.46955362 -0.7724882 -0.14900234
000050 c9 e5 88 bf 2a 89 2e 3d 3f 77 15 bf b4 5b 97 bd
       -1.0695125 0.04261128 -0.5838508 -0.07390538
000060 6a 2f f2 bd 05 45 48 bf 03 52 e3 3d dc 44 f0 be
       -0.1182545 -0.78230315 0.11099627 -0.46927536
000070 5c fb a8 bd 0a 99 fc 3e 27 a4 76 be fb 23 b7 be
       -0.08251068 0.4933551 -0.24086057 -0.35769638
000080 59 27 d8 3e 8e 25 3f 3f 08 01 c0 be 7d 2f 1c 3f
       0.4221752 0.7466668 -0.37500787 0.6100996
000090 11 9a 7b bd 70 52 d6 be 73 21 86 bd 2d 1e e3 bd
       -0.061426226 -0.4185977 -0.06549349 -0.1108974
0000a0 21 71 e0 3e 38 b7 e3 3e 6b 21 1d bf 3a f7 bb be
       0.4383631 0.44475722 -0.61379117 -0.36712056
0000b0 ab b9 4b 3e 1a 74 bf be d5 bc 27 bf 81 82 a2 be
       0.19895045 -0.37393266 -0.6552251 -0.31740192
0000c0 ba 41 04 be 60 66 fd 3d 55 97 1e 3e 00 69 f8 bd
       -0.12915698 0.12373042 0.15487416 -0.12129402
0000d0 c9 ee d4 be bf d0 21 3e 7f 95 8f be d1 2c b0 bc
       -0.4158843 0.15802287 -0.28043744 -0.021505745
0000e0 b8 27 1b bf 5f 48 0f bf a1 77 4d bd 08 95 66 be
       -0.6060748 -0.55969805 -0.050162915 -0.22517788
0000f0 d7 96 28 3f 4a 3f 3e 3e 9c cb 96 3e 6d 66 88 be
       0.65855163 0.1857883 0.29452217 -0.26640645

block2.1.running_var f4 [64]
000000 1b 25 ed 3d 89 34 d5 3e bc 77 c3 3e ae e1 90 3d
       0.11579343 0.41641644 0.38177288 0.07074295
000010 2d 8d 4b 3e 3e 3a 1f 3e 07 4d 6d 3f c6 ac bf 3e
       0.19878073 0.15549561 0.9269566 0.37436503
000020 d0 c7 10 3e 2a 82 20 3f bb 5b 11 3e 7c 79 6f 3e
       0.14138722 0.62698615 0.14195149 0.23386186
000030 38 88 8c 3e 00 76 b6 3d 4d 51 1e 3e 6d da 97 3e
       0.27447677 0.089092255 0.15460701 0.29658833
000040 69 15 06 3f 3e fd 49 3e cd a7 7e 3e b8 bc a7 3e
       0.5237642 0.1972551 0.24868698 0.32761168
000050 69 9f 5c 3f 7d e2 81 3e 56 b2 2d 3e c9 e5 68 3e
       0.8618074 0.2536811 0.16962561 0.22743906
000060 73 5f 1f 3f 0e 15 84 3e db 09 6a 3d 81 fb 2b 3e
       0.6225502 0.25797313 0.057138305 0.1679516
000070 42 c4 89 3e 36 9f 8e 3e 6e aa 45 3e ec e1 0a 3e
       0.26907545 0.27855843 0.19303295 0.13562745
000080 5e a9 64 3f 9a 6d af 3e bc 7f d0 3d 04 0f 3c 3e
       0.89320934 0.34263307 0.101806134 0.18365103
000090 c8 7a 0b 3e 9a 9b 70 3e fd ba 46 3d 63 70 8d 3d
       0.13621056 0.23496857 0.04851817 0.06906202
0000a0 5a f7 69 3e 6e 14 fc 3e b7 9b 01 3f 08 37 49 3f
       0.22848263 0.49234337 0.50628227 0.78599596
0000b0 20 42 f6 3d d3 8c d9 3e 41 d5 a0 3e 9a 4b 7d 3e
       0.12024331 0.42490253 0.314127 0.24735871
0000c0 a0 15 c8 3d 1f 46 33 3e c1 d7 ab 3d 3e 2a 51 3e
       0.0976975 0.17507218 0.08390761 0.2042627
0000d0 35 cb 86 3e 8c df aa 3d c2 99 18 3e 05 3b dc 3d
       0.2632691 0.083434194 0.14902404 0.107534446
0000e0 8d 72 d9 3e 39 37 3e 3e 95 e0 86 3d e7 29 3d 3f
       0.42470208 0.18575753 0.065858044 0.7389206
0000f0 7e 1e dd 3e 9a 69 71 3f 16 61 8f 3e ae b5 cc 3d
       0.43187326 0.9430176 0.28003758 0.0999559

block3.0.weight f4 [64, 64, 3, 3]
000000 42 ba 06 bd 95 0b d6 bc bb 3f ae bc e1 0b a4 3c
       -0.032892473 -0.02612857 -0.021270623 0.020025196
000010 04 68 f1 3c f0 ab 34 3d b3 65 a8 bc 91 74 68 3d
       0.029468544 0.044109285 -0.020556306 0.05675179
000020 e7 34 23 bd 1f a8 99 bc e7 49 d8 bc 0b 81 49 ba
       -0.039845373 -0.018756924 -0.026402427 -0.00076867704
000030 eb 96 0b bc 42 10 7f bc ab e5 a1 3c d7 f8 25 bd
       -0.008519868 -0.015567841 0.019762835 -0.040520515
000040 c1 5c b4 3b ff 79 0e bc 78 ef 66 3c 45 5e 85 3b
       0.005504221 -0.008696078 0.01409518 0.0040700757
000050 67 5a 08 bb 03 47 0f 3a d5 c2 14 bd 79 70 49 37
       -0.0020805837 0.00054655987 -0.03631862 1.2006721e-05
000060 6d 2d d8 3c 58 e0 f7 bc d6 ad 67 3b 99 79 c2 bc
       0.026388848 -0.030258343 0.0035351417 -0.023739623
000070 5c 7a a5 bb 1e aa 6e bc ef 40 0f 3d 22 8f ad bc
       -0.0050499868 -0.014566926 0.034974035 -0.021186415
000080 1d 0c 19 bd 46 65 f5 3c 67 a1 0c 3d 6d fc c2 3c
       -0.037365068 0.029955518 0.034333613 0.023802007
000090 7a 99 1d bd 0b 08 2a bd e9 d8 89 bc 75 82 ed bc
       -0.038476445 -0.041511577 -0.016827064 -0.02899287
0000a0 46 3c ce 3c bc d0 9f 3c a2 ed 8c 3c e2 03 53 3c
       0.025175225 0.019508712 0.017203156 0.012879344
0000b0 9f 93 2c bd de db 08 bd 64 49 91 bc 11 d5 43 bc
       -0.04213297 -0.033412807 -0.01773519 -0.011952654
0000c0 c7 09 e3 3a 4d 72 7b bb eb 92 79 3c 8d 36 90 3c
       0.001732164 -0.003836769 0.015232782 0.017604137
0000d0 f9 a9 15 3d e9 66 55 3c d9 35 f5 bc 9f 82 d1 3c
       0.03653905 0.013025024 -0.029932903 0.02557498
0000e0 d8 64 18 bc d4 38 8c 3b ba ea cd bc 2e 47 0a bd
       -0.009301387 0.0042792354 -0.02513634 -0.03375929
0000f0 b6 6a 1d 3d a5 4c e2 ba 6a 08 d0 bc 85 b5 e9 bc
       0.038431846 -0.0017265273 -0.025394637 -0.028528938
000100 2f 9d 88 bc 47 3d 8b 3c 24 92 eb 3c e3 b6 03 bd
       -0.016676513 0.016996993 0.028756209 -0.032156836
000110 4c 22 89 3b fb b8 0d 3c 65 67 16 bd 26 d7 c0 bc
       0.0041849967 0.00865006 -0.0367197 -0.02354009
000120 ab aa 93 bc 7f 47 87 bb 5f 87 9e 3c d3 a6 fc 3c
       -0.018025717 -0.004128396 0.01935166 0.030841267
000130 19 d2 0a bd b2 8d 1b 3d 61 9d 6a bc 5b 20 4f bc
       -0.03389177 0.037976928 -0.014319749 -0.0126419915
000140 27 db 25 3d c3 73 8c bb e8 0b d3 3c 4a c1 9f bc
       0.040492203 -0.004286261 0.025762513 -0.019501347
000150 33 65 3a bd e0 a9 3b bc c0 92 7f 3c f8 1c b4 bc
       -0.045506667 -0.011454076 0.015598953 -0.02198647
000160 32 bb 09 3d 37 c5 7c bc c5 38 db 3c 53 d9 8c bc
       0.03362579 -0.015427879 0.026760468 -0.017193472
000170 ef d8 8b 3c b8 4f 82 3c f5 98 07 3c 60 23 54 bc
       0.017071215 0.015907153 0.008276214 -0.012947887
000180 2d a4 2b 3d b9 d5 c1 3c 2e 8d a5 3c 70 81 1f bc
       0.041904617 0.023661481 0.020208921 -0.00973545
000190 41 5d 19 bd fc 73 9e bc f3 73 6a ba cd d8 b9 bc
       -0.03744245 -0.019342415 -0.00089436694 -0.022686386
0001a0 ac aa bb 3c 5f c6 cc 3c 5a 22 bb 3c 67 9b c3 bc
       0.022908531 0.024996934 0.022843529 -0.023877813
0001b0 7d 47 8d 3c 05 1c e5 3c 89 d3 e8 3c f5 6a 95 3c
       0.017246002 0.027967462 0.02842118 0.018239478
0001c0 5d f7 4c bc 28 3e da bc 35 f5 ee 3c 9c 76 83 3c
       -0.012510148 -0.026640967 0.029169658 0.016047768
0001d0 c5 1d e7 bc 72 f4 84 bb c1 5b cc bc 7e 39 92 bc
       -0.028212437 -0.0040574605 -0.024946095 -0.01784968
0001e0 22 1e 59 3c 6d a3 dd bc 7b 16 01 bd 57 86 04 bc
       0.013251813 -0.027055467 -0.03151558 -0.00808867
0001f0 72 9d ab 3c 7c bb db bc 6b e2 a4 bb b6 14 ec bc
       0.0209491 -0.026822798 -0.005031874 -0.02881847
000200 4e dd ad 3c 12 b4 db bc 9d 4f eb 3c 2d d9 19 3c
       0.02122369 -0.026819263 0.028724486 0.009390158
000210 50 64 05 3d a9 d2 7f bc b6 cd 11 3d cd 29 3e 3c
       0.03256637 -0.01561419 0.035596572 0.011606646
000220 ed 2a 33 3b df 0d 8d 3c 34 a8 c7 39 2f d0 c7 3c
       0.0027338818 0.017218528 0.0003808156 0.024391262
000230 96 43 4d 3c ed ef ea bb 04 86 2f bd 91 21 2d bc
       0.012528321 -0.0071697147 -0.042852417 -0.010567085
000240 ae ad e3 bc 57 12 1d 3c 9f 80 67 3c 1d 68 01 3d
       -0.027792778 0.009586892 0.014129787 0.03159343
000250 ca dd 68 bb 47 0c 3c 3b 9b 4b bc 3c 2b 5c 51 bd
       -0.0035532587 0.0028693841 0.02298527 -0.05111329
000260 45 76 d5 bc 7c df 67 3c a3 f2 7c 3c f9 72 91 3b
       -0.026057372 0.014152404 0.0154387085 0.0044387546
000270 03 e4 14 3d 87 d8 8a 3c 67 59 a5 3c 32 f1 15 3b
       0.03635026 0.016948951 0.020184232 0.002287936
000280 91 b1 12 3d 1c 11 ea 3c b0 3d 84 3c 61 e3 04 bd
       0.03581387 0.028572612 0.016142696 -0.032443408
000290 3e 15 e4 3c b1 54 2e bc 9a 3a c4 bc b8 9e 3c bd
       0.02784216 -0.010640309 -0.023953725 -0.046049803
0002a0 2c c9 79 3c 47 86 03 3c 99 f3 fd 3b ab ab 01 bd
       0.015245717 0.00802762 0.0077499864 -0.031657856
0002b0 50 b4 8f 3c c7 7e c0 3b 50 73 ef 3c 96 67 df bc
       0.017542034 0.005874488 0.02922979 -0.027271073
0002c0 9d 91 a3 3c 59 d0 61 3c 6c fe de b9 83 1d 35 3c
       0.019966895 0.013782584 -0.000425327 0.011054399
0002d0 e1 15 51 bd 38 13 a5 3b 77 33 a1 bc fb 37 58 bc
       -0.051046256 0.0050376914 -0.01967786 -0.0131969405
0002e0 0b 82 15 3b 3e 71 5b bc 3f 56 23 bd 9d ed 1a bc
       0.0022813107 -0.013393698 -0.039877173 -0.0094560655
0002f0 65 6a e7 3c af 5e 35 bd 4a 68 8b 3c 19 40 ae 3a
       0.028248975 -0.04427975 0.017017502 0.0013294249
000300 66 b1 dc bc d3 0c da bc b3 de f2 3c 20 44 0a bd
       -0.026940059 -0.026617443 0.029647207 -0.033756375
000310 6e a8 10 bd fe fa bf 3a fe 60 aa 3c 4c 4d ad 3c
       -0.035316877 0.0014646945 0.020798203 0.021155022
000320 6e 74 bb 3c fd 6f dd 3c e9 3a 20 3b bc cb f2 3b
       0.022882666 0.02703094 0.0024449176 0.007409541
000330 1b 7d 92 bc 30 fb 3c bd e6 74 1a bb cd dc c4 3c
       -0.01788192 -0.04613799 -0.0023568212 0.024031067
000340 9c 4c b1 3a b7 f2 e6 3c 2a 0f ee bb 73 8b 83 bc
       0.001352686 0.028191907 -0.0072649913 -0.016057706
000350 91 ac 2b bd bb e3 43 3d c6 94 5b 3b a6 5c 88 bc
       -0.04191262 0.047824603 0.0033505424 -0.01664574
000360 84 9e 17 bc 45 3a d1 3c 93 e1 f7 3b b6 b4 11 3d
       -0.009254102 0.02554048 0.0075647323 0.03557273
000370 30 cd b9 3c c2 83 d8 ba d5 de 6e bc 12 56 ae bb
       0.022680849 -0.0016518759 -0.0145794945 -0.005320319
000380 e3 81 88 bc 87 a4 a3 3c 61 49 9d 3c 3d 66 fe bb
       -0.016663497 0.019975914 0.019200029 -0.0077636526
000390 d0 88 75 3c ed a1 16 3b 85 c1 71 3b 45 46 2f bc
       0.014986232 0.00229847 0.0036889028 -0.010697906
0003a0 7f aa 48 3d 13 cb 0b 3c 98 63 20 bd ab 6b 50 3d
       0.048990723 0.008532303 -0.03915748 0.05088393
0003b0 c4 da 2a bd 24 bd c7 3b a2 c8 c2 bc 1c 28 bf 3c
       -0.041712537 0.0060955454 -0.02377731 0.023334555
0003c0 36 f3 0a 3c c6 b9 a3 bc 8a 6b af 3c 0a 13 3f bd
       0.008480838 -0.019986045 0.021413583 -0.046649016
0003d0 c3 4b c8 3c 17 19 46 3c 8f 44 01 bb 73 0b 42 bb
       0.024450189 0.012090943 -0.0019724702 -0.0029608875
0003e0 1c 6b 14 bd 7f 6e a9 3c e4 70 1f bd 1f 33 4e bc
       -0.03623496 0.020682571 -0.03892602 -0.01258543
0003f0 2f c6 cc bb e3 93 82 bb 1f 37 aa 3b b3 59 ac bc
       -0.0062492113 -0.0039849146 0.005194559 -0.021038866

block3.0.bias f4 [64]
000000 ad 0a bf 3b 7a 63 4c 39 10 0f d3 bc 62 53 8b bc
       0.00583013 0.00019492014 -0.025764018 -0.017007533
000010 15 8d 26 3d 4f ff cb 3b f5 d0 00 bd 08 90 14 bd
       0.04066189 0.0062255035 -0.031449277 -0.03627017
000020 1c e3 12 bd 5c 1a 03 bd 6e ee 98 bc a7 1a fa bb
       -0.03586112 -0.03200756 -0.01866838 -0.0076325717
000030 d2 1a b7 3c b9 37 15 bd 02 8c f8 3c 7e 89 1c bd
       0.022351656 -0.036430094 0.030340198 -0.03821706
000040 13 6c b2 3c 68 a1 ef bb b4 81 1f bc 00 86 27 bd
       0.02178005 -0.0073129423 -0.0097355135 -0.040899277
000050 a5 51 94 3c 35 af b3 bc 91 96 23 bd dd 6e 03 3d
       0.018105337 -0.021934131 -0.039938513 0.03208815
000060 3f 48 96 bb 51 d4 e2 bc 40 30 71 3c 02 b9 35 bc
       -0.004586249 -0.027689131 0.014720976 -0.011091473
000070 43 c9 1c 3c d4 68 00 bd f6 8b e2 3c 91 b6 74 bb
       0.009569469 -0.031349972 0.02765463 -0.0037340263
000080 bd 01 4c bb e6 b5 2f bd 02 16 af 3c c3 ef fd bb
       -0.0031128966 -0.04289808 0.021372799 -0.007749529
000090 ba db 0f 3d f6 70 86 bb 42 a6 19 bd e2 31 9b bc
       0.035121657 -0.0041028215 -0.03751207 -0.018944684
0000a0 68 f6 0c 3c a5 a6 1e bd 59 3d 88 bc 6d 1b 66 bc
       0.00860367 -0.038733143 -0.016630815 -0.014044625
0000b0 31 bf 7d bc 0f b9 e2 bc 88 30 10 bd 0a b1 00 3d
       -0.015487478 -0.027676133 -0.035202533 0.031418838
0000c0 d6 04 eb 3a 64 00 94 bc 18 ec 3b 3c e6 f0 1e bd
       0.0017930518 -0.018066593 0.011469863 -0.038803957
0000d0 00 f3 7f bc 1f ac bc bb f2 f2 06 bd 39 bb c2 bb
       -0.015621901 -0.005757823 -0.032946534 -0.005942729
0000e0 82 dc 08 3d 16 9a 32 3b f9 d5 c7 bc 0c be f1 bc
       0.033413418 0.0027252487 -0.024394022 -0.029509567
0000f0 87 4d 21 3c 2f 5d fb bb bd 88 c3 3c 1f 6e 0f 3b
       0.009845144 -0.0076710205 0.023868913 0.0021885706

block3.1.weight f4 [64]
000000 f0 88 80 3f 2a be 7d 3f 18 a7 7e 3f 95 32 7f 3f
       1.004179 0.9911829 0.99473715 0.9968656
000010 93 3c 7f 3f 9c 0a 80 3f 16 05 7d 3f e1 29 80 3f
       0.99701804 1.0003238 0.98835886 1.001278
000020 eb a3 80 3f 85 65 80 3f 55 2a 80 3f 98 25 80 3f
       1.0050024 1.0030981 1.0012919 1.0011473
000030 56 d1 7e 3f ef f4 81 3f 18 d2 7c 3f 0a 58 80 3f
       0.9953817 1.0152873 0.9875808 1.0026867
000040 84 0b 7e 3f 4e 23 7d 3f f9 1c 80 3f a8 5b 80 3f
       0.9923632 0.98881996 1.0008842 1.0027971
000050 ea 4d 7d 3f e2 f9 7e 3f ff 3e 81 3f 90 35 80 3f
       0.9894701 0.9960004 1.009735 1.0016346
000060 84 39 7c 3f 87 d3 7c 3f c2 bf 80 3f c5 41 81 3f
       0.9852526 0.98760265 1.005852 1.0098196
000070 cd 6f 7d 3f 95 87 80 3f d2 98 82 3f 6b 1f 80 3f
       0.9899872 1.0041376 1.0202887 1.0009588
000080 e0 d0 80 3f 3b bc 7f 3f 15 3f 80 3f 3c 68 80 3f
       1.0063744 0.9989659 1.0019251 1.003181
000090 e8 56 80 3f 95 58 7f 3f 44 34 80 3f 9b f3 7f 3f
       1.0026522 0.9974454 1.001595 0.9998109
0000a0 79 a9 7d 3f 52 84 7d 3f 97 b7 80 3f 5f bb 7e 3f
       0.9908672 0.9903003 1.0056027 0.99504656
0000b0 1b 13 7f 3f d6 2e 81 3f f9 1d 7f 3f c9 5c 81 3f
       0.9963853 1.0092418 0.9965511 1.0106441
0000c0 5a 58 80 3f 67 cd 7b 3f 2c e8 80 3f 98 33 80 3f
       1.0026963 0.98360294 1.0070853 1.0015745
0000d0 98 10 81 3f 6f 84 80 3f 7c d4 7f 3f 45 48 82 3f
       1.0083189 1.0040416 0.999336 1.0178305
0000e0 30 55 82 3f 79 58 7f 3f 48 8e 7d 3f 2c 40 80 3f
       1.0182247 0.99744374 0.9904523 1.0019584
0000f0 60 07 80 3f 6f 10 81 3f df c1 7b 3f 9c ed 7e 3f
       1.0002251 1.008314 0.983427 0.99581313

block3.1.bias f4 [64]
000000 20 08 9f bc e8 74 c9 bc 21 bd ad bc 65 46 a6 bc
       -0.019413054 -0.024591878 -0.021208348 -0.020297239
000010 ba 50 39 bc ed 9a b9 bc 3e 85 19 bd 66 97 24 bc
       -0.011310751 -0.022656882 -0.037480585 -0.010045862
000020 9c 86 c5 bc f9 25 97 bc 02 f8 81 bc 98 e1 9e bc
       -0.024112038 -0.018450724 -0.01586533 -0.01939468
000030 5d a4 82 bc 7a 0a b1 3b fe 67 a4 bc 1b 20 01 bd
       -0.015947515 0.00540286 -0.020069119 -0.03152476
000040 62 44 a6 bc 90 e3 85 bc f4 b4 58 bc 49 32 da bc
       -0.02029628 -0.016343862 -0.013226736 -0.026635306
000050 57 ce bd bc 88 7f b3 bc 5b 58 9c bc 2f 86 b2 bc
       -0.02316968 -0.021911398 -0.0190851 -0.0217925
000060 ae cc 02 bd 0c 92 fd bb 82 76 12 bd 38 21 c7 bc
       -0.03193348 -0.0077383574 -0.03575755 -0.024307832
000070 87 46 73 bc c1 f5 5b bc 5d 24 86 bc f8 9e 06 bc
       -0.014848358 -0.0134252915 -0.016374761 -0.008216612
000080 b5 b9 34 bc 2b 20 25 bc 7a e2 86 bc 9c e4 0a bc
       -0.011030604 -0.01007847 -0.016465414 -0.008477356
000090 31 2b de bc d9 43 02 bd cd 02 dd bc 7d 70 58 bc
       -0.027120205 -0.031802986 -0.026978875 -0.013210413
0000a0 5c bb 99 bc a6 fb f8 bb a5 c3 e5 bc 3c 4b 00 bd
       -0.018766098 -0.007598358 -0.028047392 -0.03132175
0000b0 77 87 8d bc 57 2f 66 bc fc e1 85 bc aa 5b b7 bc
       -0.017276509 -0.014049373 -0.01634311 -0.022382576
0000c0 42 52 4d bc 7d 02 d0 bc bd e0 b5 bc 6e 4a e2 bc
       -0.012531819 -0.025391812 -0.02220189 -0.027623381
0000d0 a9 07 96 bc a1 2b df bc 6e a3 c5 bc c5 c1 0f bc
       -0.0183142 -0.027242484 -0.02412578 -0.008774226
0000e0 72 ef 9d bc 3f 8a 98 bc 93 cf c1 bc db d5 b0 bc
       -0.019279215 -0.018620608 -0.02365855 -0.02158635
0000f0 09 11 c9 bc 3c 3a a5 bc 6c 92 04 bd 7b 5d b3 bc
       -0.024544256 -0.02016937 -0.0323662 -0.02189516

block3.1.running_mean f4 [64]
000000 3d cb 2f be ba 90 6c be bf 8c 33 bd db 3c 1d bf
       -0.17167373 -0.23102084 -0.043835398 -0.61420983
000010 4b d5 c4 bd 2c a6 1c 3e 8d eb f0 3d 28 04 8f be
       -0.09610995 0.15297765 0.11763678 -0.27932858
000020 35 ce 09 3c ec 7f 99 be e4 9e 5c 3c 62 1e 0d bd
       0.00841098 -0.2998041 0.013465617 -0.034452803
000030 63 b1 05 be 6e 0b 33 bf b2 a5 25 be a0 1f 27 3e
       -0.13055949 -0.69939315 -0.16176489 0.16320658
000040 c6 0a 00 be b9 06 c5 3e 3a e6 d4 3d 7b 3a 00 3d
       -0.1250411 0.3848169 0.10395475 0.03130577
000050 84 43 bc bd 59 56 ac 3e 65 f0 c5 be bf 23 ea 3d
       -0.09192565 0.33659628 -0.3865997 0.11432599
000060 ab 02 d9 3d 8b f4 8d be 61 0b 95 3d 3f 5a 94 3e
       0.10596212 -0.27725634 0.07277561 0.28975102
000070 88 42 73 3e 05 23 64 3c a1 9c cb bd f3 d1 8e bf
       0.23755848 0.013924365 -0.09941984 -1.1157821
000080 36 ae 14 bf fd f4 a1 3e 28 f0 36 3e 38 78 e3 be
       -0.58078325 0.31632224 0.1786505 -0.44427657
000090 8b c3 1d 3c 7b ea 7a 3e 3d 5f b6 3d c3 59 80 be
       0.009629141 0.2450351 0.08904884 -0.25068483
0000a0 fa 35 5e bf 2d 5a ac be c2 96 21 3e f2 4f d4 be
       -0.8680111 -0.3366255 0.15780166 -0.41467243
0000b0 f4 e3 8a 3d a4 3f bc 3e 49 5c a3 3d 40 5d bd be
       0.0678176 0.36767304 0.07976586 -0.36985207
0000c0 bf 0f 03 bd 5d 6a 36 3e 6a 69 bb 3e fa e7 0f 3e
       -0.03199744 0.17814012 0.36603862 0.14053336
0000d0 72 1e 27 3c cf 67 50 3d 9b d1 41 3e fc 04 5c bf
       0.01020013 0.05088025 0.18927614 -0.85945106
0000e0 de a7 70 3d 13 61 5d 3e 57 89 46 3e 49 40 fb bd
       0.05875384 0.21619062 0.19388328 -0.12268121
0000f0 76 02 d3 3e a1 08 8a 3e 37 2f 63 3e 51 c0 be be
       0.41212815 0.26959708 0.2218598 -0.372561

block3.1.running_var f4 [64]
000000 22 f4 ee 3d 35 27 6d 3e 78 4e 10 3e 5e fc 5d 3e
       0.116676584 0.23159488 0.14092433 0.21678302
000010 3e ea 58 3e 81 fc f9 3d a4 d9 77 3e 4b c0 11 3e
       0.21183106 0.122063644 0.24204117 0.1423351
000020 8e 06 16 3e 13 68 55 3e b9 8e 7f 3e 06 ae 29 3e
       0.14650938 0.20840482 0.24956788 0.16570291
000030 ec 61 82 3e 01 51 68 3e eb 38 8f 3e 42 60 31 3e
       0.25465333 0.2268715 0.27973112 0.17321876
000040 7e 61 36 3e 5e 80 e1 3e e7 c5 4b 3e d0 7a ca 3d
       0.17810628 0.4404325 0.19899713 0.09886706
000050 98 ff 90 3e af 19 2d 3e f9 5f 5b 3e 84 2e 55 3e
       0.28320003 0.16904329 0.2142333 0.20818526
000060 97 fe 8b 3e fc 35 4b 3e b8 94 7d 3e 7c a9 0e 3e
       0.27342674 0.19844812 0.24763763 0.1393184
000070 34 b4 36 3e be 7e 95 3e eb 4e 2c 3e 63 75 30 3f
       0.1784218 0.2919826 0.1682698 0.6892912
000080 e0 61 e7 3e 55 4f 8a 3e 67 86 0f 3e 43 4a 92 3e
       0.4519186 0.2701365 0.14016114 0.28572282
000090 76 9b 20 3e e1 a8 a0 3e a2 d7 f5 3d 1e e4 37 3e
       0.15684304 0.31378844 0.12004019 0.17958114
0000a0 c3 1f 08 3f 1d c8 82 3e a2 66 0b 3e a8 96 5e 3e
       0.53173465 0.255433 0.1361337 0.21737158
0000b0 8e 10 61 3e 26 1c 3f 3e 18 11 ae 3e 32 6a af 3e
       0.21978971 0.18663082 0.33997416 0.34260708
0000c0 ec 8a 4d 3e 67 11 21 3e 1c 43 1e 3e 3f 78 5c 3e
       0.20072526 0.15729295 0.15455288 0.21530245
0000d0 ce d0 02 3e 4d 4f d5 3d 95 99 7c 3e c3 10 f5 3e
       0.12774965 0.10415516 0.24667962 0.4786435
0000e0 fb 8c 04 3e ff 5e 4e 3e 46 ec 38 3e 93 a0 89 3e
       0.12944405 0.20153426 0.18058881 0.2688032
0000f0 41 0d 55 3e 0a 62 04 3e cb f6 c0 3e 34 a2 20 3e
       0.20805837 0.12928024 0.37688288 0.15686876
