results/old/basic/basic_6.pth (torch, 961547 bytes, 26 tensors)

block1.0.weight f4 [64, 1, 3, 3]
000000 6b da 17 be 36 c9 2f be fb 85 78 be 27 a5 b5 3d
       -0.14829414 -0.171666 -0.2426986 0.08869391
000010 ec ce a4 3e 98 4e df bd 65 f5 75 bd b7 c4 88 be
       0.3218912 -0.109036624 -0.06004848 -0.26712582
000020 e1 c2 2b 3e e1 78 18 3e 92 87 81 be 8f a2 75 3e
       0.16773559 0.14889862 -0.25298744 0.23987792
000030 ca 06 61 3e a7 19 44 be ea 14 90 3e 6a 26 a1 be
       0.21975246 -0.1915041 0.28140956 -0.3147462
000040 2c 53 86 3d 73 cc da bd 9c 1c 5a 3e d7 3a a4 3e
       0.065588325 -0.10683527 0.21299976 0.3207614
000050 ac 39 8d be 06 e4 4d 3e 34 3e 1c be 1c 2d a5 3e
       -0.27583063 0.20106515 -0.15258104 0.32260978
000060 4a ae 97 bd db d3 a1 be f6 1f 8a 3d 63 27 30 3e
       -0.0740629 -0.31606945 0.06744377 0.17202525
000070 c9 62 9c 3e 99 52 73 be 61 6a 53 3e be 99 e1 3d
       0.30544117 -0.23761977 0.20646049 0.11015652
000080 27 a8 7a 3d 38 da 58 3e d2 24 32 be e5 05 19 3e
       0.06119552 0.21176994 -0.17396858 0.14943655
000090 82 60 08 be ce f0 83 be dc 6d ef bd 14 2d 16 bd
       -0.13318065 -0.25769657 -0.11690876 -0.036664084
0000a0 06 42 ac 3e be d0 db bc 64 3a 72 be b9 25 81 3e
       0.33644122 -0.026832934 -0.23655087 0.25224093
0000b0 ed f7 74 be 93 50 ea 3d b8 bf e1 bd d6 69 56 3e
       -0.23922701 0.114411496 -0.110228956 0.2093881
0000c0 d5 65 01 bd 9f 6d 92 3e 77 f6 c2 bd 3c b8 03 3e
       -0.031591255 0.2859926 -0.09519666 0.12863249
0000d0 31 18 06 3e aa 06 fc bb 11 b2 80 be 9f 52 a3 3e
       0.13095166 -0.007691224 -0.25135854 0.31898972
0000e0 6b 80 3c 3e 49 50 76 be b9 5a 5a be e5 1d b6 bd
       0.18408363 -0.24054064 -0.2132367 -0.08892421
0000f0 39 82 8f be 9f 6a 9d 3d 0b 19 4f bd 56 c0 a7 be
       -0.2802904 0.07686352 -0.050560992 -0.32763928
000100 1c 74 a1 be aa 95 3c 3d 35 c3 a6 3e 13 30 a7 3d
       -0.31533897 0.04604117 0.32570806 0.08163466
000110 61 da 4d 3e 25 3d 57 be ca d5 8c 3e c5 38 9b bd
       0.20102836 -0.21019419 0.27506858 -0.07579187
000120 24 fb 63 bd 7d 48 92 3e c1 5b 0a be 89 2c aa bc
       -0.05565943 0.2857093 -0.13511564 -0.02077319
000130 b9 c2 ca 3d 13 0d eb 3d 4f 91 ae bd c6 5e 26 bd
       0.09900422 0.11477103 -0.08523809 -0.040617727
000140 cb 15 79 3e 6f c8 3a be 46 46 a5 be 35 62 5e be
       0.2432472 -0.18240522 -0.32280177 -0.2171715
000150 e8 ec f8 3d 74 7a 2c be 87 4c a3 be 9d e6 e4 3d
       0.12154561 -0.16843587 -0.31894323 0.111767985
000160 54 ac 7d be 49 56 33 3e d3 9c 0e 3d 80 16 40 3e
       -0.24772769 0.17513384 0.034817528 0.18758583
000170 2c 55 a8 bd ce f5 28 be 63 a2 37 3e 4d f1 4b 3e
       -0.0821937 -0.16500017 0.1793304 0.19916268
000180 9f 31 f7 bd 9d 60 4e 3e b8 18 86 be 91 6f 14 be
       -0.12070011 0.20154043 -0.26190734 -0.14495684
000190 96 32 30 3e 30 17 1b 3d 42 8c 28 3e 4d 91 a5 be
       0.17206797 0.03786391 0.16459754 -0.32337418
0001a0 c0 75 9e 3d 13 b3 15 3e e7 92 af bc 93 93 9c 3e
       0.07737303 0.14619093 -0.021432353 0.3058134
0001b0 52 8e 66 bc 8e ee 07 be 5d dd f1 3d 9a c2 9d be
       -0.014072018 -0.13274595 0.118098 -0.30812532
0001c0 ec f4 55 3e 86 7b 44 bd f5 80 98 bd 68 98 02 bd
       0.20894212 -0.047969364 -0.074464716 -0.031883627
0001d0 ad 42 86 be 05 c8 0d be d1 74 94 be 26 be 6d be
       -0.26222745 -0.13845833 -0.28995374 -0.23217067
0001e0 61 0a aa bb cd a1 b1 bd 05 0d d8 bc 23 00 a6 3e
       -0.0051892255 -0.08673439 -0.026373396 0.3242198
0001f0 ef 38 a1 be bb bc 14 ba a6 81 6d 3c 35 b1 87 be
       -0.3148875 -0.0005673875 0.014496243 -0.26502386
000200 cb e1 08 3e 50 54 4d 3e 5a 7c f5 bd 1a 89 ba bd
       0.13367383 0.20051694 -0.11986609 -0.09108181
000210 fd 42 a6 3e 8f 5f 42 3e 69 97 27 3e 68 3e 06 bc
       0.32472983 0.18981765 0.16366352 -0.00819359
000220 dd a2 86 3e 4f 8b 67 3e d2 fc 92 3e a8 f5 44 be
       0.2629613 0.22611736 0.28708512 -0.19234335
000230 19 53 56 3e 1c 22 55 3d 53 c1 0f be 9f 72 16 be
       0.20930137 0.052034482 -0.14038591 -0.14692162
000240 de 7c a5 3e 9b 0d df 3d de 86 97 be 52 aa db bd
       0.3232183 0.10891267 -0.29595083 -0.107258454
000250 a4 ae 9a be 78 6a ff 3d 32 28 08 be a4 d5 65 3d
       -0.30211365 0.12471479 -0.13296583 0.056111947
000260 45 6b 55 3e 45 e7 6b 3d 57 aa 24 be 25 86 92 be
       0.20841701 0.057593603 -0.16080604 -0.2861797
000270 c7 1a b7 bd d2 30 de 3d 96 08 23 3e 8f b5 90 3e
       -0.08940654 0.108491555 0.15921244 0.28263518
000280 fa 9d 70 3d 36 3d e1 bc a6 95 a9 3c 26 73 55 be
       0.05874441 -0.027495008 0.02070124 -0.20844707
000290 5c 35 80 be 14 24 05 3e b3 55 5d 3e dd 13 98 3e
       -0.2504071 0.13002044 0.21614723 0.29702654
0002a0 32 0b 47 3e d3 b3 cb bb 31 df 3c 3e 4a 36 a1 3d
       0.19437864 -0.006216505 0.18444516 0.07871683
0002b0 d2 10 0c 3e 0d 96 2b be 04 fe 86 be 5d e0 4a bb
       0.13678291 -0.16756459 -0.26365674 -0.0030956485
0002c0 0b ee 02 bd cc d2 8f 3e 0b 0e bf bd 33 bd 5e 3e
       -0.031965297 0.28090513 -0.0932885 0.21751861
0002d0 95 c0 16 bd 89 fa 7e 3e 88 14 89 bb ae dc 5d 3e
       -0.036804754 0.24900259 -0.0041833557 0.21666214
0002e0 70 a9 5e be 4f 00 92 be ac 3c 16 be d7 21 6d 3e
       -0.21744323 -0.2851586 -0.14671582 0.2315744
0002f0 bc 10 9b be eb 91 53 3e 14 4d 76 be 53 52 31 be
       -0.30286205 0.20661132 -0.2405284 -0.1731656
000300 0a 75 90 3e c5 bb 4a 3a b2 94 7e 3e 77 11 65 3e
       0.28214294 0.00077336683 0.2486141 0.22369944
000310 91 36 96 be bf 65 b4 3d eb e7 96 3d 2b 11 4d be
       -0.29338506 0.08808469 0.073684536 -0.2002608
000320 e6 7a 29 be 2c 3f 56 be 48 84 59 3e bc 06 94 be
       -0.16550788 -0.20922536 0.21241868 -0.28911388
000330 a8 5e ab be 31 34 08 bd c0 4b 0c 3e 33 4d 71 3e
       -0.33470654 -0.0332529 0.13700771 0.23564605
000340 f6 aa f0 3b 69 df 4f bd cb 86 3c 3d ca f6 55 3e
       0.007344599 -0.05075017 0.046026986 0.20894924
000350 59 06 80 3e 9f e7 c5 bd 87 96 25 3e 67 ed 26 ba
       0.25004843 -0.09663319 0.16170703 -0.0006367773
000360 1b db 21 be 58 59 7a 3d 6f 2f 80 be 66 51 c8 3d
       -0.15806238 0.06112036 -0.2503619 0.097811505
000370 eb a5 96 3d d5 d5 6b bd 2e 9a 9f 3e 20 04 6e bd
       0.07355865 -0.057576973 0.31172317 -0.058109403
000380 03 3b 90 3e 60 3c 02 3e ad 26 75 3e c4 f8 2e 3d
       0.28170022 0.12718344 0.23940535 0.04271771
000390 43 4f a8 be fe b9 9a 3e f0 ac 10 be d4 57 fd 3c
       -0.32872972 0.30220026 -0.1412847 0.030925669
0003a0 9a d3 21 3e b1 4e 61 be 5d c7 82 3e 79 5e 90 3b
       0.15803376 -0.22002675 0.25542727 0.0044057933
0003b0 88 fa 71 3e 0b 7d 01 be 60 5d 3b 3e 6a 86 5e 3e
       0.23630726 -0.12645356 0.18297338 0.21730962
0003c0 fc 71 44 3e 78 75 84 bd 00 08 27 3e eb 0f cb 3d
       0.19184107 -0.06467718 0.16311646 0.099151455
0003d0 00 75 3e be aa bc 8d 3e 85 bc 38 3e b0 9d 9e 3d
       -0.1859932 0.27683002 0.18040664 0.0774492
0003e0 da a1 82 be 97 7c 87 3e df 58 ac be c0 c0 3a 3e
       -0.25514108 0.26462242 -0.33661553 0.18237591
0003f0 db ae e4 bc 6f 89 74 be 59 9e 66 3e 30 1e 8c be
       -0.027915409 -0.23880552 0.22521342 -0.2736678

block1.0.bias f4 [64]
000000 04 dc 82 3e 1c 74 a1 be 1a 4d 0c 3e 30 16 0d 3e
       0.25558484 -0.31533897 0.13701287 0.13777995
000010 90 44 89 be eb ce b5 bc b9 e5 7a 3d 15 e4 3a be
       -0.26810122 -0.022193393 0.061254237 -0.18251069
000020 e2 df 87 3d 0a a1 b4 bd d0 f9 1a be 51 1e f2 bd
       0.06634499 -0.08819778 -0.15134358 -0.11822189
000030 12 07 67 be 2c e0 95 be 26 e3 70 3e 8f a8 de 3d
       -0.22561291 -0.29272592 0.2352415 0.10871994
000040 08 2f 43 3d 1f 73 73 3e f8 b1 21 be ce 7f 78 be
       0.047652274 0.23774384 -0.15790546 -0.24267504
000050 ad 06 4b 3b 73 98 1a 3e 25 60 da 3d 00 c3 87 3e
       0.003097932 0.15097217 0.10662869 0.2651596
000060 53 ca 90 bb e6 55 74 3e b6 a4 8a bd e5 1e f2 3d
       -0.00441865 0.23860893 -0.06769697 0.11822299
000070 7b ec d9 3d cf f1 9b 3e 3a dc aa bc 0b d4 1c 3e
       0.10640808 0.30457923 -0.020856965 0.15315263
000080 51 3b 61 be 9a 33 99 3e 5c d7 45 be 21 b1 9a bd
       -0.21995284 0.2992218 -0.19320434 -0.07553316
000090 76 ae 3a 3d 37 2d 55 3e b7 31 49 be 20 be 95 3e
       0.045576535 0.2081803 -0.19647871 0.29246616
0000a0 6c 38 8b be 45 02 04 be 37 20 8e 3e 17 2e 1c be
       -0.27191484 -0.12891491 0.27758953 -0.15251957
0000b0 da 9c 67 3d 00 d7 8b be e4 de 8e be 9b ea 95 be
       0.05654607 -0.2731247 -0.27904427 -0.29280552
0000c0 95 a9 0e 3e 97 ad 12 3e 87 4f e5 bc 4c 0f 3d 3d
       0.13931878 0.14324032 -0.027992023 0.046157166
0000d0 36 2f a4 3e 28 33 68 3b 11 d8 3e be c7 87 7e 3d
       0.3206727 0.0035430882 -0.1863711 0.062141206
0000e0 fc 75 81 be 7c 90 5f be 41 fd 34 bd e1 14 00 be
       -0.25285327 -0.2183246 -0.044186834 -0.12507965
0000f0 2e bd a1 3e ea 09 c5 bd 63 18 29 3e 99 39 53 3d
       0.31589645 -0.096210316 0.16513209 0.0515686

block1.1.weight f4 [64]
000000 97 7a 7e 3f 29 32 80 3f 87 f6 7e 3f b2 9c 7e 3f
       0.9940581 1.0015308 0.9959492 0.9945785
000010 79 43 7f 3f 38 28 7f 3f dc 04 7e 3f 7d 9a 81 3f
       0.9971233 0.99670744 0.99226165 1.0125271
000020 57 16 7f 3f 3d c1 7e 3f b0 ef 7f 3f e2 33 7f 3f
       0.9964346 0.9951361 0.9997511 0.9968854
000030 f2 3a 7f 3f 55 0f 7f 3f e0 3e 7f 3f 55 92 7e 3f
       0.9969932 0.9963277 0.99705315 0.99442035
000040 31 b0 81 3f 3d 83 80 3f af de 7e 3f 18 3e 7f 3f
       1.0131894 1.0040051 0.9955854 0.9970412
000050 ae 21 7e 3f 51 8f 7f 3f 20 7a 7f 3f 99 07 7f 3f
       0.9927014 0.9982806 0.9979572 0.9962097
000060 38 d5 7e 3f f8 5b 7f 3f fb b0 7d 3f 59 5a 7f 3f
       0.99544096 0.9974971 0.99098176 0.99747235
000070 25 11 7f 3f 12 f2 7e 3f bb d4 7e 3f 34 c0 7e 3f
       0.99635535 0.9958812 0.9954335 0.9951203
000080 b5 0e 82 3f 4d f6 80 3f 17 9f 7d 3f 5f 77 7f 3f
       1.0160738 1.0075165 0.99070877 0.9979152
000090 a6 69 80 3f 41 2f 7f 3f 9f 66 80 3f 92 a1 7f 3f
       1.0032241 0.9968148 1.0031317 0.9985591
0000a0 c7 3a 7f 3f fa e2 7e 3f 84 34 81 3f 54 38 7f 3f
       0.9969906 0.9956509 1.0094151 0.99695325
0000b0 61 95 80 3f e0 19 80 3f 09 9c 7f 3f f2 a6 7e 3f
       1.0045587 1.0007896 0.99847466 0.9947349
0000c0 fe d3 7f 3f 0d 17 80 3f e3 9f 80 3f 73 50 7f 3f
       0.9993285 1.0007035 1.0048794 0.9973213
0000d0 67 60 7f 3f e0 b7 7f 3f 89 d1 7e 3f 76 b9 7e 3f
       0.99756473 0.99889946 0.99538475 0.9950174
0000e0 91 1d 7f 3f 9e fb 7e 3f fe f0 80 3f 98 58 80 3f
       0.9965449 0.9960269 1.0073545 1.0027037
0000f0 44 bd 7e 3f e9 4a 7f 3f e1 5c 7f 3f 1d 91 80 3f
       0.99507546 0.9972368 0.99751097 1.0044285

block1.1.bias f4 [64]
000000 a1 77 86 bb 91 ca a5 bb 3e ac 4a b9 d0 9d ab ba
       -0.0041036163 -0.005059548 -0.00019328386 -0.0013093296
000010 4d 2b ad bb 54 11 87 ba 5b e8 e5 bb 34 da 21 3c
       -0.005284703 -0.0010304847 -0.0070162243 0.009878684
000020 75 80 ad bb 46 b3 42 bc 00 bd 83 3b 42 50 fd ba
       -0.0052948543 -0.011883562 0.0040203333 -0.0019326287
000030 ff c7 79 bb 94 b6 77 ba 39 d3 59 3b 6a 99 07 bb
       -0.0038113592 -0.00094495085 0.003323747 -0.0020690807
000040 4f e3 d0 3b 9d 2e 93 3b 0d 3a dc 3a d5 a5 a2 ba
       0.0063747535 0.0044916407 0.0016801968 -0.0012409041
000050 2e 7a 0f bc 0c 37 73 bb 8f 70 25 bb fa 0f dc ba
       -0.008757157 -0.0037111668 -0.0025244092 -0.0016789429
000060 37 6f 02 bb 19 21 c4 bb 44 64 14 bb a5 be ce bb
       -0.0019902715 -0.005985391 -0.002264277 -0.0063093477
000070 35 44 1d bc 07 ac 71 bb c7 ae bf bb 28 87 4a 3b
       -0.009598781 -0.0036876218 -0.0058496925 0.0030903313
000080 fc 15 b2 3c c8 73 dc 3b 3e ee 5d 3b d6 1c 43 bb
       0.021738999 0.0067276694 0.0033863927 -0.0029771826
000090 36 0a 2c bc bc 31 b9 ba 2a 90 66 bc 5c b8 d0 ba
       -0.010500481 -0.0014129202 -0.014072457 -0.0015924084
0000a0 c3 04 56 bb 6e 3b 8f 3a 4f cc 4c 3c 84 a0 b6 bb
       -0.0032656647 0.0010927746 0.012499883 -0.005573334
0000b0 6f fb 8a 3b e2 5c d0 ba bb 27 ae ba 81 02 e0 bb
       0.004241399 -0.0015896822 -0.0013286987 -0.006836236
0000c0 84 39 e7 3a 4b 4a b7 3b 66 6d e6 ba 92 27 16 bc
       0.0017641042 0.005593573 -0.0017580211 -0.009164708
0000d0 5f 53 67 b9 dc b2 e2 3a cb 95 f5 bb 04 54 77 bb
       -0.00022060935 0.0017295736 -0.0074946634 -0.0037739286
0000e0 35 98 35 3a 76 d0 07 bc d5 d0 73 3b 88 84 92 3b
       0.00069272827 -0.008289447 0.003720333 0.0044713654
0000f0 5d 60 75 3b 01 5c 91 bb 44 75 74 bb 19 c9 18 3c
       0.003744147 -0.0044360165 -0.003730134 0.009325289

block1.1.running_mean f4 [64]
000000 e5 61 7a 3d 3e 76 8c be b9 50 8f 3e 49 26 03 3f
       0.061128516 -0.27433962 0.27991274 0.51230294
000010 71 f0 f5 be 7f c2 89 3e be a4 46 be 2d cf 38 be
       -0.48035005 0.269062 -0.19398782 -0.18047781
000020 1e ca 82 3e 56 c3 13 bf 6f 35 90 bd 3b 64 99 3d
       0.25544828 -0.57719934 -0.07041442 0.074898206
000030 5d a4 f5 be 3d cf 26 bf cb ad fb 3e 80 15 bb 3e
       -0.47976962 -0.6515997 0.4915603 0.3653984
000040 4c ae 1f 3d b2 45 92 3e da 04 e6 3d 45 af 2e be
       0.03898458 0.28568798 0.11231394 -0.17059048
000050 70 21 0a be 69 e9 9e 3e 42 61 8a be dc e7 1e 3f
       -0.13489318 0.31037453 -0.27027327 0.6207254
000060 90 31 0c 3e 57 2c ac 3e 75 3f da 3e a4 8b 84 3e
       0.13690782 0.3362758 0.4262654 0.25887787
000070 f8 5f bd bd 1e 88 ec bd 14 4a 88 3e 13 0a de bc
       -0.0924682 -0.115494 0.26619017 -0.027104413
000080 3e e5 65 be 08 a7 8d 3e 54 a2 a6 3e 6d 63 4a 3d
       -0.2245073 0.27666497 0.32545722 0.049411226
000090 19 4f bf bc b6 50 11 3f 34 69 16 be e3 41 ee 3d
       -0.023353146 0.5676378 -0.1468857 0.11633661
0000a0 cc 4b 31 bd 67 64 7f 3e ac be 9c 3e 4f d8 91 be
       -0.043285176 0.24940644 0.3061422 -0.28485343
0000b0 11 06 d8 3b f7 ba b6 be e9 85 ff be 47 f2 09 bf
       0.00659252 -0.35689518 -0.49906853 -0.5388531
0000c0 80 e9 66 3e 76 3c 07 3e 2c 41 27 3d b1 93 ae bd
       0.2255001 0.13206658 0.040833637 -0.08524264
0000d0 da b0 39 3e e3 5e 6c be 6e 2f 86 bc 4e 3e ae 3e
       0.1813387 -0.23083071 -0.016380038 0.3403191
0000e0 2e 70 1e be 08 4f 0c bf b2 28 0f be 61 ee 8b bd
       -0.1547248 -0.5480809 -0.13980368 -0.068325765
0000f0 e2 05 e5 3e 79 14 cf 3e b6 d0 0f 3f 4c 6e b6 3d
       0.4473105 0.40445307 0.5617784 0.08907756

block1.1.running_var f4 [64]
000000 63 05 83 3c de 4b d3 3a be 99 1e 3c de c9 6f 3d
       0.01599378 0.0016120633 0.00968021 0.058542125
000010 93 aa 9b 3c c7 c2 0f 3d 74 72 e5 3c 48 18 5a 3a
       0.019002235 0.035097864 0.028008677 0.0008319658
000020 be a4 75 3c 89 62 ce 3d c7 a4 51 3b d9 32 81 3c
       0.014992891 0.10077388 0.0031989084 0.015771316
000030 d8 61 dc 3c ac 7a 5f 3d 95 2e e8 3c ad 1f ea 3c
       0.026902124 0.05456035 0.028342525 0.028579557
000040 07 af 9b 39 18 96 f4 3a 9f bb fd 3c a1 b9 28 3b
       0.0002969431 0.0018660454 0.030973254 0.002574541
000050 15 bd 0c 3c e5 bd 37 3c a1 2b 71 3d f5 82 57 3d
       0.008590003 0.011214708 0.0588795 0.052615125
000060 15 08 1b 3c f5 f8 94 3b fb 13 cf 3d 47 1e 0b 3c
       0.009462376 0.0045462796 0.10111233 0.008491105
000070 8e 3c 89 3c 92 5f 95 3d b1 f9 0f 3d 2c b4 64 3c
       0.016752508 0.07293619 0.035150234 0.013958972
000080 49 89 9c 3a d8 78 4f 3a f1 0a e4 3d f3 1b fe 3b
       0.001194277 0.00079144305 0.111348994 0.0077547967
000090 03 01 50 3b 86 4c 5d 3d fa 20 ff 3a e3 b2 79 3c
       0.0031738884 0.054028057 0.0019464784 0.015240404
0000a0 1b 07 b4 3c 80 92 74 3d ee 7e 3a 3b 27 9a 08 3c
       0.021976044 0.059710026 0.0028457004 0.008337534
0000b0 06 7b a1 3a 94 ea 8b 3b 44 b3 ac 3c 27 15 ce 3c
       0.0012319989 0.0042699073 0.021081574 0.02515657
0000c0 86 ba 66 3b c9 fa 85 3a 44 eb 17 3b 93 94 f0 3b
       0.0035206391 0.0010221835 0.0023181 0.00734193
0000d0 d4 77 0d 3c 31 ab c2 3c 8c ac 54 3c b4 28 04 3d
       0.008634526 0.023763271 0.0129805915 0.03226538
0000e0 ca 7d c3 3b dd f5 3b 3d e6 45 c2 3b 0a 00 7c 3b
       0.005965923 0.04588877 0.0059287427 0.0038452172
0000f0 98 a0 04 3c 24 90 d4 3d 91 4e 85 3d 91 1d b1 3a
       0.008094929 0.10379055 0.06509126 0.001351284

block2.0.weight f4 [64, 64, 3, 3]
000000 25 5c d6 3c 10 67 22 bd 7f 2e f1 3c fe 43 a0 3c
       0.026166985 -0.03964907 0.029441116 0.019563671
000010 4e 04 7d 3c 98 3d cc 3c b0 f8 22 bc d0 d9 87 bc
       0.015442921 0.024931714 -0.009946987 -0.016583353
000020 2e d8 89 ba 64 23 a2 bc 29 96 39 bd 91 7d d7 3c
       -0.0010516697 -0.019792266 -0.04530922 0.026304992
000030 e8 45 27 3a 14 28 9c bc f1 21 c4 bc d6 35 05 bd
       0.0006380961 -0.01906208 -0.023941966 -0.032522045
000040 44 3c ab 3b af ce 78 bb 73 08 1b bd 48 da 74 3b
       0.00522569 -0.003796499 -0.037849855 0.003736155
000050 a2 5b be bc c6 9e d0 bc 9e 8c 03 3c b6 10 20 3a
       -0.023237053 -0.025466334 0.008029131 0.0006106006
000060 46 17 f4 bc ff 36 cc bb 93 e6 96 bc bd 6f 07 3d
       -0.029796254 -0.006232142 -0.018420493 0.033065546
000070 26 77 15 bd f7 50 a0 bc e6 b7 aa bc 22 14 c0 3c
       -0.036490582 -0.019569857 -0.020839643 0.0234471
000080 c0 2b d6 bb a0 1d 2e 3b 3b 20 01 bd c8 dd 05 3d
       -0.006535977 0.002656795 -0.031524878 0.03268221
000090 5c e0 12 bd 21 b7 b6 bc 96 3d 17 bd 47 a5 ce bc
       -0.035858497 -0.02230412 -0.036923967 -0.025225295
0000a0 fd 92 78 3c 0a 09 02 3c ae ca 6d bc c2 ce 4f 3c
       0.0151717635 0.007936725 -0.014513655 0.012683572
0000b0 9a a9 04 3c 3f 6f 28 3b 5c cf cf 3b 74 93 21 bd
       0.008097077 0.0025701073 0.006341858 -0.039447263
0000c0 ee 57 db 3c 41 15 0e 3d 54 02 10 3d 08 94 05 3d
       0.026775327 0.034688238 0.03515847 0.032611877
0000d0 7e ad d5 bc 00 11 69 bb 58 be 4f 3c 06 b8 1f bd
       -0.026083704 -0.0035563111 0.012679659 -0.038993858
0000e0 97 32 4b 3c 95 e1 99 bb 23 4f 49 bc 60 54 0d bc
       0.012402198 -0.004696081 -0.012286934 -0.008626074
0000f0 c3 8f 1e bd 31 04 0d 3d 2a 04 19 bd 29 f9 22 3d
       -0.03871132 0.034427825 -0.037357487 0.0397884
000100 89 5b 00 bd df 35 15 3d 81 9c 44 3c d7 d0 c4 3b
       -0.031337295 0.03642833 0.012000204 0.006006341
000110 f7 6d e3 3b 3b 66 c0 3b c6 21 03 3b d1 01 64 bb
       0.006940599 0.005871562 0.0020009144 -0.0034791122
000120 0f 0d 5e bc 61 7f 86 bc 99 51 0e 3d 34 59 1a 3d
       -0.013552918 -0.01641816 0.034745786 0.037682727
000130 a4 ff f6 3c 9c f0 db bb e2 10 ca 3c 40 b9 2a 3c
       0.030151196 -0.0067120325 0.024666253 0.010420144
000140 5d d5 26 3d 5f 61 29 bd c7 e1 c9 bc c6 e3 55 3c
       0.040730823 -0.041352626 -0.024643792 0.013054794
000150 e0 a8 a9 bc ee 43 1c bd ab a9 b6 3c 74 ac ba bc
       -0.020710409 -0.03815072 0.0222977 -0.02278731
000160 bf 55 da bb 01 bc 25 bb b0 56 3e bd 04 da 33 bc
       -0.0066630538 -0.002528906 -0.04646939 -0.010977272
000170 53 5d 1d 3d 51 7c 6b 3b 8c c3 1b 3d 48 26 28 3d
       0.03841908 0.0035932253 0.038028285 0.041052133
000180 67 b8 39 3c ff d8 b7 3c 76 b8 ed 3c 69 2e 4b 3c
       0.011335469 0.022442339 0.029018622 0.012401202
000190 8c 5a 1d bc 90 bd d1 ba 6a c3 47 bb a9 8f 73 bc
       -0.009604108 -0.0016001929 -0.0030481466 -0.014865794
0001a0 96 4e 5a 3b 97 f6 25 3d dd a7 a4 bc 39 35 ac 3c
       0.0033311 0.04051837 -0.020099575 0.021021472
0001b0 21 ea 41 bc 81 35 1f 3d 18 b3 0b bd 8d 4e ad 3c
       -0.011835606 0.038869385 -0.034106344 0.02115562
0001c0 93 8a fc 3c 7d 8b d1 bc fa 02 99 bc ed 64 a7 3c
       0.030827796 -0.025579209 -0.018678177 0.020433867
0001d0 70 ba fb 3b b0 bc 9c bc 0c 8d 11 bd 42 04 ad 3a
       0.007682137 -0.019132942 -0.035534903 0.0013200121
0001e0 94 a9 0e ba 23 54 e2 3a 16 40 a8 ba 64 bf c2 3c
       -0.0005442139 0.0017267506 -0.0012836482 0.023772903
0001f0 ad 83 c1 b9 7e f8 c8 bc bd a4 8f 3c 93 0b 15 3d
       -0.00036909935 -0.024532553 0.017534608 0.03638799
000200 d2 90 e8 bc 85 58 83 3b 9d 0f b4 3c e9 2f d7 bc
       -0.028389368 0.004008355 0.021980101 -0.026267963
000210 64 9d 5f bb f6 a1 a3 3c fe 3f 11 3c 7a 91 2d bd
       -0.0034120912 0.01997469 0.008865355 -0.042375065
000220 0b 5a 38 bb 47 fa 10 bc 7c 5b 9f bb 26 d8 b3 3b
       -0.0028129842 -0.008848733 -0.0048632007 0.0054884134
000230 a0 8d 0f 3d 59 e2 23 bd 05 99 e0 3c 27 0a 67 bc
       0.035047174 -0.040010784 0.027416715 -0.014101542
000240 71 0c 5f 3c 7d 13 9b bb 71 db 8e 3c ab 4c ab bc
       0.013613806 -0.004732548 0.017438622 -0.020910582
000250 85 7d 0d bd 76 6d b7 3a b7 b4 26 3d c2 1b f3 3b
       -0.034543533 0.0013994414 0.040699687 0.0074190805
000260 43 0b 30 3c f5 93 d8 3c 32 2a 15 bd 31 2f 8d 3a
       0.0107448725 0.026437739 -0.036417194 0.001077151
000270 6f 4c ca bc a5 7f 00 3d 27 fa bb 3b 3c 9b a5 bc
       -0.02469465 0.03137173 0.0057366076 -0.020215623
000280 61 97 1f 3d 76 1f d7 bc 24 b4 fd bc 08 0a 0e 3d
       0.038962726 -0.026260119 -0.030969687 0.034677535
000290 23 8d d5 bc 67 27 49 3c 39 b5 c2 3b c9 83 0f 3d
       -0.026068276 0.012277461 0.0059420136 0.03503779
0002a0 66 a7 d9 bc 7e df cf 3c 9f d0 9b 3c 89 e3 a5 3c
       -0.02656908 0.025375124 0.019020377 0.020250099
0002b0 e2 f8 91 bc df 5b dd bc 2b fc 38 bc f4 3b 40 bc
       -0.017818872 -0.027021347 -0.01129059 -0.011733044
0002c0 55 5c e8 bc d6 fe 6c bc bb d1 cd bc 87 82 0f bd
       -0.02836434 -0.0144650545 -0.025124421 -0.03503659
0002d0 f0 aa aa 39 9a 54 e5 bc cc 08 26 3c 88 1d a4 bb
       0.00032552285 -0.027994443 0.010133933 -0.005008403
0002e0 7e 19 d1 bc a4 ac 81 3c 2b 7b e1 bc aa 7e 63 3c
       -0.025524851 0.015829392 -0.027524551 0.01388518
0002f0 5a c8 ea bc 4d 5b 24 bd a5 ee de bc f5 9c 1c 3d
       -0.028659988 -0.040126134 -0.027213404 0.038235623
000300 08 e1 b0 3c 06 f4 c4 bb db 69 90 ba 02 2e b8 3c
       0.021591678 -0.006010535 -0.0011017876 0.022482876
000310 77 48 b3 3c 42 30 7e bc 7a f1 7f 3c 50 8b e5 3b
       0.02188514 -0.015514435 0.015621537 0.0070051327
000320 6f a9 c2 3c 72 7d 2c bd be e0 2a bd 23 4b 9d 3c
       0.023762433 -0.04211182 -0.041718237 0.019200867
000330 4d 29 0c 3d 5f 13 2d bd 66 71 bb bb 6e 54 a7 3c
       0.034219075 -0.0422548 -0.0057203053 0.020426001
000340 64 93 03 3d 75 f9 e1 bc ab a0 83 bc 64 7d 4d 3c
       0.032122985 -0.02758477 -0.016067823 0.0125421025
000350 c8 dc 8b 3c 45 64 07 3d 82 05 69 3c 94 24 e5 bb
       0.01707305 0.03305461 0.014222505 -0.006992886
000360 03 01 d6 bc df 1b 3e 3c 0b a4 63 bc a5 71 08 bd
       -0.02612353 0.011603325 -0.013894091 -0.033311505
000370 c6 e2 1e 3d d2 7f a6 3b e0 56 5b bb a5 ac ef 3c
       0.038790487 0.0050811553 -0.003346853 0.029257128
000380 18 fa 7d 3c a0 b7 76 3c 24 14 8a 3c 79 6e d3 3a
       0.0155015215 0.015058428 0.016855307 0.0016130946
000390 7f 97 9f 3c 6d 69 24 bd 2c 78 78 bc f9 36 f0 bc
       0.019481419 -0.040139604 -0.01516537 -0.029323088
0003a0 74 16 0d bd b2 e0 17 bd 25 63 c1 bc 04 d3 c3 bc
       -0.03444524 -0.03707952 -0.023606846 -0.023904331
0003b0 b7 5b 91 3c 06 66 ae 3c 9e 9a e8 3c c8 14 13 bd
       0.017743928 0.021288883 0.02839404 -0.03590849
0003c0 bf 95 22 3d c6 df 83 bc 37 f2 9e bc bd 67 0e bd
       0.03969359 -0.016097914 -0.019402606 -0.0347669
0003d0 80 b8 ac bc 2e 0f 29 3d c1 08 af b9 00 db 20 3d
       -0.02108407 0.041274242 -0.00033385123 0.039271355
0003e0 4c 3d e1 3c a2 9d 38 3d 23 86 42 3c af 8e 61 3b
       0.027495049 0.045072205 0.011872801 0.0034417321
0003f0 ac 6c a0 bc ac 0a a4 bb 84 b2 6e bc 9a 73 df bc
       -0.019583069 -0.005006155 -0.014568929 -0.027276803

block2.0.bias f4 [64]
000000 36 ff c6 3c fd 6f 8e bc 7f 2a cc 3b b6 6a c6 bc
       0.024291616 -0.017387385 0.006230652 -0.024220806
000010 87 eb d0 bc 8b 18 8e 3c 9a 27 e7 bc 24 a8 4c 3c
       -0.025502933 0.017345687 -0.028217126 0.01249126
000020 ca 6a ce 3c 93 0d 42 bc fa e8 ef 3c 28 16 82 bb
       0.025197405 -0.011844057 0.029285897 -0.0039699264
000030 51 31 76 3c 20 8d 77 3c 67 73 13 bb e9 18 c7 3c
       0.015026406 0.01510933 -0.0022499205 0.02430387
000040 df b6 11 bd 92 d8 0c bd 39 34 91 3c b9 ed 01 bc
       -0.03557479 -0.034386225 0.017725097 -0.007930213
000050 a8 6a f9 3a d3 f8 d7 3c 58 56 17 3d d7 e6 f3 3c
       0.0019028978 0.026363766 0.03694758 0.029773159
000060 2b e2 aa bc 1e cf 3f bc 7c 41 99 3c 44 28 85 bc
       -0.020859798 -0.011707095 0.018707983 -0.016254552
000070 83 79 90 bc 9f 36 04 bc d8 a1 f6 3c e9 49 26 bc
       -0.017636066 -0.008069663 0.03010647 -0.0101494575
000080 10 17 db bc af 48 84 3c 79 40 c9 3c 6d b7 de bb
       -0.026744395 0.01614794 0.024566876 -0.0067967684
000090 99 e0 e7 3c f9 93 f9 bc be 51 5c bc 0b 70 19 bd
       0.028305339 -0.030466067 -0.013447223 -0.037460368
0000a0 6e 2d 81 ba e3 f6 d6 bc 01 6b c6 3c 78 b1 f5 3c
       -0.0009855458 -0.026240772 0.024220945 0.02999185
0000b0 84 2e ff 3c f5 10 21 3d 13 06 04 3d 84 89 05 bd
       0.03115011 0.039322812 0.032232355 -0.03260185
0000c0 7a 3a 1e bc 41 e6 a0 bc d7 ca 02 3d e7 71 35 bb
       -0.009657497 -0.019641044 0.031931724 -0.00276863
0000d0 17 fe 98 bc d3 6a 97 3c d5 a7 e4 bc 3a ba 1d bd
       -0.018675847 0.018483555 -0.02791206 -0.038507678
0000e0 55 d6 1d 3d 54 07 dc 3c e5 5e 0c bd 00 a9 80 3c
       0.03853448 0.026858963 -0.034270186 0.015705585
0000f0 03 42 51 3b 6c 05 f1 3b 8e 88 d0 3c d8 df 15 3d
       0.0031930215 0.0073553827 0.02545574 0.036590427

block2.1.weight f4 [64]
000000 26 46 80 3f b8 a7 7f 3f 96 7f 80 3f ba 23 80 3f
       1.0021408 0.99865294 1.0038936 1.0010903
000010 95 2f 7f 3f fa c2 80 3f 86 83 7e 3f 78 8f 7e 3f
       0.9968198 1.0059502 0.9941944 0.99437666
000020 26 47 7e 3f 02 3e 80 3f 32 2b 80 3f 16 45 7f 3f
       0.99327314 1.0018923 1.0013182 0.9971479
000030 ec 51 80 3f bc d5 7f 3f 78 57 7d 3f 20 b2 7f 3f
       1.0025 0.9993551 0.9896159 0.9988117
000040 df 78 7f 3f eb 3d 7f 3f 98 c7 7f 3f 03 1b 7f 3f
       0.9979381 0.99703854 0.9991393 0.9965059
000050 d0 82 7f 3f d0 1e 80 3f b1 4d 80 3f 40 1f 80 3f
       0.9980898 1.0009403 1.002371 1.0009537
000060 c8 e1 7d 3f 24 87 7f 3f a0 29 81 3f fb ad 80 3f
       0.9917264 0.99815583 1.0090828 1.0053095
000070 95 56 7e 3f a1 88 7e 3f 5f 2d 7f 3f 11 a5 80 3f
       0.99350864 0.9942723 0.99678606 1.0050374
000080 62 41 7e 3f 10 4c 7f 3f e1 64 80 3f de 7b 7f 3f
       0.99318516 0.9972544 1.0030786 0.9979838
000090 74 b2 7f 3f 9f a7 80 3f 18 c1 80 3f b7 42 80 3f
       0.9988167 1.0051154 1.0058928 1.002036
0000a0 7a 33 7f 3f 4d 05 7f 3f 6d 13 7f 3f b2 2a 7e 3f
       0.9968792 0.99617463 0.99639016 0.992839
0000b0 af 63 80 3f ec 9d 7e 3f 73 17 7f 3f d4 21 7f 3f
       1.0030421 0.9945972 0.99645156 0.9966099
0000c0 21 4a 81 3f 5f bb 7d 3f e3 03 81 3f a2 a8 7f 3f
       1.0100747 0.9911403 1.0079311 0.9986669
0000d0 5d c3 7f 3f 2a c2 80 3f f1 5b 80 3f c0 f7 80 3f
       0.99907476 1.0059254 1.0028058 1.0075607
0000e0 de f3 7e 3f 05 c9 7e 3f 98 79 81 3f 18 1d 7e 3f
       0.9959086 0.9952548 1.0115232 0.99263144
0000f0 bb 2c 80 3f b8 c6 7f 3f 38 e7 7e 3f 88 aa 80 3f
       1.0013651 0.99912596 0.9957156 1.0052042

block2.1.bias f4 [64]
000000 14 9e 28 bb 42 99 01 bc 62 f8 cd bb ef 86 6a bc
       -0.0025728988 -0.007910075 -0.006285713 -0.014314397
000010 9e 33 21 bc 19 35 04 bc 57 33 c4 bb 26 65 97 bb
       -0.009838967 -0.0080693 -0.0059875655 -0.004620212
000020 8d 8d 37 bc ca 29 2b bc da 3f 2e bc fe 0a e7 bb
       -0.011203182 -0.010446975 -0.010635341 -0.007050871
000030 32 da 9b ba f7 af 4b bc 2e 70 27 bc d1 50 92 bb
       -0.0011890589 -0.01243209 -0.010219617 -0.0044652005
000040 68 7f a0 bb 09 6f 17 bc ed b1 02 bc 4a 3a be bb
       -0.0048980005 -0.009242781 -0.007976991 -0.0058052884
000050 ef 0f 58 bb 7b 54 67 bb cb e0 ff bb 0c 22 b8 bb
       -0.0032968482 -0.0035298157 -0.00780878 -0.005619293
000060 a2 49 48 bc 31 51 60 bb 0f 68 cc bb a8 93 49 bc
       -0.012224587 -0.0034228081 -0.0062379907 -0.01230327
000070 e1 2c ee bb b7 65 29 bc a3 67 10 bc fd 29 bf bb
       -0.0072685336 -0.010339192 -0.008813771 -0.005833863
000080 9e fc 28 bc 7f 37 a5 bb 1a 4c 21 bc 52 34 1e bc
       -0.010314135 -0.005042016 -0.009844804 -0.009656029
000090 44 2f 88 3b 6d d4 82 ba a1 66 07 bb 84 83 44 bc
       0.004156025 -0.0009981521 -0.0020660537 -0.011994246
0000a0 2f bb a2 bb 4e 29 d9 bb 46 8c f6 bb dd 83 5b bc
       -0.0049661617 -0.0066272384 -0.007524046 -0.013398138
0000b0 fe af 5d bb 8a 3c f8 bb f2 ab d1 bb c8 60 95 bb
       -0.0033826823 -0.007575576 -0.0063986713 -0.0045586564
0000c0 eb 21 15 3b 2c ff dc bb a8 4d 0a bc c4 7b f2 bb
       0.0022755812 -0.006744286 -0.008441366 -0.007400008
0000d0 9d 56 94 bb 99 b7 85 b9 37 ec 10 b9 f7 38 da 3a
       -0.0045269267 -0.00025504528 -0.00013820907 0.0016649057
0000e0 a5 51 9f bb 69 64 d4 bb 81 2a 6d bb 92 7f 16 bc
       -0.0048620277 -0.0064816964 -0.0036188664 -0.009185689
0000f0 fe 76 82 bc eb 35 cd bb 11 9f 21 bc b8 df 42 bc
       -0.01592588 -0.006262531 -0.009864585 -0.011894159

block2.1.running_mean f4 [64]
000000 ad 16 7e be a0 00 e2 be 38 6c b5 be e2 8e 25 bd
       -0.24813338 -0.44141102 -0.35434127 -0.040419467
000010 dd 67 cc 3d 96 fa 06 bf 55 c1 ef be db 66 db 3e
       0.09980748 -0.52726114 -0.46827188 0.4285191
000020 44 2d 0b 3f 5d b4 28 be bc 68 0a be f7 f2 7f bc
       0.54365945 -0.16475053 -0.13516515 -0.015621892
000030 1b 1c 5a be 71 09 85 be 69 96 20 3f 16 05 32 3c
       -0.21299784 -0.25983766 0.6272951 0.01086547
000040 3e 07 0e bf 83 1f b4 3e db 6f 26 bf c0 24 59 be
       -0.554798 0.35180292 -0.6501443 -0.21205425
000050 13 fd 8e bf 15 4b 4b bd ff c7 fd be 04 e1 d5 3d
       -1.1170982 -0.04963215 -0.49566647 0.10443309
000060 ce 6f 5a bd 41 de 1d bf f1 1d ca 3d 66 99 ce be
       -0.05332928 -0.6166726 0.09868992 -0.4035141
000070 8e e0 e2 bd 59 d9 d8 3e 3a 43 d2 bd 8d b9 86 be
       -0.11077987 0.42353323 -0.10266729 -0.2631344
000080 c2 22 bb 3e b1 b7 37 3f 05 3b b4 be c2 be 03 3f
       0.36549956 0.71764666 -0.35201278 0.5146295
000090 f5 4e 26 3d 23 98 88 be 99 41 78 bc ff e0 c9 bd
       0.040602643 -0.2667857 -0.015152358 -0.09857368
0000a0 fd 49 db 3e 30 0e e9 3e bf 0f 11 bf 30 86 b7 be
       0.42829886 0.45518637 -0.5666465 -0.35844564
0000b0 e6 94 61 3e 75 a3 d9 be a7 e7 11 bf 12 c0 a2 be
       0.22029456 -0.4250752 -0.569941 -0.31787163
0000c0 17 44 07 be c2 d4 4f 3e 98 1a 47 3e 7b 6d 41 bd
       -0.13209568 0.20296004 0.19443738 -0.04722355
0000d0 8b 7a c2 be af ba 1f 3e 06 d0 68 be 6a 37 8f 3c
       -0.37984118 0.15598558 -0.22735605 0.017482478
0000e0 0a ae 09 bf a9 45 e2 be af 74 76 bd dd 01 01 be
       -0.5378119 -0.4419377 -0.060169872 -0.12598367
0000f0 51 cb 37 3f 0b d3 87 3e 73 3f cb 3e e9 f2 59 be
       0.7179461 0.265282 0.39696845 -0.21284069

block2.1.running_var f4 [64]
000000 d7 a3 eb 3d 05 0c 74 3e fd 89 98 3e d2 7d 82 3d
       0.11505859 0.2383271 0.29792777 0.063716546
000010 cf d3 74 3e 0e 4d 09 3e 32 d8 83 3f 1c e6 a1 3e
       0.23908924 0.134083 1.0300353 0.31620872
000020 da 45 09 3e c1 c2 ed 3e f2 4d fc 3d 2e 78 a5 3e
       0.13405553 0.46437648 0.123195544 0.32318252
000030 c1 89 56 3e 79 c6 b8 3d 68 95 88 3e 93 ec 70 3e
       0.20950986 0.09022231 0.26676488 0.23527746
000040 25 62 fc 3e b5 4d 29 3e dd af 42 3e 0a 42 69 3e
       0.49293628 0.16533549 0.19012399 0.22779098
000050 c3 b6 72 3f e5 ea 90 3e 6f 93 0a 3e 76 c5 12 3e
       0.9481012 0.2830421 0.13532804 0.14333138
000060 07 15 08 3f 68 25 41 3e 5b 10 3d 3d b4 bc 0c 3e
       0.53157085 0.18861926 0.046158176 0.1374386
000070 34 f2 89 3e 9b 9c 54 3e 60 ba 7e 3e f6 68 fd 3d
       0.269426 0.20762865 0.24875784 0.12373535
000080 9d a0 36 3f b5 7f 55 3e d9 f3 d7 3d fb ad 2b 3e
       0.71338826 0.20849498 0.10544557 0.16765587
000090 fa 2e d5 3d 1d ef 05 3e d1 cc 17 3d f5 31 c6 3d
       0.10409351 0.13079496 0.037060563 0.09677497
0000a0 26 6f 5e 3e 09 51 02 3f d7 58 21 3f 6b 18 38 3f
       0.21722087 0.509049 0.63026184 0.7191226
0000b0 44 0a d7 3d 69 65 d7 3e 0f 9f ce 3e 20 6b ab 3e
       0.10500005 0.42069557 0.40355727 0.33480167
0000c0 9f ee b6 3d 40 35 de 3d f2 96 75 3d b0 f9 23 3e
       0.08932232 0.108500004 0.059958406 0.16013217
0000d0 b3 a5 a0 3e e3 6c aa 3d e0 e1 e1 3d 8b c1 bf 3d
       0.31376418 0.0832155 0.1102941 0.09363087
0000e0 0d f1 8a 3e b5 46 0a 3e d1 30 7e 3d 43 69 1a 3f
       0.27137032 0.13503535 0.062058274 0.60316867
0000f0 35 8e c2 3e e3 5b 3a 3f 48 82 cc 3e 1b c1 b5 3d
       0.3799912 0.7279646 0.39943147 0.088747226

block3.0.weight f4 [64, 64, 3, 3]
000000 ba c0 f5 bc fb 47 e4 bc 67 86 92 bc c5 88 9f 3c
       -0.029999126 -0.027866354 -0.017886354 0.019474396
000010 ed d7 06 3d 40 3f 14 3d 06 a9 9c bc da 61 43 3d
       0.032920767 0.036193132 -0.019123565 0.04770074
000020 8b e8 09 bd 30 50 89 bc e6 5e a5 bc bf 63 9c 39
       -0.033669036 -0.01676187 -0.020186853 0.00029828955
000030 df 66 fd bb cd 8e 71 bc 4b 17 b1 3c 4d 3d 09 bd
       -0.0077332105 -0.014743519 0.021617552 -0.033505727
000040 38 00 01 3c 99 ed fd bb c5 6d 8e 3c 6e 86 8c 3b
       0.007873587 -0.007749271 0.017386327 0.004288486
000050 ea 9c 96 bb cf 63 b5 b8 2d 9c 2b bd bf cb 49 ba
       -0.0045963423 -8.649343e-05 -0.041896988 -0.0007697902
000060 50 4f d4 3c 9f 3e 02 bd 76 4d cd ba 34 52 cc bc
       0.025916725 -0.031798 -0.0015663344 -0.024941541
000070 1a e0 52 ba 1b be 36 bc 37 78 14 3d 61 f6 bf bc
       -0.0008044258 -0.011153723 0.03624746 -0.023432912
000080 a7 48 ed bc 43 a4 bd 3c 26 3f 26 3d 31 6d d2 3c
       -0.028965307 0.023149615 0.040587567 0.025686832
000090 65 ed e4 bc e7 a7 1a bd 6e f4 77 bc a5 db e1 bc
       -0.02794523 -0.03775778 -0.01513396 -0.027570555
0000a0 d9 d7 c8 3c be 46 8d 3c f8 2a b5 3c 34 95 83 3c
       0.024516987 0.017245647 0.022115216 0.016062357
0000b0 6e 95 2b bd 53 bc eb bc bf a6 b0 bc 70 a0 4e bc
       -0.041890554 -0.028776323 -0.021563886 -0.0126114935
0000c0 27 f8 de ba e2 50 df bb 1a 98 98 3c c4 e9 8c 3c
       -0.0017011211 -0.006815062 0.018627215 0.017201312
0000d0 43 00 11 3d ca 29 8c 3c fb 75 f0 bc b7 9a e6 3c
       0.03540064 0.01710977 -0.029353132 0.028149946
0000e0 9d b5 18 bc e5 05 c3 3a 36 c0 d9 bc 1b bb fc bc
       -0.009320644 0.0014879076 -0.026580911 -0.030850938
0000f0 ad 09 1c 3d 22 48 57 3a 8f 00 cb bc 52 c7 d5 bc
       0.038095165 0.0008212348 -0.02478054 -0.02609602
000100 68 6b 63 bc ad c6 9c 3c 99 0e d3 3c 01 9b f6 bc
       -0.013880588 0.019137705 0.025763797 -0.030103208
000110 55 dc 65 3b 3d bc 08 3c b2 82 08 bd f8 05 c0 bc
       0.0035073955 0.008345661 -0.033327766 -0.023440346
000120 2c f5 9a bc 3f 0d 1a bb 44 9c b7 3c de 47 0f 3d
       -0.018915735 -0.002350643 0.02241338 0.034980647
000130 85 51 0a bd 9e 38 22 3d e9 78 40 bc 89 18 11 bc
       -0.03376915 0.039604776 -0.011747577 -0.008855947
000140 6d cf 1c 3d b1 48 5e bb 3e ec e6 3c a6 8e 74 bc
       0.038283754 -0.003391784 0.02818882 -0.014926588
000150 e3 b5 30 bd 7a c0 7d bc 91 68 88 3c 24 44 aa bc
       -0.04314221 -0.0154877845 0.016651424 -0.020784445
000160 9c fe 0a 3d 8d 67 71 bc 5a 2b 02 3d 4c 57 57 bc
       0.03393422 -0.014734161 0.031779625 -0.013143372
000170 9d 51 b6 3c 49 c4 57 3c 5a 0d 48 3c ff 5a cb bb
       0.022255713 0.013169357 0.0122102145 -0.006205916
000180 b6 ac 2f 3d c4 89 ce 3c c8 14 ca 3c 32 6c b7 bb
       0.04288932 0.025212176 0.024668112 -0.0055976147
000190 1d c5 08 bd 8c 47 7f bc 7f 7c a0 3a cb ba c7 bc
       -0.033391107 -0.015581023 0.0012244134 -0.024381062
0001a0 64 48 b5 3c 15 ec b3 3c 7c df bb 3c 51 11 8f bc
       0.022129245 0.021963159 0.022933714 -0.017464312
0001b0 32 e1 98 3c 92 4f 02 3d e2 f8 02 3d d9 3d a7 3c
       0.018662069 0.031814165 0.031975634 0.020415233
0001c0 7d cc 85 bb c4 46 96 bc fa a7 01 3d 80 17 9c 3c
       -0.004083215 -0.01834429 0.031654336 0.019054174
0001d0 57 31 b1 bc dc e2 39 3b 6c 51 d0 bc 32 db 85 bc
       -0.021629972 0.0028363978 -0.02542945 -0.016339872
0001e0 01 f4 15 3c 4f 0f e0 bc 31 61 0e bd 13 5d ff bb
       0.009152413 -0.02735105 -0.034760658 -0.0077930777
0001f0 b4 34 c7 3c 5c 27 dd bc 75 e5 56 bb 0c 1a de bc
       0.024317123 -0.026996307 -0.0032790576 -0.02711203
000200 fb 87 c8 3c 36 a7 c1 bc 98 5b ee 3c b9 f1 1e 3c
       0.024478903 -0.023639303 0.02909641 0.009701186
000210 58 a9 f5 3c c9 73 87 bc 8a 8d 05 3d af a9 4b 3c
       0.029987976 -0.016534703 0.032605685 0.012430592
000220 a6 89 bd 3b 6f c1 a4 3c 25 14 d1 ba 17 f2 cb 3c
       0.0057842312 0.020111768 -0.0015951438 0.02489571
000230 8b 00 32 3c 66 84 1e ba 8b b4 21 bd 1a 14 0e bc
       0.010864387 -0.00060469506 -0.03947882 -0.008671785
000240 a4 15 c1 bc 89 e0 36 3c 72 51 8e 3c 99 d4 0b 3d
       -0.02356989 0.011161932 0.01737282 0.034138296
000250 a0 76 2e ba 5c 70 8c 3b 30 6a bd 3c be 7b 2e bd
       -0.000665525 0.004285855 0.023121923 -0.04259848
000260 fb e4 ae bc c2 36 5a 3c 00 2a ac 3c ca 23 f7 3b
       -0.02134942 0.013318719 0.02101612 0.007542108
000270 92 5e 01 3d 86 56 95 3c fe c8 99 3c 15 fe 58 3b
       0.03158433 0.018229734 0.018772598 0.003311043
000280 15 82 2d 3d 66 3b e7 3c 81 98 7c 3c ea c5 f4 bc
       0.042360384 0.028226566 0.015417219 -0.029879529
000290 39 b1 db 3c b0 e7 71 bc 72 e7 d1 bc 6f fb 2b bd
       0.026817905 -0.014764711 -0.025623057 -0.041987833
0002a0 f9 c3 7b 3c 5e 8e 32 3c 8b 9f bc 3b 7a 85 e7 bc
       0.015366548 0.010898201 0.0057563237 -0.028261889
0002b0 b7 f9 89 3c 1f 63 24 3c c9 57 bb 3c 53 a4 d7 bc
       0.016842706 0.010033398 0.022869008 -0.026323473
0002c0 e7 79 b3 3c 57 a3 5f 3c 55 a7 84 3a 3c 26 39 3c
       0.021908714 0.013649783 0.001012067 0.01130062
0002d0 da b9 3a bd af d0 28 3c c2 39 7b bc 82 ed 18 bc
       -0.045587398 0.01030366 -0.015333595 -0.00933397
0002e0 72 2d 01 bb c9 c3 4e bc 32 53 0c bd ad de 22 bc
       -0.0019710925 -0.012619921 -0.03425903 -0.009940785
0002f0 e1 c0 ee 3c 97 01 28 bd 02 fc 86 3c 77 3b 9c bb
       0.029144706 -0.04101714 0.016477589 -0.004767831
000300 72 ed e1 bc 71 55 b6 bc 3e 7e db 3c 94 44 04 bd
       -0.027579043 -0.022257539 0.026793595 -0.032291964
000310 d6 26 05 bd 76 90 58 ba f3 cc d8 3c ba 96 ce 3c
       -0.03250774 -0.00082612725 0.026464915 0.025218356
000320 a0 3a b3 3c 6a d4 e1 3c 79 2b fd 3a 7a 9d cb 3b
       0.02187854 0.027567107 0.0019315324 0.006213841
000330 c7 19 59 bc 8b 23 33 bd f5 cf 2e bc 4c 7c 06 3d
       -0.013250775 -0.04373507 -0.010669698 0.032833382
000340 21 e2 53 3a 14 08 f1 3c f4 fb 19 bc 0e 63 91 bc
       0.0008082707 0.029422797 -0.009398449 -0.017747428
000350 69 c1 08 bd 3d 1d 30 3d ce f9 02 3c ca d7 55 bc
       -0.033387575 0.042996634 0.007994128 -0.013051936
000360 be 58 1f bc be 7b e6 3c 78 a5 08 3c df f7 fe 3c
       -0.009725748 0.028135177 0.008340232 0.031124054
000370 5a 7c a4 3c e9 bb 75 ba 68 e3 81 bc 78 fc 9f bb
       0.020078827 -0.0009374009 -0.015855506 -0.0048823915
000380 21 53 64 bc 28 86 b9 3c 37 fb 82 3c 77 71 9b bb
       -0.013935835 0.022646978 0.01598893 -0.0047437507
000390 16 22 67 3c 22 e3 57 3a 1f 3a af 3b ba ef 24 bc
       0.014107248 0.00082354445 0.0053475047 -0.010066921
0003a0 25 dd 2f 3d 06 87 9e 3b 67 1a 11 bd 02 c6 39 3d
       0.04293551 0.0048378734 -0.03542557 0.04535485
0003b0 31 b5 19 bd 87 5e 0f 3c 24 1e a4 bc 9c fa 8c 3c
       -0.037526313 0.008750564 -0.020033903 0.017209344
0003c0 d4 ff 04 3c 6c a2 c8 bc 00 ab cf 3c 70 4e 30 bd
       0.008117635 -0.024491511 0.025350094 -0.043043554
0003d0 58 8d c9 3c ef 27 37 3c f7 d0 a1 3a 1a df 9e ba
       0.02460353 0.0111789545 0.0012345602 -0.0012120933
0003e0 59 17 0f bd d9 ec 91 3c 63 05 13 bd 91 ef 69 bc
       -0.034934375 0.017813133 -0.03589381 -0.0142783085
0003f0 da b3 df bb 33 06 c3 bb 7c 96 ae 3b fa 0e ac bc
       -0.00682686 -0.0059516667 0.0053279977 -0.021003235

block3.0.bias f4 [64]
000000 36 b2 f5 3b 11 22 02 bb 4a c2 e6 bc 4e 1a b2 bc
       0.007498051 -0.001985673 -0.028168816 -0.021741059
000010 0a 8d 13 3d 42 f5 f8 3b 5f e0 18 bd b2 71 09 bd
       0.036023177 0.0075975964 -0.037323352 -0.033555694
000020 a4 a0 1b bd ec aa 19 bd 17 ef a2 bc 8d c8 b8 bb
       -0.037994996 -0.03751652 -0.019889398 -0.005639142
000030 2c 4f c8 3c 8b 22 0d bd 08 60 07 3d 9e c2 0b bd
       0.024451815 -0.03445677 0.033050567 -0.03412115
000040 6f 9a 8c 3c 1a 02 36 bc a1 29 ab bb 2d 8b 28 bd
       0.017163483 -0.0111088995 -0.0052234684 -0.041148353
000050 6c 6e 78 3c a4 54 bb bc e2 01 07 bd 29 9f 00 3d
       0.015163045 -0.022867508 -0.03296078 0.031401787
000060 27 d5 7e bb 4b 53 cd bc 24 df 96 3c b8 e4 38 bc
       -0.0038884373 -0.025064131 0.018416949 -0.011285
000070 a7 5e 24 3c f0 a4 ff bc 89 29 d9 3c 7b 6c 75 bb
       0.0100323325 -0.031206578 0.026509063 -0.0037448693
000080 2b 88 25 ba ac 87 25 bd 3b cd bd 3c e7 d8 cb bb
       -0.0006314541 -0.04041259 0.02316915 -0.006220925
000090 03 08 11 3d 7b 4b 71 3a b4 87 09 bd a9 99 b4 bc
       0.03540803 0.0009204668 -0.033576682 -0.022045927
0000a0 44 00 0a 3c d1 64 1a bd 9a c7 a2 bc 44 63 66 bc
       0.008422915 -0.037693802 -0.019870568 -0.014061753
0000b0 6b 09 af bc 9f de c2 bc a9 67 02 bd 7d 14 cf 3c
       -0.021366796 -0.023787795 -0.03183714 0.025278324
0000c0 7d 79 43 3b 54 2a a6 bc 5a 5f d4 3b 11 a7 14 bd
       0.0029827051 -0.020283855 0.0064810934 -0.03629214
0000d0 57 40 84 bc 83 4b cb bb 0e 99 ef bc c7 e6 30 bc
       -0.01614396 -0.00620407 -0.029247787 -0.010797209
0000e0 be 41 06 3d ad db 5b 3b 23 f7 e8 bc 1c 90 06 bd
       0.03277754 0.0033547685 -0.028438156 -0.032852277
0000f0 16 2b 2a 3c 2a 7b 17 bc 3d 1a af 3c 86 59 e1 3a
       0.010386249 -0.009245673 0.021374816 0.0017192818

block3.1.weight f4 [64]
000000 7a a3 80 3f 4d d2 7d 3f fc 9c 7e 3f 69 b3 7e 3f
       1.0049889 0.9914902 0.9945829 0.9949251
000010 2a 0d 7f 3f 8f 34 7f 3f 95 d9 7e 3f 27 f7 7f 3f
       0.9962946 0.99689573 0.99550754 0.999865
000020 b3 5a 80 3f ad 52 7f 3f cd 13 80 3f 4f 8a 7f 3f
       1.0027679 0.9973553 1.0006043 0.9982042
000030 24 85 7f 3f da 16 80 3f 72 85 7e 3f 42 d7 80 3f
       0.9981253 1.0006974 0.9942237 1.0065691
000040 e6 73 7f 3f d9 32 7e 3f 10 32 7f 3f e9 32 80 3f
       0.9978622 0.9929634 0.99685764 1.0015537
000050 4d d8 7d 3f 9e fb 7e 3f bb 69 80 3f ad f6 7f 3f
       0.99158174 0.9960269 1.0032266 0.9998577
000060 64 51 7d 3f 8b 15 7e 3f e0 a9 7f 3f 54 de 80 3f
       0.9895232 0.9925162 0.99868584 1.0067849
000070 9e e5 7f 3f 4d 31 80 3f 1c ba 80 3f 8f 3a 7e 3f
       0.99959743 1.0015045 1.0056796 0.99308103
000080 12 8d 7f 3f fb 27 80 3f ed 23 80 3f 4c 0e 80 3f
       0.9982463 1.0012201 1.0010964 1.0004363
000090 05 e5 80 3f d5 ae 80 3f 1d 1a 80 3f 62 39 80 3f
       1.0069891 1.0053355 1.0007969 1.0017512
0000a0 0f f6 7e 3f 39 58 7e 3f 07 ac 80 3f 8b 0d 80 3f
       0.99594206 0.9935337 1.0052499 1.0004133
0000b0 13 60 7f 3f 8d 87 81 3f 6f 46 80 3f a7 5e 80 3f
       0.9975597 1.0119492 1.0021495 1.0028886
0000c0 01 70 7e 3f fd c4 7d 3f bd f4 80 3f 18 a0 80 3f
       0.99389654 0.99128705 1.0074688 1.0048857
0000d0 63 ed 80 3f 9b 0c 7e 3f fa fe 7f 3f dd 82 80 3f
       1.0072445 0.99237984 0.9999844 1.0039936
0000e0 80 86 81 3f f8 b9 7f 3f 77 67 7e 3f 88 cd 7f 3f
       1.0119171 0.9989314 0.99376625 0.9992299
0000f0 f9 7a 80 3f 9f 0d 81 3f e4 6a 7d 3f ef 98 7e 3f
       1.0037528 1.0082282 0.9899123 0.9945211

block3.1.bias f4 [64]
000000 0d 0f 27 bc bc 78 0e bc e8 24 1f bc d8 48 4c bc
       -0.0101964595 -0.0086957775 -0.009713389 -0.012468539
000010 a0 ee c4 bb 2b 9b 0b bc dd c1 9d bc cc 67 57 bb
       -0.0060098916 -0.008520882 -0.01925748 -0.0032868264
000020 94 c4 0b bc 9e 8c 05 bc ed 21 1a bb 1f 37 00 bc
       -0.008530755 -0.0081512015 -0.0023518756 -0.007825642
000030 fd ec 22 bc 80 a7 49 3a 26 11 e4 bb 82 23 98 bc
       -0.009944198 0.0007692501 -0.006960052 -0.018571619
000040 78 72 d6 bb 22 1c 19 bc 82 6d 3f bb ef ef 12 bc
       -0.0065444075 -0.009345086 -0.002920956 -0.008968337
000050 ae 42 37 bc 24 f7 2d bc d1 9e f9 b9 bf 11 0b bc
       -0.011185331 -0.010618005 -0.00047611308 -0.008488118
000060 73 9c 5b bc 8a 15 e6 bb 1d 35 48 bc 00 a7 08 bc
       -0.013404 -0.0070216106 -0.012219694 -0.008340597
000070 21 05 3a bb fd bd a9 bb 0d ee f9 bb 9d f0 be bb
       -0.0028384405 -0.005180119 -0.007627255 -0.005827023
000080 f7 46 9d bb 3c 71 ab bb 7e db 85 bb 1c 66 c7 bb
       -0.0047997194 -0.0052320044 -0.0040850034 -0.0060851704
000090 42 67 27 bc ff 98 56 bc 5e fa 6c bb da 9e a6 bb
       -0.01021749 -0.013098001 -0.0036159973 -0.0050848546
0000a0 d1 07 ec bb 0e fe 2d bb 12 ab 2c bc c8 ad 57 bc
       -0.00720308 -0.0026549133 -0.010538833 -0.013163991
0000b0 5b ca f0 bb b6 ff d9 ba 84 78 de bb 41 ed e1 bb
       -0.0073483414 -0.0016631994 -0.006789269 -0.006894738
0000c0 20 6b a4 bb c0 e6 29 bc fc 72 c7 bb 68 8f 3f bc
       -0.005017653 -0.0103699565 -0.0060867053 -0.011691906
0000d0 89 a7 45 bb c2 67 46 bc a2 64 00 bc 35 24 c6 ba
       -0.0030159673 -0.012109699 -0.007836493 -0.0015116992
0000e0 3e 6f 92 bb 46 6d 09 bc 51 ef 4c bc e1 c9 3f bc
       -0.0044688275 -0.008387869 -0.012508229 -0.0117058465
0000f0 19 fb 2f bc a5 af ed bb d5 4f 88 bc 8d 32 46 bc
       -0.010741019 -0.0072536045 -0.01663963 -0.012097013

block3.1.running_mean f4 [64]
000000 08 ac 97 3d 20 14 18 be 14 31 8e bc 70 8f 06 bf
       0.07405859 -0.14851427 -0.017357387 -0.5256262
000010 7a 0a bd bd 75 76 67 3e ec 4a 1a 3d 10 59 26 be
       -0.09230514 0.22603782 0.037669107 -0.16244912
000020 7b 4f ca bd 78 c0 ed bd 2e 74 1f be 8f 24 92 3c
       -0.09878441 -0.11608976 -0.15571663 0.017839698
000030 d1 3f de 3b 6a 8e 3f bf 4b 51 75 be f8 58 83 3e
       0.00678251 -0.7482668 -0.23956792 0.25653815
000040 ab b6 c1 bc 73 1a 84 3e 88 ec de 3d 68 73 c5 3c
       -0.023646673 0.2580143 0.108849585 0.024102882
000050 ec ae 27 3d ae 37 01 3f ab 89 d6 be 6d ee 01 3e
       0.040938303 0.50475585 -0.41901907 0.12688608
000060 68 dc 7d 3d 5f 6e 1e be 80 a4 23 3e 99 fa b1 3d
       0.061977774 -0.1547179 0.1598072 0.08690376
000070 d5 41 a3 3e b4 3c 72 3c af c7 0c be a9 14 7c bf
       0.31886163 0.014784981 -0.13748048 -0.98469025
000080 a9 6e 08 bf cd bd b6 3e 26 d6 38 3e 90 03 dd be
       -0.53293854 0.35691682 0.18050441 -0.4316678
000090 12 4b 58 3e 7c 8f 9f 3e 56 91 ec 3d a8 a4 15 be
       0.21122387 0.31164157 0.11551158 -0.14613593
0000a0 f3 c8 5c bf 3b 6e 48 be 59 a7 8b 3e be 4d 44 be
       -0.86244124 -0.195733 0.27276114 -0.19170281
0000b0 47 a0 3b 3e 36 ca c4 3e 5d f2 8d 3e b3 61 bd be
       0.1832286 0.38435525 0.2772397 -0.369886
0000c0 be d9 bd bd 6b cb 2e 3e 4a 64 b2 3e 5a 89 0b 3e
       -0.09270047 0.17069785 0.3484214 0.13626614
0000d0 d9 8f 84 bb d9 9f f6 3d aa e7 7e 3e 4f 4b 70 bf
       -0.0040454683 0.12042207 0.2489306 -0.9386491
0000e0 7c 69 db 3d ce 54 a8 3e 12 1d 8b 3e 82 5b 7a bc
       0.10713479 0.328772 0.27170616 -0.015280606
0000f0 f6 61 9a 3e 4b 98 ca 3e 6a c0 bc 3e 0b a3 b3 be
       0.30152863 0.39569315 0.3686555 -0.3508533

block3.1.running_var f4 [64]
000000 c5 8c 17 3e f0 79 4a 3e 30 49 85 3e e6 d6 4d 3e
       0.14799793 0.19773078 0.260324 0.20101508
000010 67 d1 7f 3e ba f3 25 3e e6 c3 8b 3e 85 09 f9 3d
       0.24982224 0.16206256 0.27297896 0.12160019
000020 e2 b9 20 3e 9e 82 56 3e 35 cb 6c 3e 6e 5a 27 3e
       0.15695909 0.20948264 0.23124392 0.1634309
000030 86 ad ad 3e ef 5c 8f 3e 1c ec 8c 3e b4 e5 30 3e
       0.3392145 0.2800059 0.27523887 0.17275125
000040 4e ae 65 3e 0d 8a d8 3e 78 a9 53 3e a4 15 c0 3d
       0.22429773 0.42292824 0.20670116 0.093791276
000050 3a 58 44 3e 67 e1 69 3e c9 d7 6f 3e ac e6 6e 3e
       0.19174281 0.2283989 0.23422159 0.23330182
000060 dc c3 87 3e f5 84 36 3e 2a 62 a6 3e 2d c5 e0 3d
       0.26516616 0.17824157 0.32496768 0.10975108
000070 cd fd 3e 3e 38 89 a6 3e 6d da 25 3e 42 f4 24 3f
       0.18651505 0.32526565 0.16196604 0.6443521
000080 89 ec da 3e 91 26 88 3e 95 ea 25 3e 58 3c bd 3e
       0.42758587 0.26591924 0.16202767 0.369601
000090 62 f1 46 3e 24 c6 bb 3e e6 8d 01 3e 06 d4 68 3e
       0.19428018 0.36674607 0.12651786 0.2273713
0000a0 e1 e6 12 3f f1 1f 52 3e 87 67 1b 3e c7 ee 68 3e
       0.57383543 0.20519997 0.15176211 0.22747336
0000b0 44 4e 8d 3e 36 5f 5b 3e 39 16 bd 3e 26 35 d6 3e
       0.27598774 0.21423039 0.36931017 0.41837424
0000c0 b9 4d 74 3e 6a dd 18 3e 77 3a 2c 3e 31 a8 59 3e
       0.23857774 0.14928213 0.16819178 0.21255566
0000d0 99 23 fd 3d 6f 64 ed 3d ec 31 92 3e bd b6 d6 3e
       0.12360305 0.11591422 0.28553712 0.41936293
0000e0 16 ee 14 3e 8d a0 79 3e 47 00 58 3e f3 2e 85 3e
       0.14543948 0.24377652 0.21093856 0.26012382
0000f0 92 3b 5b 3e b6 66 13 3e 04 1c df 3e df a4 4b 3e
       0.21409443 0.1439465 0.43576062 0.19887112
