results/old/basic/basic_15.pth (torch, 961551 bytes, 26 tensors)

block1.0.weight f4 [64, 1, 3, 3]
0	0xbe0fb281	-0.14032938
1	0xbe28d673	-0.16488056
2	0xbe708aac	-0.23490399
3	0x3dbfa1b0	0.09357011
4	0x3eaa92ab	0.33315024
5	0xbdca65fd	-0.09882734
6	0xbd512e20	-0.05106938
7	0xbe834f80	-0.2564659
8	0x3e39f507	0.18159877
9	0x3e14af54	0.14520007
10	0xbe857827	-0.2606823
11	0x3e716a53	0.23575716
12	0x3e5d54a6	0.21614322
13	0xbe496aeb	-0.19669692
14	0x3e8f68b3	0.28009567
15	0xbea0be4b	-0.31395182
16	0x3d88585a	0.06657477
17	0xbdd9d602	-0.10636522
18	0x3e55ddee	0.2088544
19	0x3e9ff8c1	0.31244472
20	0xbe91c6aa	-0.2847188
21	0x3e51a7a7	0.2047411
22	0xbe1efb7c	-0.15525621
23	0x3ea34320	0.3188715
24	0xbd92922e	-0.07156788
25	0xbea2f5d3	-0.31828174
26	0x3d83a35c	0.06427643
27	0x3e2f611f	0.17126893
28	0x3e9c9ade	0.30586904
29	0xbe744a57	-0.23856483
30	0x3e4fa482	0.20277599
31	0x3dd9521b	0.106113635
32	0x3d78515f	0.060624477
33	0x3e53f54f	0.20699047
34	0xbe3cf1a8	-0.1845156
35	0x3e166047	0.14685164
36	0xbdf2d1e6	-0.11856441
37	0xbe80c853	-0.25152835
38	0xbde36c41	-0.11104632
39	0xbce3522d	-0.027749145
40	0x3eb14330	0.34621572
41	0xbc94ba47	-0.01815523
42	0xbe6cf7cc	-0.23141402
43	0x3e86c930	0.2632537
44	0xbe6bd4ee	-0.23030445
45	0x3de23df4	0.11046973
46	0xbde97677	-0.113995485
47	0x3e60ebd1	0.21964957
48	0xbd23e02e	-0.040008716
49	0x3e83071a	0.25591356
50	0xbdd9343f	-0.10605668
51	0x3e060a20	0.130898
52	0x3e090f5f	0.1338477
53	0xbc76c74c	-0.0150621645
54	0xbe7df5c0	-0.24800777
55	0x3ea53637	0.32267925
56	0x3e3fab58	0.18717706
57	0xbe6e3e40	-0.23265934
58	0xbe54a098	-0.20764387
59	0xbdad0854	-0.08448854
60	0xbe954bf6	-0.29159516
61	0x3d90230d	0.070379354
62	0xbd4dae52	-0.050215073
63	0xbea6e454	-0.32596076
64	0xbea1032d	-0.31447735
65	0x3d42b105	0.0475321
66	0x3ea9468d	0.33061638
67	0x3da8f7e2	0.08250405
68	0x3e4c2b89	0.19938482
69	0xbe55af17	-0.20867573
70	0x3e8c4d63	0.2740279
71	0xbda0bc4f	-0.07848417
72	0xbd759b94	-0.059962824
73	0x3e916d5c	0.28403747
74	0xbe0e8497	-0.13917767
75	0xbcd07d55	-0.025450388
76	0x3dcbf8be	0.09959553
77	0x3ddebc74	0.10875788
78	0xbdbb9907	-0.09160047
79	0xbd35f55b	-0.044423442
80	0x3e71ee51	0.23626067
81	0xbe46976c	-0.193937
82	0xbea35b08	-0.3190539
83	0xbe5265f9	-0.20546712
84	0x3ddb3ede	0.1070535
85	0xbe3afd20	-0.18260622
86	0xbea51bd0	-0.32247782
87	0x3de7af89	0.113127775
88	0xbe800e34	-0.25010836
89	0x3e2cd002	0.16876224
90	0x3cd2909a	0.025703717
91	0x3e35b0e2	0.17743257
92	0xbdb94568	-0.09046441
93	0xbe2f74eb	-0.17134444
94	0x3e35a3f1	0.1773832
95	0x3e48f21d	0.19623609
96	0xbdf8b6c2	-0.12144233
97	0x3e4e1d37	0.20128332
98	0xbe87777e	-0.26458353
99	0xbe174bb0	-0.14774966
100	0x3e2c123d	0.16803832
101	0x3d02c4a5	0.031925816
102	0x3e2401f4	0.1601637
103	0xbea90ca8	-0.33017468
104	0x3d992a67	0.07478791
105	0x3e15ecde	0.14641139
106	0xbcce39c7	-0.025174035
107	0x3e990d01	0.29892734
108	0xbc5e2dde	-0.01356074
109	0xbe06b1ec	-0.1315381
110	0x3df4f7e0	0.11961341
111	0xbe9d3ba4	-0.30709565
112	0x3e58fdaf	0.21190523
113	0xbd2bf81e	-0.04198467
114	0xbd94e2d8	-0.072698295
115	0xbd048433	-0.032352637
116	0xbe867ed1	-0.26268628
117	0xbe12fe3e	-0.14354798
118	0xbe976ca0	-0.29575062
119	0xbe68e98a	-0.22745338
120	0xbbf74e46	-0.0075471727
121	0xbdadac11	-0.08480085
122	0xbc9e97e1	-0.01935953
123	0x3ea7f9bb	0.32807717
124	0xbe9dea2e	-0.30842727
125	0x3b79e5da	0.0038131387
126	0x3bf19da7	0.00737353
127	0xbe896017	-0.26831123
128	0x3e08a793	0.13345174
129	0x3e45301c	0.19256634
130	0xbe05ac24	-0.13053948
131	0xbdb3a326	-0.087713525
132	0x3ea75dae	0.3268866
133	0x3e392eae	0.18084213
134	0x3e27babb	0.16379826
135	0xbc3fc473	-0.011704552
136	0x3e8d9510	0.27652788
137	0x3e63e065	0.22253568
138	0x3e9456e3	0.2897254
139	0xbe3d2b0b	-0.18473451
140	0x3e568a3b	0.20951168
141	0x3d6d13b2	0.05788011
142	0xbe0d272a	-0.13784471
143	0xbe135e83	-0.14391522
144	0x3ea66994	0.32502425
145	0x3de343ae	0.11096893
146	0xbe96edf2	-0.29478413
147	0xbdd8ef07	-0.10592466
148	0xbe992211	-0.29908803
149	0x3e02b9f5	0.1276625
150	0xbe0a61ca	-0.13513866
151	0x3d6908c5	0.05689313
152	0x3e560b0a	0.20902649
153	0x3d62a30f	0.055331286
154	0xbe2876a5	-0.1645151
155	0xbe933c87	-0.28757116
156	0xbdbf1a42	-0.0933118
157	0x3dda4e7d	0.10659502
158	0x3e2533d5	0.16133054
159	0x3e8dfb98	0.27731013
160	0x3d7287a7	0.0592114
161	0xbcd244e9	-0.025667625
162	0x3c70e99c	0.014704134
163	0xbe58581d	-0.21127363
164	0xbe81ef65	-0.25377956
165	0x3e01fe98	0.12694776
166	0x3e5d653f	0.21620654
167	0x3e96de08	0.2946627
168	0x3e45126c	0.19245309
169	0x3b005675	0.0019582782
170	0x3e388ed6	0.18023238
171	0x3da4bf2a	0.08044274
172	0x3e0c5410	0.13703942
173	0xbe2f425d	-0.1711516
174	0xbe85f3ac	-0.2616247
175	0xbb548b63	-0.0032431714
176	0xbd1b71fa	-0.037950493
177	0x3e8f6a76	0.2801091
178	0xbdbd3199	-0.092379756
179	0x3e5d7ee0	0.2163043
180	0xbd018e57	-0.031629886
181	0x3e839c92	0.2570539
182	0x3aeaf2b7	0.0017925118
183	0x3e60ad93	0.21941213
184	0xbe5c0137	-0.21484838
185	0xbe90ac10	-0.28256273
186	0xbe11b102	-0.1422768
187	0x3e75c470	0.24000716
188	0xbe92775b	-0.28606686
189	0x3e4ba568	0.19887316
190	0xbe7b50ba	-0.24542513
191	0xbe3215fb	-0.17391197
192	0x3e88e12b	0.2673429
193	0xbc32568a	-0.01088489
194	0x3e7d8008	0.24755871
195	0x3e5d861e	0.21633193
196	0xbe9c3c53	-0.30514774
197	0x3dba8ad9	0.09108514
198	0x3d9afc23	0.075676225
199	0xbe454c3f	-0.19267367
200	0xbe21481b	-0.15750162
201	0xbe5536b6	-0.20821652
202	0x3e60ce82	0.21953776
203	0xbe94ca05	-0.2906038
204	0xbeac3b79	-0.33639124
205	0xbcbd9b42	-0.023145322
206	0x3e11694f	0.14200328
207	0x3e5e043c	0.21681303
208	0xbb82bab2	-0.003989541
209	0xbd32602a	-0.04354874
210	0x3d29b8c9	0.04143599
211	0x3e658420	0.22413683
212	0x3e85be24	0.26121628
213	0xbdd4e8b5	-0.10395948
214	0x3e26a63e	0.16274354
215	0x3a404c6c	0.00073356065
216	0xbe21ace7	-0.15788613
217	0x3d6f38f4	0.058403924
218	0xbe844416	-0.25833195
219	0x3dc30285	0.09521965
220	0x3d930a81	0.07179738
221	0xbd856484	-0.065133125
222	0x3e9c640f	0.3054509
223	0xbd6b2238	-0.05740568
224	0x3e8dcdd2	0.2769609
225	0x3df376e4	0.11887911
226	0x3e73d17e	0.23810384
227	0x3d21b542	0.0394795
228	0xbea9a70e	-0.33135265
229	0x3e98d21a	0.29847795
230	0xbe156781	-0.14590265
231	0x3d015aeb	0.031580847
232	0x3e21fa33	0.158181
233	0xbe63da32	-0.22251204
234	0x3e856330	0.26052237
235	0x3c24608d	0.010032785
236	0x3e718910	0.23587441
237	0xbe020384	-0.12696654
238	0x3e3fa11b	0.187138
239	0x3e5697b3	0.20956306
240	0x3e3e5c3e	0.18589875
241	0xbd815c8d	-0.06316481
242	0x3e2bff36	0.16796574
243	0x3dc0d59b	0.09415742
244	0xbe43c54c	-0.19118232
245	0x3e8addd3	0.27122363
246	0x3e2aa1f4	0.16663343
247	0x3d8c1b11	0.068411
248	0xbe86e7d8	-0.26348758
249	0x3e85918b	0.26087603
250	0xbeb00e44	-0.34385884
251	0x3e3472ce	0.1762192
252	0xbcd1d77e	-0.02561545
253	0xbe6ecd41	-0.23320486
254	0x3e6b7216	0.22992739
255	0xbe8c5023	-0.2740489

block1.0.bias f4 [64]
0	0x3e89ee95	0.26939836
1	0xbea14b12	-0.31502587
2	0x3e059d2a	0.13048235
3	0x3e120477	0.14259516
4	0xbe853895	-0.2601973
5	0xbc9e12ed	-0.019296134
6	0x3d6d61c8	0.05795458
7	0xbe391f20	-0.1807828
8	0x3d86a0b8	0.065736234
9	0xbdb9a64b	-0.09064921
10	0xbe18ca32	-0.14920881
11	0xbdeec252	-0.116581574
12	0xbe6ba458	-0.23011911
13	0xbe9546f9	-0.2915571
14	0x3e7009e9	0.2344128
15	0x3dc5e031	0.09661902
16	0x3d4acbfa	0.049510933
17	0x3e71ba0f	0.23606132
18	0xbe1c7a6d	-0.15281077
19	0xbe7908c0	-0.24319744
20	0x3bf81f17	0.0075720656
21	0x3e1acd2e	0.15117332
22	0x3ddbbace	0.107289895
23	0x3e857492	0.260655
24	0xbb85763d	-0.004072933
25	0x3e6ef9e4	0.23337513
26	0xbd8825fb	-0.06647869
27	0x3dfb7cd7	0.12279671
28	0x3de98a80	0.1140337
29	0x3e97a1cf	0.29615638
30	0xbc4f9436	-0.012669614
31	0x3e22feba	0.15917483
32	0xbe631bc4	-0.2217856
33	0x3e9bc399	0.30422667
34	0xbe4f3df2	-0.20238474
35	0xbd9a4cb0	-0.07534158
36	0x3d31fa97	0.04345187
37	0x3e53e796	0.20693812
38	0xbe4e7d3e	-0.20164964
39	0x3e9c2318	0.30495524
40	0xbe8d4507	-0.27591726
41	0xbe0e53dd	-0.13899179
42	0x3e89db9c	0.2692536
43	0xbe22ba98	-0.15891492
44	0x3d828485	0.06372932
45	0xbe9015f9	-0.28141764
46	0xbe938a60	-0.2881651
47	0xbe93a928	-0.28839993
48	0x3e13b302	0.14423755
49	0x3e12deb5	0.14342768
50	0xbd067614	-0.03282745
51	0x3d3b22e3	0.045687567
52	0x3ea28429	0.31741455
53	0x3b059a4b	0.0020386155
54	0xbe38e046	-0.18054304
55	0x3d76cb5d	0.060252536
56	0xbe8382aa	-0.25685626
57	0xbe5e4191	-0.21704699
58	0xbd53b2b5	-0.0516841
59	0xbdf3b496	-0.118996784
60	0x3e9ee544	0.3103429
61	0xbdb932a0	-0.09042859
62	0x3e2fe900	0.17178726
63	0x3d65f7d4	0.05614455

block1.1.weight f4 [64]
0	0x3f7bba79	0.9833141
1	0x3f80d3df	1.0064658
2	0x3f7d418d	0.9892815
3	0x3f7b5d50	0.9818926
4	0x3f7dcde2	0.9914228
5	0x3f7cea26	0.9879478
6	0x3f7b0ac9	0.9806333
7	0x3f84dd98	1.0380125
8	0x3f7d5cfd	0.98970014
9	0x3f7ce179	0.98781544
10	0x3f7ff14a	0.9997755
11	0x3f7dc6ea	0.99131644
12	0x3f7c5f67	0.9858307
13	0x3f7cba42	0.98721707
14	0x3f7d01bb	0.98830765
15	0x3f7bcc88	0.98358965
16	0x3f85df0b	1.0458692
17	0x3f812f5d	1.0092579
18	0x3f7c9cc0	0.9867668
19	0x3f7e99b5	0.9945329
20	0x3f7cf187	0.9880604
21	0x3f7e4fb3	0.9934036
22	0x3f7ce599	0.9878784
23	0x3f7d663e	0.98984134
24	0x3f7dde2e	0.99167144
25	0x3f7f15e9	0.9964281
26	0x3f7a4877	0.9776682
27	0x3f7dabd9	0.99090344
28	0x3f7d49e2	0.9894086
29	0x3f7c0227	0.98440784
30	0x3f7d2dbb	0.98897904
31	0x3f7d1e2c	0.98874164
32	0x3f847ea0	1.0351143
33	0x3f829f9c	1.0204959
34	0x3f7b083d	0.98059446
35	0x3f7da009	0.9907232
36	0x3f81562f	1.0104426
37	0x3f7c7505	0.9861606
38	0x3f80c313	1.0059532
39	0x3f7f20c3	0.99659365
40	0x3f7d7a40	0.99014664
41	0x3f7c392a	0.98524725
42	0x3f822799	1.0168334
43	0x3f7f31c3	0.99685305
44	0x3f80f243	1.0073932
45	0x3f80af59	1.0053512
46	0x3f7df428	0.9920068
47	0x3f7c5336	0.9856447
48	0x3f7fe5cf	0.99960035
49	0x3f81fe1d	1.0155674
50	0x3f80c5d2	1.006037
51	0x3f7df247	0.9919781
52	0x3f7d899b	0.99038094
53	0x3f7e70b6	0.99390733
54	0x3f7d27e7	0.9888901
55	0x3f7b7cef	0.9823751
56	0x3f7f12f1	0.9963828
57	0x3f7afea6	0.9804481
58	0x3f81ced5	1.0141245
59	0x3f80b228	1.0054369
60	0x3f7dc37e	0.9912642
61	0x3f7b98cf	0.9828004
62	0x3f7c5a7b	0.9857556
63	0x3f81d14d	1.0141999

block1.1.bias f4 [64]
0	0xbc720ce5	-0.014773582
1	0xbc42b0a1	-0.011882932
2	0xbbbcc47b	-0.005760727
3	0xbc58f398	-0.013241671
4	0xbcaa3cc4	-0.020780928
5	0xbbfc2ea5	-0.00769599
6	0xbcc0f98c	-0.023556493
7	0x3c894433	0.016756153
8	0xba60faeb	-0.00085823116
9	0xbce7cc04	-0.028295524
10	0x3b8034fe	0.003912567
11	0x3a88f523	0.0010449033
12	0xbc71f2bb	-0.014767344
13	0xbb05d577	-0.0020421424
14	0x38eaea16	0.000112015914
15	0xbc3de88b	-0.011591087
16	0x3bd3ffdf	0.006469711
17	0xbac852d2	-0.0015283471
18	0x3b36685a	0.0027833194
19	0xbc499bf4	-0.0123052485
20	0xbc8ef4fe	-0.017450806
21	0xbc2ed26d	-0.010670287
22	0xbb35fc97	-0.0027768963
23	0xbb62e314	-0.0034620212
24	0xbc2af532	-0.010434436
25	0xbc7572f7	-0.014981023
26	0xbce87250	-0.028374821
27	0xbc0f77ba	-0.008756572
28	0xbcb1653b	-0.021654716
29	0xbc36ad6e	-0.011149747
30	0xbc497e2f	-0.012298151
31	0x3ab95ef1	0.0014142675
32	0x3d2cd9bf	0.042199846
33	0x3ca510b6	0.02014957
34	0xbb93c993	-0.0045101135
35	0xbc0661bb	-0.008202012
36	0xbcd8bbcf	-0.026456742
37	0xbc3807ea	-0.011232356
38	0xbca27c54	-0.019834675
39	0xbc21a9aa	-0.009867111
40	0xbb7bf51a	-0.0038445652
41	0xbb09e32f	-0.0021039953
42	0x3c9a7bcc	0.01885786
43	0xbc5d36e0	-0.013501853
44	0x3a8c00ea	0.0010681425
45	0x3bd8e63d	0.0066192434
46	0xbbef05d8	-0.007294398
47	0xbcab9ae4	-0.020947881
48	0x3b7f0256	0.0038911304
49	0x3cfb09f2	0.03064439
50	0xbc3e8651	-0.011628703
51	0xbcacf4db	-0.02111285
52	0xbb6ac0f0	-0.0035820566
53	0x3a83925f	0.0010038129
54	0xbc52a1bf	-0.012855946
55	0xbc136926	-0.008997237
56	0x3b992e4f	0.00467471
57	0xbca02b0d	-0.019551778
58	0x3bd4fc78	0.006499823
59	0x3c2cb09d	0.010540155
60	0x3bd2cc8d	0.0064330758
61	0xbc7ee637	-0.015557817
62	0xbca30176	-0.019898158
63	0x3c2cf30c	0.010555994

block1.1.running_mean f4 [64]
0	0x3de3fb00	0.11131859
1	0xbe91811a	-0.2841881
2	0x3e850a2c	0.25984323
3	0x3f016610	0.5054636
4	0xbedf5d0b	-0.43625674
5	0x3e7f3521	0.24922611
6	0xbe43cf76	-0.19122109
7	0xbe34a44f	-0.17640804
8	0x3e734bf0	0.23759437
9	0xbf18b820	-0.5965595
10	0xbdb4f46a	-0.08835681
11	0x3d6f9eec	0.05850117
12	0xbef4aeac	-0.47789514
13	0xbf24d587	-0.64388317
14	0x3ef4410c	0.47705877
15	0x3ebba9d5	0.3665301
16	0x3d3fb59f	0.046804067
17	0x3e8e764b	0.27824625
18	0x3de3eee1	0.11129547
19	0xbe33eeb5	-0.17571528
20	0xbdd592e3	-0.10428407
21	0x3e9203de	0.28518575
22	0xbe8169ba	-0.25275975
23	0x3f1d39ab	0.6141612
24	0x3df8bf87	0.12145906
25	0x3ea3ad1c	0.3196801
26	0x3edccc28	0.4312451
27	0x3e6e00f5	0.23242553
28	0xbd89d376	-0.06729786
29	0xbe014dd0	-0.1262734
30	0x3e849bb7	0.2590005
31	0x3c4fe6fc	0.012689348
32	0xbe68d44a	-0.22737232
33	0x3e91d2ad	0.28481045
34	0x3e9fcb57	0.31209823
35	0x3d3e68d2	0.046486683
36	0xbc31af18	-0.010844968
37	0x3f07e010	0.5307627
38	0xbe228c5e	-0.15873858
39	0x3e1e8053	0.1547864
40	0xbd94ac4a	-0.07259424
41	0x3e82dfd2	0.25561386
42	0x3e97f002	0.296753
43	0xbe84abab	-0.25912222
44	0x3cca3865	0.024685094
45	0xbeb4f9ee	-0.3534693
46	0xbef462b7	-0.47731563
47	0xbf0a3d11	-0.5399943
48	0x3e591017	0.21197544
49	0x3e066c84	0.13127333
50	0x3caf9ade	0.021436151
51	0xbd25f5dc	-0.040517673
52	0x3e43453b	0.19069378
53	0xbe5c06a3	-0.21486907
54	0xbccc0f3d	-0.02490961
55	0x3ea7b559	0.32755545
56	0xbe230883	-0.15921216
57	0xbf0be00e	-0.54638755
58	0xbe016276	-0.12635216
59	0xbd8e20a5	-0.0693982
60	0x3edc98b7	0.43085262
61	0x3ed2f647	0.4120352
62	0x3f0e9fc4	0.55712533
63	0x3db419c9	0.08793981

block1.1.running_var f4 [64]
0	0x3c2eae26	0.010661637
1	0x3aa75751	0.0012767111
2	0x3c0417d4	0.008062322
3	0x3d609599	0.054830167
4	0x3c57577d	0.013143417
5	0x3cf39f19	0.02973895
6	0x3cda6a17	0.026661916
7	0x3a4cbb8f	0.0007809931
8	0x3c4bbe82	0.012435557
9	0x3ddc0f52	0.107451096
10	0x3b0226d0	0.001985956
11	0x3c54cdfb	0.012988563
12	0x3cd0800b	0.02545168
13	0x3d5754f1	0.05257124
14	0x3cd0298f	0.025410442
15	0x3d007745	0.031363744
16	0x39854110	0.00025416212
17	0x3ad2570a	0.0016047668
18	0x3cf1167d	0.029429669
19	0x3b1898e8	0.0023284499
20	0x3bbf7ea0	0.0058439523
21	0x3c048fdf	0.008090942
22	0x3d5b5cd3	0.05355532
23	0x3d5464f3	0.051854085
24	0x3bfbbbd1	0.0076823016
25	0x3b6e6772	0.0036377576
26	0x3dd1bc11	0.10240949
27	0x3bae5247	0.005319867
28	0x3c63c793	0.013902563
29	0x3d969e48	0.073544085
30	0x3d01accb	0.03165893
31	0x3c189d7f	0.009314894
32	0x3a98d360	0.0011659674
33	0x3a3c9e31	0.0007195203
34	0x3ddfb80f	0.10923778
35	0x3bf1c484	0.007378163
36	0x3b1cf477	0.0023949423
37	0x3d32ef7f	0.043685433
38	0x3adbe36e	0.0016776153
39	0x3c3e68f3	0.0116217015
40	0x3c8ebcc5	0.017423997
41	0x3d84595c	0.064623564
42	0x3b363ed5	0.0027808447
43	0x3baa4473	0.005196148
44	0x3a572045	0.00082064077
45	0x3b62bc0d	0.003459695
46	0x3c81a015	0.015823403
47	0x3cd7a272	0.026322577
48	0x3b18e2c9	0.0023328534
49	0x3a85c272	0.0010205044
50	0x3acc2719	0.0015575617
51	0x3b592b6c	0.0033137454
52	0x3beb3e8a	0.007179086
53	0x3ca75888	0.020427957
54	0x3c332726	0.010934627
55	0x3cf2acca	0.029623408
56	0x3bc1cf63	0.005914615
57	0x3d3b11db	0.045671325
58	0x3b90aedb	0.0044153756
59	0x3b64b10c	0.0034895567
60	0x3be3d257	0.0069525647
61	0x3dd5ad46	0.1043344
62	0x3d7af215	0.061266024
63	0x3a9a74c7	0.001178407

block2.0.weight f4 [64, 64, 3, 3]
0	0x3ce846ee	0.028354134
1	0xbd1e3117	-0.038621034
2	0x3ce0f0e7	0.027458621
3	0x3ca6c2cd	0.02035656
4	0x3c83c291	0.016083987
5	0x3cc9f8a6	0.024654698
6	0xbbfaf592	-0.007658669
7	0xbc882874	-0.016620852
8	0xba9f1037	-0.001213557
9	0xbc217893	-0.009855407
10	0xbd4bd13a	-0.04976008
11	0x3c9a9f85	0.018874893
12	0x39ea9cb0	0.000447487
13	0xbc904bca	-0.017614264
14	0xbcd3e091	-0.025863918
15	0xbd16f22b	-0.036852043
16	0x3b9d94ce	0.0048089987
17	0xbbec2800	-0.007206917
18	0xbd1d8ac5	-0.03846242
19	0x3adf17d6	0.0017020653
20	0xbcc3dc00	-0.023908615
21	0xbcbfe25f	-0.023423372
22	0x3c12a084	0.008949403
23	0xbb92c6ea	-0.004479279
24	0xbce7f4bf	-0.028314946
25	0xbbe60477	-0.007019575
26	0xbc967188	-0.018364683
27	0x3d060a26	0.032724522
28	0xbd1c2492	-0.038120814
29	0xbcabd135	-0.020973781
30	0xbc975650	-0.018473774
31	0x3cc5d0c1	0.024147393
32	0xbbc0884b	-0.0058756224
33	0x3b166d8c	0.0022953479
34	0xbd06c33e	-0.03290104
35	0x3d088c92	0.033337183
36	0xbd1836f6	-0.03716179
37	0xbc9da294	-0.019242562
38	0xbd1484b3	-0.036259364
39	0xbcef0471	-0.029176923
40	0x3c864e35	0.016394714
41	0x3bef4706	0.007302168
42	0xbc78616b	-0.015159945
43	0x3c41b6a8	0.011823334
44	0x3c2a1fdc	0.010383572
45	0x3ac0cf99	0.0014710306
46	0x3bad5388	0.0052894987
47	0xbd283506	-0.041066192
48	0x3ce477ce	0.027889159
49	0x3d11c1dc	0.03558527
50	0x3d0e1355	0.034686405
51	0x3d01cbe4	0.031688586
52	0xbce43ece	-0.027861979
53	0xbb1f6484	-0.0024321387
54	0x3c320d73	0.010867464
55	0xbd15d54e	-0.036580376
56	0x3c708cd4	0.014682014
57	0xba9ff7a7	-0.0012204543
58	0xbc0be88e	-0.008539332
59	0xbbca8d5e	-0.006181403
60	0xbd276fb5	-0.040878017
61	0x3d11f1f6	0.035631143
62	0xbd07df52	-0.03317196
63	0x3d37bc0d	0.044857074
64	0xbd08b53b	-0.03337596
65	0x3d0ff4e5	0.03514566
66	0x3c34f97f	0.011045813
67	0x3bd5c93b	0.0065242327
68	0x3bd65893	0.0065413206
69	0xba02a497	-0.0004983632
70	0xbabefbee	-0.001457093
71	0xbb904c26	-0.004403609
72	0xbc87f45d	-0.016596014
73	0xbc8b1c40	-0.016981244
74	0x3cf97948	0.03045334
75	0x3d1994a1	0.03749526
76	0x3cfaea82	0.0306294
77	0xbbd2c0cf	-0.006431676
78	0x3cc83656	0.024439972
79	0x3c1e9bb8	0.009680681
80	0x3d2ab11d	0.041672815
81	0xbd205d08	-0.03915122
82	0xbcad532c	-0.021157824
83	0x3c560416	0.013062498
84	0xbca57097	-0.020195289
85	0xbd12c581	-0.035832886
86	0x3cc922aa	0.024552662
87	0xbcb736fd	-0.022365088
88	0xbb4afd22	-0.0030973633
89	0xba103ba3	-0.00055020506
90	0xbd5ba9b8	-0.053628653
91	0xbc74c80d	-0.014940274
92	0x3d18f878	0.037346333
93	0x3b76ee50	0.0037678666
94	0x3d0fbb0e	0.0350905
95	0x3d274e2f	0.040846046
96	0x3c3d22bd	0.011543927
97	0x3cb15b7c	0.021650068
98	0x3d021642	0.031759508
99	0x3c5ce73a	0.013482863
100	0xbc1586c0	-0.009126365
101	0xbb943a19	-0.0045235273
102	0xbb7beefa	-0.0038442002
103	0xbc79462b	-0.015214483
104	0x3ab1ee83	0.001357511
105	0x3d1a5208	0.037675887
106	0xbca13435	-0.019678215
107	0x3ca20ab1	0.019780489
108	0xbc3b1fc4	-0.011421148
109	0x3d285084	0.04109241
110	0xbd094630	-0.0335142
111	0x3cb7cdef	0.022437064
112	0x3d0d314e	0.03447085
113	0xbcb5c081	-0.02218652
114	0xbcb107b6	-0.021610122
115	0x3ca8ee83	0.020621544
116	0x3c0e5a4a	0.008688519
117	0xbc8201ce	-0.015870001
118	0xbd0209d2	-0.031747647
119	0x3b082d06	0.002077879
120	0xbadea8dc	-0.001698758
121	0x3b7bb5ca	0.0038407915
122	0xba081561	-0.0005191174
123	0x3cb8fef7	0.022582514
124	0x3b63ea06	0.003477694
125	0xbcb5408a	-0.022125501
126	0x3caf6594	0.02141074
127	0x3d143409	0.036182437
128	0xbcfa7138	-0.030571565
129	0x3b833abd	0.004004805
130	0x3cafd154	0.02146212
131	0xbcd34eaf	-0.025794355
132	0xbbeeea53	-0.007291117
133	0x3c8eef7e	0.017448183
134	0x3c0222cf	0.007942869
135	0xbd324487	-0.043522384
136	0xbb3c9cc4	-0.0028779963
137	0xbc44d8eb	-0.012014608
138	0xbbb1b6d1	-0.0054234047
139	0x3ba78401	0.0051121716
140	0x3cf5e0b4	0.030014373
141	0xbd279969	-0.040917788
142	0x3ce18c5e	0.027532753
143	0xbc73526c	-0.014851194
144	0x3c51a5d8	0.012795888
145	0x3b22909b	0.002480543
146	0x3cb383bf	0.021913407
147	0xbc8025ef	-0.015643088
148	0xbd53d864	-0.051720038
149	0xba95db74	-0.00114332
150	0x3d225981	0.03963614
151	0x3c2b75c0	0.0104650855
152	0x3c6bf149	0.014400789
153	0x3cf6d8cc	0.030132674
154	0xbd29fa23	-0.041498315
155	0xbbbb057c	-0.005707441
156	0xbcfd58f4	-0.030926205
157	0x3ce53f92	0.027984414
158	0x3bed21c1	0.00723669
159	0xbced6881	-0.028980495
160	0x3d29d880	0.041466236
161	0xbcc30f33	-0.023810958
162	0xbcf126a2	-0.029437367
163	0x3d08d335	0.033404548
164	0xbcee9017	-0.029121442
165	0x3c14eae1	0.009089203
166	0x3bcbb96f	0.0062171738
167	0x3d0b8eab	0.034071606
168	0xbcf2f425	-0.029657433
169	0x3cd5d420	0.026102126
170	0x3cac906c	0.02106496
171	0x3ca1545f	0.019693552
172	0xbcb6167c	-0.022227518
173	0xbcfcc9cf	-0.030857949
174	0xbc84cc2b	-0.016210636
175	0xbc7d8217	-0.01547291
176	0xbcd6f194	-0.02623824
177	0xbc798648	-0.015229769
178	0xbcf06b2f	-0.029347984
179	0xbd0f1f1c	-0.034941778
180	0x3b054a44	0.0020338455
181	0xbcd3ac64	-0.025839038
182	0x3c2908dd	0.010317055
183	0xbacf0527	-0.0015794382
184	0xbccad784	-0.024760969
185	0x3c99ded0	0.018783003
186	0xbcc18ad2	-0.023625765
187	0x3c3ce589	0.011529335
188	0xbce78e74	-0.02826617
189	0xbd257896	-0.040398203
190	0xbcf4c2ce	-0.029878046
191	0x3d1eea74	0.03879781
192	0x3c96041b	0.018312505
193	0xbbd20c25	-0.006410139
194	0xbb4932ce	-0.0030700448
195	0x3c8bdad1	0.017072113
196	0x3cdaf9fe	0.026730534
197	0xbc947250	-0.018120915
198	0x3c885424	0.016641684
199	0x3c1748a5	0.009233628
200	0x3cba3d9d	0.022734458
201	0xbd1f09aa	-0.038827576
202	0xbd1ea97c	-0.03873585
203	0x3cada0c6	0.021194827
204	0x3d0a6b3e	0.03379368
205	0xbd2573fd	-0.04039382
206	0xbbc4cdf7	-0.0060059982
207	0x3c8d3322	0.017236296
208	0x3d019196	0.031632982
209	0xbcff2922	-0.031147543
210	0xbc66bfd7	-0.014083824
211	0x3c46f27c	0.012142774
212	0x3c87e0b7	0.016586645
213	0x3d0aa913	0.033852648
214	0x3c672153	0.014107066
215	0xbbd95e50	-0.0066335574
216	0xbcb10beb	-0.021612128
217	0x3c138120	0.009002954
218	0xbc91e1e7	-0.017807914
219	0xbd12c8c4	-0.035835996
220	0x3d190e4c	0.03736715
221	0x3bf26293	0.007397005
222	0xbbde5629	-0.0067851734
223	0x3cf1399a	0.029446412
224	0x3c9e764b	0.019343516
225	0x3c7a43ef	0.015274986
226	0x3c923443	0.017847186
227	0x3bd0414a	0.0063554393
228	0x3ca9d97f	0.020733593
229	0xbd2d0480	-0.04224062
230	0xbca0554a	-0.019571919
231	0xbcd598a0	-0.026073754
232	0xbd0e5e15	-0.034757692
233	0xbd1e0633	-0.03858013
234	0xbcd522d2	-0.02601758
235	0xbccf7b0b	-0.025327226
236	0x3c5a4d07	0.013324029
237	0x3cb701c8	0.022339717
238	0x3cef99e1	0.02924818
239	0xbd1cf94b	-0.03832368
240	0x3d1db8a4	0.038506165
241	0xbc8da0b0	-0.017288536
242	0xbc9d2a23	-0.019185131
243	0xbd0d65e9	-0.034521017
244	0xbca8f534	-0.020624734
245	0x3d272f82	0.04081679
246	0xbb1e1e7a	-0.0024127052
247	0x3d1eb2f6	0.03874489
248	0x3cc88981	0.02447963
249	0x3d319d34	0.04336281
250	0x3c93104a	0.017952103
251	0x3a8b4fe2	0.0010628665
252	0xbc9a760f	-0.018855123
253	0xbb53ff8d	-0.0032348365
254	0xbc52d307	-0.012867696
255	0xbcd5b67a	-0.026087988

block2.0.bias f4 [64]
0	0x3d025007	0.0318146
1	0xbc2439f7	-0.0100235855
2	0x3bcdafbb	0.006277052
3	0xbcd151bf	-0.025551675
4	0xbcd18823	-0.02557761
5	0x3c0beae0	0.008539885
6	0xbcf1671f	-0.029468117
7	0x3c83438a	0.016023416
8	0x3cda6310	0.026658565
9	0xbc84e35b	-0.016221693
10	0x3ce76b91	0.028249534
11	0xbba21754	-0.0049466286
12	0x3caac442	0.020845536
13	0x3c989582	0.018625978
14	0xbbbc4833	-0.0057459115
15	0x3c8a53b9	0.016885625
16	0xbd19f6ac	-0.03758876
17	0xbd105075	-0.03523298
18	0x3c2b0ef2	0.010440575
19	0xbc0a7509	-0.008450755
20	0xbba76620	-0.00510861
21	0x3cec731f	0.028863488
22	0x3d18ba9b	0.037287336
23	0x3cbd22c2	0.023087863
24	0xbc86b945	-0.016445765
25	0xbb69d14c	-0.003567773
26	0x3cb43766	0.021999072
27	0xbc7864cf	-0.015160753
28	0xbca24af4	-0.019811131
29	0xbb7b111d	-0.003830976
30	0x3cf8d4e3	0.03037495
31	0xbc7e4815	-0.015520115
32	0xbcdeacc3	-0.027181989
33	0x3c7da5d9	0.015481436
34	0x3cf092a3	0.029366797
35	0xbbc0e056	-0.005886118
36	0x3cc2929b	0.023751548
37	0xbce2c3ae	-0.027681198
38	0xbc1948d3	-0.009355742
39	0xbd12f3d9	-0.035877082
40	0xbb7ee19e	-0.0038891803
41	0xbccf45dd	-0.025301868
42	0x3cc1b3f4	0.023645379
43	0x3d0522e8	0.032503992
44	0x3cfc98b4	0.030834533
45	0x3d250011	0.040283266
46	0x3d0d162c	0.034444973
47	0xbd3055e3	-0.043050658
48	0xbb89c55c	-0.0042044353
49	0xbcb47cd7	-0.022032185
50	0x3cb8d244	0.0225612
51	0x3b8caefe	0.0042933216
52	0xbcd1e957	-0.02562396
53	0x3c80762a	0.015681345
54	0xbcb90f52	-0.022590313
55	0xbd279ad0	-0.040919125
56	0x3d0d966c	0.03456728
57	0x3c00acbf	0.007853686
58	0xbd3edaf7	-0.04659554
59	0x3c722e97	0.014781616
60	0x3c1966b6	0.009362867
61	0x3b33d96e	0.002744283
62	0x3d07a706	0.03311827
63	0x3d050020	0.032470822

block2.1.weight f4 [64]
0	0x3f819817	1.0124539
1	0x3f7f60d5	0.9975713
2	0x3f80809d	1.003925
3	0x3f807279	1.0034934
4	0x3f7e50a7	0.99341816
5	0x3f812e13	1.0092186
6	0x3f7bf2b7	0.9841723
7	0x3f7bf750	0.98424244
8	0x3f7c4bbd	0.9855307
9	0x3f80267d	1.0011746
10	0x3f803d2d	1.0018669
11	0x3f7d682f	0.98987097
12	0x3f824cda	1.0179703
13	0x3f8112df	1.0083884
14	0x3f79c139	0.9756046
15	0x3f7efe4b	0.9960677
16	0x3f7eacee	0.9948262
17	0x3f7e90c7	0.9943966
18	0x3f80445f	1.0020865
19	0x3f7dac48	0.99091005
20	0x3f8030ea	1.0014927
21	0x3f80c9e7	1.0061616
22	0x3f80bebf	1.0058211
23	0x3f802721	1.0011941
24	0x3f7c171f	0.9847278
25	0x3f807322	1.0035136
26	0x3f823053	1.0170997
27	0x3f82516e	1.01811
28	0x3f7d7d8e	0.99019706
29	0x3f7d18ef	0.9886617
30	0x3f7f5af7	0.99748176
31	0x3f80edab	1.007253
32	0x3f7c5f33	0.9858276
33	0x3f7d18b9	0.9886585
34	0x3f8134d2	1.0094244
35	0x3f7e734e	0.9939469
36	0x3f808ce2	1.0042994
37	0x3f805bac	1.0027976
38	0x3f824767	1.017804
39	0x3f81248f	1.0089282
40	0x3f7d0a69	0.9884401
41	0x3f7d4f5a	0.98949206
42	0x3f7d9e9b	0.9907014
43	0x3f7ce0a0	0.9878025
44	0x3f80589c	1.0027041
45	0x3f7f1194	0.996362
46	0x3f7ff542	0.9998361
47	0x3f7e26b0	0.9927778
48	0x3f81a6df	1.012905
49	0x3f7b2a25	0.9811118
50	0x3f81f86f	1.0153941
51	0x3f7f5af2	0.99748147
52	0x3f8014a8	1.0006304
53	0x3f808f07	1.0043648
54	0x3f80d224	1.006413
55	0x3f80c416	1.0059841
56	0x3f7da74e	0.9908341
57	0x3f7fe33d	0.99956113
58	0x3f8359db	1.0261797
59	0x3f7aabbe	0.9791831
60	0x3f7fce37	0.99924034
61	0x3f7deac4	0.9918635
62	0x3f7cf214	0.9880688
63	0x3f80e65b	1.0070299

block2.1.bias f4 [64]
0	0xbb94f49d	-0.0045457617
1	0xbcc70ac6	-0.02429713
2	0xbc971719	-0.018443631
3	0xbcdc2ff0	-0.026878327
4	0xbcaaa39b	-0.020829966
5	0xbd019fd6	-0.031646572
6	0xbcc97956	-0.02459399
7	0xbc99b5db	-0.018763473
8	0xbcdf7757	-0.027278585
9	0xbcbf7814	-0.023372687
10	0xbcc7e8e1	-0.024403038
11	0xbccdbd47	-0.025114669
12	0x3a6f5399	0.00091295835
13	0xbd0ed5b3	-0.03487177
14	0xbd011bef	-0.03152078
15	0xbc87433b	-0.01651155
16	0xbc8ec04b	-0.017425677
17	0xbcb47a38	-0.022030935
18	0xbcc0afe2	-0.023521367
19	0xbc4284bc	-0.011872467
20	0xbc4251ec	-0.011860352
21	0xbc3ca81f	-0.011514693
22	0xbc953142	-0.018211965
23	0xbc8d6be3	-0.017263358
24	0xbcee995e	-0.029125866
25	0xbc2ca2d3	-0.010536867
26	0xbcaaa07b	-0.020828476
27	0xbcc56a06	-0.024098407
28	0xbc8d755e	-0.01726788
29	0xbcb86eb9	-0.022513734
30	0xbca9056e	-0.020632472
31	0xbc3ea2d0	-0.011635497
32	0xbcf30ad5	-0.029668251
33	0xbc8ab4ae	-0.016931858
34	0xbcd0df89	-0.025497215
35	0xbc82f407	-0.015985502
36	0x3bda7f4e	0.006668008
37	0xbc3fa21a	-0.011696363
38	0xbbf7985d	-0.007556005
39	0xbce61154	-0.028084435
40	0xbc235d0d	-0.0099709155
41	0xbc8b045d	-0.016969854
42	0xbcebddbd	-0.028792256
43	0xbd121c9b	-0.03567181
44	0xbc6c5d03	-0.014426473
45	0xbcaf517f	-0.021401165
46	0xbca0857f	-0.019594906
47	0xbcbce7c5	-0.023059735
48	0x3b1632b3	0.0022918403
49	0xbca4f540	-0.020136476
50	0xbcacfe7c	-0.021117441
51	0xbc9c23d5	-0.019060055
52	0xbcbefc98	-0.023313805
53	0xbbc4d521	-0.0060068523
54	0xbb8d2c14	-0.004308233
55	0xbca5ec49	-0.020254271
56	0xbc712e17	-0.014720461
57	0xbcdfd5f3	-0.027323699
58	0xbbfd73ab	-0.007734736
59	0xbcecb89f	-0.028896628
60	0xbd05b8c5	-0.032646913
61	0xbcbf942e	-0.023386087
62	0xbcc1978f	-0.02363184
63	0xbd02b955	-0.031915028

block2.1.running_mean f4 [64]
0	0xbe789833	-0.2427681
1	0xbee7f0df	-0.45300958
2	0xbee78a47	-0.45222685
3	0xbcf5ff39	-0.030028926
4	0xbdb1704f	-0.08663999
5	0xbefb8450	-0.49124384
6	0xbef81ae1	-0.48458007
7	0x3e515911	0.20444132
8	0x3eef8f1a	0.46788865
9	0xbe3d46f0	-0.18484092
10	0xbec5d8e0	-0.38642025
11	0x3d55950b	0.05214409
12	0xbf036926	-0.5133232
13	0xbe5ed3e1	-0.21760513
14	0x3f161703	0.58628863
15	0xbe153de6	-0.14574394
16	0xbefd32b6	-0.49452752
17	0x3edcc18d	0.43116418
18	0xbf43f6ef	-0.76548666
19	0xbe112d33	-0.14177398
20	0xbf83e314	-1.0303674
21	0x3d3a1927	0.045434143
22	0xbf05e78d	-0.52306443
23	0xbd054b18	-0.032542318
24	0xbe802e97	-0.25035545
25	0xbf5032dc	-0.81327605
26	0x3dae6414	0.08515182
27	0xbedec3de	-0.4350881
28	0xbce78c14	-0.028265037
29	0x3efcacac	0.49350488
30	0xbe1d5db1	-0.15367772
31	0xbec2af6c	-0.3802446
32	0x3ebc9f6e	0.36840385
33	0x3f3985c6	0.7246975
34	0xbec0b967	-0.3764145
35	0x3f25245b	0.645086
36	0xbd63311f	-0.055466767
37	0xbed3c17f	-0.41358563
38	0xbd9b4243	-0.07580998
39	0xbe337fb9	-0.17529191
40	0x3f00eb5e	0.5035914
41	0x3ecbf9a4	0.39838898
42	0xbefa9744	-0.48943532
43	0xbeb5ef6e	-0.35534233
44	0x3e8a8f01	0.27062228
45	0xbecfd608	-0.4059298
46	0xbf19d563	-0.6009123
47	0xbe97cd29	-0.29648712
48	0xbe1f7062	-0.15570214
49	0x3e03000b	0.12792985
50	0x3e00df53	0.12585191
51	0xbe11a3e7	-0.1422268
52	0xbecbdb5d	-0.39815798
53	0x3deeb221	0.11655069
54	0xbe825c88	-0.2546122
55	0xbd51a23c	-0.05118011
56	0xbf2fae1d	-0.6862505
57	0xbf18021c	-0.5937822
58	0xbd89b738	-0.06724399
59	0xbe50d1ec	-0.20392579
60	0x3f32352b	0.6961238
61	0x3e6dccfe	0.2322273
62	0x3e488b8a	0.1958448
63	0xbe413a61	-0.18869926

block2.1.running_var f4 [64]
0	0x3de5aeee	0.11215006
1	0x3eaf9bba	0.34298497
2	0x3edfc5cf	0.43705603
3	0x3d90e0d9	0.07074136
4	0x3e361908	0.17782986
5	0x3e142a9b	0.14469378
6	0x3f2ef7ec	0.6834705
7	0x3ec9dd14	0.39426482
8	0x3e196516	0.14979967
9	0x3f1e1570	0.6175146
10	0x3e0c621e	0.13709304
11	0x3e819b12	0.25313622
12	0x3eb25674	0.34831583
13	0x3dc20fc3	0.094756626
14	0x3e4a47d6	0.19753966
15	0x3eb191a2	0.34681422
16	0x3ebcdd3e	0.36887544
17	0x3e725d62	0.23668435
18	0x3e7d98da	0.2476534
19	0x3e672449	0.22572435
20	0x3f4d6ee2	0.8024732
21	0x3e7cb9e6	0.2468029
22	0x3e2568b5	0.16153224
23	0x3e55ec91	0.20891024
24	0x3f1a3561	0.602377
25	0x3e930b9c	0.28719795
26	0x3d8a35e5	0.06748561
27	0x3e276146	0.163457
28	0x3ed057a3	0.40691862
29	0x3ea19c98	0.31564784
30	0x3e406cc8	0.18791497
31	0x3e0ec47b	0.13942139
32	0x3f493dd4	0.7860997
33	0x3ea9130f	0.33022353
34	0x3df2bbcd	0.118522264
35	0x3e4b55f8	0.19857013
36	0x3df896cc	0.12138137
37	0x3e681b3f	0.22666644
38	0x3d4513b3	0.04811449
39	0x3d9c3fbc	0.07629344
40	0x3e6f3e9b	0.23363726
41	0x3ec96aec	0.39339387
42	0x3ed151f7	0.40882847
43	0x3f343810	0.70398045
44	0x3e0bb72d	0.13644095
45	0x3ec49f21	0.38402656
46	0x3e9b2dbc	0.3030833
47	0x3e89e96c	0.269359
48	0x3dbada20	0.09123635
49	0x3e519e57	0.20470558
50	0x3d9b2cc5	0.075768985
51	0x3e54d5b8	0.20784652
52	0x3e98b8d9	0.29828528
53	0x3db981de	0.09057973
54	0x3e027cca	0.12742916
55	0x3dde6f04	0.10861018
56	0x3ee1a0cc	0.4406799
57	0x3e4b14d2	0.19832161
58	0x3d867250	0.06564772
59	0x3f350fe1	0.70727354
60	0x3ef9cac9	0.48787525
61	0x3f86fb48	1.0545435
62	0x3e994f94	0.29943526
63	0x3dc9a31c	0.09845564

block3.0.weight f4 [64, 64, 3, 3]
0	0xbd04331a	-0.032275297
1	0xbccc8dd3	-0.02496997
2	0xbcb57f09	-0.022155302
3	0x3ca7c36f	0.020478932
4	0x3cfd6bf0	0.030935258
5	0x3d39541d	0.045246232
6	0xbc9c48bd	-0.019077653
7	0x3d80e12a	0.06292947
8	0xbd297fa9	-0.04138151
9	0xbc7fa8c6	-0.015604204
10	0xbce2cdd5	-0.027686039
11	0xbb0238aa	-0.00198702
12	0xbc05bf3d	-0.008163271
13	0xbc6e0eb2	-0.014529871
14	0x3ca90db7	0.020636423
15	0xbd27f350	-0.041003525
16	0x3b97e83a	0.004635838
17	0xbc00b4ad	-0.007855576
18	0x3c607ae0	0.013701171
19	0x3bae92f5	0.0053275772
20	0x3abea993	0.0014546387
21	0x3b016746	0.0019745394
22	0xbd0c5748	-0.034262925
23	0xba1cd465	-0.0005982577
24	0x3cd53f79	0.026031243
25	0xbcf3e025	-0.029769966
26	0x3b887978	0.004164871
27	0xbcc1af4c	-0.023643158
28	0xbb92cf2d	-0.0044802637
29	0xbc6fb257	-0.014629922
30	0x3d178097	0.036987867
31	0xbc9c981b	-0.019115498
32	0xbd187d28	-0.037228733
33	0x3d00aba7	0.0314137
34	0x3d09e7e4	0.033668414
35	0x3cb99b85	0.022657165
36	0xbd23da6a	-0.040003218
37	0xbd27ef5a	-0.040999748
38	0xbc8763f0	-0.016527146
39	0xbcd25497	-0.025675101
40	0x3ccd34b8	0.025049552
41	0x3cbc3429	0.02297409
42	0x3c7fe8a3	0.01561943
43	0x3c3f1084	0.0116616525
44	0xbd28bcb1	-0.041195575
45	0xbd0dbfeb	-0.034606855
46	0xbc8351b2	-0.016030166
47	0xbc17d13c	-0.009266194
48	0x3b0e6aaf	0.002173107
49	0xbb055ae7	-0.0020348371
50	0x3c7cc914	0.0154288
51	0x3c995121	0.018715443
52	0x3d126db9	0.03574917
53	0x3c444095	0.011978288
54	0xbcf14c61	-0.029455366
55	0x3cdc7d65	0.026915262
56	0xbc09da45	-0.008413856
57	0x3b870601	0.004120589
58	0xbcce5105	-0.025185117
59	0xbd0f8e1c	-0.035047635
60	0x3d1ebe3f	0.03875565
61	0xbaaa072b	-0.0012972107
62	0xbcc31869	-0.02381535
63	0xbcd0c8e9	-0.025486426
64	0xbc8072e7	-0.01567979
65	0x3c8ea111	0.017410787
66	0x3cfc3b5d	0.030790025
67	0xbd035615	-0.032064516
68	0x3b8b27c0	0.004246682
69	0x3bff52b0	0.0077918395
70	0xbd1cc06f	-0.038269456
71	0xbcb085c7	-0.021548165
72	0xbc8e077c	-0.017337553
73	0xbb0f2bfc	-0.0021846285
74	0x3ca31192	0.01990584
75	0x3cfca6aa	0.03084119
76	0xbd06e264	-0.032930747
77	0x3d161a8c	0.03664641
78	0xbc88b1c7	-0.016686333
79	0xbc4db91c	-0.012556341
80	0x3d23ff2b	0.04003827
81	0xbb8eff53	-0.004363933
82	0x3cd9ad10	0.02657178
83	0xbc9c3299	-0.019067096
84	0xbd425f02	-0.047453888
85	0xbc0869b1	-0.00832598
86	0x3c74797c	0.014921542
87	0xbcc87182	-0.024468187
88	0x3d0d406a	0.03448526
89	0xbc82cadb	-0.01596587
90	0x3ce9c84d	0.028537894
91	0xbc92fb69	-0.017942147
92	0x3c647237	0.013943247
93	0x3ca25fdf	0.019821106
94	0x3ba5950f	0.0050531696
95	0xbc810748	-0.015750542
96	0x3d2642cd	0.04059105
97	0x3cba28fd	0.022724623
98	0x3c9a5c7f	0.018842934
99	0xbc257542	-0.010098757
100	0xbd15a890	-0.036537707
101	0xbc931e55	-0.0179588
102	0x3a3008e3	0.00067151914
103	0xbc971955	-0.018444696
104	0x3cd303bb	0.025758615
105	0x3cd5114e	0.026009228
106	0x3cc44742	0.02395976
107	0xbcc389d4	-0.023869433
108	0x3c8c8a2f	0.017155735
109	0x3ce54b52	0.027990017
110	0x3ce0e7bf	0.027454255
111	0x3c8d056a	0.017214496
112	0xbc7ee3e8	-0.015557267
113	0xbcfca33f	-0.03083956
114	0x3ce1e520	0.027575076
115	0x3c6c9dd5	0.014441927
116	0xbd031b8c	-0.032008693
117	0xbb88d8f1	-0.004176252
118	0xbcc07586	-0.02349354
119	0xbc990ad7	-0.018681927
120	0x3c6ebf37	0.014571956
121	0xbce36a8f	-0.027760772
122	0xbcee5461	-0.02909297
123	0xbc0ae89b	-0.008478309
124	0x3ca14b69	0.019689279
125	0xbcd6331b	-0.026147416
126	0xbb99c9a1	-0.0046932255
127	0xbce0f78e	-0.027461793
128	0x3ca3f9ab	0.020016512
129	0xbcd44783	-0.025913006
130	0x3d04d3bb	0.032428484
131	0x3c19c77c	0.00938594
132	0x3d0fb074	0.03508039
133	0xbc5f1193	-0.01361503
134	0x3d20dd8e	0.03927379
135	0x3c4d1a8b	0.012518535
136	0x3b8e6ad2	0.00434623
137	0x3c9a8410	0.0188618
138	0x3b8e9942	0.004351766
139	0x3cd326ce	0.02577534
140	0x3c6bc15c	0.014389362
141	0xbc0282ef	-0.007965787
142	0xbd2cd121	-0.04219163
143	0xbc2d38b7	-0.010572604
144	0xbcdab8cc	-0.026699446
145	0x3c3598d5	0.011083801
146	0x3c88313a	0.016625036
147	0x3cff1d58	0.031141922
148	0xbbacfd83	-0.0052792444
149	0x3b8645e5	0.0040976875
150	0x3cacf252	0.021111641
151	0xbd5a38e9	-0.05327693
152	0xbcc75a66	-0.024335098
153	0x3c72b833	0.014814424
154	0x3c6141ee	0.013748629
155	0x3b8e0365	0.0043339008
156	0x3d12f369	0.035876665
157	0x3c7e8b09	0.015536078
158	0x3cb62dfb	0.022238722
159	0x3ae391cd	0.0017362178
160	0x3d0a6732	0.03378982
161	0x3cf943f8	0.030427918
162	0x3c7b21f3	0.015327918
163	0xbd0a4d51	-0.03376514
164	0x3cd92c1f	0.026510296
165	0xbc0757d9	-0.008260691
166	0xbccac140	-0.024750352
167	0xbd4d4790	-0.050117075
168	0x3c9010ad	0.017586077
169	0x3bdba2ea	0.0067027705
170	0x3bcb006e	0.0061951196
171	0xbd02b1e7	-0.031907942
172	0x3ca3126c	0.019906245
173	0x3c07fe55	0.008300384
174	0x3d029ab5	0.03188582
175	0xbcdbd9b0	-0.0268372
176	0x3ca43dc7	0.020048989
177	0x3c3f467c	0.01167452
178	0xba4f83af	-0.0007916046
179	0x3c3c9fa9	0.011512675
180	0xbd4935ae	-0.04912346
181	0x3b94bba9	0.0045389724
182	0xbcb168e6	-0.021656465
183	0xbc5f5aec	-0.013632517
184	0x3b712951	0.0036798308
185	0xbc686bf1	-0.0141858915
186	0xbd228cac	-0.039684936
187	0xbbdab606	-0.006674531
188	0x3ce9b1a9	0.028527098
189	0xbd34145b	-0.043964725
190	0x3c89babe	0.016812678
191	0x3b926ade	0.004468306
192	0xbcdf0a73	-0.027226662
193	0xbce7a913	-0.028278863
194	0x3cfcf086	0.03087641
195	0xbd0aa36c	-0.033847257
196	0xbd0f2cae	-0.03495472
197	0x3b4d49be	0.0031324471
198	0x3cc5df34	0.024154283
199	0x3ca3d3e5	0.0199985
200	0x3cb158c9	0.021648781
201	0x3ce789f7	0.028264029
202	0x3b983f4c	0.0046462175
203	0x3bff3769	0.007788588
204	0xbc9669e0	-0.018361032
205	0xbd40440e	-0.046939902
206	0xba6aa064	-0.00089502917
207	0x3cca25d5	0.024676243
208	0x3b14a55c	0.002268157
209	0x3ceb8642	0.028750543
210	0xbbbceaf7	-0.0057653147
211	0xbc854213	-0.016266858
212	0xbd33e9dc	-0.043924198
213	0x3d4f3cf7	0.05059525
214	0x3ace18c9	0.0015723939
215	0xbc8fa46d	-0.017534459
216	0xbbff0e88	-0.0077837147
217	0x3cd7749c	0.02630072
218	0x3c233ac7	0.009962744
219	0x3d1ae661	0.037817363
220	0x3cc9ea7c	0.024647944
221	0x38cb1d8b	9.685297e-05
222	0xbc68b1e3	-0.014202568
223	0xbb2294c3	-0.0024807907
224	0xbc75a0ec	-0.01499198
225	0x3ca3243a	0.019914735
226	0x3c9afb80	0.018918753
227	0xbc136de7	-0.008998371
228	0x3c76bf34	0.015060235
229	0x3b33f337	0.00274582
230	0x3abb0bb6	0.0014270458
231	0xbc4cabeb	-0.01249216
232	0x3d45edbf	0.048322435
233	0x3be0943f	0.00685361
234	0xbd1f5c8e	-0.038906626
235	0x3d5c0f5e	0.053725593
236	0xbd2acefb	-0.0417013
237	0x3bf9206b	0.0076027415
238	0xbcb9681b	-0.02263265
239	0x3cbf1064	0.023323245
240	0x3bf7d948	0.0075637437
241	0xbc98a89f	-0.018635092
242	0x3ca9bcf6	0.020719986
243	0xbd4b1d49	-0.049588475
244	0x3cbaab24	0.022786684
245	0x3c69d1f2	0.014271246
246	0xbb4a6bae	-0.0030886936
247	0xbb813a1c	-0.0039436948
248	0xbd1a0e56	-0.037611328
249	0x3ca53635	0.02016745
250	0xbd1ee7d2	-0.0387953
251	0xbc52efd8	-0.012874566
252	0xbbeb1ebd	-0.007175295
253	0xbb47b1e2	-0.0030471017
254	0x3bd82a98	0.0065968744
255	0xbca110ad	-0.019661272

block3.0.bias f4 [64]
0	0x3b463ede	0.0030249874
1	0x3b16fdf6	0.0023039556
2	0xbccea4aa	-0.025225002
3	0xbc7928ee	-0.015207512
4	0x3d324462	0.043522246
5	0x3c33aa39	0.010965877
6	0xbcff4a6a	-0.031163413
7	0xbd2ae82b	-0.04172532
8	0xbd0b3d74	-0.033994153
9	0xbcfc025f	-0.03076285
10	0xbcc17def	-0.02361962
11	0xbc0cb961	-0.00858912
12	0x3ccc09b9	0.02490698
13	0xbd11eccc	-0.035626218
14	0x3ccecfc7	0.02524556
15	0xbd165b55	-0.036708195
16	0x3cb760ef	0.022385089
17	0xbc110c6b	-0.008853058
18	0xbc16d6c3	-0.009206477
19	0xbd21545f	-0.039387103
20	0x3c822bac	0.015889965
21	0xbcb50f75	-0.022102097
22	0xbd29a778	-0.041419476
23	0x3cea347c	0.02858948
24	0xbaabe229	-0.0013113666
25	0xbd015416	-0.03157433
26	0x3c885a8b	0.016644737
27	0xbc108302	-0.008820297
28	0x3c520200	0.01281786
29	0xbcf1fbd9	-0.029539036
30	0x3cf9d953	0.030499136
31	0xbbb5c5a2	-0.0055472413
32	0xbb717852	-0.0036845398
33	0xbd3688f2	-0.044564195
34	0x3cc3cbdd	0.02390092
35	0xbbb67458	-0.0055680685
36	0x3d037ae6	0.032099627
37	0xbb3c0d7e	-0.0028694565
38	0xbd2395db	-0.039937835
39	0xbc8c7b75	-0.017148713
40	0x3c078180	0.008270621
41	0xbd1d942e	-0.038471393
42	0xbcc25e6c	-0.023726664
43	0xbc11d479	-0.008900755
44	0xbc7da966	-0.015482282
45	0xbce03267	-0.027367784
46	0xbd0df5b7	-0.03465816
47	0x3cf48ab9	0.029851304
48	0x3b83df62	0.004024432
49	0xbc8efd22	-0.017454688
50	0x3c22582a	0.009908715
51	0xbd1655c9	-0.036702905
52	0xbc3b9740	-0.011449635
53	0xbbcdf02e	-0.006284735
54	0xbd01d979	-0.03170154
55	0xbc32f22b	-0.010921995
56	0x3d0d0fbb	0.03443883
57	0x3b8f8158	0.0043794326
58	0xbcecf65f	-0.028926073
59	0xbd0ab20d	-0.03386121
60	0x3c10cfe1	0.008838625
61	0xbbcc53f2	-0.006235593
62	0x3cc49e54	0.024001278
63	0x3aea0530	0.0017854329

block3.1.weight f4 [64]
0	0x3f805559	1.0026046
1	0x3f7e299f	0.9928226
2	0x3f7eea2d	0.99576074
3	0x3f7fff93	0.9999935
4	0x3f7f603b	0.9975621
5	0x3f8080cc	1.0039306
6	0x3f7bb864	0.9832823
7	0x3f80427f	1.0020293
8	0x3f80ebc2	1.0071948
9	0x3f80fc34	1.0076966
10	0x3f808737	1.0041264
11	0x3f80bfe3	1.0058559
12	0x3f7f237e	0.9966353
13	0x3f828d06	1.0199287
14	0x3f7ced47	0.98799556
15	0x3f8026c6	1.0011833
16	0x3f7d18b5	0.98865825
17	0x3f7d4a5d	0.98941594
18	0x3f8025b7	1.001151
19	0x3f801ba3	1.0008434
20	0x3f7e08b7	0.9923205
21	0x3f7f0884	0.9962237
22	0x3f819953	1.0124916
23	0x3f804541	1.0021135
24	0x3f7c6034	0.98584294
25	0x3f7c72c8	0.9861264
26	0x3f8130af	1.0092982
27	0x3f812a0e	1.0090959
28	0x3f7ccbd5	0.98748523
29	0x3f809be2	1.0047572
30	0x3f8302ff	1.0235289
31	0x3f811451	1.0084325
32	0x3f815a2e	1.0105646
33	0x3f7f8d29	0.9982477
34	0x3f804058	1.0019636
35	0x3f808fa5	1.0043837
36	0x3f800c0c	1.0003676
37	0x3f7e9f57	0.99461883
38	0x3f7fe281	0.9995499
39	0x3f7fb914	0.9989178
40	0x3f7d5a23	0.9896566
41	0x3f7dd475	0.9915231
42	0x3f807559	1.0035812
43	0x3f7e30fd	0.992935
44	0x3f7f05ce	0.9961823
45	0x3f810cc0	1.0082016
46	0x3f7ebfe9	0.9951158
47	0x3f81a993	1.0129875
48	0x3f80cec7	1.0063103
49	0x3f7b292b	0.9810969
50	0x3f80bc14	1.0057397
51	0x3f7fcf47	0.99925655
52	0x3f80e3f5	1.0069567
53	0x3f811ac6	1.0086296
54	0x3f7fa06f	0.9985418
55	0x3f82d537	1.0221318
56	0x3f82323b	1.0171579
57	0x3f7eccc7	0.99531215
58	0x3f7dcc2e	0.9913968
59	0x3f803415	1.0015894
60	0x3f7f6ec6	0.997784
61	0x3f810e45	1.008248
62	0x3f7bc9d7	0.9835486
63	0x3f7e31d8	0.99294806

block3.1.bias f4 [64]
0	0xbcbfdbed	-0.023420298
1	0xbd003f55	-0.031310398
2	0xbce61a53	-0.028088724
3	0xbcbdce69	-0.023169713
4	0xbc895139	-0.016762363
5	0xbcf21470	-0.029550761
6	0xbd37030f	-0.04468065
7	0xbc3d258f	-0.011544599
8	0xbcf395cf	-0.02973452
9	0xbcaf6f1c	-0.021415286
10	0xbca84a78	-0.020543322
11	0xbccd399b	-0.025051882
12	0xbcabf507	-0.020990862
13	0x3b89c13c	0.0042039435
14	0xbcb33a41	-0.021878364
15	0xbd05707d	-0.03257798
16	0xbce8a9fa	-0.028401364
17	0xbca3c0d7	-0.019989414
18	0xbc8a19fa	-0.01685809
19	0xbd1310f1	-0.03590483
20	0xbcf2eb7b	-0.029653301
21	0xbcd08274	-0.02545283
22	0xbcba4975	-0.022740105
23	0xbcdef605	-0.02721692
24	0xbd263b54	-0.040583923
25	0xbbdc367d	-0.0067203627
26	0xbd2eee46	-0.042707704
27	0xbd009039	-0.03138754
28	0xbc8d2f2f	-0.017234413
29	0xbc8be496	-0.017076772
30	0xbcc7d8e6	-0.024395417
31	0xbbbd32b1	-0.005773865
32	0xbc781907	-0.015142686
33	0xbc5273fc	-0.012845036
34	0xbcb5fc69	-0.022215085
35	0xbc19deae	-0.00939147
36	0xbd1a2cc2	-0.03764034
37	0xbd20a581	-0.039220337
38	0xbd137294	-0.035997942
39	0xbc8c826f	-0.01715204
40	0xbcb69e21	-0.022292199
41	0xbc3eb57c	-0.011639949
42	0xbd0ec547	-0.034856107
43	0xbd1c4e42	-0.03816057
44	0xbcae9820	-0.021312773
45	0xbc8c09bd	-0.017094487
46	0xbc9b0fae	-0.018928375
47	0xbcda79c0	-0.026669383
48	0xbc88ba26	-0.016690325
49	0xbd010bfa	-0.031505562
50	0xbcf3ac38	-0.029745206
51	0xbd0662fc	-0.032809243
52	0xbcc37bb9	-0.023862706
53	0xbd03e913	-0.0322047
54	0xbd00e413	-0.03146751
55	0xbc2d72bd	-0.010586438
56	0xbcdcb32a	-0.0269409
57	0xbcc571bb	-0.024102082
58	0xbce23acc	-0.027615927
59	0xbcd786f5	-0.02630947
60	0xbd01db29	-0.031703148
61	0xbcc01a35	-0.023449996
62	0xbd1d620c	-0.038423583
63	0xbce7bf0d	-0.028289342

block3.1.running_mean f4 [64]
0	0xbdcbbd01	-0.09948159
1	0xbe5598d3	-0.20859079
2	0xbd34c946	-0.04413726
3	0xbf1e498d	-0.6183098
4	0xbe1de34c	-0.15418738
5	0x3e0ecd40	0.13945484
6	0x3d980a1f	0.074238054
7	0xbe861b8b	-0.2619289
8	0x3d985d19	0.07439632
9	0xbea3c108	-0.3198321
10	0x3d860f75	0.06545917
11	0xbd97e935	-0.074175276
12	0xbda31503	-0.07962992
13	0xbf4ac036	-0.7919954
14	0xbe1ad9e4	-0.15122181
15	0x3dc5d742	0.09660198
16	0xbdc87cec	-0.09789452
17	0x3ea924a9	0.33035782
18	0x3dbbf6d3	0.09177937
19	0x3d3a3356	0.045459114
20	0xbd572615	-0.052526552
21	0x3e9610cb	0.29309687
22	0xbec9eb05	-0.39437118
23	0x3dcea848	0.10090691
24	0x3d966596	0.07343595
25	0xbe8dfd51	-0.27732328
26	0x3dbfcf22	0.09365679
27	0x3e7970b0	0.24359393
28	0x3e675f20	0.22594881
29	0xbd492908	-0.049111396
30	0xbdf5a4cd	-0.11994324
31	0xbf9c7f36	-1.2226322
32	0xbf1b5aa7	-0.606852
33	0x3e68139a	0.22663727
34	0x3e5b3392	0.21406391
35	0xbec736c1	-0.3890896
36	0x3c180acc	0.009279918
37	0x3e8f94c2	0.2804318
38	0x3db487ed	0.08814988
39	0xbe94800a	-0.29003936
40	0xbf4f1164	-0.8088591
41	0xbeaed0f9	-0.34143808
42	0x3de72316	0.11285989
43	0xbef748b8	-0.48297668
44	0x3db70b73	0.08937731
45	0x3eb7b163	0.35877523
46	0x3d9f8c13	0.07790389
47	0xbebe52c1	-0.3717251
48	0xbd743845	-0.059623975
49	0x3e242e86	0.16033372
50	0x3ea273ec	0.31729066
51	0x3da1618c	0.07879934
52	0xbd2ce2c4	-0.042208448
53	0x3d4ee5d3	0.050512146
54	0x3e62021c	0.22071117
55	0xbf57d1b1	-0.8430434
56	0x3c6df60c	0.014523994
57	0x3e8d1afb	0.27559647
58	0x3e33a616	0.17543826
59	0xbd98b995	-0.07457272
60	0x3ec88e54	0.39171088
61	0x3e884471	0.26614717
62	0x3e777c24	0.2416845
63	0xbecedd21	-0.40403083

block3.1.running_var f4 [64]
0	0x3deecbb4	0.11659947
1	0x3e6d52e4	0.23176152
2	0x3e10b5a1	0.14131786
3	0x3e5ea5d6	0.21742949
4	0x3e610206	0.21973428
5	0x3de68840	0.112564564
6	0x3e6f2ba6	0.23356494
7	0x3e2868a2	0.16446164
8	0x3e07cee6	0.13262519
9	0x3e3a0f42	0.18169883
10	0x3e6abc9e	0.22923514
11	0x3e0c327f	0.13691138
12	0x3e785f9e	0.24255225
13	0x3e96db23	0.29464063
14	0x3e801961	0.25019363
15	0x3e357f83	0.17724423
16	0x3e37401e	0.17895553
17	0x3ec7f988	0.39057565
18	0x3e44008a	0.1914083
19	0x3dc4b944	0.09605649
20	0x3e53f343	0.20698266
21	0x3e1a2da6	0.15056476
22	0x3e510191	0.20410754
23	0x3e513e5e	0.20433947
24	0x3e7a6aa5	0.24454744
25	0x3e496edb	0.19671194
26	0x3e647fd7	0.22314392
27	0x3df5aa2f	0.119953506
28	0x3e1b0db4	0.15141946
29	0x3e8f47b1	0.27984384
30	0x3e1e9cfe	0.15489575
31	0x3f39b00c	0.7253425
32	0x3ecbb66c	0.39787614
33	0x3e8a1a8f	0.26973388
34	0x3e14d541	0.14534475
35	0x3e669b0e	0.22520086
36	0x3e2e03b4	0.169936
37	0x3e9d3731	0.3070617
38	0x3df64bdb	0.12026187
39	0x3e3577a5	0.17721422
40	0x3f021113	0.50807303
41	0x3e80859b	0.25101933
42	0x3e0886dc	0.13332695
43	0x3e467eae	0.19384262
44	0x3e55a1dc	0.20862526
45	0x3e2104f7	0.1572455
46	0x3ea095ea	0.31364375
47	0x3e9e6bb1	0.30941537
48	0x3e6adef8	0.22936618
49	0x3e3609f2	0.17777231
50	0x3e240613	0.16017942
51	0x3e56072e	0.20901176
52	0x3ddcfcc2	0.10790397
53	0x3dde710d	0.108614065
54	0x3e6a5e5b	0.22887556
55	0x3eeb4dba	0.45957738
56	0x3dfa05e9	0.122081585
57	0x3e578b1c	0.2104916
58	0x3e1a0e78	0.15044582
59	0x3e5fe7d5	0.2186578
60	0x3e4f54c3	0.20247178
61	0x3e065520	0.1311841
62	0x3eadff38	0.3398378
63	0x3e311f52	0.17297104
