results/old/basic_16.pth (torch, 961547 bytes, 26 tensors)

block1.0.weight f4 [64, 1, 3, 3]
-0.13916746 -0.16369618 -0.23459427 0.094424054 0.3339711 -0.09882371 -0.050126478 -0.2555278
0.18267784 0.14538679 -0.26100743 0.23551695 0.21581726 -0.1970801 0.28038543 -0.31368858
0.066939585 -0.10579626 0.20783459 0.31160507 -0.28559464 0.20534499 -0.15555273 0.3183743
-0.07127066 -0.31870738 0.06392164 0.17285801 0.30535635 -0.2388303 0.2020652 0.105524465
0.060710616 0.20626616 -0.18545167 0.14647627 -0.118579715 -0.25078696 -0.11143994 -0.028543435
0.3461738 -0.018233186 -0.23129845 0.2646664 -0.2289899 0.10756485 -0.116777875 0.21891296
-0.044451304 0.25318012 -0.10829651 0.13031454 0.136601 -0.016406903 -0.24878387 0.32195687
0.18705817 -0.23302993 -0.20850085 -0.0842242 -0.2918409 0.06923527 -0.050480492 -0.32549575
-0.3138453 0.04810102 0.33140472 0.08303439 0.1996797 -0.20804916 0.27460244 -0.077861436
-0.059779223 0.2841035 -0.13846606 -0.025164863 0.09892218 0.109425955 -0.09127283 -0.04534999
0.23700923 -0.19407341 -0.3172135 -0.20392844 0.1068955 -0.18401548 -0.32207915 0.114879794
-0.24965121 0.16971852 0.025364526 0.17682183 -0.09100058 -0.17129436 0.17753248 0.19640288
-0.12108613 0.20128086 -0.26482254 -0.14798105 0.16767943 0.030939292 0.15918206 -0.3320477
0.07223645 0.1472623 -0.025798488 0.29587102 -0.013706552 -0.13144429 0.12016458 -0.30755118
0.21315396 -0.040688496 -0.072858065 -0.031174416 -0.26113912 -0.14376573 -0.29599378 -0.225021
-0.007978948 -0.085998915 -0.019411642 0.32760373 -0.3095876 0.0024664958 0.007348912 -0.26848936
0.13357852 0.19174734 -0.13213511 -0.08781965 0.3283175 0.17890275 0.16274734 -0.012471326
0.27675614 0.22232221 0.2907199 -0.18395047 0.20998308 0.05903179 -0.1371132 -0.14331819
0.3251521 0.11109944 -0.2946929 -0.10596448 -0.2990887 0.1277306 -0.13511977 0.056914575
0.20890877 0.054799862 -0.16506204 -0.28798008 -0.09362635 0.10596854 0.16111575 0.27691224
0.058803823 -0.02599447 0.014028487 -0.21191299 -0.2545441 0.12585986 0.21681486 0.2948538
0.190543 0.0007991267 0.17865084 0.0792837 0.13577591 -0.17233133 -0.26219735 -0.003974584
-0.038866695 0.27963656 -0.092865124 0.21592677 -0.031449128 0.2575547 0.00203436 0.21899319
-0.21492442 -0.28231117 -0.14243138 0.24013579 -0.28584683 0.19720086 -0.24699275 -0.1754981
0.26480204 -0.012853936 0.246126 0.214757 -0.3073534 0.08958608 0.07698062 -0.19090246
-0.15445274 -0.20908017 0.22073898 -0.2888164 -0.3388556 -0.023372699 0.14248818 0.21732444
-0.005697326 -0.046063725 0.043588664 0.22728792 0.25820276 -0.10362277 0.16294385 -0.0015712567
-0.15905863 0.05734403 -0.2602329 0.09438835 0.070556216 -0.066764675 0.30325496 -0.059017822
0.27549386 0.116939925 0.23705508 0.038048074 -0.33299604 0.29702216 -0.14716212 0.03081488
0.15758072 -0.22322978 0.26237318 0.00934495 0.23488426 -0.12656009 0.1886856 0.20878443
0.18428156 -0.062490232 0.16843793 0.09313045 -0.19168347 0.2711671 0.16661203 0.06843468
-0.26328075 0.26169798 -0.34333432 0.17676306 -0.025786744 -0.23360452 0.2296818 -0.2744866
00000000: ea81 0ebe f99f 27be 7b39 70be 6661 c13d
00000010: 43fe aa3e 1664 cabd 6c51 4dbd 8ad4 82be
00000020: e60f 3b3e 46e0 143e c4a2 85be 5b2b 713e
00000030: 33ff 5c3e 5ecf 49be ae8e 8f3e ca9b a0be
00000040: 9f17 893d b6ab d8bd 97d2 543e b38a 9f3e
00000050: 7639 92be f545 523e 3749 1fbe f501 a33e
00000060: 5af6 91bd 9d2d a3be 59e9 823d b101 313e
00000070: ab57 9c3e ee8f 74be 2eea 4e3e 361d d83d
00000080: b2ab 783d 7037 533e 0be7 3dbe e0fd 153e
00000090: ecd9 f2bd 2667 80be a03a e4bd ecd3 e9bc
000000a0: b13d b13e c35d 95bc 80d9 6cbe 5b82 873e
000000b0: 547c 6abe f64a dc3d 3d29 efbd b82a 603e
000000c0: 9212 36bd d3a0 813e 90ca ddbd 2d71 053e
000000d0: 22e1 0b3e c567 86bc 33c1 7ebe 88d7 a43e
000000e0: 2d8c 3f3e 669f 6ebe 3f81 55be bd7d acbd
000000f0: 2c6c 95be 39cb 8d3d a2c4 4ebd 61a7 a6be
00000100: 55b0 a0be 9305 453d e1ad a93e ef0d aa3d
00000110: d678 4c3e d70a 55be b198 8c3e d175 9fbd
00000120: 0fdb 74bd 0476 913e 0cca 0dbe 8b26 cebc
00000130: b697 ca3d b71a e03d 40ed babd e9c0 39bd
00000140: 8cb2 723e 2ebb 46be cf69 a2be 9ed2 50be
00000150: 07ec da3d 8e6e 3cbe 8fe7 a4be 1946 eb3d
00000160: 91a4 7fbe b1ca 2d3e 44c9 cf3c c810 353e
00000170: 835e babd ca67 2fbe 13cb 353e d61d 493e
00000180: 01fc f7bd 921c 4e3e d296 87be 5888 17be
00000190: 28b4 2b3e 6674 fd3c 9f00 233e 2802 aabe
000001a0: b4f0 933d eecb 163e 5a57 d3bc 687c 973e
000001b0: 7291 60bc 5599 06be d918 f63d 5977 9dbe
000001c0: 0845 5a3e fba8 26bd 9c36 95bd 7d61 ffbc
000001d0: 07b4 85be 5337 13be 7f8c 97be e86b 66be
000001e0: 22ba 02bc 3320 b0bd 2a05 9fbc adbb a73e
000001f0: 4482 9ebe efa4 213b 24cf f03b 7077 89be
00000200: cfc8 083e 6a59 443e 6d4e 07be cada b3bd
00000210: 3b19 a83e 4832 373e 3da7 263e 8854 4cbc
00000220: fbb2 8d3e 6fa8 633e 3dd9 943e 835d 3cbe
00000230: ce05 573e 51cb 713d 6767 0cbe 01c2 12be
00000240: 567a a63e 1a88 e33d fde1 96be e803 d9bd
00000250: 2722 99be cfcb 023e d65c 0abe 421f 693d
00000260: 2eec 553e d275 603d 0606 29be 2072 93be
00000270: 2cbf bfbd 0906 d93d 87fb 243e 71c7 8d3e
00000280: 47dc 703d 5bf2 d4bc bdd7 653c b8ff 58be
00000290: 9b53 82be 68e1 003e b704 5e3e 14f7 963e
000002a0: b41d 433e 7c7c 513a 3ff0 363e 7e5f a23d
000002b0: d708 0b3e a077 30be bb3e 86be 3a3d 82bb
000002c0: af32 1fbd 862c 8f3e 1230 bebd e81b 5d3e
000002d0: cdd0 00bd 36de 833e e652 053b c03f 603e
000002e0: 2615 5cbe 178b 90be 88d9 11be 28e6 753e
000002f0: 845a 92be 06ef 493e abeb 7cbe c6b5 33be
00000300: 2294 873e 5199 52bc 7408 7c3e 42e9 5b3e
00000310: 6d5d 9dbe e878 b73d 04a8 9d3d ef7b 43be
00000320: dc28 1ebe 1d19 56be 6609 623e bedf 93be
00000330: 7b7e adbe 1a78 bfbc 6ce8 113e 4c8a 5e3e
00000340: a2b0 babb 51ad 3cbd 078a 323d 2abe 683e
00000350: 2733 843e 2d38 d4bd c1da 263e a0f2 cdba
00000360: 44e0 22be 93e1 6a3d 3f3d 85be ae4e c13d
00000370: c77f 903d ebbb 88bd 3c44 9b3e acbc 71bd
00000380: 880d 8d3e 337e ef3d 91be 723e 4cd8 1b3d
00000390: 757e aabe 4a13 983e abb1 16be 7d6f fc3c
000003a0: d75c 213e 5996 64be c755 863e 901b 193c
000003b0: 8085 703e f898 01be cc36 413e 96cb 553e
000003c0: 4eb4 3c3e c2f5 7fbd fe7a 2c3e 2dbb be3d
000003d0: ac48 44be 6ad6 8a3e 589c 2a3e 7b27 8c3d
000003e0: bccc 86be 47fd 853e 84c9 afbe 6001 353e
000003f0: b93e d3bc 0636 6fbe b531 6b3e 8289 8cbe

block1.0.bias f4 [64]
0.26671496 -0.31280228 0.13172495 0.14260228 -0.25707254 -0.02095239 0.05622679 -0.18333465
0.069559135 -0.090678796 -0.14751892 -0.117277525 -0.2321571 -0.29233953 0.23696132 0.093462534
0.049767792 0.23656467 -0.15157564 -0.24784939 0.008808228 0.15352842 0.10635508 0.25868404
-0.005978724 0.23293094 -0.06792608 0.12169282 0.11225695 0.2963189 -0.012624134 0.15761726
-0.21937709 0.3009459 -0.20229796 -0.075981505 0.04258596 0.20844318 -0.19802831 0.30277154
-0.27477747 -0.1386229 0.26876828 -0.15929924 0.06675374 -0.28465244 -0.29147857 -0.29088375
0.14847955 0.14433461 -0.031593286 0.04256931 0.31519726 -0.0013616234 -0.18364859 0.059756827
-0.25855628 -0.21825762 -0.05157434 -0.12503718 0.30616128 -0.09005681 0.17195466 0.05586509
00000000: dd8e 883e 9f27 a0be e8e2 063e 5506 123e
00000010: 039f 83be 59a4 abbc 104e 663d 14bc 3bbe
00000020: 0575 8e3d ceb5 b9bd 330f 17be 332f f0bd
00000030: 97ba 6dbe 87ad 95be fda5 723e 4969 bf3d
00000040: 50d9 4b3d 023e 723e a536 1bbe 3bcc 7dbe
00000050: 6350 103c 8e36 1d3e b1d0 d93d 3c72 843e
00000060: 2ce9 c3bb 7385 6e3e d41c 8bbd 163a f93d
00000070: f9e6 e53d 1cb7 973e 75d5 4ebc 6b66 213e
00000080: 63a4 60be 9515 9a3e 3227 4fbe 319c 9bbd
00000090: 9e6e 2e3d 2172 553e efc7 4abe df04 9b3e
000000a0: a2af 8cbe 29f3 0dbe ff9b 893e 571f 23be
000000b0: 2fb6 883d f7bd 91be ae3c 95be b7ee 94be
000000c0: 060b 183e 74cc 133e f667 01bd 285d 2e3d
000000d0: 8961 a13e 8078 b2ba 600e 3cbe 93c3 743d
000000e0: 7d61 84be ed7e 5fbe 9d3f 53bd bf09 00be
000000f0: 2cc1 9c3e b46f b8bd e214 303e cbd2 643d

block1.1.weight f4 [64]
0.98200864 1.0079086 0.9895852 0.9796414 0.9912352 0.98752385 0.979723 1.0395272
0.9894167 0.9870177 0.9992049 0.9906569 0.98454726 0.98674464 0.9875926 0.9832087
1.0484265 1.0103717 0.98670715 0.9951823 0.98779887 0.99350077 0.98595566 0.989075
0.9917093 0.996887 0.977623 0.99071544 0.9883478 0.9831307 0.98836994 0.98872524
1.0360463 1.0213118 0.97926974 0.991596 1.0101042 0.98489046 1.0074519 0.9955156
0.98990345 0.9847643 1.0180138 0.9965912 1.0073794 1.0054142 0.9910947 0.9843752
0.99888235 1.017014 1.0062644 0.9908611 0.990431 0.99274945 0.9885032 0.9811348
0.9962325 0.97868043 1.0141947 1.0047605 0.99139357 0.9814456 0.9848914 1.015488
00000000: eb64 7b3f 2603 813f 7555 7d3f c7c9 7a3f
00000010: 97c1 7d3f 5dce 7c3f 20cf 7a3f 3a0f 853f
00000020: 6a4a 7d3f 31ad 7c3f e4cb 7f3f b19b 7d3f
00000030: 4a0b 7c3f 4c9b 7c3f ded2 7c3f 91b3 7b3f
00000040: d732 863f dc53 813f d798 7c3f 44c4 7e3f
00000050: 63e0 7c3f 1156 7e3f 9767 7c3f 0534 7d3f
00000060: a9e0 7d3f fd33 7f3f 8045 7a3f 879f 7d3f
00000070: 5d04 7d3f 74ae 7b3f d005 7d3f 191d 7d3f
00000080: 2a9d 843f 58ba 823f 6cb1 7a3f 3cd9 7d3f
00000090: 184b 813f c821 7c3f 2ff4 803f 1cda 7e3f
000000a0: 506a 7d3f 8319 7c3f 474e 823f 9a20 7f3f
000000b0: cff1 803f 6ab1 803f 62b8 7d3f 0300 7c3f
000000c0: c1b6 7f3f 842d 823f 46cd 803f 13a9 7d3f
000000d0: e38c 7d3f d424 7e3f 8c0e 7d3f a62b 7b3f
000000e0: 1809 7f3f cd8a 7a3f 22d1 813f fe9b 803f
000000f0: f8cb 7d3f 0540 7b3f d821 7c3f 83fb 813f

block1.1.bias f4 [64]
-0.01591878 -0.012290028 -0.0068778214 -0.015128332 -0.022767391 -0.008648444 -0.026113095 0.01698408
-0.0009203632 -0.030532688 0.004187996 0.0023143932 -0.015712824 -0.0023393843 -0.0006393018 -0.012270603
0.0077247475 -0.00283931 0.0019997072 -0.012574379 -0.017470146 -0.010959323 -0.0036214208 -0.0030745773
-0.012355837 -0.015258712 -0.029967783 -0.008370924 -0.022630868 -0.01201204 -0.013031113 0.0019304821
0.042993143 0.022213545 -0.0054497495 -0.007710667 -0.027364215 -0.011551532 -0.020308364 -0.010624729
-0.0038410926 -0.0010699686 0.019005632 -0.0148169445 0.001567032 0.008649848 -0.0072112605 -0.022679081
0.003819027 0.032874286 -0.011246989 -0.02220323 -0.0039016523 0.0006518037 -0.0139634395 -0.008329088
0.0048456853 -0.020422 0.0058120927 0.0074440273 0.007393478 -0.015093797 -0.020748552 0.011405739
00000000: 1a68 82bc 1d5c 49bc 595f e1bb d3dc 77bc
00000010: ae82 babc 34b2 0dbc 21eb d5bc 3322 8b3c
00000020: 8744 71ba b01f fabc 753b 893b 13ad 173b
00000030: 2eb8 80bc 5b50 19bb d196 27ba a40a 49bc
00000040: e11f fd3b b813 3abb 850d 033b c504 4ebc
00000050: 8d1d 8fbc bb8e 33bc 5c55 6dbb d97e 49bb
00000060: 2370 4abc adff 79bc ff7e f5bc 3326 09bc
00000070: 5f64 b9bc 26ce 44bc 7380 55bc 3b08 fd3a
00000080: 9419 303d 2ef9 b53c d093 b2bb c3a9 fcbb
00000090: eb2a e0bc a342 3dbc ba5d a6bc 5813 2ebc
000000a0: d7ba 7bbb 303e 8cba b3b1 9b3c c5c2 72bc
000000b0: de64 cd3a 18b8 0d3c 704c ecbb 7bc9 b9bc
000000c0: a448 7a3b 30a7 063d 4a45 38bc 8ce3 b5bc
000000d0: ddb2 7fbb cedd 2a3a e9c6 64bc ba76 08bc
000000e0: 8ec8 9e3b 0a4c a7bc 5e73 be3b 07ed f33b
000000f0: fd44 f23b f94b 77bc def8 a9bc 23df 3a3c

block1.1.running_mean f4 [64]
0.11363357 -0.28187016 0.26002973 0.50451773 -0.431209 0.24123675 -0.19574001 -0.17619182
0.24198164 -0.59501874 -0.08618698 0.054725472 -0.477602 -0.64617175 0.47656885 0.3644214
0.04660932 0.2771189 0.10955357 -0.18263632 -0.102851525 0.2807775 -0.2510847 0.6102438
0.11443706 0.31455228 0.43014282 0.23287648 -0.069889255 -0.1271058 0.25907588 0.0148218805
-0.2241205 0.2817541 0.31291407 0.040572215 -0.012040055 0.5298946 -0.15838173 0.15521702
-0.07504266 0.25511166 0.29629347 -0.2605323 0.030080682 -0.35725707 -0.4780461 -0.540689
0.21923462 0.13233276 0.021729285 -0.04752386 0.19123362 -0.21752025 -0.027156742 0.32887462
-0.16094169 -0.55054295 -0.12586282 -0.07075951 0.42475003 0.4118375 0.5575348 0.08762745
00000000: b8b8 e83d 4951 90be 9e22 853e 1328 013f
00000010: 6dc7 dcbe c406 773e 1270 48be a16b 34be
00000020: 09ca 773e 2653 18bf cd82 b0bd d127 603d
00000030: 4088 f4be 836b 25bf d500 f43e 7195 ba3e
00000040: 6ae9 3e3d 87e2 8d3e 9f5d e03d 0405 3bbe
00000050: d2a3 d2bd 12c2 8f3e 2c8e 80be f038 1c3f
00000060: fa5d ea3d ff0c a13e ae3b dc3e 2c77 6e3e
00000070: 1922 8fbd 0628 02be 98a5 843e 79d7 723c
00000080: d87f 65be 1342 903e 4636 a03e 0d2f 263d
00000090: a743 45bc 2ca7 073f d22e 22be 36f1 1e3e
000000a0: f7af 99bd ff9d 823e c7b3 973e 7d64 85be
000000b0: c36b f63c 66ea b6be 75c2 f4be 986a 0abf
000000c0: 0a7f 603e 3d82 073e 9d01 b23c 61a8 42bd
000000d0: bfd2 433e a1bd 5ebe d177 debc 4162 a83e
000000e0: e6cd 24be 62f0 0cbf 2fe2 00be 5dea 90bd
000000f0: d678 d93e 5ddc d23e 9aba 0e3f 0576 b33d

block1.1.running_var f4 [64]
0.010061026 0.0012858765 0.007949857 0.054431595 0.012849386 0.02825326 0.027245473 0.00084071985
0.012480524 0.10644634 0.0020019242 0.012505735 0.024947058 0.052855406 0.024839967 0.031441577
0.000268713 0.0015953206 0.028806297 0.0022186427 0.0058456953 0.0073414585 0.052640554 0.051125556
0.007208554 0.0033351127 0.102291726 0.0054208566 0.014057928 0.073702194 0.031500082 0.008942474
0.001197675 0.00073205563 0.10920928 0.006913254 0.0024456498 0.04303503 0.0015959707 0.011403491
0.016836444 0.06421374 0.0028476308 0.0053506633 0.0007605091 0.0035316788 0.015369206 0.025842309
0.0025051208 0.0010186762 0.0015154307 0.003546863 0.006897682 0.020330459 0.011044951 0.02996479
0.005902424 0.046242908 0.004406367 0.0037189175 0.0067517976 0.10398984 0.06108863 0.001225526
00000000: 00d7 243c db8a a83a 1e40 023c aaf3 5e3d
00000010: 3b86 523c 6173 e73c e631 df3c c163 5c3a
00000020: 1d7b 4c3c 8a00 da3d b732 033b dbe4 4c3c
00000030: c65d cc3c e97e 583d 307d cb3c e2c8 003d
00000040: 0ce2 8c39 141a d13a 2ffb eb3c a666 113b
00000050: 3f8d bf3b 9e90 f03b 9f9d 573d 0869 513d
00000060: bc35 ec3b e891 5a3b 537e d13d 71a1 b13b
00000070: 3953 663c 2df1 963d 3b06 013d 7483 123c
00000080: 4efb 9c3a 6ce7 3f3a 1da9 df3d 9488 e23b
00000090: 3247 203b 8045 303d e42f d13a b5d5 3a3c
000000a0: 95ec 893c 7e82 833d 519f 3a3b 9e54 af3b
000000b0: e75c 473a bd73 673b 1fcf 7b3c 40b3 d33c
000000c0: f42c 243b 1a85 853a 6ba1 c63a 7d72 683b
000000d0: f305 e23b 108c a63c e2f5 343c b878 f53c
000000e0: 1f69 c13b 3469 3d3d 4963 903b 15b9 733b
000000f0: 2f3e dd3b a0f8 d43d 1238 7a3d d4a1 a03a

block2.0.weight f4 [64, 64, 3, 3]
0.028755665 -0.03873483 0.027075509 0.02051403 0.015974028 0.024327667 -0.006782433 -0.01644929
-0.001084818 -0.009432053 -0.05076753 0.017118135 0.00057941553 -0.018153634 -0.025950423 -0.03744153
0.0045851604 -0.0071539795 -0.03848781 0.0007951469 -0.023968171 -0.023164988 0.009491917 -0.004687017
-0.028222268 -0.007114687 -0.017821232 0.032934986 -0.038009673 -0.020673817 -0.018177528 0.024394019
-0.00540817 0.0026139372 -0.032857105 0.03381782 -0.037235726 -0.01921943 -0.036567733 -0.02910245
0.016386388 0.0071372017 -0.014775362 0.011887765 0.010590339 0.001486235 0.0056386804 -0.04090931
0.028274074 0.03597196 0.03524235 0.03196508 -0.02783901 -0.0019666317 0.010693504 -0.037324168
0.014217863 -0.00043142372 -0.008507713 -0.006156507 -0.039893515 0.03612243 -0.03251726 0.045823727
-0.03314068 0.03597012 0.010307283 0.0063445983 0.0059117703 -0.00059435354 -0.002429648 -0.00427858
-0.016569808 -0.016978284 0.03096302 0.03750942 0.030844199 -0.005847848 0.024645941 0.009862766
0.04207649 -0.039087296 -0.021112511 0.012579857 -0.019732796 -0.035706427 0.024481216 -0.02178535
-0.0027124032 -0.0006806915 -0.054440036 -0.0153541295 0.03739981 0.0042324765 0.035430897 0.040736683
0.011478286 0.021963524 0.03207781 0.014032071 -0.008863329 -0.004355799 -0.0034142549 -0.014775549
0.0015794835 0.037422597 -0.019116536 0.020331597 -0.011321037 0.040523805 -0.034113526 0.023128739
0.034711283 -0.022201072 -0.02093316 0.020878144 0.008914776 -0.01575544 -0.03180241 0.0017099867
-0.0014413525 0.0038308902 -0.0009118164 0.022914968 0.0038914848 -0.022329688 0.021934608 0.03654039
-0.030199973 0.00435339 0.021458229 -0.025381438 -0.00728429 0.017543174 0.008008759 -0.043663174
-0.003072343 -0.012094914 -0.0054001203 0.005651057 0.030138714 -0.040611457 0.027860157 -0.014285601
0.012223609 0.003340481 0.021323878 -0.0142012825 -0.052792355 -0.0014119964 0.040007085 0.010359312
0.015591178 0.030267827 -0.0407205 -0.0053987773 -0.03168152 0.026892802 0.0068974923 -0.030084902
0.041301735 -0.024301736 -0.029271767 0.03383958 -0.028642122 0.008867829 0.006535448 0.034623567
-0.02943235 0.026421107 0.021482125 0.020034377 -0.021966018 -0.030525269 -0.016132843 -0.014929738
-0.025341248 -0.015578818 -0.02986099 -0.034352325 0.0016539763 -0.025677424 0.009076985 -0.00076384813
-0.02438889 0.018898811 -0.022180479 0.012076973 -0.028569458 -0.040322185 -0.029817637 0.03933773
0.018286694 -0.0063236053 -0.0030010387 0.016954692 0.027380455 -0.018440546 0.01676733 0.0089354245
0.021904016 -0.037972566 -0.03847805 0.021122713 0.03463996 -0.039913703 -0.0059544165 0.017241018
0.031855606 -0.03104184 -0.013894216 0.0123884 0.017142579 0.03416196 0.014280858 -0.0062556895
-0.021053066 0.009408467 -0.017190192 -0.03629109 0.037357043 0.007663254 -0.0066848244 0.02966806
0.019661594 0.015426049 0.0181087 0.00635776 0.021191102 -0.04164934 -0.020161228 -0.025904505
-0.034606766 -0.038135458 -0.025945272 -0.025198717 0.013498586 0.022500956 0.029633846 -0.037930857
0.038767632 -0.017094946 -0.01864617 -0.034173757 -0.020760683 0.041106105 -0.00200523 0.038794193
0.024213748 0.04362946 0.018943798 0.0008310369 -0.018622529 -0.003748639 -0.013397738 -0.025243096
00000000: 0091 eb3c 6aa8 1ebd 75cd dd3c 0a0d a83c
00000010: f7db 823c d14a c73c 2c3f debb a9c0 86bc
00000020: 7430 8eba e688 1abc 9df1 4fbd 553b 8c3c
00000030: ebe3 173a eeb6 94bc fb95 d4bc 4a5c 19bd
00000040: 1d3f 963b ee6b eabb 65a5 1dbd 6871 503a
00000050: e658 c4bc 80c4 bdbc fc83 1b3c 8c95 99bb
00000060: 6332 e7bc 5222 e9bb d5fd 91bc d6e6 063d
00000070: 08b0 1bbd 235c a9bc 0ae9 94bc f7d5 c73c
00000080: 0537 b1bb 974e 2b3b 2c95 06bd 8e84 0a3d
00000090: 7d84 18bd 1172 9dbc 0cc8 15bd 4368 eebc
000000a0: bf3c 863c 30df e93b 5c14 72bc e6c4 423c
000000b0: 1a83 2d3c c5cd c23a aec4 b83b 8590 27bd
000000c0: 089f e73c 5557 133d 485a 103d d1ed 023d
000000d0: a30e e4bc 9be2 00bb ce33 2f3c 3ae1 18bd
000000e0: 0af2 683c b630 e2b9 ef63 0bbc 86bc c9bb
000000f0: 6267 23bd 1df5 133d d230 05bd a9b1 3b3d
00000100: 86be 07bd 6855 133d e1df 283c 59e6 cf3b
00000110: 86b7 c13b 64ce 1bba bb3a 1fbb 5533 8cbb
00000120: 68bd 87bc 0b16 8bbc 29a6 fd3c 7aa3 193d
00000130: f9ac fc3c 4e9f bfbb 49e6 c93c 7097 213c
00000140: 6658 2c3d 001a 20bd 25f4 acbc bf1b 4e3c
00000150: aca6 a1bc e740 12bd d58c c83c 3177 b2bc
00000160: 93c2 31bb 6f70 32ba 84fc 5ebd e38f 7bbc
00000170: 8b30 193d 96b0 8a3b fd1f 113d 82db 263d
00000180: 6c0f 3c3c d9ec b33c 0664 033d c6e6 653c
00000190: 7f37 11bc 17bb 8ebb b1c1 5fbb 2515 72bc
000001a0: ac06 cf3a 7048 193d 489a 9cbc 738e a63c
000001b0: df7b 39bc 4afc 253d a0ba 0bbd 7b78 bd3c
000001c0: 6b2d 0e3d 06df b5bc 057c abbc a408 ab3c
000001d0: 480f 123c 8d11 81bc 3e43 02bd a221 e03a
000001e0: c4eb bcba ac0f 7b3b f606 6fba 2cb8 bb3c
000001f0: 4808 7f3b c0ec b6bc 35b0 b33c 60ab 153d
00000200: ef65 f7bc e2a6 8e3b 2bc9 af3c bcec cfbc
00000210: 0eb1 eebb b4b6 8f3c 2b37 033c 28d8 32bd
00000220: 5d59 49bb bf29 46bc 7ef3 b0bb 812c b93b
00000230: 77e5 f63c 3358 26bd fc3a e43c 270e 6abc
00000240: 8845 483c f9eb 5a3b 6aaf ae3c 7fac 68bc
00000250: cc3c 58bd bd12 b9ba 78de 233d 1bba 293c
00000260: 2472 7f3c 3cf4 f73c 8aca 26bd 3ae8 b0bb
00000270: 7bc4 01bd 4b4e dc3c 5c04 e23b 9d74 f6bc
00000280: 022c 293d 6f14 c7bc 58cb efbc 5f9b 0a3d
00000290: e2a2 eabc 5f4a 113c 5027 d63b 71d1 0d3d
000002a0: 1d1c f1bc 1471 d83c 48fb af3c 221f a43c
000002b0: 14f2 b3bc 2110 fabc 0629 84bc dc9b 74bc
000002c0: 7398 cfbc 4c3e 7fbc 099f f4bc 06b5 0cbd
000002d0: 3cca d83a 7659 d2bc a2b7 143c fb3c 48ba
000002e0: 36cb c7bc aed1 9a3c d6b3 b5bc 7fde 453c
000002f0: 7f0a eabc e028 25bd 1e44 f4bc 9920 213d
00000300: facd 953c 3f36 cfbb 13ad 44bb 91e4 8a3c
00000310: fa4c e03c a110 97bc a45b 893c e365 123c
00000320: 0d70 b33c 1f89 1bbd 299b 1dbd 8a09 ad3c
00000330: a1e2 0d3d 8d7c 23bd 441d c3bb 093d 8d3c
00000340: 067b 023d 754b febc 91a4 63bc b7f8 4a3c
00000350: 986e 8c3c 69ed 0b3d 43fa 693c 87fc ccbb
00000360: 7b77 acbc f925 1a3c 72d2 8cbc f7a5 14bd
00000370: b303 193d 091c fb3b 5f0c dbbb 6e0a f33c
00000380: 5a11 a13c 8abd 7c3c b258 943c c254 d03b
00000390: f698 ad3c 8098 2abd 2929 a5bc af35 d4bc
000003a0: d3bf 0dbd ed33 1cbd 2e8b d4bc 8a6d cebc
000003b0: 2c29 5d3c ed53 b83c aec2 f23c 635d 1bbd
000003c0: cfca 1e3d b30a 8cbc dabf 98bc c8f9 0bbd
000003d0: 4f12 aabc e05e 283d 2d6a 03bb a9e6 1e3d
000003e0: e95b c63c ceb4 323d 0630 9b3c f1d9 593a
000003f0: 468e 98bc baab 75bb 3082 5bbc 9cca cebc

block2.0.bias f4 [64]
0.03159878 -0.013466866 0.0057833516 -0.027618915 -0.026631396 0.008555971 -0.030114138 0.014751033
0.02373079 -0.017121265 0.030633958 -0.0023468847 0.020828277 0.01757921 -0.0073368307 0.016799726
-0.03962181 -0.03521601 0.011084878 -0.010283291 -0.0051885718 0.024895499 0.037578035 0.024596909
-0.014167896 -0.003717177 0.022113718 -0.016040176 -0.021273492 -0.0021455744 0.031760696 -0.014875371
-0.026557067 0.01598005 0.027970778 -0.001088095 0.02388186 -0.027959857 -0.009981098 -0.036085054
-0.003193255 -0.02508564 0.019371262 0.034057625 0.031415455 0.041379623 0.033748623 -0.045887202
-0.0043620267 -0.02268997 0.023305783 0.0047317925 -0.025674727 0.01759336 -0.025470048 -0.042586397
0.033369724 0.0058881906 -0.0445571 0.0143351415 0.0074782334 0.003010415 0.032251474 0.03276744
00000000: b96d 013d 21a4 5cbc 4582 bd3b 1041 e2bc
00000010: 162a dabc 582e 0c3c edb1 f6bc 51ae 713c
00000020: 1367 c23c e541 8cbc 11f4 fa3c 31ce 19bb
00000030: 10a0 aa3c 4702 903c cc69 f0bb 949f 893c
00000040: 7b4a 22bd aa3e 10bd 599d 353c 407b 28bc
00000050: e504 aabb a5f1 cb3c 6deb 193d 757f c93c
00000060: 7620 68bc e29b 73bb d427 b53c b066 83bc
00000070: bf45 aebc c49c 0cbb 8117 023d d4b7 73bc
00000080: 358e d9bc 98e8 823c f922 e53c 699e 8eba
00000090: e4a3 c33c 120c e5bc c287 23bc eccd 13bd
000000a0: ee45 51bb 6680 cdbc 7bb0 9e3c 0280 0b3d
000000b0: 7ead 003d ae7d 293d ff3b 0a3d 38f4 3bbd
000000c0: 55ef 8ebb 51e0 b9bc c5eb be3c 270d 9b3b
000000d0: ce53 d2bc f31f 903c 90a6 d0bc 136f 2ebd
000000e0: b1ae 083d b9f1 c03b 8181 36bd f1dd 6a3c
000000f0: f80b f53b 624a 453b 1f1a 043d 2737 063d

block2.1.weight f4 [64]
1.011998 0.99633014 1.0042928 1.0034137 0.9929038 1.009691 0.983618 0.9838252
0.984549 1.0008687 1.0016639 0.9897069 1.0208195 1.0090897 0.9764834 0.9960418
0.9940219 0.9951441 1.0023099 0.99015796 1.0008874 1.005282 1.0067244 1.0002581
0.9849714 1.0046304 1.0181012 1.0184958 0.99032617 0.9876353 0.99692184 1.0066863
0.9863593 0.9879201 1.008574 0.9938667 1.0036029 1.0026047 1.0180776 1.0085107
0.9877102 0.9896025 0.98986065 0.98754406 1.0028176 0.9967623 1.0003004 0.9924203
1.0132902 0.9804204 1.0159615 0.9978411 1.0012398 1.0041049 1.0056342 1.0071973
0.9908894 1.0009458 1.0269964 0.9787143 0.9994754 0.9914967 0.9879296 1.0065356
00000000: 2789 813f 7e0f 7f3f ab8c 803f dc6f 803f
00000010: f22e 7e3f 8e3d 813f 64ce 7b3f f8db 7b3f
00000020: 670b 7c3f 771c 803f 8636 803f 6e5d 7d3f
00000030: 37aa 823f da29 813f d1fa 793f 98fc 7e3f
00000040: 3878 7e3f c4c1 7e3f b14b 803f fe7a 7d3f
00000050: 141d 803f 15ad 803f 58dc 803f 7508 803f
00000060: 1627 7c3f bb97 803f 2451 823f 125e 823f
00000070: 0486 7d3f abd5 7c3f 4536 7f3f 19db 803f
00000080: 0b82 7c3f 55e8 7c3f f418 813f 0c6e 7e3f
00000090: 0f76 803f 5a55 803f 5e50 823f e116 813f
000000a0: 93da 7c3f 9756 7d3f 8267 7d3f b0cf 7c3f
000000b0: 545c 803f d02b 7f3f d809 803f 420f 7e3f
000000c0: 7eb3 813f d5fc 7a3f 070b 823f 8472 7f3f
000000d0: a028 803f 8286 803f 9fb8 803f d7eb 803f
000000e0: edaa 7d3f fe1e 803f 9e74 833f 058d 7a3f
000000f0: 9fdd 7f3f bad2 7d3f f4e8 7c3f 29d6 803f

block2.1.bias f4 [64]
-0.0047066445 -0.026163528 -0.019534051 -0.027715849 -0.021239744 -0.032856915 -0.026041608 -0.019464016
-0.027912743 -0.023424618 -0.028012024 -0.02569644 0.0019043353 -0.035508882 -0.032501005 -0.017683925
-0.019613793 -0.02405426 -0.024057087 -0.012626672 -0.011463563 -0.012065419 -0.018314619 -0.01777543
-0.029411204 -0.012863368 -0.021006199 -0.02538328 -0.017417077 -0.02345623 -0.02216088 -0.011373933
-0.030833669 -0.01922491 -0.027680561 -0.015737936 0.005876581 -0.010752643 -0.00930081 -0.029568056
-0.010997375 -0.018318666 -0.03089961 -0.037282974 -0.014916142 -0.021509282 -0.01991486 -0.025298273
0.002594231 -0.020489898 -0.022269366 -0.020087404 -0.024938626 -0.006739453 -0.0058265035 -0.02078174
-0.016222008 -0.02879621 -0.008411163 -0.030031145 -0.033564802 -0.024466012 -0.02339715 -0.03242201
00000000: 323a 9abb e554 d6bc e005 a0bc 590c e3bc
00000010: f9fe adbc f994 06bd 3655 d5bc 0073 9fbc
00000020: 44a9 e4bc fce4 bfbc 7979 e5bc 5781 d2bc
00000030: e49a f93a c371 11bd c61f 05bd e1dd 90bc
00000040: 1bad a0bc 710d c5bc 5e13 c5bc 1ae0 4ebc
00000050: abd1 3bbc 09ae 45bc 8a08 96bc c79d 91bc
00000060: c4ef f0bc e0c0 52bc 3115 acbc 99f0 cfbc
00000070: 42ae 8ebc 4827 c0bc bc8a b5bc bc59 3abc
00000080: e496 fcbc 8f7d 9dbc 58c2 e2bc d8ec 80bc
00000090: 5690 c03b db2b 30bc 6d62 18bc b538 f2bc
000000a0: 552e 34bc 0711 96bc 2e21 fdbc 08b6 18bd
000000b0: d662 74bc 3c34 b0bc 7d24 a3bc 533e cfbc
000000c0: f903 2a3b 6eda a7bc 3f6e b6bc 578e a4bc
000000d0: 174c ccbc a1d6 dcbb 41ec bebb 783e aabc
000000e0: 04e4 84bc 08e6 ebbc face 09bc e003 f6bc
000000f0: 3f7b 09bd f26c c8bc 61ab bfbc f1cc 04bd

block2.1.running_mean f4 [64]
-0.20930266 -0.5127744 -0.43210825 -0.007251506 -0.1176665 -0.523863 -0.47356188 0.21698692
0.52440184 -0.14147204 -0.36803076 0.008904227 -0.5507952 -0.19289337 0.62175643 -0.09131569
-0.501735 0.44765952 -0.7955109 -0.13615046 -1.0865922 -0.042679463 -0.5387134 -0.040152665
-0.11885165 -0.81852907 0.103204146 -0.4890598 -0.08820852 0.5169982 -0.15193312 -0.37999028
0.36739814 0.6951588 -0.36039957 0.6284825 -0.123555444 -0.4445781 -0.110199645 -0.15012121
0.4137132 0.46524116 -0.55681527 -0.38102219 0.15670057 -0.3736458 -0.5842418 -0.30734518
-0.14206316 0.08036415 0.13376567 -0.14146064 -0.4126581 0.11671095 -0.2830907 0.016929071
-0.5720468 -0.5541636 -0.09158589 -0.16614425 0.6461432 0.16692118 0.17669477 -0.27391583
00000000: 7053 56be 2f45 03bf 4b3d ddbe 0b9e edbb
00000010: 22fb f0bd e31b 06bf b476 f2be d231 5e3e
00000020: 333f 063f 0cde 10be 876e bcbe 09e3 113c
00000030: ea00 0dbf d785 45be 6e2b 1f3f b803 bbbd
00000040: b471 00bf a133 e53e 9aa6 4bbf 076b 0bbe
00000050: 7415 8bbf a9d0 2ebd 1fe9 09bf 1f77 24bd
00000060: 7e68 f3bd 1f8b 51bf b25c d33d 0c66 fabe
00000070: aba6 b4bd fe59 043f 5b94 1bbe 168e c2be
00000080: 9c1b bc3e edf5 313f 4b86 b8be 3be4 203f
00000090: a30a fdbd be9f e3be 5ab0 e1bd 60b9 19be
000000a0: 37d2 d33e 1734 ee3e 728b 0ebf 5715 c3be
000000b0: 1d76 203e 814e bfbe df90 15bf 595c 9dbe
000000c0: 0179 11be f695 a43d def9 083e 0fdb 10be
000000d0: ec47 d3be 2706 ef3d 44f1 90be d6ae 8a3c
000000e0: a971 12bf aadd 0dbf 6291 bbbd b821 2abe
000000f0: a469 253f 63ed 2a3e 79ef 343e b23e 8cbe

block2.1.running_var f4 [64]
0.10839584 0.31453258 0.41830117 0.07447853 0.15093963 0.16125208 0.62332594 0.34808674
0.15147844 0.6179212 0.13045178 0.2056028 0.37156314 0.08658916 0.17035843 0.32813025
0.3838659 0.21067001 0.24556318 0.27604493 0.8552969 0.27353957 0.16504765 0.25644854
0.68045974 0.2878088 0.06655733 0.17040923 0.35051167 0.31088114 0.17256026 0.13397846
0.6954261 0.28448972 0.11772935 0.17526917 0.12416975 0.19959025 0.056085497 0.07147311
0.21018498 0.33707878 0.48213813 0.80545104 0.15242286 0.32773012 0.25171363 0.20640548
0.0964213 0.17274179 0.07335292 0.23252343 0.27164882 0.09105532 0.18164176 0.112021066
0.4414134 0.18471026 0.06852524 0.61099994 0.5317629 1.1428218 0.22148906 0.1074509
00000000: a3fe dd3d 6a0a a13e 922b d63e 3388 983d
00000010: eb8f 1a3e 441f 253e 4a92 1f3f 6d38 b23e
00000020: 2a1d 1b3e 1530 1e3f 2795 053e 8a89 523e
00000030: 863d be3e a855 b13d 7172 2e3e b000 a83e
00000040: 128a c43e e1b9 573e ea74 7b3e c355 8d3e
00000050: bdf4 5a3f 610d 8c3e 4002 293e 394d 833e
00000060: 9c32 2e3f ad5b 933e 364f 883d c27f 2e3e
00000070: 4476 b33e d02b 9f3e a3b3 303e a631 093e
00000080: 7207 323f a3a8 913e 161c f13d c379 333e
00000090: b64c fe3d 6361 4c3e e8b9 653d 7e60 923d
000000a0: bb3a 573e 9795 ac3e cfda f63e 0a32 4e3f
000000b0: bd14 1c3e 3ecc a73e 9ce0 803e f55b 533e
000000c0: 8878 c53d 39e3 303e 0e3a 963d 9f1a 6e3e
000000d0: 8e15 8b3e 367b ba3d 4c00 3a3e 4d6b e53d
000000e0: f000 e23e b024 3d3e f656 8c3d 7e6a 1c3f
000000f0: 9d21 083f fc47 923f 07ce 623e 380f dc3d

block3.0.weight f4 [64, 64, 3, 3]
-0.032905594 -0.024780031 -0.02322256 0.01978809 0.03121444 0.04659093 -0.0190989 0.0644146
-0.041275874 -0.01419896 -0.028104365 -0.00207057 -0.007124527 -0.013914066 0.02106135 -0.040057804
0.0050483034 -0.007598909 0.013770868 0.00533677 0.0018926586 0.0015725116 -0.03384054 -0.0007948488
0.025972456 -0.029266562 0.0039645163 -0.023231989 -0.00475209 -0.015500856 0.036629364 -0.018398901
-0.037830338 0.03191969 0.03320355 0.022943042 -0.040546052 -0.04079467 -0.015358157 -0.025401883
0.024297914 0.023709979 0.01589872 0.012245916 -0.040550962 -0.036696985 -0.015696116 -0.009674341
-0.00032110608 -0.001971505 0.01413954 0.017617887 0.036517497 0.011741044 -0.028500065 0.026563011
-0.008559086 0.004926017 -0.02471959 -0.034933414 0.039446417 -0.0014589108 -0.023806283 -0.025421903
-0.015091482 0.017309096 0.031435117 -0.031979736 0.0036377679 0.009125199 -0.0376427 -0.020103307
-0.018164089 -0.0019143154 0.019321792 0.030896064 -0.031563494 0.03614691 -0.015526336 -0.010861089
0.041045364 -0.004686537 0.02649436 -0.019709203 -0.047826514 -0.0077797812 0.014563641 -0.024260087
0.035248548 -0.015701514 0.027288754 -0.017635966 0.0121874 0.019368645 0.0049385945 -0.017260011
0.039188355 0.023065869 0.01754109 -0.01117884 -0.03631469 -0.018160228 0.0014854451 -0.017340446
0.025678394 0.026433188 0.025844237 -0.022931863 0.01766253 0.02770749 0.02659255 0.01844932
-0.016383324 -0.031976104 0.02911796 0.015065429 -0.03231638 -0.004899953 -0.022010505 -0.017865023
0.015140023 -0.027167313 -0.027992392 -0.008986017 0.020193787 -0.025669374 -0.004245335 -0.027371818
0.019523818 -0.025936991 0.033502344 0.009828325 0.036302585 -0.012632245 0.040685344 0.011090996
0.0038751 0.017829297 0.0042011575 0.025031544 0.014532981 -0.008058132 -0.040937956 -0.010162586
-0.026884224 0.01189057 0.017515006 0.031241896 -0.004237485 0.0037578957 0.020858234 -0.053244587
-0.023289928 0.015185174 0.013191284 0.005037843 0.036413938 0.015089384 0.022357143 0.0028518424
0.03488485 0.032076288 0.01399453 -0.03475147 0.025397677 -0.008202123 -0.024804628 -0.050786182
0.01868417 0.00801421 0.006377976 -0.0324978 0.020345263 0.008191357 0.03241953 -0.027187653
0.020088745 0.0119412895 -0.0005562809 0.011593394 -0.048222013 0.0039068395 -0.022507105 -0.012704394
0.0046444573 -0.013988002 -0.039228223 -0.0061543775 0.027699225 -0.044863082 0.017351467 0.004547964
-0.027160032 -0.028761508 0.031836208 -0.03389044 -0.033788893 0.0032358167 0.025400983 0.019526254
0.022378199 0.0293088 0.0054787556 0.007695176 -0.017034061 -0.04696559 0.00047037404 0.023071269
0.0021640693 0.028877364 -0.007006642 -0.015704347 -0.04491581 0.050831147 0.002056847 -0.017734835
-0.007655437 0.025849452 0.010092302 0.038776897 0.02472317 0.0004947604 -0.013754939 -0.0017892844
-0.015403485 0.019290404 0.018508954 -0.010382728 0.014045886 0.0031842112 0.0011290584 -0.014241768
0.04802804 0.0066368612 -0.03961339 0.055283204 -0.042626563 0.007461667 -0.022787154 0.022748318
0.008480193 -0.015721418 0.020962477 -0.05065961 0.022441713 0.013450214 -0.004140406 -0.0032547703
-0.03796711 0.020162534 -0.03871461 -0.012819231 -0.008332702 -0.0030795762 0.00676024 -0.020180352
00000000: 04c8 06bd 7eff cabc 3d3d bebc a21a a23c
00000010: 6db5 ff3c 22d6 3e3d 4c75 9cbc cdeb 833d
00000020: e410 29bd c1a2 68bc 203b e6bc 66b2 07bb
00000030: dd74 e9bb d3f7 63bc da88 ac3c a713 24bd
00000040: 3d6c a53b 4500 f9bb 359f 613c 12e0 ae3b
00000050: 1613 f83a bc1c ce3a 619c 0abd 665d 50ba
00000060: 30c4 d43c 6ec0 efbc c6e8 813b 0351 bebc
00000070: 6cb7 9bbb 4df7 7dbc ac08 163d 4bb9 96bc
00000080: fcf3 1abd 39be 023d 7200 083d 0cf3 bb3c
00000090: 9e13 26bd 5018 27bd c8a0 7bbc 9c17 d0bc
000000a0: 6b0c c73c 6e3b c23c 083e 823c 18a3 483c
000000b0: c418 26bd 944f 16bd 2495 80bc 2181 1ebc
000000c0: 215a a8b9 5d34 01bb 87a9 673c 6353 903c
000000d0: 5f93 153d 825d 403c f878 e9bc ac9a d93c
000000e0: 693b 0cbc 6d6a a13b bd80 cabc 5716 0fbd
000000f0: 9192 213d ec38 bfba 6505 c3bc 9841 d0bc
00000100: 4342 77bc cecb 8d3c 1cc2 003d 2ffd 02bd
00000110: 9e67 6e3b dc81 153c 3b2f 1abd b1af a4bc
00000120: dbcc 94bc c4e9 faba bc48 9e3c be19 fd3c
00000130: b948 01bd c80e 143d 2c62 7ebc b6f2 31bc
00000140: 2f1f 283d 8691 99bb b30a d93c 3275 a1bc
00000150: bce5 43bd 89ed febb 569c 6e3c 17bd c6bc
00000160: c860 103d 76a0 80bc aa8c df3c 4d79 90bc
00000170: a9ad 473c feaa 9e3c efd3 a13b de64 8dbc
00000180: f883 203d a2f4 bc3c 55b2 8f3c 7427 37bc
00000190: b6be 14bd c2c4 94bc 44b3 c23a 8d0d 8ebc
000001a0: 7f5b d23c 6a8a d83c 4bb7 d33c 9adb bbbc
000001b0: 03b1 903c d1fa e23c 9fd8 d93c 0723 973c
000001c0: 5236 86bc 60f9 02bd ca88 ee3c fdd4 763c
000001d0: 2e5e 04bd c98f a0bb 604f b4bc ab59 92bc
000001e0: dc0d 783c fc8d debc 4d50 e5bc 163a 13bc
000001f0: 716d a53c 9448 d2bc 731c 8bbb dd3a e0bc
00000200: 6af0 9f3c d079 d4bc c139 093d fc06 213c
00000210: 05b2 143d 7af7 4ebc ada5 263d 02b7 353c
00000220: 64f5 7d3b bf0e 923c dda9 893b f40e cd3c
00000230: be1b 6e3c 4106 04bc 8fae 27bd fa80 26bc
00000240: 4e3c dcbc aad0 423c a17b 8f3c 01ef ff3c
00000250: 9ada 8abb 0747 763b e3de aa3c ff16 5abd
00000260: 85ca bebc 3ccb 783c 4120 583c 7d14 a53b
00000270: c826 153d 7739 773c 5426 b73c fae5 3a3b
00000280: 6be3 0e3d 6d62 033d 5049 653c 8f57 0ebd
00000290: ca0e d03c 3362 06bc 1333 cbbc 2c05 50bd
000002a0: 8b0f 993c 084e 033c 57fe d03b 6a1c 05bd
000002b0: 1cab a63c 0b35 063c 57ca 043d a4b8 debc
000002c0: 2791 a43c 66a5 433c 61d3 11ba 38f2 3d3c
000002d0: 7284 45bd f204 803b d260 b8bc 1726 50bc
000002e0: 8830 983b ef2d 65bc c6ad 20bd a9aa c9bb
000002f0: 7ce9 e23c 5ac2 37bd aa24 8e3c 1607 953b
00000300: b77e debc 419d ebbc af66 023d b4d0 0abd
00000310: 3966 0abd ff0f 543b b915 d03c 86f5 9f3c
00000320: 7c52 b73c 0219 f03c 2287 b33b d127 fc3b
00000330: 048b 8bbc fe5e 40bd 899c f639 f5ff bc3c
00000340: 0fd3 0d3b 3990 ec3c f997 e5bb 67a6 80bc
00000350: a4f9 37bd 5234 503d 2bcc 063b a548 91bc
00000360: 76da fabb 3bc2 d33c 2f5a 253c 86d4 1e3d
00000370: 3f88 ca3c cfb2 013a 655c 61bc 6c86 eaba
00000380: e65e 7cbc e906 9e3c 17a0 973c 511c 2abc
00000390: b720 663c 33ae 503b eafc 933a 4e56 69bc
000003a0: 0db9 443d 077a d93b a641 22bd a470 623d
000003b0: 3199 2ebd 0081 f43b 20ac babc ae5a ba3c
000003c0: 82f0 0a3c 34ca 80bc 80b9 ab3c 7480 4fbd
000003d0: afd7 b73c 495e 5c3c 3eac 87bb fc4d 55bb
000003e0: 6683 1bbd e62b a53c 3693 1ebd c007 52bc
000003f0: e385 08bc b7d2 49bb 0185 dd3b 4451 a5bc

block3.0.bias f4 [64]
0.0027491078 -0.00034957053 -0.02571243 -0.015424948 0.043286502 0.009583215 -0.030281534 -0.041074287
-0.03292299 -0.031882565 -0.019196864 -0.006849776 0.026854036 -0.03427512 0.02551646 -0.0386891
0.020911982 -0.0074530793 -0.00970863 -0.039224893 0.0151058715 -0.019967677 -0.04283776 0.031366214
-0.0011288986 -0.03223446 0.016493242 -0.0068357754 0.013882802 -0.028705498 0.03099315 -0.0053805723
-0.0025690913 -0.04344981 0.021162758 -0.008293359 0.030801322 -0.0028431937 -0.038471688 -0.017338656
0.0063727996 -0.038122933 -0.027000435 -0.010834487 -0.01391 -0.02796191 -0.033977184 0.032281578
0.004271734 -0.015049912 0.012482625 -0.035219595 -0.012268656 -0.0059315558 -0.030553693 -0.013477558
0.037112292 0.004687483 -0.030346643 -0.0347107 0.007680444 -0.0065163495 0.023106515 0.0004522295
00000000: 602a 343b 9046 b7b9 e0a2 d2bc ecb8 7cbc
00000010: 304d 313d eb02 1d3c fb10 f8bc 833d 28bd
00000020: 42da 06bd 4b97 02bd be42 9dbc 1674 e0bb
00000030: fffc db3c 1164 0cbd e507 d13c 7678 1ebd
00000040: 9b4f ab3c f638 f4bb f210 1fbc 48aa 20bd
00000050: 9e7e 773c 4193 a3bc a676 2fbd dc79 003d
00000060: 8df7 93ba 4808 04bd d61c 873c a4fe dfbb
00000070: b174 633c cb27 ebbc 59e5 fd3c 834f b0bb
00000080: 335e 28bb 6ef8 31bd 855d ad3c dee0 07bc
00000090: 0e53 fc3c e054 3abb 7d94 1dbd cc09 8ebc
000000a0: ebd2 d03b cb26 1cbd 0430 ddbc 2283 31bc
000000b0: c5e6 63bc 6010 e5bc a92b 0bbd b039 043d
000000c0: e7f9 8b3b e893 76bc ed83 4c3c 6c42 10bd
000000d0: 7902 49bc 7f5d c2bb bd4b fabc fad0 5cbc
000000e0: 0f03 183d 7599 993b 8699 f8bc cf2c 0ebd
000000f0: 3cac fb3b 1a87 d5bb e049 bd3c 3719 ed39

block3.1.weight f4 [64]
1.0021755 0.9939033 0.9943152 1.0013013 0.9991188 1.0045968 0.98207515 1.0029265
1.007496 1.010594 1.0050819 1.0073111 0.996856 1.0216408 0.98719674 1.0005976
0.98847246 0.98832524 1.0025789 1.0002512 0.99211544 0.99556327 1.0124971 1.0029621
0.98596585 0.9844198 1.009173 1.0085517 0.98614573 1.0050713 1.0247386 1.0094703
1.0115145 0.9972669 1.002158 1.0046294 0.9987868 0.99307114 0.99908733 0.9996
0.989178 0.99284494 1.0027863 0.9926756 0.9956946 1.0080304 0.9949705 1.0144804
1.0082872 0.97987616 1.0049723 0.9981819 1.0079249 1.0099561 0.99808663 1.0241402
1.0164363 0.9947252 0.99264216 1.0022112 0.996326 1.0090559 0.983844 0.9926018
00000000: 4947 803f 7270 7e3f 718b 7e3f a42a 803f
00000010: 40c6 7f3f a196 803f 4769 7b3f e55f 803f
00000020: a1f5 803f 255b 813f 86a6 803f 92ef 803f
00000030: f431 7f3f 20c5 823f edb8 7c3f 9513 803f
00000040: 880c 7d3f e202 7d3f 8154 803f 3b08 803f
00000050: 47fb 7d3f 3cdd 7e3f 8199 813f 1061 803f
00000060: 4268 7c3f f002 7c3f 952c 813f 3918 813f
00000070: 0c74 7c3f 2da6 803f a22a 833f 5336 813f
00000080: 4f79 813f e24c 7f3f b746 803f b297 803f
00000090: 7eb0 7f3f e939 7e3f 30c4 7f3f c9e5 7f3f
000000a0: c53a 7d3f 162b 7e3f 4d5b 803f fd1f 7e3f
000000b0: d7e5 7e3f 2407 813f 63b6 7e3f 7eda 813f
000000c0: 8e0f 813f 2ad9 7a3f efa2 803f d988 7f3f
000000d0: af03 813f 3e46 813f 9b82 7f3f 0717 833f
000000e0: 961a 823f 50a6 7e3f cc1d 7e3f 7548 803f
000000f0: 390f 7f3f be28 813f 33dd 7b3f 271b 7e3f

block3.1.bias f4 [64]
-0.023108492 -0.033221126 -0.030803936 -0.024032107 -0.018474031 -0.030815626 -0.04839485 -0.011939539
-0.031160122 -0.021765294 -0.020962816 -0.026905522 -0.02254385 0.0050002383 -0.023829907 -0.03450462
-0.030185709 -0.02013819 -0.018477622 -0.03863726 -0.032236926 -0.026909955 -0.023690134 -0.028574253
-0.04377369 -0.009336028 -0.045958064 -0.033574596 -0.018646898 -0.01702889 -0.025789082 -0.0057004546
-0.016900871 -0.014810249 -0.025383048 -0.010307063 -0.041127022 -0.041425347 -0.038834386 -0.01863397
-0.022878593 -0.014828015 -0.03640339 -0.041045047 -0.022576857 -0.018147267 -0.020003142 -0.029018795
-0.016768876 -0.032922108 -0.031955447 -0.033846084 -0.025688607 -0.034217637 -0.03229875 -0.011547911
-0.030020306 -0.0254313 -0.029011581 -0.02740104 -0.03307025 -0.024435159 -0.03957497 -0.028573256
00000000: 054e bdbc e012 08bd 8958 fcbc fbde c4bc
00000010: da56 97bc 0d71 fcbc ae39 46bd 0e9e 43bc
00000020: 8343 ffbc 214d b2bc 36ba abbc f868 dcbc
00000030: e1ad b8bc 0ad9 a33b f036 c3bc b754 0dbd
00000040: 0548 f7bc d8f8 a4bc 625e 97bc 1b42 1ebd
00000050: de0a 04bd 4472 dcbc d011 c2bc 8d14 eabc
00000060: 0a4c 33bd 24f6 18bc 863e 3cbd 8485 09bd
00000070: 61c1 98bc 2c80 8bbc a043 d3bc e1ca babb
00000080: b273 8abc b0a6 72bc 1cf0 cfbc f5de 28bc
00000090: cf74 28bd a0ad 29bd ce10 1fbd 44a6 98bc
000000a0: e36b bbbc 34f1 72bc b91b 15bd da1e 28bd
000000b0: 1af3 b8bc 94a9 94bc a1dd a3bc d3b8 edbc
000000c0: e25e 89bc 55d9 06bd b7e3 02bd 31a2 0abd
000000d0: ea70 d2bc cb27 0cbd b24b 04bd 7333 3dbc
000000e0: 25ed f5bc 4d55 d0bc b2a9 edbc 2578 e0bc
000000f0: ac74 07bd 3e2c c8bc 5d19 22bd 7612 eabc

block3.1.running_mean f4 [64]
-0.06298076 -0.24070145 -0.03803168 -0.5963179 -0.10500283 0.15608211 0.10673239 -0.28970018
0.010557419 -0.28339297 0.03701851 -0.011139175 -0.0936795 -0.7683136 -0.12867075 0.082302846
-0.16388261 0.3801368 0.09301206 -0.009458175 -0.045987576 0.30523196 -0.3600641 0.13648927
0.11268204 -0.29816753 0.08932175 0.18480533 0.2241803 0.011673038 -0.15369613 -1.2363074
-0.6152713 0.24940698 0.22281894 -0.43082255 -0.025810929 0.27074036 0.06713942 -0.2426959
-0.85913944 -0.33617383 0.06731499 -0.48914307 0.043738376 0.348775 0.06221651 -0.3226328
-0.031256422 0.16265558 0.340181 0.040309727 -0.07864051 0.058483 0.20639199 -0.8411081
-0.011667141 0.24094972 0.106894284 -0.09619502 0.42661217 0.21628873 0.20579068 -0.37198895
00000000: 0ffc 80bd 717a 76be 1bc7 1bbd 4aa8 18bf
00000010: b90b d7bd fdd3 1f3e 8396 da3d 9553 94be
00000020: 06f9 2c3c e218 91be b9a0 173d 1681 36bc
00000030: 0adb bfbd 33b0 44bf 44c2 03be 658e a83d
00000040: d8d0 27be 4aa1 c23e 1b7d be3d 76f6 1abc
00000050: 785d 3cbd 5d47 9c3e 525a b8be d8c3 0b3e
00000060: d7c5 e63d 6aa9 98be 52ee b63d 9c3d 3d3e
00000070: 858f 653e 4540 3f3c 8562 1dbe 523f 9ebf
00000080: 6b82 1dbf 8b64 7f3e a62a 643e c694 dcbe
00000090: 7171 d3bc 7b9e 8a3e 6480 893d 4685 78be
000000a0: 90f0 5bbf fa1e acbe 71dc 893d f670 fabe
000000b0: 0327 333d a392 b23e bdd6 7e3d 2030 a5be
000000c0: bc06 00bd 2f8f 263e 342c ae3e d01b 253d
000000d0: 470e a1bd df8b 6f3d 6c58 533e dc52 57bf
000000e0: 8927 3fbc 86bb 763e 64eb da3d e501 c5bd
000000f0: e96c da3e cb7a 5d3e cbba 523e 5675 bebe

block3.1.running_var f4 [64]
0.12592588 0.22420219 0.14346024 0.21826296 0.20972015 0.12212237 0.23568122 0.14506628
0.13787925 0.17543314 0.2239499 0.13345692 0.25147262 0.2860425 0.291337 0.17467171
0.16376795 0.39328453 0.17997596 0.09877069 0.22914137 0.19077188 0.2037057 0.17860295
0.23913766 0.19454078 0.22921179 0.11573036 0.16511019 0.2661779 0.17554934 0.7269548
0.45920375 0.27105135 0.15863162 0.23085108 0.1428172 0.30319414 0.11401709 0.19053802
0.55129063 0.25775266 0.13382559 0.20264632 0.16725707 0.17287114 0.28825557 0.3182549
0.2030879 0.17068703 0.14560415 0.18734789 0.10276947 0.117403425 0.22717163 0.42336506
0.1308365 0.19450285 0.18637593 0.1947168 0.21817401 0.12993516 0.32323918 0.16104418
00000000: b7f2 003e 4295 653e 3ee7 123e 5380 5f3e
00000010: e1c0 563e 4b1b fa3d 6b56 713e 418c 143e
00000020: 3830 0d3e bfa4 333e 1f53 653e eea8 083e
00000030: 05c1 803e 2a74 923e 202a 953e 24dd 323e
00000040: c9b2 273e 975c c93e 9e4b 383e 4a48 ca3d
00000050: 09a4 6a3e b459 433e 3a98 503e b1e3 363e
00000060: 81e0 743e b335 473e 7fb6 6a3e 0a04 ed3d
00000070: a512 293e 7848 883e 35c3 333e b619 3a3f
00000080: c11c eb3e 3ec7 8a3e 5470 223e 3a64 6c3e
00000090: ac3e 123e 433c 9b3e cb81 e93d 661c 433e
000000a0: 6221 0d3f 28f8 833e 9309 093e 8482 4f3e
000000b0: 7045 2b3e 2205 313e 3c96 933e 4ef2 a23e
000000c0: 46f6 4f3e 95c8 2e3e 4119 153e 20d8 3f3e
000000d0: cd78 d23d 3571 f03d ae9f 683e 4ec3 d83e
000000e0: 01fa 053e c12b 473e 55d9 3e3e d763 473e
000000f0: 0269 5f3e b90d 053e 9b7f a53e c4e8 243e

block4.0.weight f4 [64, 64, 3, 3]
0.00736212 -0.03667381 0.028489154 0.010731626 0.017957723 0.03414076 0.021896785 -0.034029074
0.009236446 0.007089371 -0.031848636 0.011596351 0.008069236 0.043112904 -0.034012888 -0.04377366
-0.041489936 0.0328589 -0.010045877 0.034726556 -0.008583966 0.026821453 0.022883764 -0.04125872
0.03427849 0.023543814 -0.023244658 -0.03246237 0.012378527 0.043351308 -0.033464037 0.018225046
0.016900819 -0.02051022 0.0075774384 0.023258027 -0.027220538 -0.041417714 -0.019378562 -0.007331874
-0.017331254 0.012799761 0.014469989 0.025590183 -0.024644211 -0.037780937 0.018954149 -0.009992031
-0.012814414 0.022301866 -0.003945009 0.02941143 0.038824786 0.022871511 -0.043216184 0.036232322
0.011719153 0.02841876 0.014234066 -0.020446233 0.032110203 0.043888617 0.034131568 0.005110748
0.021565203 0.021623341 0.009993712 -0.047298547 0.0136227105 0.015143384 -0.0389836 0.04441444
0.015263632 -0.030450348 0.04330488 0.0087842 -0.022821119 -0.0004901578 0.026129942 -0.043134954
-0.01853366 0.0014227914 -0.012167557 0.015916076 0.010004791 0.013659984 -0.030759059 0.048624642
-0.015177503 0.0023681086 0.018417181 -0.032275613 -0.022081275 0.03387607 0.022458144 0.007547897
0.012058923 0.041252974 -0.04019385 0.040091395 -0.008383543 0.02782435 -0.048634946 -0.022112975
0.00505904 0.033747442 0.0125957355 0.041127067 -0.027904673 -0.008483795 0.040730525 0.01695268
-0.026885584 0.03520952 0.01125206 0.002538496 0.00021917281 0.030594943 -0.012468932 0.024550818
0.0517223 -0.021475863 0.036774017 -0.005963362 -0.0010320002 0.034204524 -0.003861856 0.016894268
0.038524497 0.017322682 -0.039124094 -0.0038871097 -0.0001853034 -0.041899852 0.027877701 -0.012684094
0.008598582 -0.010883463 0.005304056 0.018228719 -0.01559593 -0.042533547 -0.0045221215 -0.014584095
0.027216263 0.032891862 0.020573186 -0.032197755 -0.03355721 -0.04384337 0.02235067 0.02778217
-0.02620025 -0.024072923 -0.003320831 0.011545211 0.0092523135 0.026089285 0.009609762 0.009488536
-0.015549802 -0.02028268 0.041037954 -0.031999834 0.008358126 -0.03983552 -0.036056448 -0.0070782425
-0.039403632 0.014437846 -0.0025642624 -0.019553188 -0.030181734 -0.01105667 -0.02348534 0.023035835
-0.04260672 -0.017193185 0.026704758 -0.03703234 -0.027626988 -0.037560645 0.009694642 0.012883787
0.028055629 -0.008466103 0.047430284 -0.008500768 0.02532926 0.02452908 -0.03774134 0.007394578
-0.014604408 -0.035760183 -0.029735418 0.040838677 0.0072531947 0.029032564 -0.0037484462 -0.04018354
0.0066477614 -0.017382275 -0.03609834 0.03033748 -0.012112248 -0.017440006 0.007315077 0.024888363
0.013238667 -0.01771872 -0.033272546 0.00440378 0.026069943 -0.020597491 0.032840278 -0.003852804
-0.03323598 0.0016122451 0.0030913735 -0.02733179 -0.04255831 -0.020116292 0.03267023 -0.019882953
0.03333581 0.0073249605 0.018692223 -0.04131084 0.0119382655 -0.020369709 0.02102828 -0.018698443
-0.020896815 0.047230553 -0.0044825897 0.04054175 0.045298584 -0.021491041 0.03750784 -0.009296653
-0.036283527 -0.00034581736 0.030077333 0.0036854926 -0.0072061387 0.026347466 -0.0041110646 -0.041899443
-0.026987523 0.024648348 -0.009866382 -0.02373429 -0.020673417 0.01255516 -0.021016486 0.002618592
00000000: f03d f13b 4737 16bd 1662 e93c b4d3 2f3c
00000010: 131c 933c 2ed7 0b3d e360 b33c 1262 0bbd
00000020: 7654 173c f44d e83b b773 02bd 9ffe 3d3c
00000030: d434 043c 2897 303d 1951 0bbd 024c 33bd
00000040: 5af1 29bd 0e97 063d 7697 24bc 6f3d 0e3d
00000050: c3a3 0cbc aab8 db3c bb76 bb3c e7fe 28bd
00000060: 9a67 0c3d f5de c03c 956b bebc 43f7 04bd
00000070: 4ecf 4a3c 2491 313d 9611 09bd b14c 953c
00000080: 9673 8a3c 0d05 a8bc 294c f83b 9e87 be3c
00000090: 9bfd debc 9fa5 29bd cabf 9ebc 3840 f0bb
000000a0: 46fa 8dbc 17b6 513c 8813 6d3c 81a2 d13c
000000b0: a8e2 c9bc 2fc0 1abd bb45 9b3c 9eb5 23bc
000000c0: 8cf3 51bc 67b2 b63c 2245 81bb 3df0 f03c
000000d0: bd06 1f3d 095d bb3c 7403 31bd 5868 143d
000000e0: b101 403c 76ce e83c 0036 693c dc7e a7bc
000000f0: fd85 033d 8dc4 333d 8bcd 0b3d 1078 a73b
00000100: 82a9 b03c 6f23 b13c abbc 233c 1fbc 41bd
00000110: ca31 5f3c f51b 783c 44ad 1fbd eaeb 353d
00000120: 5014 7a3c 0273 f9bc 7560 313d 9beb 0f3c
00000130: 5bf3 babc ef7d 00ba 760e d63c 47ae 30bd
00000140: e7d3 97bc f57c ba3a 6f5a 47bc 6e62 823c
00000150: 23eb 233c 20ce 5f3c 6cfa fbbc a22a 473d
00000160: 10ab 78bc 4532 1b3b a1df 963c 6f33 04bd
00000170: cae3 b4bc a2c1 0a3d 24fa b73c 5954 f73b
00000180: ca92 453c e1f8 283d 4ea2 24bd e036 243d
00000190: 215b 09bc e4ef e33c 7035 47bd 4526 b5bc
000001a0: 4ec6 a53b c23a 0a3d 585e 4e3c db74 283d
000001b0: 5798 e4bc 9eff 0abc 0dd5 263d 59e0 8a3c
000001c0: 283f dcbc dc37 103d 8f5a 383c e55c 263b
000001d0: c1d1 6539 3fa2 fa3c 7e4a 4cbc cc1e c93c
000001e0: c3da 533d 26ee afbc 5aa0 163d 4e68 c3bb
000001f0: 2e44 87ba 0b1a 0c3d 3117 7dbb d965 8a3c
00000200: ddcb 1d3d 4ce8 8d3c 9640 20bd e1be 7ebb
00000210: 014e 42b9 2e9f 2bbd c75f e43c f2d0 4fbc
00000220: 11e1 0c3c 8d50 32bc a6cd ad3b 6554 953c
00000230: 1286 7fbc a837 2ebd 4e2e 94bb 21f2 6ebc
00000240: a4f4 de3c 9eb9 063d 1989 a83c cbe1 03bd
00000250: 4973 09bd 1b95 33bd c118 b73c 6f97 e33c
00000260: e8a1 d6bc 9434 c5bc 4da2 59bb 2028 3d3c
00000270: 0497 173c 32b9 d53c 4372 1d3c ce75 1b3c
00000280: 99c4 7ebc dd27 a6bc 6a17 283d 4212 03bd
00000290: 85f0 083c 922a 23bd edaf 13bd 9af0 e7bb
000002a0: b465 21bd b78c 6c3c 2f0d 28bb 022e a0bc
000002b0: af3f f7bc 0927 35bc 5464 c0bc a6b5 bc3c
000002c0: 6284 2ebd b9d8 8cbc f0c3 da3c 39af 17bd
000002d0: fe51 e2bc 31d9 19bd 47d6 1e3c 8516 533c
000002e0: ebd4 e53c 69b5 0abc 4246 423d ce46 0bbc
000002f0: 4f7f cf3c 36f1 c83c aa96 1abd 374e f23b
00000300: 5447 6fbc 4579 12bd b197 f3bc 7546 273d
00000310: 35ac ed3b b3d5 ed3c 7ea8 75bb 7f97 24bd
00000320: 77d5 d93b 4665 8ebc dadb 13bd 4f86 f83c
00000330: 7372 46bc 58de 8ebc 50b3 ef3b aee2 cb3c
00000340: fee6 583c d926 91bc cb48 08bd 964d 903b
00000350: a290 d53c 12bc a8bc 8783 063d 537f 7cbb
00000360: 7322 08bd f851 d33a a498 4a3b ebe6 dfbc
00000370: 9f51 2ebd ecca a4bc 38d1 053d 93e1 a2bc
00000380: 218b 083d 3906 f03b 6f20 993c 8e35 29bd
00000390: b798 433c 60de a6bc 8043 ac3c 7a2d 99bc
000003a0: cc2f abbc d374 413d b0e2 92bb 1b0f 263d
000003b0: 028b 393d fb0d b0bc d2a1 193d fd50 18bc
000003c0: 099e 14bd d24e b5b9 bd64 f63c 4e88 713b
000003d0: 7921 ecbb a4d6 d73c 1cb6 86bb c09e 2bbd
000003e0: f014 ddbc 55eb c93c 9ba6 21bc 6a6e c2bc
000003f0: 4c5b a9bc 28b4 4d3c c42a acbc af9c 2b3b

block4.0.bias f4 [64]
-0.01198112 -0.029348621 -0.039095614 -0.004358585 -0.037061352 0.028623844 0.011449056 -0.00483346
0.039497316 0.022984624 0.02427139 0.000890042 -0.033872556 0.0075357617 0.020205542 0.025301898
0.026464473 -0.036097936 0.019797156 -0.03551438 -0.013508205 0.026387895 -0.012557894 0.0028759881
-0.03315444 0.024116486 -0.026748993 0.0086766975 -0.023594014 0.04212712 0.004496617 0.0017353387
-0.00686489 0.001268074 0.032533392 0.007626667 -0.015599924 0.037181653 0.021851588 -0.035549223
0.002703383 0.029565929 0.02774569 0.024916023 -0.0024269493 -0.00761107 -0.040521212 -0.025400098
0.019088669 -0.033928268 -0.004374035 -0.014577239 -0.005676286 -0.0050070263 -0.0072684605 0.0053384765
0.029428646 -0.020336464 0.042860605 -0.0005716284 0.03859783 0.015074238 -0.018802704 -0.010488628
00000000: 764c 44bc 856c f0bc b922 20bd 76d2 8ebb
00000010: a5cd 17bd 8d7c ea3c d294 3b3c 0062 9ebb
00000020: f0c7 213d 404a bc3c cbd4 c63c b551 693a
00000030: f3bd 0abd 8dee f63b 1886 a53c ed45 cf3c
00000040: 06cc d83c 6edb 13bd a52d a23c 8777 11bd
00000050: 8551 5dbc 6d2b d83c a0bf 4dbc 137b 3c3b
00000060: f3cc 07bd f08f c53c b420 dbbc b528 0e3c
00000070: 3c48 c1bc 7d8d 2c3d 5b58 933b 4e74 e33a
00000080: dff2 e0bb 8135 a63a bc41 053d 1fe9 f93b
00000090: d396 7fbc ca4b 183d 1a02 b33c 109c 11bd
000000a0: 3e2b 313b 3f34 f23c ee4a e33c b01c cc3c
000000b0: 740d 1fbb 4866 f9bb 92f9 25bd de13 d0bc
000000c0: d75f 9c3c 5ef8 0abd 1154 8fbb 5fd5 6ebc
000000d0: 2300 babb fb11 a4bb 442c eebb 63ee ae3b
000000e0: 5814 f13c a898 a6bc 9a8e 2f3d 55d9 15ba
000000f0: c218 1e3d f0f9 763c 2108 9abc 7fd8 2bbc
