results/old/basic_cosine_58.pth (torch, 961224 bytes, 25 tensors)

block1.0.weight f4 [64, 1, 3, 3]
00000000: 0e71 85be 0cff a2bd 22fc aabc ff0c 393e
00000010: 3077 4dbe 5dde 893e 45e6 40be 1e6e 8a3d
00000020: f38c 353e 3ca5 8ebc 4286 4d3e 3fdc 70bc
00000030: faab a33e 63dc 74bc 238b 82be 0d1e 3a3e
00000040: 9862 8dbe 1ce1 01be d875 8e3e c838 b0be
00000050: fb8e f3bc ff7f 8cbe 7ce6 413d a598 00be
00000060: 0a90 0b3e 6665 31be e46c bb3d 3af5 83be
00000070: cf5d 68bd a239 7fbe 86fd 82bc a4e8 de3d
00000080: bc25 7bbe 4be0 52be 8e9e f03d b0aa 2c3e
00000090: 6856 c03c fb48 653e 8031 72bd 92dd 893d
000000a0: 79d8 60bd 8460 413d ad54 293e caa5 173d
000000b0: 75f5 4fbe 1bc7 8c3e 8530 343e a0da 993d
000000c0: 455e c83d 7842 6c3d cb68 88be 3cd7 a1be
000000d0: feae 27bd b4ee 00bc 2400 d3bd ebdb 413e
000000e0: fa46 633e 9a32 763e fe30 423e b753 62be
000000f0: 9db0 373e fd09 a73d 346d babe 1058 1abe
00000100: 0066 ab3e db77 e9bd dbb9 8e3e 8e3d a2bd
00000110: 1ef6 0bbe c260 8ebe 315e 243d a616 913d
00000120: d8ba 3dbe 0b1d 9dbc fdd4 983e ab32 353e
00000130: 86da dd3c aa59 94bd f013 61be e4a6 51bd
00000140: f021 563e c41b 8abe 5d69 923e b328 adbc
00000150: a64a 8f3e 399b d4bd 8781 22be 6712 94bd
00000160: 2aa0 e3bc e7d5 0c3e 8c26 bfbe 2af4 8e3e
00000170: a078 2fbc 7b69 ccbd 1103 443b 9f5d 843e
00000180: 13f0 0b3e 209e cabe c261 8e3e 3770 813e
00000190: ad00 d6bd 6ab4 d33d 2ce5 39be 6e74 533e
000001a0: ebfd 87bd 4ee1 2e3c 6659 8f3d 5fcc 0ebd
000001b0: 2588 573e b6b9 943e 9dac 72be ee2c a93d
000001c0: 457d 16be cd0c 85be b3c7 a43c 4a5f 7c3b
000001d0: 4d3b d13d ffcb 1b3d 47df 9bbe f22e 3ebe
000001e0: 77b7 8bbe b6b6 3bbe e5b8 a23e 3c9d 803e
000001f0: 7982 7f3e 3469 613d f3bc 813e 5cdf 8d3e
00000200: f506 de3c 18da 28be db45 2c3e 3691 2fbc
00000210: 87e8 8f3e 8850 6c3b 67ad a9be c00f 0c3e
00000220: 4993 fe3d 57ff 31be 465d 94be 6d6c e1bd
00000230: a685 85be d292 8b3e 5567 133e 421d 533e
00000240: 7ee2 5cbd 40be 783d 55eb 1ebe cb29 693e
00000250: b4e7 96be a058 b33d 0517 9c3b 5387 dabc
00000260: 2755 2a3e 66ad 0abe 371c 89be afd1 2d3e
00000270: 5eaa d93d 4edb 1dbe 321a 3a3e a063 eb3d
00000280: 475d 0e3e 8b71 12be 80b2 523e 9bd8 3abe
00000290: 894f 8cbd 1254 85be ebe4 c03c 2f5b 963d
000002a0: 0e1e 44be c4f9 98be 94f8 c4bd 7934 043d
000002b0: 26da 86bc ae30 b43d 96b1 6b3e fb27 cabd
000002c0: 3b2e 7cbe 1c48 f5bc 982a 90be a36f 80be
000002d0: 6fc7 01bd 7db3 66be 6a18 90be 90d9 153e
000002e0: 9665 27be 0c8c 92bb 4922 7c3e 4424 b43e
000002f0: e2bb 56bd 3145 7c3e ab0b 7c3b b2fb 7dbe
00000300: e6c7 333d c620 aa3e 0d9f 95be ec5b 5dbe
00000310: 3c9c e43d 6187 28be bdd7 ab3d 2fc7 d4bd
00000320: 27a2 15be afb4 11bd a5db 5e3e 4aba 433e
00000330: 9fbd 22be 4e89 b73d a382 913e 82aa 6ebe
00000340: beec e73d 64d1 efbd adc1 97be beb0 783e
00000350: 5f2b cebd e0c3 9b3d 55b2 c13d b8d1 19be
00000360: 8a8d df3d 7d2c 7a3e 3262 5f3e b3a5 adbe
00000370: 5c44 163e 5566 653c 72d0 483c 1306 4fbe
00000380: 1d14 1bbe 5a2e be3c 8502 63be 63c6 42bd
00000390: 745e 8abd 5587 873e 1e6f 953d 5f5b b23d
000003a0: 1ba2 e2bc 389f d3bd 74b5 a3bd 83de 353e
000003b0: d73e 81be a044 533e 6f50 98be 4797 dcbd
000003c0: fa89 2bbe c26a f33d f4e6 6e3e c6c9 87be
000003d0: c281 903e a0e0 a2be a016 f23d bb77 ec3d
000003e0: 2786 8c3e 5f8d 6f3e 6863 99be 773c 923e
000003f0: 2e2d 763e 0b5c 5bbd d668 c83d 6323 9dbd
-0.26062816 -0.079588026 -0.02087218 0.18071364 -0.20064998 0.26927462 -0.18837841 0.067592844
0.17729549 -0.017412774 0.20070747 -0.014700948 0.31967145 -0.014945122 -0.25496778 0.18175526
-0.27614284 -0.12683529 0.27824283 -0.3441832 -0.029731264 -0.27441403 0.047338948 -0.1255823
0.13629165 -0.17323837 0.091516286 -0.2577303 -0.056730088 -0.24924329 -0.01599003 0.108842164
-0.24526113 -0.20593373 0.11748992 0.16861987 0.023478702 0.22391121 -0.059129238 0.06731714
-0.054893944 0.047211185 0.16536207 0.037023343 -0.20308478 0.27495655 0.17596634 0.075124025
0.097836055 0.057680577 -0.2664245 -0.31609523 -0.04093837 -0.007869411 -0.10302761 0.18931548
0.22195044 0.2404274 0.18964002 -0.22102247 0.17938466 0.08156202 -0.3641144 -0.15072656
0.33476257 -0.11399814 0.2787617 -0.07921897 -0.13668105 -0.27808195 0.04012889 0.07084398
-0.18528306 -0.019178888 0.29849997 0.1769511 0.02708174 -0.072436646 -0.21980262 -0.05118455
0.20911384 -0.26974308 0.2859601 -0.021137571 0.2798664 -0.10381169 -0.15869723 -0.072300725
-0.027786333 0.13753472 -0.37334096 0.27920657 -0.010709912 -0.09981056 0.0029909054 0.25852677
0.136658 -0.39573765 0.27808958 0.25280926 -0.10449348 0.103371456 -0.18153828 0.20649883
-0.06640228 0.010673834 0.06999473 -0.034862872 0.21048029 0.29047936 -0.23698659 0.08260523
-0.14696224 -0.2598633 0.020114755 0.0038508945 0.10216389 0.038036343 -0.30443785 -0.18572596
-0.2728841 -0.18331417 0.31781688 0.2511996 0.24952115 0.05503197 0.2533947 0.27709472
0.027102927 -0.16489446 0.16823523 -0.010715773 0.28107092 0.0036058743 -0.33140108 0.13677883
0.12430436 -0.1738256 -0.28977412 -0.11007009 -0.26078528 0.27260453 0.14394887 0.2061663
-0.053926937 0.06072831 -0.1551946 0.22769849 -0.2947365 0.08757138 0.0047634863 -0.026675856
0.16634046 -0.13542709 -0.2677934 0.16974519 0.10628198 -0.1541569 0.18174055 0.11493611
0.1390277 -0.14301126 0.20575905 -0.18246691 -0.068511076 -0.26040703 0.023546657 0.07341611
-0.1915209 -0.29878056 -0.09617725 0.032276604 -0.016461443 0.087983474 0.23016962 -0.09870907
-0.2462701 -0.029941611 -0.28157496 -0.25085172 -0.031684335 -0.22529407 -0.28143626 0.14633775
-0.16347346 -0.0044722613 0.24622454 0.35183918 -0.052425273 0.2463577 0.0038459103 -0.24803045
0.04389181 0.3322813 -0.2922291 -0.21617097 0.11162612 -0.16457893 0.08390758 -0.10389554
-0.14612637 -0.035572704 0.21763475 0.19114032 -0.15892647 0.08961736 0.2841998 -0.23307231
0.11324452 -0.1170986 -0.2963995 0.24286172 -0.10066866 0.076057196 0.09457842 -0.15021408
0.10915668 0.24431033 0.21814802 -0.3391548 0.14674515 0.014001449 0.0122567285 -0.20217161
-0.15144391 0.023215462 -0.2216893 -0.047552478 -0.06756297 0.26470438 0.072965845 0.08708834
-0.027665189 -0.10333103 -0.07993594 0.17760663 -0.25243255 0.20631647 -0.29748866 -0.10771041
-0.16751853 0.11885597 0.23330289 -0.26521128 0.28223997 -0.31812 0.118207216 0.11546274
0.274461 0.23393773 -0.29958653 0.28561756 0.24040672 -0.053554576 0.09785621 -0.07672765

block1.0.bias f4 [64]
00000000: 8c90 873e 0831 85be f985 453e f5e0 1fbe
00000010: bdfe ebbd e38b 8a3e 7abc 0bbe 82c3 423e
00000020: 8c6b 63be 00db 34be 1419 8d3e 0fe3 92be
00000030: 7872 03be 39bb 3dbd 68bf a23e d99d 5bbd
00000040: 5b39 953d a7ae 873e 08f4 323e 9c3e 813e
00000050: 4fbb 1a3d 1411 4abe 4c2d 3b3e 7c56 c5bd
00000060: d07d 283e 263d 6ebe 0be5 9f3e ce9d d5bc
00000070: 851b 523e 6f46 263e 97f6 29bd bb5f 47be
00000080: f163 873e 02b6 92be aac7 933e 6332 853e
00000090: a1c9 703d 7f78 77be 3eaa 433e 1b4a 3e3e
000000a0: 47ad cd3d 2064 85bd c82c 793e f6c5 65be
000000b0: a0ce 47be bf76 a73d 8c3a 69bd c791 203e
000000c0: 8701 2f3e dc07 a2bd 6b27 493e 21fd a0bd
000000d0: 4382 233e 75f5 a03e 8db3 143d db6f 9fbb
000000e0: 2eb1 853d 32a0 293d 4ba4 573c 363d 69be
000000f0: ed27 d53d 97ab 70be 59b4 acbe 4bd8 333d
0.26477468 -0.2601397 0.19289388 -0.15613158 -0.11523197 0.2705985 -0.13646117 0.19019893
-0.22208995 -0.17661667 0.27558196 -0.28688857 -0.12836635 -0.046321128 0.31786656 -0.053617332
0.0728633 0.26500437 0.17475903 0.2524308 0.037776288 -0.19733077 0.18278998 -0.09635636
0.16454244 -0.23265514 0.31229433 -0.026076224 0.2051831 0.16237806 -0.041494932 -0.19470112
0.26443437 -0.28654486 0.2886327 0.26015005 0.05878604 -0.2416706 0.19107911 0.18582956
0.10042816 -0.06513238 0.24333489 -0.22438797 -0.19512415 0.08176946 -0.0569406 0.1568061
0.17090426 -0.07911655 0.19643943 -0.078607805 0.1596766 0.3143727 0.036304045 -0.004865629
0.06527935 0.04141254 0.013161729 -0.22777256 0.10408006 -0.23502956 -0.33731344 0.043907445

block1.1.weight f4 [64]
00000000: 80da 823f 314b 893f 2d8a 6f3f 6971 753f
00000010: 674b 763f d46e 823f 32b6 6e3f 18c3 803f
00000020: 2b17 743f fdb0 7d3f c0c5 7f3f a282 733f
00000030: b310 823f 609b 843f 47de 763f 3b03 843f
00000040: 65f1 843f 86d7 853f bf21 6e3f 59dc 713f
00000050: 720c 883f e70b 7b3f 3cde 733f 85a1 773f
00000060: d116 823f 3468 813f d04f 753f 177c 6f3f
00000070: 9c64 793f 1eb8 843f e05a 7c3f 76cb 753f
00000080: bd36 833f d7d9 753f d0cf 703f d1e2 743f
00000090: ef27 863f 2c90 793f fa1d 833f 6558 6d3f
000000a0: d1c9 733f 5152 7b3f b2a3 8a3f a33a 753f
000000b0: 789f 743f 5a67 793f 014e 763f fef2 833f
000000c0: 8daa 833f 330a 7a3f 5060 7e3f a794 773f
000000d0: 231a 713f 70b0 7b3f daba 803f 8fe8 723f
000000e0: 4c74 813f b2e3 743f 62b4 723f da84 783f
000000f0: 77dc 723f e57f 743f 2f2c 6b3f ad14 753f
1.0222931 1.0726072 0.93570215 0.95876175 0.96208805 1.0190072 0.9324676 1.0059538
0.9534785 0.9909819 0.9991112 0.95121205 1.0161346 1.0359917 0.9643292 1.0313486
1.0386168 1.0456398 0.9302024 0.9447685 1.0628798 0.98065037 0.9526098 0.96730834
1.0163213 1.0109925 0.9582491 0.9354872 0.9741914 1.0368688 0.98576164 0.9601358
1.025108 0.9603552 0.94067097 0.95658594 1.0480937 0.97485614 1.0243523 0.92713004
0.9522982 0.9817248 1.0831206 0.957926 0.9555583 0.97423327 0.96212775 1.030853
1.0286423 0.9767181 0.9936571 0.967112 0.94180506 0.983161 1.0057023 0.94886106
1.0113616 0.95659935 0.9480649 0.97077715 0.9486765 0.9550765 0.91864294 0.95734674

block1.1.bias f4 [64]
00000000: c47d 1abd 355d 9d3d 15c4 b1bd 34c9 0dbd
00000010: bc15 22bc de7c 163e a609 f33b d10c 90bc
00000020: ab44 2abd fe21 7abc aef6 3c3c 6782 02bc
00000030: 6883 7c3d cb06 29bc 7f4f b73b 671b 253d
00000040: f97b 64bb 3e09 913d 5fcd d2bd b8aa 59bd
00000050: 5cf7 063d 67af 32bd 89ea 123d e754 80bd
00000060: 62ae e43d 260d 95bc 8a9a 8ebd 0681 97bc
00000070: 63ce 5dbd 7255 bf3d 8a48 00bd 97f8 2ebc
00000080: a129 d73c 9a16 3bbd a73f cebc 3297 00bc
00000090: 53b3 153d 3f2a 03bc 9365 173d 390a e6bb
000000a0: 1416 a7bc 9ab0 98bd d1bc 6d3d f394 acbb
000000b0: b82a 3ebd ae32 14bd 1d20 d5bc cf06 9f3c
000000c0: 9f6f 61bd 8094 9fbc 50f0 dcb9 04c1 66bd
000000d0: 123c e7bc 14e5 febc a2e8 9a3c 23e8 2ebd
000000e0: 8b20 c0bc cff3 dabd 1ec2 95bd b7cf b7bc
000000f0: 2a86 61bc 9259 88bc 0bcd c2bc 63d7 15bd
-0.037717596 0.076837935 -0.08679978 -0.03461571 -0.009892877 0.1469607 0.0074169217 -0.017584236
-0.041569393 -0.015266893 0.011533422 -0.007965661 0.061648756 -0.010316561 0.0055941935 0.040309336
-0.0034863933 0.07081841 -0.10293078 -0.053141326 0.032950744 -0.043624308 0.0358682 -0.06266194
0.111660734 -0.018194746 -0.0696307 -0.01849414 -0.054151904 0.09342469 -0.03131918 -0.010679386
0.026264967 -0.04567585 -0.025176836 -0.007848548 0.03654797 -0.008005678 0.036962103 -0.0070202616
-0.02039627 -0.07455559 0.058041397 -0.0052667796 -0.04642746 -0.036181144 -0.02601629 0.019412426
-0.05503809 -0.01947999 -0.00042140717 -0.056336418 -0.028226886 -0.031115092 0.018909756 -0.04270185
-0.023453018 -0.10691034 -0.073124155 -0.022437913 -0.013764897 -0.016644273 -0.023779413 -0.036582362

block1.1.running_mean f4 [64]
00000000: 9e85 753e 8767 86be 8011 f63b f5ef e7be
00000010: 0289 db39 b410 963e 2927 6b3d 7c3c 323e
00000020: 1a87 15be 8613 1dbe 1e5a 9f3e 29bb 2bbe
00000030: 3359 c8bd ebd7 7fbd d679 0d3f 4c03 fdbc
00000040: 8e8d a53d 0468 8a3e b46f 4abe 38b1 81bc
00000050: 8b8c 023d 0db4 90be d645 c33e a694 89be
00000060: 4a8b 403e 530b 77be 3c17 6e3e 9f4c 333e
00000070: a335 123e f157 2c3e 32ea e6bd a03f 01bf
00000080: 4b89 8a3e 461c 593e 3e38 b33e 4272 b33e
00000090: 8add 593d 9634 bbbd 0fca 553e a42b 963e
000000a0: cc71 843e ebb8 cbbd 4259 7a3e 5bbe 2a3e
000000b0: b394 dcbe 155d e1be 0b36 0ebf a9a8 0f3e
000000c0: 2615 213e a732 3abf ee34 883e b237 51be
000000d0: f03a b3be fa42 633e 4a4d 873d 2ed0 cb3d
000000e0: 46f0 323d c27a 99bb ef17 86be 9cc7 e2be
000000f0: 99cc 813e 3e3f c4bd ab0e 673e 68da 8c3e
0.23976752 -0.2625086 0.0075094104 -0.4530026 0.00041873014 0.29309618 0.057410393 0.17405885
-0.14602318 -0.15339479 0.3112344 -0.16770615 -0.097826384 -0.062461775 0.5526403 -0.030885361
0.0808364 0.27032483 -0.19769174 -0.015831575 0.031872313 -0.28262368 0.38139218 -0.26871222
0.18803135 -0.24125414 0.2325105 0.17509697 0.14278273 0.16830422 -0.11275138 -0.5048771
0.2705787 0.21202192 0.35003847 0.3504811 0.05318979 -0.09140889 0.2087786 0.2933017
0.2586807 -0.0994738 0.24448112 0.16674177 -0.43082199 -0.44016328 -0.55551213 0.14029182
0.15730724 -0.7273354 0.26602882 -0.20431402 -0.35005903 0.22193518 0.066065386 0.099518165
0.043686174 -0.0046838233 -0.26190135 -0.44292915 0.25351408 -0.09582375 0.22564189 0.2751038

block1.1.running_var f4 [64]
00000000: 79f4 873a 056e 9a3a 333e 6c3c 8e1d 183d
00000010: c763 be3b 65cd d03a 9f35 873c 6e12 aa39
00000020: be0b 3e3b a6a7 8e39 1af7 b83a d837 c23b
00000030: a840 8e3a 6060 0b3b a772 c33c 8fed d93a
00000040: 7c7c 7339 3da4 a439 aa3c 6a3d 7aa7 f93c
00000050: 55bc 273b ddc8 813b 75e6 873c 60ff 4d3c
00000060: 5cd7 d93a e094 2339 db48 443b 6e92 8a3c
00000070: 223a 1b3b ea90 ad39 59d5 313b 9cf3 233d
00000080: 42a5 c53a e5fd d03d b1ed dd3a 7d95 943b
00000090: daaa a93a d67a 353c 88fe 7c3a e405 aa3b
000000a0: a021 2d3c db97 9b3a f511 2f3a ae17 813d
000000b0: be52 bd3c 12b1 e43d 562c d13d 9925 933a
000000c0: 25d9 a63a f04b 303e a6e2 663b 9396 f83b
000000d0: bd41 dd3d f689 733b d899 903a c497 a63b
000000e0: 7d3c 4c3a d830 b03a a83b 033d cd70 9f3c
000000f0: 4532 393c 313c 053c 93ee 043e c534 b93c
0.0010372541 0.0011782056 0.014419126 0.03713756 0.005810234 0.0015930353 0.01650506 0.00032438658
0.0028998698 0.00027209258 0.0014111728 0.0059270673 0.0010853009 0.002126716 0.023858381 0.0016626584
0.0002322066 0.00031402885 0.05718676 0.030475367 0.0025594432 0.0039607123 0.016589383 0.012573093
0.0016619968 0.00015600352 0.0029950652 0.016915526 0.0023685773 0.000331051 0.0027135222 0.040027246
0.0015079158 0.102046765 0.00169318 0.004534422 0.0012944594 0.01107665 0.0009650965 0.0051886905
0.010567099 0.0011870818 0.0006678396 0.06303345 0.023110744 0.11166586 0.102135345 0.0011226415
0.0012729509 0.17216468 0.0035230308 0.007586309 0.10803554 0.0037161089 0.0011032177 0.00508401
0.0007790996 0.0013442291 0.032039315 0.019462967 0.011303489 0.0081320265 0.12981634 0.02260817

block2.0.weight f4 [64, 64, 3, 3]
00000000: 50cf 63bc 31f9 083d 8eba 80bc 3d1a d6bb
00000010: 5ddc 273d a987 b03b ce81 0cbd 11ba a63c
00000020: 12f1 81ba b0e8 4a3c c68f c03c 9a36 153d
00000030: b9c7 c3bb 2bb8 393d 7336 70ba 11eb 7dbc
00000040: 8f5e 8f3c 93d2 d7bc b788 2cbd 0923 a2bc
00000050: 701e 463d 0400 a63c 59ff 91bb faa0 81bc
00000060: 87a0 29bd ea3d 2bbd 7457 f83b 16c0 edbb
00000070: c387 20bd 70f3 13bd 6ffa e03c 456a f33c
00000080: 9234 26bd a7a4 46bd c73f 633c 7c7d b73c
00000090: fd68 6bbc 9206 063d a08f b53b e4fb cebc
000000a0: a579 223d 2b38 503c 64bb 78bc d06d 233b
000000b0: 311a c83c d2b9 cbbb 164d 883c 2247 34bd
000000c0: 981c c9ba 70fe 923c bd2b 5e3c 959f 5fbc
000000d0: 11dd 9b3b 252a 1dbd ecd9 813b d3bc 43bc
000000e0: d14e 0c3d f171 083b 0b48 233d a650 a63c
000000f0: 9791 773b 8dcf e73c cf6d cb3c 2f72 86bd
00000100: c0b0 67ba 87d6 debc 1888 30bd 4aa3 843b
00000110: 713b eb3c ae6e 7dbd f740 353d d6df 3bbc
00000120: 8c21 083d 9dbc 14bd 068f 12bd 774c 873c
00000130: 5fa1 9f3c 4790 db3c 6dae ab3c ab59 bfbc
00000140: dc7e aabb 43d3 56bc 9bd7 22bc 8483 9fbc
00000150: 6ee3 b63b 1a2b 27bd c61e 0f3d 89dc 583c
00000160: a8c8 623d ad4f d93b 02e6 723c 7d2e fdbc
00000170: 7fed 743c 52c0 f63c 9952 363d bd80 51bc
00000180: a9f3 713d 21ef 9e3c b55d 013c 3930 073c
00000190: e74d b63b c24d 82bc 19e3 133d c76d 283d
000001a0: 6f2c 043c 4c38 393c 19c7 033c 5d7d 123d
000001b0: 3ff9 01bd f128 9d3c 694f 443c e2cd 49bd
000001c0: 2e01 ca3c 87d9 b7bc f8ee 7dbd b750 c9bc
000001d0: 1ec7 123d a4d7 fb3c 34a5 773c a2b3 8abb
000001e0: bd6c c4bc c8d7 e33c 4409 afbb 1dc5 4b3b
000001f0: 9b4c 113d 2797 373b a900 c2bc d707 463d
00000200: 24a2 cdbc 8a84 053d 32ee d6bb 24d0 133d
00000210: fb8b 50ba 44bd c93c ab7b 253d c3c9 8e3c
00000220: c334 28ba 606d 6d3c 6b3a 73ba 8a27 393d
00000230: fc01 973c 4c2c 46bb 5494 14bd d5b0 923c
00000240: 13f2 ad3c a634 873b 9bb8 053d 8c45 2fbd
00000250: d05c 50ba 83df 153d f43c 88bd 8d92 933c
00000260: 1d49 60bd 6b13 f9bb 2b22 223c 3be7 05bd
00000270: 2ba9 7f3c 0d82 9a3b 6cbd c63b 1045 4cbd
00000280: 989c 26bd e922 f9bc 7fd6 dd3b 96bc 12bd
00000290: fa91 903c 97dd 13bd 6c3b 4abd 3a3f b7bc
000002a0: c815 16bd 9338 00bd fa3f 15bd b970 42bd
000002b0: 7ca3 01bc dbdb 973c c87f 83bc 291e 2c39
000002c0: d080 8a3c c94c 893b 1a6b 883c 16c8 22bd
000002d0: 6837 be3c 2b12 673c 48a9 1d3c 1ee7 833c
000002e0: bef5 eb3c 8164 623c e510 08bd 42d3 2a3d
000002f0: e12f 1b3d 04ce 3bbd e86a 82bb b0cb c6bc
00000300: d32a c3bb e804 cd3c b870 9fbc a635 053c
00000310: b72f e8bc f61f c3bb cc49 093d 83a5 ecbc
00000320: 62ef 35bc f742 633c 1fdc d33c 39f7 dcb9
00000330: 231b f4bc 08de 8d3c fa48 e23c d539 de3c
00000340: f84e 5fba 4ee2 10bd 0ef5 983c 1ccb 33bd
00000350: f31a 033d d8b6 1cbd c026 10bd 4147 af3c
00000360: 1e5c 5b3d 36f8 8c3c 1093 61bd c015 d3bc
00000370: 2fde 343c 99cf 253c 9276 6c3d 3509 6f3d
00000380: 6310 773a 4c1c 11bc 6352 5b3b 2ca9 9bbc
00000390: 209b e43b 8546 cb3c afb5 bc3c 5019 cfbb
000003a0: 6619 99bc 7110 5e3d 2a55 07ba 6122 2dbd
000003b0: 1e7b e9bc 2f43 a23c 8805 293c 864a b0bc
000003c0: fde5 c03b a0e8 17bd 7005 2dbd f320 0b3c
000003d0: 511b f03c f7e2 14bd ab05 653c 1650 ab3c
000003e0: bed7 ca3a 8235 c9bc 42da b2bb e4ca 183d
000003f0: 543b 8abb 94f4 ad3c d898 ae3c c101 4c3c
-0.013904408 0.033440772 -0.015713956 -0.0065338896 0.04098164 0.0053872657 -0.03430348 0.020352395
-0.0009913763 0.012384579 0.023506057 0.036429025 -0.0059747365 0.045341652 -0.0009163387 -0.015497939
0.017501144 -0.026345527 -0.04212257 -0.019792097 0.04836887 0.02026368 -0.0044554886 -0.01582383
-0.041412856 -0.041807093 0.0075787846 -0.0072555644 -0.039191972 -0.036120832 0.027463166 0.02971376
-0.04057748 -0.04849687 0.013870186 0.022398703 -0.014368293 0.03272111 0.005540803 -0.025266595
0.03966679 0.012708704 -0.015181396 0.002493728 0.024426552 -0.00621722 0.01663832 -0.04401315
-0.0015343605 0.01794359 0.013560233 -0.013648887 0.004756578 -0.03837027 0.003962746 -0.011946875
0.034254853 0.0020819867 0.039863627 0.020302128 0.0037775987 0.02829721 0.024832634 -0.065647475
-0.00088382885 -0.027201904 -0.04309854 0.004047786 0.028714867 -0.06187313 0.04425141 -0.011466941
0.033235118 -0.03631269 -0.03578093 0.016515953 0.019486127 0.026802195 0.020957196 -0.023358187
-0.005203111 -0.013111892 -0.0099391 -0.019471891 0.005581311 -0.04081259 0.034941457 0.013236173
0.055367142 0.0066318125 0.014825346 -0.030905956 0.014949202 0.030121002 0.044512365 -0.012787041
0.059070263 0.019401135 0.007895877 0.008251243 0.005563486 -0.015906218 0.03610525 0.041120317
0.008067234 0.011304926 0.008043074 0.035764087 -0.03173184 0.019184561 0.0119818235 -0.04926861
0.024658766 -0.022442592 -0.061995476 -0.02457462 0.035834424 0.030742474 0.015115071 -0.0042328397
-0.023977632 0.027812853 -0.0053416807 0.003109283 0.035473447 0.0028013678 -0.023681955 0.04834732
-0.025101729 0.032597102 -0.006559157 0.03608717 -0.0007955429 0.024626382 0.040401142 0.017430192
-0.00064165535 0.014491409 -0.00092784193 0.045203723 0.018433563 -0.0030238805 -0.03627427 0.017906586
0.021233594 0.004126149 0.032646757 -0.042790934 -0.00079484005 0.03659011 -0.06652251 0.018014217
-0.054757226 -0.0076011918 0.009895842 -0.03269122 0.015604298 0.0047152103 0.0060650613 -0.04987055
-0.040676683 -0.030412154 0.0067699547 -0.03582438 0.017647732 -0.036099996 -0.049373075 -0.022369016
-0.036641866 -0.031303953 -0.036437966 -0.047470782 -0.007912513 0.018537452 -0.016052142 0.00016414434
0.016907126 0.0041900617 0.016652633 -0.039741598 0.02321978 0.014103453 0.009622879 0.016101416
0.028803702 0.013817907 -0.033219237 0.041705377 0.037887458 -0.04585077 -0.0039800294 -0.024267048
-0.005956033 0.025026754 -0.019462928 0.008130467 -0.028343065 -0.005954738 0.033517644 -0.028887516
-0.011104437 0.013870946 0.025861798 -0.00042145865 -0.029798096 0.017317787 0.027622689 0.027127186
-0.0008518542 -0.03537207 0.018671539 -0.043894872 0.032008123 -0.03826031 -0.035193205 0.021396281
0.053554647 0.0172082 -0.05507189 -0.025767207 0.011039301 0.010120296 0.057730265 0.05835839
0.0009424744 -0.008856844 0.0033465854 -0.019001566 0.0069765 0.0248139 0.023035852 -0.006320156
-0.018688869 0.0542149 -0.0005162532 -0.042269114 -0.02850109 0.019807426 0.01031626 -0.02151991
0.0058867917 -0.037087083 -0.042241514 0.008491742 0.0293099 -0.036349263 0.013978402 0.020912211
0.0015475673 -0.024561647 -0.0054581473 0.037302867 -0.0042184982 0.021234788 0.021313116 0.01245159

block2.0.bias f4 [64]
00000000: e64d 543c 52db f23b 6a9b bfbc 7bb8 89bc
00000010: b650 81bb e802 23bd a2bb d23c 9e48 193c
00000020: 3f7d 48bc 2999 f93c 9a44 e33c 793b 3cbc
00000030: c197 503b 2e9c 89bc 8e1e 4d3c 6f87 47bc
00000040: 5eb4 c1bc 1873 87bc 54af a53c ff94 82bc
00000050: 5beb b03c bda5 0bbd 52aa 22bc 660c 26bd
00000060: 2f6f 69bc c666 073d 869c 4a3c bb06 0d3c
00000070: ac7d 1d3d 4cb5 a2bc bce6 003d 2beb e43c
00000080: 6b5b a33c ba33 fa3c 725c a73c 5230 a2bb
00000090: 236e f5bc 14e9 d4bc 7bb6 2a3d b4ed a8bb
000000a0: ad90 2cbd b34b 0f3d bccb dd3c 06fe 8dbc
000000b0: 1d0e bc3c 3c37 453c 955d 823b abd1 68bb
000000c0: 622a 2cbc b139 0b3d 0fcd 78bb 9ad1 293a
000000d0: b8ac e5ba 2257 b3bc 8a6b c73c 880e 293c
000000e0: c837 f43c de4b c93a a408 273b 83a2 01bd
000000f0: c2fc 15bc 662a 893c 7901 b3bc 5870 0ebc
0.012958026 0.007411399 -0.023389537 -0.0168116 -0.003946389 -0.039797693 0.025724236 0.009355692
-0.012236892 0.03046854 0.027742673 -0.011488789 0.0031828734 -0.016798105 0.012519492 -0.012178286
-0.023645576 -0.016534373 0.020225205 -0.015940187 0.021596601 -0.034093607 -0.009928303 -0.040539168
-0.0142477 0.033056997 0.01236642 0.008607562 0.03844993 -0.01986184 0.031470045 0.027944168
0.019941052 0.030542243 0.020429824 -0.004949608 -0.029959744 -0.025990047 0.041677933 -0.0051552895
-0.04213016 0.0349843 0.027074687 -0.017333042 0.022955948 0.012037095 0.003978441 -0.0035525362
-0.010508152 0.033990566 -0.0037964021 0.00064780714 -0.0017522788 -0.021892134 0.02434327 0.010318406
0.029811755 0.0015357693 0.0025487328 -0.031649124 -0.0091545 0.01674385 -0.021851288 -0.008693777

block2.1.weight f4 [64]
00000000: 8fd5 7c3f eb75 803f c731 7e3f 918c 783f
00000010: b045 833f f63a 803f 4a32 7e3f 418b 7e3f
00000020: 091f 7c3f 51b4 823f c6d6 7f3f 2ca9 7c3f
00000030: cba9 803f 5ef2 813f a937 7c3f a61e 813f
00000040: d98f 773f b461 7f3f 6f23 793f edba 7d3f
00000050: b700 803f e338 813f fc0c 7f3f c516 7c3f
00000060: 809b 743f 0898 7c3f d2a3 803f 13c1 7b3f
00000070: 93a2 753f 7f75 853f fb66 7a3f c2d0 803f
00000080: ec20 833f d85a 783f 3096 763f c94f 843f
00000090: 98c9 7d3f 2b60 813f d389 803f 7ad3 7d3f
000000a0: 69e0 833f c1b4 843f a181 7a3f 45c6 7c3f
000000b0: 0f16 7e3f f07f 813f c44c 843f 62dc 803f
000000c0: 82b3 7a3f 65c3 793f 4f27 843f 188e 813f
000000d0: 2d9d 803f 16bb 813f ec7e 813f d203 843f
000000e0: b555 7b3f 2616 733f d463 7d3f 0516 7c3f
000000f0: f1e8 7b3f 2111 7b3f 3f58 823f ca2e 803f
0.98763365 1.0035986 0.99294704 0.9708949 1.0255642 1.0017993 0.99295485 0.99431235
0.98484856 1.0211278 0.99937093 0.98695636 1.0051817 1.015209 0.9852243 1.0087478
0.9670387 0.9975846 0.9731969 0.9911335 1.0000218 1.0095485 0.9962919 0.98472244
0.95549774 0.9866948 1.0049994 0.9834148 0.95951194 1.0426482 0.97813386 1.0063708
1.0244422 0.97013617 0.9632292 1.0336848 0.9913573 1.0107473 1.0042061 0.9915081
1.030286 1.0367662 0.9785405 0.98740035 0.9925241 1.0117168 1.0335927 1.0067255
0.9793016 0.97563773 1.0324496 1.0121489 1.0047966 1.0135219 1.0116858 1.0313666
0.98177654 0.9495567 0.9898045 0.984711 0.98402315 0.9807301 1.018318 1.0014279

block2.1.bias f4 [64]
00000000: c9d1 12bd 5f5c 22bd 4a8a 45bd 46d4 36bd
00000010: c696 26bc eca3 a4bd 97ee 55bd e1d8 37bd
00000020: 52f1 f9bc dc13 fdbc ba9f efbc 51d7 28bd
00000030: 8c1b 1a3c 7368 05ba a0a0 14bd dba1 afb9
00000040: 2730 3fbd 44ce 85bd 036a 81bd 198f e2bc
00000050: 0343 90bd 32b4 6cbb ae83 d4bd 915d 3fbd
00000060: 53cf a8bd 4879 58bd 79a2 e1bc afbc 67bd
00000070: aff3 bfbd b495 1ebd f8d7 4ebd ebe3 1abd
00000080: 1546 26bd 2773 89bd 2909 f0bd eb5b 56bc
00000090: 5a78 34bd e6a9 04bd e9a5 3ebb 82e2 2fbd
000000a0: 933f 88bc 5515 98bd 38ff 49bd 1845 7ebd
000000b0: 24ae 86bd 83a0 e4bc 9fec a5bc b3c5 88bd
000000c0: 577f 76bd cb16 cfbd eee9 75bd b40d 08bd
000000d0: efb5 fcbc dd85 d6bc bc33 e83b 33fb 03be
000000e0: 59de 47bd 0323 88bd 56f5 5ebd 2a23 adbd
000000f0: af08 aabc 618b 90bd 323d d5bc d31d 44bd
-0.035844598 -0.039638873 -0.048227586 -0.044636033 -0.010167783 -0.08039078 -0.05222949 -0.044884566
-0.030510578 -0.030893259 -0.029250968 -0.041220967 0.009405982 -0.00050891115 -0.036285996 -0.00033499193
-0.04667678 -0.06533483 -0.06319048 -0.027656125 -0.070440315 -0.0036118147 -0.103766784 -0.04672009
-0.08242669 -0.052850038 -0.027543293 -0.056576427 -0.09372651 -0.038716987 -0.050498933 -0.037815016
-0.04059418 -0.06711417 -0.11720497 -0.013083438 -0.04406009 -0.03238859 -0.002909059 -0.042940624
-0.016631877 -0.07425944 -0.04931566 -0.06207761 -0.065761834 -0.02790857 -0.020254431 -0.06678333
-0.060180034 -0.10111769 -0.060037546 -0.033216193 -0.030848471 -0.026186878 0.0070862453 -0.12888794
-0.04879603 -0.06647303 -0.05443319 -0.08453973 -0.020756094 -0.070578344 -0.026030157 -0.047880005

block2.1.running_mean f4 [64]
00000000: a27e 933d 13f2 4fbe 1410 21bf db8a b63f
00000010: ec79 d9bf 1ae6 20bd ca9b 07bf 2862 abbe
00000020: 2e90 0abf dcc5 c9be 7de5 973d 6228 f0be
00000030: ddd7 4dbf efce 23bf dbb8 033f f0aa 43bf
00000040: 32bc 14bf 9cd0 eebe 027a a53f fd85 1ebf
00000050: e5ca d7be 7b70 c2bf 0753 c4be 65c8 273f
00000060: 8e74 303f ab3c f63d 486d 2cbf 4a7b e9be
00000070: 960a 98be d864 f9be 924e 8cbe c02f 623e
00000080: c468 72bf d4f5 e73f f850 0240 4a82 33bf
00000090: 4c48 35bf 35b7 dcbe 9ef9 33bf b273 163f
000000a0: 9940 72bf 8388 96bd aea0 47be f5ec a0be
000000b0: 1983 f5be 6200 9dbf ae4a dbbe 9e68 33bf
000000c0: 77f0 e6be 2dc6 29be cc8b a3be 94ff 6abf
000000d0: 238d cabe 29cd 0dbf 2f63 b1bf 83f3 10bf
000000e0: 8c99 b1bf a021 ad3f 7e4c 1a3d d2ec a23f
000000f0: 898d 0cbf 68ce 8e3b 0bd4 13bf c226 edbe
0.07201888 -0.20307188 -0.6291516 1.4261125 -1.6990333 -0.039281942 -0.5297209 -0.33473325
-0.5412625 -0.39408767 0.07416818 -0.4690581 -0.80407506 -0.6398763 0.5145394 -0.76432705
-0.58099663 -0.4664353 1.2927859 -0.619232 -0.42146984 -1.5190576 -0.38344595 0.6554015
0.6892785 0.1202329 -0.6735425 -0.45601875 -0.29695576 -0.4870975 -0.27403694 0.22088528
-0.9469111 1.8121896 2.036192 -0.7012068 -0.7081344 -0.43108526 -0.7030276 0.5877029
-0.9462982 -0.07350256 -0.19494888 -0.31430784 -0.47951582 -1.2265742 -0.42830414 -0.7008151
-0.45105335 -0.16579504 -0.31942594 -0.9179623 -0.39560804 -0.55391175 -1.3858393 -0.5662157
-1.3874984 1.3525887 0.037670605 1.2728522 -0.54903466 0.0043581016 -0.57745427 -0.46318632

block2.1.running_var f4 [64]
00000000: f550 0040 a4a2 2c3f 451d bf3e ef46 bb3f
00000010: ed99 aa3f 3473 243f 6ea2 693e 2ca8 433e
00000020: c461 293f 4cfe 653e 57eb ab3e 16c2 ac3e
00000030: 12d8 6a3f 2126 cf3e f3f0 303f 02a1 413f
00000040: a2fe 483f 30eb 9e3e 0071 503f 3058 c13e
00000050: 8916 a03e 3c47 4340 f88e 5b3e e545 213f
00000060: e87a cd3e 784b 973e 6bc1 1c3f 9d3f 0c3f
00000070: d945 de3e 8264 763e 5eb5 0f3f 385a 8e3f
00000080: be69 443f 82e4 ca3f 5e4a a53f 17a7 973f
00000090: de51 b23f d33a 9d3e 47e8 1f3f f846 0e3f
000000a0: 7224 403f a97f 1d3f 581c 563f 31d7 ba3e
000000b0: 1ed7 aa3e a612 c73f ac83 853e 7b64 fc3e
000000c0: 6b08 943e ec4b 3a3f 4a9b 823e 9b63 b33f
000000d0: f4a1 103e 9e38 0e3f a9cd fc3f b848 633f
000000e0: 9183 1740 2096 e63f dd15 9a3e aab6 633f
000000f0: 4be5 9d3e 5ece af3e 9674 9a3e a1bb 793e
2.0049412 0.6743567 0.37327018 1.4631022 1.3328224 0.64238286 0.22815868 0.19107121
0.66164804 0.22460288 0.33577988 0.33741826 0.9173595 0.40458778 0.6911766 0.75636303
0.7851354 0.3103881 0.81422424 0.37762594 0.31267193 3.0512228 0.21441257 0.62997276
0.40132833 0.29549766 0.6123263 0.54784566 0.43412665 0.24061778 0.5613612 1.1121283
0.7672385 1.5850985 1.291332 1.1847867 1.3931234 0.30708942 0.624638 0.5557704
0.7505561 0.6152292 0.83637 0.36492303 0.33367246 1.5552566 0.2607702 0.4929541
0.28912672 0.727721 0.255091 1.4014772 0.1412428 0.5555514 1.9750262 0.88782835
2.3674052 1.8014565 0.30094805 0.889506 0.30839 0.34337133 0.30167073 0.24387981

block3.0.weight f4 [64, 64, 3, 3]
00000000: 073a ca3c 7841 cc39 59e6 613c ba32 3e3d
00000010: e04b 59bc ebe2 2a3c fdee 93bc ed89 45bc
00000020: 7c81 21bc ae32 173d 343b 0abd 8665 a1bb
00000030: f456 143d e54e 54bd e180 c13b 68db c13c
00000040: a11d 4fbc 2582 333c 7615 f4bc e8ed 32bd
00000050: 801a 01bd e182 673d cab4 443a b544 943c
00000060: 4e81 65bd 4e2d 4fbd 9450 203d ad3c a2bc
00000070: dab7 20bb 0dbc 2abc 9131 d7bc 4130 75bc
00000080: cec9 d43c 1b14 3abc 5b66 95bc 1b04 69bb
00000090: e424 2d3d 0ac6 61bc 32f5 12bd 5518 b63a
000000a0: 542d 9bbc 138a c7bc ce80 273d 8028 14bc
000000b0: 65a4 d2bc 7e0d d13b bdd0 cbbc 0b3a d23c
000000c0: c595 013d 8697 e8bc e103 29bd 7068 e53c
000000d0: f44e bc3b 13c1 2ebd 9da2 6abd 2dea ea3c
000000e0: b00d 99bc 2b0f 353c 624a 943c 2a89 03bb
000000f0: ddb1 25bd a38e c63c bbbe 45bd c0a4 20bd
00000100: 896d fbbc 0a85 f3bc 9d74 44bd 0e31 063c
00000110: fba4 01bd ebc9 9fbc 6589 0abd 58b5 87bc
00000120: 0c9b b33c 3454 c5bc 6bbd b6bc ec92 293d
00000130: 1cde 863a b3fa 8f3c 6cae cc3c 55b3 7a3d
00000140: e961 873c 40ff 18bc 88b2 f13b 92c2 813c
00000150: 137c 8cbc 0f47 4e3a dbeb bebc 86a0 e9bc
00000160: c60d bebc fb7e 41bb 83d2 393c 157f 043d
00000170: 2b1d 2abc b321 36bd 0e38 eb3c 1b53 913c
00000180: b937 5e3d 1671 6d3c e356 17bc 7cfd 89bd
00000190: 052a e6bc 9329 23bd 489a d73c ca94 223b
000001a0: 5c96 43bd 3551 d5bc 2b30 f8bb 33bf afbd
000001b0: 4473 b3bc b3bb 9abc 909d e6bb 5e58 a7bc
000001c0: fba9 2b3d 1c12 f73c b4d2 e8bc 397d 8e3a
000001d0: 83c1 1dbb 86b5 323d 9592 853c 9249 20bc
000001e0: e0d7 5c3b f56e 2dbd 7bd8 22bd 1c0e 21bb
000001f0: 51a1 2bbc a339 82bd c414 a33c ee2a 0fba
00000200: 5035 473b 3070 46bb bedb 30bc 173e f1bc
00000210: ca2d 673c baec 253d c2db 28bd 291f f8bc
00000220: bedf 95bc 0682 bebc 2ecb 0bbd faa3 8f3c
00000230: a0c2 febc 0cbc acbb 4257 dc3c 575e 67bc
00000240: 6c47 5dbb 6d8a bfbb 52b1 0e3d 9b0a 1c3c
00000250: 79bf ed3b d9ae 1b3d fed9 6abc e20d 473c
00000260: 49a8 a6bc b987 03bb 2f4e 4bbd 1b4d 10bd
00000270: 3fce 2ebd e7d2 13bd ca41 8dba 6f34 f93b
00000280: 87bb 54bc c6dc 11bd 857c f53c 233f 5c3d
00000290: 1afc 48bc fc32 8d3c e381 fe3c 2382 07bd
000002a0: 9bdf d2bc 37a9 0bbd b27b 133d 37d0 77bb
000002b0: ca4e 0cbc 4a90 313c b3e2 013d d726 2f3d
000002c0: 89f9 98bc af97 803c 98e6 dcbb 418d cebc
000002d0: af6f 713c 800c 0abd 934b 30bd 394a 88bc
000002e0: a229 40bd cfd2 473c 6116 45bd b0a0 0f3b
000002f0: 5623 96bc b7dc 343d 022f 333d 41b9 013d
00000300: 33e0 583c c968 6a3d 3495 07bd 8000 123a
00000310: 7012 0f3b 7907 d63c 42a9 063c 4c05 60bc
00000320: f7ab 223c a1b9 b6bc 7aa5 993c e3c6 b03c
00000330: 42e5 a33c 416e e4bb 300a 58bc 0289 833c
00000340: 184b 1a3d 161f 9f3c a7b9 ecbc b162 39bd
00000350: 4987 223c 70a2 84bb 6759 b53c 7f0f c73c
00000360: fa85 063d 375c b3bc ad6a 143d 7598 223d
00000370: 3e3b b1bc 3aad f9bc d11c d1bc 081a 56bc
00000380: f273 64bc 1140 cd3c 70fc b1bc d6b6 4e3d
00000390: 91d9 88bc 5eb6 debc 6977 bd3c cfad e0bc
000003a0: 9513 42bc d957 1a3d ff08 9abc 9976 adbc
000003b0: 4004 a23c 92d4 acbc c9f3 69bc adf7 2b3d
000003c0: 2d8d 16bb 42fa b4bc d04f e83c f86d 38bd
000003d0: df6d 44bc 4c82 04bd 0ca1 45bd 98e0 ddbc
000003e0: 9e4d d93c fecd 1dbd 0549 63bd 37de 45bc
000003f0: 62e4 4e3b fbfc 283b 4c45 adbc 6bb2 79bc
0.024685873 0.0003895869 0.013787829 0.046435095 -0.013262719 0.010430078 -0.018058294 -0.01205681
-0.009857532 0.036913566 -0.033747867 -0.0049254326 0.036215737 -0.051833052 0.005905256 0.023664191
-0.012641341 0.010956322 -0.02979539 -0.043683916 -0.031519413 0.0565213 0.00075037463 0.018099168
-0.056031518 -0.050580315 0.039139345 -0.019804323 -0.0024523647 -0.010420811 -0.026268752 -0.014965118
0.025975134 -0.011357333 -0.018237283 -0.0035555426 0.04227151 -0.013780126 -0.035878368 0.001389275
-0.018942513 -0.024357831 0.040894322 -0.009042859 -0.025713155 0.006379782 -0.024879808 0.025662443
0.031636972 -0.028392565 -0.041263465 0.028003901 0.0057467166 -0.0426646 -0.057283986 0.028676117
-0.018683285 0.01105098 0.018101875 -0.002007077 -0.040452827 0.024237936 -0.048277598 -0.039219618
-0.030691879 -0.029726524 -0.047962774 0.0081904065 -0.03165148 -0.019505462 -0.033822436 -0.016565964
0.021924518 -0.024088003 -0.022307118 0.04139988 0.0010289582 0.017575597 0.024985515 0.06120618
0.01652618 -0.0093382 0.007376019 0.015839849 -0.017149007 0.0007868865 -0.023305824 -0.028518926
-0.023199927 -0.002952515 0.011341694 0.032347757 -0.010382931 -0.04446573 0.028713252 0.017739823
0.05425236 0.014492294 -0.009237024 -0.067378014 -0.028096208 -0.03983457 0.026318684 0.0024807923
-0.047750816 -0.0260397 -0.0075741014 -0.0858139 -0.021905549 -0.01888833 -0.007037826 -0.020427879
0.041910153 0.030160002 -0.028420784 0.001087106 -0.002407164 0.043630145 0.016305247 -0.0097831655
0.0033698007 -0.042342145 -0.039757233 -0.002457506 -0.010475473 -0.063586496 0.019907363 -0.0005461414
0.0030396767 -0.0030279271 -0.010794578 -0.029448552 0.014110038 0.040508963 -0.041225202 -0.030288296
-0.018295165 -0.02325536 -0.034129314 0.017534245 -0.031098664 -0.0052714404 0.026897077 -0.014121613
-0.0033764495 -0.005845359 0.034837075 0.009524013 0.0072554913 0.038008545 -0.0143342 0.012149306
-0.020343916 -0.002006991 -0.04963511 -0.035229784 -0.04267716 -0.036089804 -0.0010777053 0.0076051275
-0.012984163 -0.035610937 0.029966602 0.05377115 -0.012267137 0.017236225 0.031067794 -0.033083092
-0.025741389 -0.034096923 0.036006637 -0.0037813315 -0.008563707 0.010837624 0.031710338 0.04276165
-0.018673675 0.015697328 -0.006741356 -0.02521384 0.0147361 -0.033703327 -0.043040823 -0.016636955
-0.046914704 0.012196257 -0.048117045 0.0021915846 -0.018327396 0.044155803 0.043746002 0.031670813
0.013237047 0.057228837 -0.033101276 0.00055695325 0.0021831058 0.02612661 0.008219065 -0.013673138
0.009928695 -0.022305312 0.018755663 0.021579212 0.02000678 -0.006971151 -0.013186023 0.016056541
0.03766927 0.019424003 -0.02889712 -0.045260135 0.00991995 -0.0040476844 0.022137357 0.024299381
0.032842614 -0.021894557 0.036234546 0.039696176 -0.021634694 -0.030478109 -0.025526436 -0.01306773
-0.013943659 0.025054963 -0.021726817 0.050467335 -0.016705306 -0.027186569 0.023128228 -0.027426628
-0.011845489 0.037681434 -0.018803118 -0.021174716 0.019777417 -0.021097455 -0.014279314 0.04198425
-0.002297233 -0.022091988 0.02835837 -0.04502675 -0.011989086 -0.032350823 -0.04824929 -0.027084634
0.026526269 -0.038526528 -0.05548956 -0.012076906 0.0031569232 0.0025785554 -0.021151207 -0.015240292

block3.0.bias f4 [64]
00000000: 9c2d 503c 34ae 0ebd 1fd0 17bd 109e ea3c
00000010: 9fe5 223b 7f41 203d 6c70 f0bc f9e3 063d
00000020: f9bd 353c d6d1 f3bc 2d17 0abd bbc2 843c
00000030: 31cb 8bbc 98c4 453b a695 283d d595 a6bc
00000040: 1a5a fdbc d4a0 273c e82d 5fbc 8aaa 06bd
00000050: 3990 13bd e715 a9bc 5ff7 16bd a792 28bd
00000060: 96a3 12bd c410 d4bc 58a9 bebc d97b 5e3c
00000070: d794 d8bc 22e4 f53c 6648 023c 46f2 c43b
00000080: d46b b13c e63c ca3c 9e94 a03c 6f98 253d
00000090: 4251 393b 9f6c c93c 2076 74bb 8fd2 cdbc
000000a0: 748e 1bbd 29ab 5ebb 1928 1cbd 13c7 d1bb
000000b0: 55e1 5d3b 535e eb3b 64f7 6dbc dc00 9cbc
000000c0: b569 a73c e268 833c 2e3e 88bc 7f81 273d
000000d0: e1c6 01bd 488c fe3c 850d 1bbc 8d87 cebc
000000e0: 706d 4e3c 84eb cabc 139b 4c3c 402e 0fbd
000000f0: 87dc ca3c 2d34 fbbc b374 a2bc 5bc1 f6bc
0.012706187 -0.0348341 -0.037063714 0.028639823 0.0024856103 0.039124962 -0.029350482 0.032932255
0.011092656 -0.029763144 -0.03371351 0.016206136 -0.017064663 0.0030176993 0.04115834 -0.020335117
-0.030926753 0.0102312155 -0.013621785 -0.032877482 -0.036026213 -0.020640327 -0.036857005 -0.041155484
-0.03580054 -0.0258869 -0.023274109 0.013579332 -0.02643816 0.030016009 0.007951831 0.0060103266
0.021657862 0.024687242 0.019602116 0.040428575 0.0028277193 0.024587927 -0.0037301853 -0.025124816
-0.03797765 -0.003397653 -0.038124178 -0.0064019053 0.0033856232 0.007182875 -0.014524315 -0.019043379
0.020436147 0.016041223 -0.016631212 0.04089498 -0.031683806 0.03107275 -0.0094636725 -0.02521112
0.012599334 -0.024770506 0.012488144 -0.034956217 0.024763359 -0.030664528 -0.019831037 -0.030121496

block3.1.weight f4 [64]
00000000: 0c55 763f 393f 7f3f 322a 823f f482 803f
00000010: 82ac 743f 1125 7d3f 570b 823f c905 803f
00000020: cbf5 843f 5fab 7a3f 90ff 7a3f 157d 753f
00000030: 1b9a 7f3f 8201 7e3f c034 713f f434 7a3f
00000040: ee7c 773f 727b 803f 41e1 7c3f 5f97 763f
00000050: def4 753f 0217 743f 1eef 723f b6b1 833f
00000060: b0de 753f 3804 7f3f c6ca 813f 0ee4 753f
00000070: 9ea1 7c3f 24b6 7f3f 2b3d 843f 3e44 823f
00000080: a9ae 733f af1a 713f 4573 7f3f a57e 773f
00000090: afd9 783f 573d 7c3f 014b 843f 9ecf 6d3f
000000a0: 804a 813f 4dc1 7d3f 3723 823f d890 7b3f
000000b0: 1e08 7f3f d410 7a3f d45a 823f 3e13 7e3f
000000c0: fc1a 823f 700b 7a3f 9a1a 813f 6cc3 773f
000000d0: 1f9a 803f 6e19 7d3f d3b1 733f a674 7d3f
000000e0: 5826 7b3f a1cb 7b3f 93a2 753f 0802 823f
000000f0: c8d3 793f 17ac 813f f505 833f c24b 813f
0.9622352 0.99705845 1.0169127 1.0039964 0.95575726 0.98884684 1.0159711 1.0001765
1.038751 0.9791774 0.9804621 0.95893985 0.9984452 0.9922105 0.94221115 0.9773705
0.96675 1.0037673 0.9878121 0.96324724 0.9607676 0.9534761 0.94896114 1.0288608
0.9604292 0.9961581 1.0140007 0.9605111 0.9868411 0.998873 1.0331167 1.0177076
0.95188385 0.9418134 0.9978526 0.9667762 0.9720716 0.985311 1.0335389 0.92894924
1.010086 0.9912308 1.0166997 0.9826789 0.9962176 0.9768193 1.0183969 0.9924811
1.0164485 0.976737 1.0086243 0.96782565 1.0047034 0.9886693 0.95193213 0.99006116
0.9810538 0.9835759 0.95951194 1.015687 0.9758878 1.0130643 1.0236193 1.0101244

block3.1.bias f4 [64]
00000000: b9d5 3dbd 798b 60bd 5638 f8bd 75f2 f3bd
00000010: 5ac2 c6bd 8160 8ebd 6579 d4bc da1a 79bc
00000020: 2a40 9fbd 5333 60bc cba5 04bd fff1 97bd
00000030: 8127 71bd 4f51 8bbd cd6b 83bd b7f1 00bd
00000040: 99f4 5dbd 00fe adbd 31b4 26bd 58f9 91bd
00000050: 76e4 8ebd 3c16 96bd b380 c2bd 111d 89bc
00000060: b87e e1bd ac5b 59bd 398f 0cbe 6bb0 55bd
00000070: 35cf 85bd 20c9 dfbd 8113 8ebd 7f90 42bd
00000080: 2431 37bd 6f01 2cbd c679 8abd c571 17bd
00000090: add4 28be 0b73 4bbd cdbe eebd 42f1 12bd
000000a0: 8d8e 9ebd 8f11 7dbc b5ad 12bd 3bad 92bc
000000b0: 36fb c5bc 6353 53bd e3d0 bebd 8be7 bebb
000000c0: ac43 333c b50a 86bd 9fef 9ebd 75bb 04bd
000000d0: 5fac 7ebd 9f8b b9bd 6926 26bd 0a7f 5abd
000000e0: 4608 cebc f722 8bbd 99aa 0abd ecfd 3abd
000000f0: 57a4 5bbd 4d10 96bd 8b42 20bd f809 0ebe
-0.0463464 -0.05482051 -0.1212012 -0.119114794 -0.09705038 -0.069520004 -0.025936792 -0.015204156
-0.0777591 -0.013684112 -0.032384675 -0.07419204 -0.058875564 -0.06802618 -0.06417046 -0.031480517
-0.054188345 -0.08495712 -0.040699188 -0.07127637 -0.06977169 -0.073284596 -0.09497204 -0.016737493
-0.11010498 -0.05306594 -0.1372651 -0.0521702 -0.06533662 -0.109270334 -0.06937314 -0.047501083
-0.0447246 -0.041993555 -0.06761508 -0.036973733 -0.1648738 -0.04967026 -0.11657486 -0.035874613
-0.07742033 -0.015446081 -0.03581019 -0.017904868 -0.024167638 -0.051593196 -0.09317186 -0.005825942
0.010941427 -0.06545011 -0.07760548 -0.032405335 -0.062176105 -0.09059834 -0.040563975 -0.05334381
-0.02515043 -0.067937784 -0.0338541 -0.045652315 -0.053623524 -0.07327328 -0.03912596 -0.1387099

block3.1.running_mean f4 [64]
00000000: 0a36 37bf cad8 85bf f2c1 66bd 2be7 6cbf
00000010: 74b4 8fbe 9e2b 32bf 7ab9 06bf 7889 5cbf
00000020: 9581 123f 8d6d 0a3f 6368 a93c 9eba 4ebf
00000030: 3892 b3bd db47 6dbf 5b67 2dbf f8f2 e4bd
00000040: 6c69 11bf 1145 a0bf c326 f3be fee5 2dbe
00000050: d241 d8be fee4 39bf 3612 1abf 31cb 90bf
00000060: 806e e7be 262d 40bf c109 d9be 9bcd 79bf
00000070: e14c 7b3d c3fa dcbe 0da2 eebe 3236 08be
00000080: 6f0e cfbe 350f 3dbe 4740 803d 6b5b 7ebf
00000090: a340 98be d757 c8bf 7e1a c1be f38c 71bf
000000a0: 7b2e a03d ed83 55bf 3fc2 a2bf dc83 3a3f
000000b0: a3ef 24be c2d4 27bf ac25 2abf 1e8f 24bf
000000c0: d3e2 1f3f 96eb 803d b7f9 7abe b6e1 dabd
000000d0: a587 d6be f5b5 bfbe d4ec 9dbe 2d17 a8be
000000e0: db56 17bf 7ae9 55be 1320 36bf 73d6 b5bf
000000f0: 4278 8abf 0fb2 5abf e207 3ebf 4716 3ebf
-0.7156683 -1.0456784 -0.056337304 -0.92540234 -0.28067362 -0.69597805 -0.52626765 -0.8614726
0.57228976 0.5407341 0.020679658 -0.80753505 -0.087681234 -0.9268777 -0.6773583 -0.11179155
-0.56801486 -1.2521077 -0.4749051 -0.16982266 -0.42237717 -0.7261504 -0.6018404 -1.1312009
-0.45201492 -0.7506889 -0.42390254 -0.97579354 0.061352614 -0.43160066 -0.4660801 -0.13301924
-0.404407 -0.18462832 0.0626226 -0.9935824 -0.29736814 -1.5651807 -0.37715524 -0.94355696
0.078213654 -0.8340443 -1.2715529 0.7285745 -0.16107039 -0.6555902 -0.6646373 -0.6428088
0.6245548 0.062949345 -0.24509321 -0.10687582 -0.41900364 -0.3744351 -0.30844748 -0.32830182
-0.59116906 -0.20889845 -0.7114269 -1.420607 -1.081795 -0.85427946 -0.7423078 -0.7425274

block3.1.running_var f4 [64]
00000000: af62 343f 3df3 ef3e 365c 2b3e d7bd 5f3e
00000010: 0f94 ae3e 585c c53e 9e6e 7c3e eccd db3e
00000020: 5b7f 4c3e 6fe7 d83e e65e 973e a626 153f
00000030: 0ae6 883e 3ea0 403f f2b3 033f 4504 0b3f
00000040: 80d3 e83f 3331 cc3e 8e25 5e3e 0137 5e3e
00000050: f320 ef3e c84e 5c3f d6a0 e73e 3474 063f
00000060: 5359 fc3e 336e a13e 84a3 8b3e ed45 353f
00000070: 432f 9d3e 6e1f 8c3e 0336 0e3e f977 3f3e
00000080: 928f 773f e0fe 6c3f 3d95 e43e f1dc fb3e
00000090: 53b4 943e c669 1f3f b1ca 043e e424 513f
000000a0: aefd 673e 9cfa 9c3e 4bff f53e 5b59 5f3e
000000b0: 8ef3 003f dff0 013f 1b22 ee3e d6c2 ac3e
000000c0: 518b 333e 47a1 cd3f 4576 873e 75ba 6f3f
000000d0: cf02 bc3e 8d42 813e cdeb bf3e 62c4 0e3f
000000e0: 4b10 1b3f c035 463e b262 343f c5ff 073f
000000f0: 3c2e a83e 5421 dc3e 201d 5d3e d3ef 813e
0.7046308 0.46865264 0.16734394 0.21849762 0.34097335 0.38547015 0.24651572 0.42930543
0.19970457 0.4236407 0.2956459 0.582621 0.26738006 0.7524451 0.5144645 0.5430339
1.8189545 0.39881286 0.21694013 0.2170067 0.46704826 0.8605771 0.45239896 0.5252106
0.492869 0.31529388 0.2727319 0.70809823 0.3070012 0.2736773 0.13887791 0.1869811
0.96703446 0.9257641 0.4464511 0.49192002 0.29043826 0.6227077 0.12967946 0.81696916
0.22655365 0.3065995 0.48046336 0.2181143 0.50371635 0.50758165 0.46510395 0.33742398
0.17533614 1.6064843 0.2645742 0.93643886 0.36720893 0.25246087 0.3748459 0.55768406
0.60571736 0.19356441 0.704631 0.5312465 0.32847774 0.42994177 0.21593142 0.25378284

block4.0.weight f4 [64, 64, 3, 3]
00000000: 682d a4bb 7018 123c f306 5cbc 04f0 53bb
00000010: c003 933c 8539 b73c dc4e 143d 3275 033d
00000020: 8e4b 063b 25db 5abd f845 38bc 8dab 84bd
00000030: 177c 7dbb e45e a83a 46f3 7cbc f270 4dbd
00000040: 4a69 8dbc d450 34bd 6807 623d d9ed f23c
00000050: 0c8b e73c 70bf 023d 6313 fa3c 3c28 263d
00000060: 2dcc 373d 400f e33c 0ed9 f33c 9d0e ac3c
00000070: 8789 103c fdff d2bb 964e e93c fa62 ee3c
00000080: fc27 c8ba 2043 903b ab4a d73c f0c8 c63b
00000090: 8a15 66bc 12b4 c4bb 8589 7abc d976 e13c
000000a0: eac9 6abb d3ba 343c 5e71 c53c 1db8 e83c
000000b0: c91c a9b9 a7d3 8d3b d7fa 1e3d 1127 6f3d
000000c0: 1d58 ac3c 68d8 443c ef88 ff3c 2b12 f3bc
000000d0: ff1f 123d c55b e93c 110f 21bc 183e 06bb
000000e0: 8bef 02bc 9a41 86bc 5960 683a 8084 9039
000000f0: 22de 5fbc 5358 1e3c 8ae0 0cbd 47df b03c
00000100: a6dc 29bc 8c5f 693c 67b3 0f3d df9b 663c
00000110: 1f3d 50bc 46bd 463a 5a72 3e3c 3bf5 563c
00000120: 3b2f 793b b789 e6bb 39a6 76bc d23d 323c
00000130: 38db 16bd 7556 96bc 8c3d 863c 8a5f 37bc
00000140: 4dbe 6c3c 8eb3 b3bc c2f9 14bc 92fd 96bc
00000150: 33e6 09bc 20c1 95bc a321 debb 65f2 d4bc
00000160: b283 773b 1e12 5abd 9dc6 c8bb ef27 92bb
00000170: e796 873c 491b 0abd c8b2 883b a4d4 333b
00000180: 2a5e b3bc ec5f 23bc 379c bbbb 5f45 403c
00000190: e117 a23c e843 1a3c 6c24 e73c c8b7 8e3c
000001a0: 37dd 2b3d 5407 4d3d 4e04 4d3c 5085 093d
000001b0: ea04 1a3c 804a 593b 6dd2 c83c 8203 a6ba
000001c0: 135a 993c 8767 7aba fda9 923c 479f 833c
000001d0: a5a0 903c 0b99 963c 6a4e 693b d947 b0bc
000001e0: 3fee f03c 0717 25bc a68d c0bc 3929 eabc
000001f0: dba1 cb3c 57ea 213d 5abd f7bc 835e 2b3d
00000200: d66a 193d 4d08 92bc bdf2 833c 774d cb3b
00000210: 1c24 aa3a f4cd 3b3d ef9f ae3c 6f88 0ebd
00000220: 2e9c 18bd 7dc0 febc bb48 1fbd 2aab 07bc
00000230: 77c7 bcbc 443c eebb 5db5 41bd 50b9 67bc
00000240: 5763 273b 9240 173c 6deb 053a 0f97 abbb
00000250: 13f4 90bc f49f d73c 9d96 76bd 151c 26bd
00000260: cbaf fd3c de0f 613c 19d5 87bc 63e5 aebc
00000270: 4ce4 a1bc c9e2 b13c fb0d 91bc 4a02 a4bc
00000280: e980 debc 3be3 a6bc ca6a 0b3d 5283 fd3c
00000290: 52a2 f03c b9fd 833b cbf5 b63c a1b6 963c
000002a0: f9a1 d53b 2c20 e63c a694 ba3c b07c 7a3c
000002b0: 29fa 253b 4d8d 95bc e954 1e3c d594 b3bc
000002c0: a9a0 54bc 8579 d03c 99fd 92bc 8053 303b
000002d0: 0a86 d13c dba8 dc3c c71d 803d ae79 b23a
000002e0: 7a67 4bbc 2f06 373c dbb0 053d 793f c53c
000002f0: 6bc0 e83c 69ae 833b 4ea2 3c3d ff0f 093d
00000300: ccc8 003d 1953 b43c c32a 2e3c e2d0 a2bb
00000310: 980e 83bb 46dc 793d 2823 a3bc a03e 6ebc
00000320: 0ded 283d 9221 aebc b904 90bc b6d4 013d
00000330: 53d8 acbb d0a5 873b 650f 313d 9b98 4fbd
00000340: 93c7 91bc b514 743b b2a7 8ebc 79ac 9b3c
00000350: 5175 77bc 3103 13bd f604 923c 54d7 01bd
00000360: c6c5 8f3d 4635 153d 5fe1 0d3d 8749 3c3b
00000370: b878 773c 3e24 353d 3f52 433d 76ec 223c
00000380: 4022 9c3c 7298 75bd 76fb 29bd b877 70bd
00000390: 02a1 d5bb 1097 2b3c 0494 9ebc 9b82 92ba
000003a0: b21a 0e3c efc2 88bc b2e7 61bc 95c2 3ebb
000003b0: 6de1 37bc 9409 a83b 40b9 cebc e9ac 92bb
000003c0: 2c6c b1bc 7827 6f3a 4e86 233c e656 babc
000003d0: 2cdc 40bc 3bf5 56bd 4177 38bd b02b 2b3c
000003e0: 5013 6d3b a959 36bd 8b18 d53a f248 e5bc
000003f0: 9196 863d 024f a93c 5742 1a3d acce 6a3d
-0.0050102957 0.008916959 -0.013429391 -0.0032339105 0.017946124 0.022366295 0.03620802 0.032094188
0.0020491811 -0.05343165 -0.011247151 -0.06478033 -0.00386787 0.0012845662 -0.01543886 -0.05015654
-0.01726212 -0.044022396 0.055182844 0.02965443 0.028264545 0.03192085 0.030526822 0.040565714
0.04487245 0.027717233 0.029766586 0.021003062 0.008821852 -0.0064392076 0.028479856 0.02909993
-0.0015270705 0.004402533 0.026280722 0.006066434 -0.014043221 -0.0060029114 -0.015291576 0.027522491
-0.0035825917 0.0110308705 0.02410191 0.028408105 -0.00032255639 0.0043282094 0.03881344 0.058386866
0.02103811 0.012014486 0.031193225 -0.02967175 0.035675045 0.028486142 -0.009830252 -0.0020483788
-0.007991682 -0.016388703 0.00088644546 0.0002756454 -0.0136638 0.009664613 -0.034393825 0.021590842
-0.010367548 0.014243972 0.0350832 0.0140752485 -0.012709885 0.00075813045 0.011623943 0.013119991
0.0038022536 -0.00703546 -0.015054279 0.010878997 -0.036830157 -0.018351773 0.01638677 -0.011192212
0.014449668 -0.021936204 -0.00909275 -0.018431459 -0.0084167 -0.018280566 -0.006778912 -0.025994489
0.0037767706 -0.053239934 -0.006127192 -0.004460327 0.016551448 -0.033717427 0.004171703 0.0027439976
-0.021895487 -0.0099716 -0.0057254094 0.011735289 0.019786777 0.009415604 0.02821561 0.017421618
0.041959014 0.050055817 0.012513233 0.033574402 0.009400586 0.0033155978 0.024514401 -0.001266584
0.018719709 -0.000955217 0.017903322 0.01606716 0.017654726 0.018383523 0.0035599717 -0.021518635
0.02941048 -0.010076291 -0.023505043 -0.02858411 0.024857452 0.039530125 -0.030241657 0.04183818
0.037455402 -0.017826224 0.016106958 0.006204303 0.0012980732 0.04585071 0.021316497 -0.034798082
-0.03725832 -0.031097645 -0.03888772 -0.008280555 -0.023044331 -0.007270368 -0.047292102 -0.014143303
0.002554139 0.009231703 0.00051086285 -0.0052365134 -0.017694509 0.026321389 -0.06020223 -0.040554125
0.030967614 0.013736693 -0.016581105 -0.021349614 -0.01976218 0.021714585 -0.017706862 -0.020020623
-0.027161079 -0.020372024 0.03403739 0.030946407 0.029374275 0.004028049 0.022334 0.018397631
0.006519553 0.028091513 0.02277596 0.015288517 0.002532611 -0.018255854 0.009663799 -0.021921555
-0.0129777575 0.02544857 -0.01794319 0.0026905239 0.02557661 0.026935985 0.062556796 0.0013616586
-0.012414807 0.011170908 0.032639366 0.024078118 0.028412065 0.004018594 0.046053223 0.03346252
0.031441495 0.02201228 0.010630312 -0.0049687484 -0.0039995424 0.061001085 -0.019914225 -0.014541298
0.041241694 -0.021256242 -0.017580377 0.031696998 -0.0052748113 0.0041396394 0.043227572 -0.050682645
-0.01779536 0.0037243788 -0.017413948 0.01900314 -0.015103654 -0.035891715 0.017824631 -0.031699494
0.07020144 0.03642776 0.03463876 0.002873035 0.015104465 0.044224016 0.047685858 0.009944072
0.0190593 -0.059959836 -0.041499577 -0.058707923 -0.006519438 0.010473028 -0.019357689 -0.001117784
0.008673357 -0.016694514 -0.013788151 -0.002910768 -0.011223179 0.005128095 -0.025234818 -0.004476179
-0.021658026 0.0009123008 0.009980751 -0.022746515 -0.011771243 -0.052479964 -0.045035604 0.010447428
0.0036174841 -0.0445191 0.0016257925 -0.027988885 0.06571687 0.020667557 0.037660923 0.057326004

block4.0.bias f4 [64]
00000000: 453f e63c e74c c83c b21d 8f3b da12 f83c
00000010: bcfb fbba 0fa2 80bb 52d5 0e3d a0ad c83c
00000020: 4e9c f4bc dee9 0b3c 47bf 11bd aa0a 2fbd
00000030: 5f35 a4bc 5f03 ff3b 2050 873a 2d5b ca3b
00000040: 4158 10bd e618 ea3c 69cf f63c 1215 1abc
00000050: aeca f03b 90de 073d ae30 d93b 45b3 123d
00000060: 1e63 ef3c 5b95 1f3d 3043 86bc 9c75 08bd
00000070: 0047 3d3c e187 3cbc 92ec 14bd 527c a3bc
00000080: 1660 103d b05b 92bb fec7 a23c 50f9 1ebd
00000090: 2f8d 04bc 8fdf aa3c c0b5 1fbb 8e36 94bc
000000a0: e50f 663b f92b b3bb 839b 8dbb 524c 9d3c
000000b0: a23d b03c 50d6 b53c 0fe2 bf3c 3dfe e43c
000000c0: e514 273c 0f73 183d 1bde 6b39 e1a8 59bc
000000d0: 7884 f83c 83e1 123d 09ba 9e3b 4f1b 9dbc
000000e0: 5c2f 333c e87b 983c edde a23c c4b2 103d
000000f0: 5e32 b2bb b825 d9bc 8de9 99bc 62b3 de3c
0.028106341 0.024450732 0.0043675536 0.030282427 -0.0019224803 -0.003925569 0.034871407 0.024496853
-0.029859688 0.008539645 -0.035582807 -0.04273478 -0.02004498 0.0077823843 0.0010323562 0.00617542
-0.035240415 0.028576326 0.030128198 -0.009404438 0.00734838 0.033171237 0.0066281175 0.035815496
0.029222067 0.038960796 -0.01638946 -0.033315286 0.011552572 -0.011507005 -0.036358424 -0.019956741
0.035247885 -0.0044664964 0.019870754 -0.03881198 -0.008090301 0.020858554 -0.0024369806 -0.01809242
0.0035104689 -0.0054678884 -0.004321517 0.019201431 0.021513764 0.022196919 0.023423223 0.027953262
0.010197853 0.037219103 0.00022494087 -0.013284893 0.030336604 0.035859596 0.0048439545 -0.01917806
0.010936584 0.01861377 0.01988169 0.035326734 -0.005438133 -0.026507244 -0.018788124 0.027185146
